serology/results_intermediate_encoders_2/pretrained_models/5fold/pre_trained_classifier_adverse_1.pt (torch, 18016 bytes, 20 tensors)

weight f4 [32]
00000000: 742f 723f f1eb 773f 2b88 833f 5cae 6b3f
00000010: 6a53 763f 38c5 6d3f f1d5 843f 2b9e 7b3f
00000020: 1af3 6c3f 7b14 7b3f 7579 7d3f 3d65 803f
00000030: 21a8 6d3f bd6b 7f3f 26e4 7d3f cc4b 693f
00000040: bd5f 893f 8746 803f ce81 703f da5a 753f
00000050: 80a8 8b3f 395f 8e3f b4fb 883f 466f 823f
00000060: c0e2 823f 11cb 783f 5d53 6a3f 39a5 863f
00000070: 6008 833f a812 823f 6e5a 883f 6603 803f
0.9460366 0.96844393 1.027593 0.92062926 0.9622103 0.92879057 1.037779 0.9828822
0.92558444 0.98078126 0.99013454 1.0030895 0.9283467 0.9977377 0.9917625 0.9113128
1.0732342 1.0021523 0.93948066 0.95841753 1.0910797 1.112281 1.0701814 1.0190208
1.0225449 0.97184855 0.9153345 1.0519172 1.0236931 1.0161943 1.0652597 1.0001037

bias f4 [32]
00000000: d0eb 71bc d3b1 8a3d f0f8 9e3d 29bc d8bc
00000010: 004a c8bc 0580 98bd 90b3 6f3d c760 1ebc
00000020: 18ec 2abd 391e b73c dd0a d43c c01d a7b9
00000030: 8f5f fbbc 056c 363d 6cc1 85bd ccec 4ebd
00000040: aaa1 983d 84bd cebd 5e6d 16bd d44e 6bbd
00000050: 72bc 953d acad 823d a41d be3d 8271 08bb
00000060: 6936 04bd 3d7f dabc 5969 12bd 93f7 303d
00000070: 51d9 453d be36 033d b98f fb3c 7277 b33d
-0.014765695 0.067721985 0.07762325 -0.02645691 -0.024449348 -0.07446293 0.058520854 -0.009666628
-0.041729063 0.022353278 0.025884086 -0.00031874888 -0.030685214 0.04453661 -0.06531033 -0.050518796
0.0745271 -0.10094741 -0.036725394 -0.057448223 0.07311334 0.063807815 0.09282997 -0.002081961
-0.032278452 -0.026672 -0.035745 0.043204855 0.048302952 0.032034628 0.03070818 0.08763017

running_mean f4 [32]
00000000: 4e39 8ebd 68bc 44bd 359a fa3e 3dc4 3a3e
00000010: a78e 883e a75a b63d 9a5f a73e 3fbb b8bc
00000020: f1d6 793e 90f4 fd3e 2d29 30bd b1d4 a0bd
00000030: a42b a0be 6de9 a2be 729c 52be 4404 3abe
00000040: 0947 eebd 557f eabc fcbd f0bb 6561 cfbe
00000050: ba52 16bf 2ffa 763e 71c0 dabe ef20 b7be
00000060: b847 053f 6ad3 34be a12f 06bc 1540 8c3b
00000070: 7e18 aabe 9e7c b6be 7609 08be 10df bfbd
-0.06944524 -0.04803124 0.48945776 0.18238921 0.26671335 0.08904009 0.32690126 -0.022550223
0.243984 0.4960065 -0.04300802 -0.07853068 -0.31283295 -0.31818715 -0.20567492 -0.1816569
-0.11634643 -0.02862517 -0.0073468667 -0.40503994 -0.5871998 0.24118875 -0.42724946 -0.35767314
0.5206256 -0.17658773 -0.008190067 0.0042801 -0.3322181 -0.3564195 -0.13284859 -0.09368718

running_var f4 [32]
00000000: 8173 3840 7be9 7240 af83 5240 ee5d 5e40
00000010: cf19 0140 4878 b33f 242b 9c40 b56a 2040
00000020: 0170 0040 0690 e23f eb22 ef3f ff57 8140
00000030: 0b1d f23f 79e2 5340 f977 4440 f925 9340
00000040: f6a1 8240 43b1 7640 d417 3a40 3d5e 1440
00000050: dffe 7940 ae70 7040 1eba a240 a960 7c40
00000060: c45a e840 1ca5 3b40 396b e13f 157c 8740
00000070: 1df2 8040 1144 1a40 70e0 5e40 f3eb 0240
2.8820498 3.7955005 3.2892873 3.474483 2.0172002 1.4021082 4.880266 2.5065129
2.0068362 1.7700202 1.8682531 4.0419917 1.8915113 3.3106978 3.0698225 4.5983853
4.0822706 3.8545692 2.9077044 2.3182518 3.906181 3.7568774 5.0852194 3.9433997
7.26108 2.9319525 1.7610847 4.2338967 4.029555 2.4104044 3.4824486 2.0456512

weight f4 [16]
00000000: 97d0 543f 69a8 913f 0b70 643f 0f77 613f
00000010: ab1a 943f 840d 8f3f a44e 653f 7df8 5f3f
00000020: 822a 7e3f 9122 743f 6a30 953f f34a 6c3f
00000030: f193 823f af40 7b3f 4726 633f fbf3 793f
0.8313078 1.137952 0.89233464 0.88072294 1.1570638 1.1176 0.8957312 0.8748854
0.9928361 0.95365244 1.16554 0.92301863 1.0201398 0.98145574 0.8873028 0.9763791

bias f4 [16]
00000000: d432 ebbd 6d4f 2a3e 6003 47bd f2f4 0c3d
00000010: a3c8 8c3d ca59 3c3e f992 6dbd 17fc d5bd
00000020: 446d 8fbb c863 fe3d 06e9 a13d f35b d1b9
00000030: 016c 923d c0e9 833d 5487 9fbd 90cf 47bd
-0.11484304 0.16631861 -0.048587203 0.034413286 0.06874206 0.18393627 -0.058001492 -0.10448473
-0.004377039 0.124213755 0.07905774 -0.00039932094 0.07149506 0.06441069 -0.07789484 -0.04878193

running_mean f4 [16]
00000000: 3b7c 1ebe 24c2 503e 9689 2f3e 30ab 81bd
00000010: 59af c6be 7eeb edbe c31e 353e 7869 883c
00000020: 1415 c03c 3e46 65be 1a5e 55be f3cc 62be
00000030: 35ac 29bd e9d4 bebe 0471 61be 6f43 e93e
-0.15477078 0.20386559 0.17142329 -0.063314795 -0.38805655 -0.4646873 0.17687516 0.016651854
0.02344755 -0.22390077 -0.20836678 -0.22148494 -0.041423995 -0.37271813 -0.22015768 0.4555926

running_var f4 [16]
00000000: 6193 0e3f 1bf0 a63f 469c 223f 5791 4a3f
00000010: d60f 873f 6847 733f 9aef 293f b069 123f
00000020: 3f9b 933f 70cc b53f bea8 ad3f f1f9 983e
00000030: 70ec a03f 5089 0f3f fae6 d23e 50af d13e
0.5569363 1.3042024 0.63519704 0.7912802 1.0551708 0.9503083 0.6638123 0.57192516
1.1531752 1.4203014 1.3567121 0.2987819 1.2572155 0.560689 0.41191846 0.40954065

weight f4 [8]
00000000: bae2 a03f fce7 9a3f 6185 a63f 5f2a a63f
00000010: 51cf a33f e236 9a3f 2d2a a23f c01d a33f
1.2569191 1.2102046 1.3009454 1.2981681 1.2797643 1.2047999 1.2669121 1.2743454

bias f4 [8]
00000000: 0451 833e da96 263e 08ea 463e 7f81 9d3e
00000010: 38e9 923e 1ad1 173e c93d 8a3e 8c60 733e
0.25647748 0.16268483 0.19425213 0.3076286 0.28693557 0.1482586 0.27000263 0.23767298

running_mean f4 [8]
00000000: 4b0f 33bf 067e 423d d9b6 aa3e 4533 22bf
00000010: b16e 58bf 8816 34bc 03c2 4a3c 317e bc3e
-0.6994521 0.047483467 0.33342627 -0.6335948 -0.845439 -0.0109917 0.012375358 0.36815026

running_var f4 [8]
00000000: 9d09 eb3f 29ed a23f beb3 8c3f b221 883f
00000010: b26d b43f 5770 f83e 75e5 a33f e60c b43f
1.8362309 1.2728626 1.0992353 1.0635283 1.4095976 0.48523208 1.28044 1.4066436

weight f4 [32, 32]
00000000: 253c 3b3e 1a31 06be 4100 0b3e 39bb f0bd
00000010: 0828 92bd e106 0c3e 5563 7f3e a114 1c3e
00000020: 29b0 5d3e 6f7c 6e3c 9adf 8d3e d507 923e
00000030: 38a8 243e bd4a 6abe 5f03 dabc 3697 3fbe
00000040: 4000 ed3d ea4d 1bbe e40b 09be c038 d6bc
00000050: dacc 95bd 4802 89bd d289 703d 59db 1e3e
00000060: 5b07 423e f88b cdbd 36e5 dfbb 66cf 0fbe
00000070: bf8a cf3c 9966 5dbe d7f7 bb3d 09cf 33be
00000080: 45ab 75be c1bb 80be 7a1d 57bb b81d 733d
00000090: 212b 9a3c 21c4 7abc 1848 06be a855 6bbd
000000a0: ac3c 6c3d 4d54 38be 5b19 3e3e 610d 3a3e
000000b0: 7800 9e3d fa01 663d 5207 6e3d 56c8 fb3d
000000c0: 779e 813e 30c0 4f3d 6ffe 243e 0002 1c3e
000000d0: 08df 833e 0714 453d 2a6f 393e fca8 313e
000000e0: 236f bbbd ced4 b7bd a384 4bbe 3f1c 203e
000000f0: 26f1 71be 5132 cd3d f7a6 423e 0a0f 243e
00000100: 9881 53be 1b24 843d f706 f3bd 87ab e63c
00000110: c88b 63be 977a 063e c61b 2fbd 5d0b 6c3c
00000120: ef38 f8bd a9f9 b13c 5513 41bd eaf4 d8bb
00000130: c09b 7cbe 48e8 5ebe f71e ebbd be6f febd
00000140: 0fc2 ff3c 552b e0bc da7f 3fbe a67b 62be
00000150: 7239 803b 6853 8a3c f504 563e 5ca8 253e
00000160: 1d01 7e3e a5ad 26be 27e9 19bd f698 663e
00000170: e925 13be 598f 433e 518a 1bbe fe9f 4d3d
00000180: 3146 153e e436 1b3d 30ee 25be 1faf 1cbc
00000190: 6336 cfbd caa5 f9bd 922f 5ebe e453 773d
000001a0: 9bae e93d fd3c 0ebe 88e2 713e 678c fa3b
000001b0: f606 29be 6224 ccbc 2fac e03d c4bc 65bd
000001c0: d8c3 43be 2672 febd e549 6b3d e6b5 073b
000001d0: 5a80 ad3d b89c 84bd 47ed 09be 2f03 2d3e
000001e0: a771 453e a45c 3a3e bcd6 4a3e 7d01 59bd
000001f0: 7252 503e e5de 193e 4364 36be c67d 0bbe
00000200: db13 29be 225c 963d 9830 0fbd 76e6 b6bd
00000210: a65d 22be b926 e33c a246 1a3d a480 f43c
00000220: cfa1 37be d2a1 39bd 3f81 44be ebce 3f3d
00000230: 911b 6cbe 5d1a 04bd dfbb f53b 7dc3 37be
00000240: 46bb aa3c 551c 023d d046 343e ffba 9dbb
00000250: fec5 113e e53a 8f3d 415d f4bd 73c0 8a3c
00000260: 13d5 f53d 4501 20bd cbfe 0bbe c6c0 01bd
00000270: bdaf 283e ed7d e03d d52a 14be 5e3c b33d
00000280: 9147 73be 3424 5bbe cc54 873d 305a 2f3d
00000290: 9a05 9d3d 53d7 07be 7a48 1dbc 2a1f 10be
000002a0: 5338 893d 4ee0 b0bd c696 03be 6e77 2abe
000002b0: f5da 7abc 785e bbbc 1e5f 8bbd 59a7 5c3e
000002c0: ac4b 4dbe ffa1 23be 6b8d 813d 7928 f73d
000002d0: 0613 5fbd 489b 353e 5369 a13d 5f57 143e
000002e0: ce32 463d c5f8 813b 4441 cebb 3715 223e
000002f0: da11 42be 54ec 05be 9929 80be f1dd d93d
00000300: b147 523e d4af 27be 5bbb fe3d 3080 493e
00000310: 3c0f 61bd 0420 3d3d 29e7 9dbd 2862 f1bd
00000320: b1b5 d2bd c69e 44bd 01d2 48bd 331b 6d3d
00000330: 656f 67be f194 403e 337a 19bd f00c a13d
00000340: c193 94bd 442b 4abc f409 023e bf11 903d
00000350: 849e 4e3e b447 3838 2501 2abe abbf 6d3e
00000360: 509b d13c e394 a2bd be13 bd3d 05db 123e
00000370: 1cd5 303d 2cf4 3f3e b858 e43d fd6e 973b
00000380: 8e37 3c3e e030 c83d 2304 9d3c bc7c 793e
00000390: 2d29 a8bc 1c6a e8bb ef80 dc3d b3e1 d8bc
000003a0: 6ef5 0dbd b34e 79be 5b9d fb3d 0c6b 30be
000003b0: 6a2a a7bc d4af 283e e0fe 64be d6b4 213d
000003c0: c22f 993c f261 a1bc 8180 92bc d7b1 123e
000003d0: b643 f23d 5e1d 3fbd 3d2c 1fbe 2520 57bb
000003e0: cf7e 883d 1a9b 023e 8dc5 fabd 4256 9a3d
000003f0: 9c55 5c3e 9311 483e 48eb b1bd beb5 4cbd
0.18284662 -0.13104668 0.13574316 -0.1175446 -0.071365416 0.13674499 0.24940236 0.15242244
0.21649231 0.0145560345 0.27709657 0.285216 0.16079795 -0.22880073 -0.026612936 -0.18710026
0.11572313 -0.1516644 -0.13383442 -0.026150107 -0.07314463 -0.06689888 0.058725186 0.15513362
0.18948118 -0.100364625 -0.006832744 -0.1404396 0.025334714 -0.21621169 0.09178131 -0.17559446
-0.23991115 -0.25143245 -0.0032823966 0.059354514 0.018819394 -0.01530555 -0.13113439 -0.057454735
0.05767505 -0.18000908 0.1856436 0.18169166 0.07714933 0.05615423 0.05811245 0.122940704
0.25316212 0.050720394 0.16112684 0.15235138 0.25756097 0.048114803 0.18108812 0.17349619
-0.09152057 -0.08976136 -0.19874816 0.15635775 -0.23627147 0.10019363 0.19009005 0.16021362
-0.20654905 0.06452199 -0.11866563 0.028157962 -0.22221291 0.13132702 -0.042751096 0.014407006
-0.12120234 0.021725493 -0.047137577 -0.006620993 -0.24668789 -0.21768296 -0.114805155 -0.12423657
0.031220464 -0.027364412 -0.18701115 -0.2211748 0.003913098 0.016885474 0.20900328 0.16177505
0.24805112 -0.16277178 -0.037575867 0.22519287 -0.1436993 0.19097652 -0.15189482 0.05020141
0.14577557 0.037894145 -0.16204143 -0.0095632365 -0.10117795 -0.12189825 -0.21697834 0.06038274
0.114102565 -0.13890453 0.23621571 0.007646132 -0.16506562 -0.024919692 0.109703414 -0.056088224
-0.19117677 -0.12424116 0.05744352 0.0020707785 0.08471747 -0.06475204 -0.1346942 0.16895746
0.19281636 0.18199402 0.19808477 -0.052979935 0.2034395 0.15026434 -0.17811684 -0.13622198
-0.1651148 0.07341792 -0.034958452 -0.08930676 -0.15856037 0.027728425 0.037665017 0.029846497
-0.17932819 -0.04532034 -0.19189928 0.04682819 -0.23057391 -0.032251704 0.0074992026 -0.17945667
0.020841252 0.0317653 0.17605138 -0.0048135514 0.14235684 0.06993655 -0.11931849 0.01693747
0.12003531 -0.03906371 -0.13671415 -0.031677984 0.16473289 0.109615184 -0.14469464 0.087517485
-0.23757769 -0.21400529 0.066079706 0.04281062 0.07667084 -0.13265733 -0.009599799 -0.14074388
0.06700196 -0.08636533 -0.12850484 -0.16647121 -0.0153109925 -0.022872195 -0.068052515 0.21548213
-0.20048398 -0.15979765 0.063258015 0.120682664 -0.0544615 0.17735016 0.07881417 0.14486454
0.048388295 0.003966423 -0.0062944014 0.15828405 -0.18952122 -0.13078433 -0.25031736 0.10638035
0.2053516 -0.16375667 0.12438079 0.19677806 -0.05494617 0.04617311 -0.07710106 -0.117863
-0.10288561 -0.04800298 -0.0490284 0.057887267 -0.22601087 0.18806817 -0.037470054 0.07863796
-0.07254744 -0.012339417 0.1269911 0.07034635 0.20177656 4.3935797e-05 -0.16601999 0.23217647
0.025586754 -0.07938554 0.09232281 0.14341362 0.043171987 0.18745488 0.11149734 0.004621385
0.18380567 0.09774947 0.019167012 0.24363989 -0.020527447 -0.0070927273 0.1076678 -0.02647481
-0.034657888 -0.24346428 0.122858725 -0.17228335 -0.020405967 0.16473323 -0.22362852 0.0394791
0.01869953 -0.019700024 -0.017883541 0.14325653 0.11829321 -0.046658866 -0.1554422 -0.0032825556
0.06664812 0.12754479 -0.12244711 0.075359836 0.21517032 0.19537954 -0.086874545 -0.04997801

bias f4 [32]
00000000: 46bd 6633 6ca3 fdb3 3275 cdb3 60be 9cb1
00000010: 4217 2d34 7874 a333 d37d 0734 ead3 9fb2
00000020: 19f4 d7b3 e171 cf33 9501 ebb4 b434 12b3
00000030: 9466 9932 fad9 3ab4 0dc8 5233 c3ab 3433
00000040: e1e6 37b2 8a70 2bb3 24f7 2734 4324 fdb2
00000050: 2db2 d1b4 0741 c533 172c b631 8bd9 b532
00000060: 8194 1e34 5576 95b3 4aae 39b4 a5b3 5834
00000070: 465e 82b4 4ecc 9a33 28e6 1635 6103 28b4
5.372319e-08 -1.1810957e-07 -9.567374e-08 -4.5618407e-09 1.6120342e-07 7.6114645e-08 1.261863e-07 -1.8606404e-08
-1.0056119e-07 9.659903e-08 -4.3773312e-07 -3.4041207e-08 1.7858191e-08 -1.74019e-07 4.907638e-08 4.2065732e-08
-1.0704498e-08 -3.9916394e-08 1.5642996e-07 -2.9469566e-08 -3.9058924e-07 9.185356e-08 5.3019096e-09 2.11701e-08
1.4768922e-07 -6.959878e-08 -1.7292874e-07 2.0181922e-07 -2.428298e-07 7.2083466e-08 5.6214276e-07 -1.5647448e-07

weight f4 [16, 32]
00000000: c9c9 42be 3605 7a3d 956f 313e 64d4 063e
00000010: 1c5e ebbd 3481 ec3d 4cc7 283e 6a4d 463d
00000020: 7023 06be 52e4 a0be f36d 62be 699f 813d
00000030: 1f15 433e 2926 373e e7b8 943e 027e 0bbe
00000040: 3a77 8bbe 386f 57be d82c 09bd bf00 823e
00000050: df56 7abe daf8 a2be 0802 3d3e ecbe 813e
00000060: c8c8 3cbe af60 20be a9c5 413e a117 8cbe
00000070: 22d2 7ab9 f974 95bd 2c68 2a3e 40a5 333e
00000080: ca56 843e 19fc 93be 83c6 79bd e4df 18bd
00000090: e562 193d 31a4 aabc b992 95bc e075 9e3c
000000a0: 3c11 6ebe f0c9 783e d160 043e e39d cbbd
000000b0: edd6 033e fdf0 1bbe 10e3 da3d a0aa 43bd
000000c0: d429 8dbe 2ae4 8f3e bc28 833d ee9d ebbd
000000d0: 8b1e 963e 3c37 89be f1c0 933e bc88 f23d
000000e0: 1e80 4abe f7d9 31be ff06 063e 0240 3fbe
000000f0: 3683 403e 7dde 763e e47a aa3d 177e d7bd
00000100: f927 3f3e 7499 f63d 0d2f c5bd 96dd 523e
00000110: 0247 d13d da58 5bbd 4e9a 3a3e 6182 bf3d
00000120: 790f 5abe 83ce 65be feec 9bbc d474 91be
00000130: ef3d 443c 2522 393e 7a94 0c3d c679 0bbe
00000140: 9b89 7cbe cf53 02be e161 b63d 42f9 573e
00000150: 2ba6 a33d 7549 3e3e 693c 413d 78d7 853e
00000160: e0ca 63bd e75d b83d d8d9 9f3d 7e4a 95bd
00000170: 8cfe 64be b8eb 2ebe 90c8 8d3d 1ab9 e03d
00000180: d297 46be fe53 d7bd 1991 35bd af00 a0bd
00000190: f673 aa3d 8dc9 5c3d 97b9 713e 75ab 3fbd
000001a0: 031e 333e d8f7 15be 3bfc 2c3e 8a9b 293e
000001b0: f99d 9bbc 294f 4a3e e461 883d 868c 1d3e
000001c0: 8337 f83d 5428 20be a714 45be ca47 92be
000001d0: 6a6b 96ba 999a a23d fd1e 89bc da3b 8cbe
000001e0: 75ea 41bd 9b21 14be 40b7 053d b08e d13d
000001f0: 929b e8bd c11b 273d e4b9 39be 26f6 283e
00000200: 5b25 02be ab61 f6bc 4932 60bd c469 7abe
00000210: cf0d a03d c203 8fbd a7f3 6fbe 33a6 40be
00000220: bdad 293e 5db4 5ebe 25f9 5cbe 5f2f cabc
00000230: 4067 08be 2c3b 5e3e 6773 fd3d c86d 173e
00000240: 620f a3bd 97d6 883d 3215 febd 3b2b 04be
00000250: 17d9 3a3e 1789 4cbe 9d8c 3a3e 2924 2dbd
00000260: a5b0 08be 41a1 823d bdd1 433e 16f0 53be
00000270: 67b2 7e3c b018 0fbd 8046 8a3e 63ad 89be
00000280: da6b 96bd b255 1d3e aef9 563b c133 72bd
00000290: e0cf 8e3d ecb1 ffbc 47ea 39bc 6b19 39be
000002a0: 2a6a 2e3d 1372 323e 5fbb 3dbd 14c5 b7bd
000002b0: e817 35be 4ee1 52be cdf5 44be eb7c 1cbe
000002c0: af9a b43d 8497 46be 04c1 293e c524 983b
000002d0: 8de9 4bbe af71 a6bd e455 58be 39dd 54be
000002e0: ffc3 0d3e 0645 f53c 4243 4a3e 9306 113a
000002f0: 45bb ed3d 8789 b0bd 3279 99be 6f28 c63d
00000300: aa25 3e3e b165 82be cc3b 85be 9a25 0f3e
00000310: 1940 20be 2e79 9e3c 3074 4c3e 0b80 21be
00000320: 8b0c d73d 3a53 8a3d 40b3 613d 9a08 8abe
00000330: a95b 82be 6f56 ff3d 12e4 4b3e 9919 0f3e
00000340: 6625 173e dd36 a63c 5a82 e5bd 2759 27be
00000350: 6039 203e 0938 11be 48c7 823e aaf8 9a3e
00000360: c7c9 8bbe 3457 8bbd 543f 883e 3273 e23d
00000370: a924 08bd c618 bbbd 8b12 edbd a8f4 10bd
00000380: e62d 1b3d 1f09 2bbe 7841 093e 53a0 13be
00000390: 8ce4 d2bd e59b 1a3e a4e8 55be a49a 24be
000003a0: f83f 81bd e33f 743e 3aaa 1bbe 0c23 3dbd
000003b0: d890 8c3e 5f71 ae3d 9219 0fbe 7895 a83b
000003c0: 847a 523e d553 aa3a df8d 523e 1a5b b33d
000003d0: e923 0abe 6c9c 25be 6508 953d 6e1d 3d3d
000003e0: ec55 03be a223 5d3e f8d0 033e ab95 963d
000003f0: 71d5 3ebd 88fa 02be 7a1c 32bd dad9 e8bd
-0.19022287 0.061040126 0.17327721 0.13166958 -0.11492559 0.11548081 0.16482276 0.04841367
-0.13099456 -0.31424195 -0.22112255 0.06329233 0.19051026 0.1788565 0.2904732 -0.13622287
-0.272394 -0.2103852 -0.033490032 0.25391194 -0.24447201 -0.31830484 0.18457806 0.25340974
-0.18435967 -0.15661882 0.18923058 -0.27361777 -0.00023920138 -0.072977014 0.16641301 0.17543507
0.25847465 -0.28903273 -0.06098033 -0.037322894 0.03744783 -0.020830246 -0.01825844 0.019343317
-0.23248762 0.24295783 0.12927558 -0.09942224 0.12874956 -0.15228648 0.1068784 -0.047770143
-0.27570975 0.28103763 0.06404254 -0.11504732 0.29320177 -0.26799953 0.2885814 0.11842486
-0.19775435 -0.17368303 0.13088606 -0.18676761 0.18800053 0.2410831 0.08324221 -0.105220966
0.18667592 0.120409876 -0.09628115 0.20592341 0.10218622 -0.053551532 0.18222925 0.0935104
-0.21294965 -0.22442059 -0.019033905 -0.28409445 0.011977657 0.18079431 0.034321286 -0.13620672
-0.24661867 -0.12727283 0.08905388 0.21091178 0.079906784 0.18582709 0.047176752 0.26140952
-0.0556134 0.090022855 0.07805222 -0.07289599 -0.22362727 -0.17082107 0.0692302 0.10972805
-0.19393852 -0.10514067 -0.04432783 -0.078126304 0.08322899 0.05390315 0.23605953 -0.046794374
0.17491917 -0.14645326 0.16893093 0.1656324 -0.018996226 0.1975676 0.06659296 0.15385637
0.12119963 -0.15640384 -0.1924616 -0.28570396 -0.0011476104 0.079396434 -0.01673841 -0.27389413
-0.047342736 -0.14465944 0.032645464 0.102322936 -0.11357798 0.040797953 -0.18137318 0.16500148
-0.12709562 -0.030075869 -0.054735456 -0.24454409 0.07815134 -0.069831386 -0.2343279 -0.188134
0.16570182 -0.2174849 -0.21579416 -0.024680791 -0.13320637 0.2170226 0.12375527 0.14787972
-0.079619184 0.06681555 -0.124063864 -0.12907116 0.18246876 -0.1997417 0.18217702 -0.042270813
-0.13348635 0.06378413 0.19122978 -0.20697054 0.015545464 -0.034935653 0.27006912 -0.26890096
-0.0734479 0.15364721 0.003280263 -0.059131388 0.06973243 -0.03121277 -0.01134736 -0.18076102
0.042581715 0.17426328 -0.04632127 -0.089731365 -0.17684901 -0.2059376 -0.1923439 -0.15282027
0.08818566 -0.19393736 0.16577536 0.004643055 -0.19913311 -0.08127152 -0.21126515 -0.20787515
0.13844298 0.02994014 0.1975222 0.00055322907 0.116079845 -0.08619981 -0.29975277 0.09675681
0.18569055 -0.2546821 -0.26022184 0.13979188 -0.15649451 0.019344892 0.19966197 -0.15771501
0.10500439 0.067541555 0.055102587 -0.26959687 -0.25460556 0.12467658 0.1991122 0.13974608
0.1476036 0.020289833 -0.11206503 -0.16342603 0.15646887 -0.14181532 0.25542665 0.3026784
-0.2730238 -0.06803742 0.26610816 0.11057128 -0.033238087 -0.091355845 -0.115758024 -0.035389572
0.03788557 -0.16702698 0.1340388 -0.14416628 -0.10297498 0.15098532 -0.20889527 -0.16074616
-0.06311029 0.23852496 -0.15201655 -0.046176 0.27454257 0.085177176 -0.13974598 0.005144771
0.20554549 0.0012994955 0.20561932 0.087576106 -0.13490261 -0.16172951 0.07276992 0.046170644
-0.12825745 0.21595624 0.12872684 0.07352766 -0.046590272 -0.12790883 -0.04348419 -0.11369677

bias f4 [16]
00000000: eca7 a4b4 d185 4db5 dd1d e8b3 5070 fe33
00000010: 27ae beb4 c8c2 c534 abb9 9433 b108 3634
00000020: d916 18b5 607f e1b4 f582 a435 a4eb a6b1
00000030: 7e0f ad35 d71c 6e34 77f1 1f34 57ac 8935
-3.066956e-07 -7.656318e-07 -1.0808774e-07 1.1848226e-07 -3.551697e-07 3.6835831e-07 6.92556e-08 1.6953233e-07
-5.665766e-07 -4.2002193e-07 1.2257066e-06 -4.858025e-09 1.2894013e-06 2.2175969e-07 1.4895873e-07 1.0257453e-06

weight f4 [8, 16]
00000000: 7bfe a23e 886b 013d af6c 0c3e be41 263e
00000010: 137d 44be 1968 1fbe 7e63 dfbe 6dd2 97bd
00000020: d571 bfbe 61e3 973e bf8b fbbe d9a3 233e
00000030: 2437 f7be 3c87 1b3e 95ac b4be f71c 38bd
00000040: 2fc4 a53e 3249 713e 3604 6abe 5370 cb3d
00000050: c5d7 cb3e 7b3d 0dbe 1379 44bc e51b 3bbe
00000060: 8ea8 17be 5514 8fbe 8eb4 373e d420 e0bd
00000070: d877 da3e 5178 b5be f1c6 59be 449d 8cbe
00000080: 301e 833d e9fe a73e 0c42 3b3e 4b73 e53d
00000090: 1c01 1dbd 0057 01be cdbc 863e a798 b5bc
000000a0: 0eb3 9ebc b596 79be f602 733e a9c6 13bb
000000b0: a736 7b3e 720b a7bd 02d6 3c3e 42b6 a5be
000000c0: 8fb6 853e 1b12 04bf 7692 1bbe 851c 9d3e
000000d0: f8e9 d1be 3aa8 b33e ff2f 603e 3c78 82be
000000e0: c9ca 0dbe 8091 9bbe c73d e5bd b8d8 583c
000000f0: 8184 51be 7060 1fbe 3c2a 05be e430 ac3d
00000100: d015 93be 6f04 c2be 287e 5ebe 5e6c 843e
00000110: df20 f1be baa5 b2b9 70f9 fabc a365 583e
00000120: 03ad 87be 43e2 7bbe 68a3 06bf 2329 8abe
00000130: 52ec 843e 64dd ce3d 15f7 e03d 6751 3d3e
00000140: ec0e 873c 6961 48be 4ed1 093e 84fc e9bc
00000150: 53fe 003e 6cd4 14be 015e 2a3c 6e75 1b3d
00000160: a047 193e 427d 17be 99b0 313e 417a cbbd
00000170: ffb3 513e 63b2 6ebe 9cd5 813e a72e 64be
00000180: c4fc 903e 7f75 50bd f68c 3a3e bbd3 b9bd
00000190: f1e0 493d a335 bc3e 6d6b bfbe 1182 4dbe
000001a0: 52e7 bcbe aadd c43e 6107 cfbe 5fa3 b43e
000001b0: 7d42 01be 9d38 883e 21d3 ac3d 30d3 d3be
000001c0: bd71 0f3d 8399 293e 5b19 843e 32fe 45be
000001d0: b71d ac3e b3a3 babd d66a 7bbe c075 f6bd
000001e0: fd39 83bd fa1b 8dbe 1bce d13e 9772 91b8
000001f0: 9de6 cd3e db48 1ebc cff4 153e a5e5 9cbe
0.31834778 0.03159669 0.13713335 0.16236016 -0.19188337 -0.15567054 -0.43630594 -0.074131824
-0.37391534 0.29665664 -0.49130055 0.15980472 -0.48284256 0.15188307 -0.3528792 -0.044949498
0.3237624 0.23563078 -0.22853169 0.099335335 0.39813057 -0.13792984 -0.011991757 -0.1827236
-0.14810392 -0.279452 0.1793997 -0.109437615 0.4266956 -0.35443357 -0.21267296 -0.27463734
0.06402242 0.3281167 0.18286914 0.11203631 -0.038331136 -0.12630844 0.2631592 -0.022167517
-0.01937249 -0.24373896 0.23731598 -0.002254883 0.24532567 -0.0815648 0.18441013 -0.32365614
0.26115844 -0.51590127 -0.15192589 0.3068582 -0.40998816 0.35089284 0.21893309 -0.25482357
-0.13846888 -0.30384445 -0.11193424 0.0132352635 -0.20460702 -0.15564132 -0.13004392 0.08407763
-0.2872758 -0.37894008 -0.21727812 0.25863928 -0.4709539 -0.00034074282 -0.03063652 0.21132521
-0.26499185 -0.24598031 -0.5259309 -0.2698451 0.25961548 0.10100821 0.10984627 0.18488084
0.016486607 -0.19568409 0.1345875 -0.028562792 0.12597017 -0.14534158 0.010398389 0.037953787
0.14968729 -0.14793876 0.17352523 -0.099354275 0.2047882 -0.23310237 0.25358284 -0.22283421
0.28317845 -0.050893303 0.18217835 -0.090735875 0.049286786 0.36759672 -0.37386647 -0.20069148
-0.36895233 0.38450366 -0.40435317 0.35280892 -0.1262302 0.26605693 0.08438707 -0.4137206
0.03502058 0.16562466 0.25800595 -0.19335249 0.3361642 -0.091132544 -0.24552473 -0.12034178
-0.06407545 -0.27560407 0.40977558 -6.935483e-05 0.40215006 -0.009660925 0.14644168 -0.30643955

bias f4 [8]
00000000: 93a2 0334 2cfe 75b5 97dd 3235 5911 bcb4
00000010: ab1f 4434 9ab8 45b5 6c38 de34 f1a8 7234
1.225947e-07 -9.163948e-07 6.6632623e-07 -3.503035e-07 1.8265443e-07 -7.365685e-07 4.1391775e-07 2.2599467e-07

weight f4 [2, 8]
00000000: e5de 34bf 813e 773d 810a 533f d15d 613e
00000010: 9d2b 69bf 6392 66be 8fd1 913e f8ff f4be
00000020: d5e3 813e 3e73 3fbf 944b c63e 5475 483f
00000030: 42f6 93be 12fe 08bf f657 7b3f 4db9 7cbf
-0.7065261 0.060362343 0.824379 0.22008444 -0.91082174 -0.2251678 0.28480193 -0.4785154
0.25369135 -0.7478522 0.38729537 0.7830403 -0.28898817 -0.5351268 0.9818109 -0.98720247

bias f4 [2]
00000000: ab26 19be ab26 193e
-0.14956157 0.14956157
