serology/results_intermediate_encoders_2/pretrained_models/5fold/pre_trained_classifier_adverse_0.pt (torch, 18016 bytes, 20 tensors)

weight f4 [32]
000000 54 f7 7e 3f dd e4 78 3f ad fb 71 3f f0 60 72 3f
       0.9959614 0.9722422 0.9452465 0.94679165
000010 7a d6 85 3f 93 79 74 3f 19 3f 83 3f 93 3a 75 3f
       1.0456078 0.9549801 1.0253631 0.957925
000020 5b bc 82 3f 9d 51 80 3f fc 6c 85 3f ae 6c 86 3f
       1.0213732 1.0024906 1.0423884 1.0501916
000030 62 42 6d 3f e4 48 85 3f 54 ab 7e 3f 5a d3 81 3f
       0.9267942 1.041287 0.99480176 1.0142624
000040 c4 63 83 3f 98 06 7f 3f ac c3 76 3f 49 e0 8e 3f
       1.0264821 0.99619436 0.9639232 1.1162196
000050 f5 0f 7b 3f f8 ac 85 3f 04 6f 6e 3f 2e bc 74 3f
       0.98071223 1.0443411 0.93138146 0.9559964
000060 59 54 72 3f 98 91 82 3f 8f 4e 78 3f 44 bd 75 3f
       0.94659954 1.0200682 0.9699487 0.9599192
000070 fe 46 82 3f 98 b7 75 3f da a5 66 3f 3a ae 87 3f
       1.0177915 0.95983267 0.9009682 1.0600045

bias f4 [32]
000000 1f b6 49 bd 16 9e 34 3c 4f 11 af bc 8a 7e 84 bc
       -0.04924595 0.011024019 -0.021370558 -0.01617362
000010 e6 d3 38 3d 10 c7 91 3c f3 db 41 3b f3 a5 20 3c
       0.045123957 0.017795116 0.0029580563 0.00980519
000020 78 a1 f7 3b 3a a2 bb bc b0 93 43 3d ad 0b a5 3c
       0.0075570904 -0.022904504 0.047748268 0.020147169
000030 f7 3c 08 bd 66 33 6d 3b 9a f2 4c 3a 34 eb f7 3c
       -0.033261266 0.0036193966 0.0007818133 0.03026352
000040 25 0a f2 3b e7 85 16 bb dc a3 c8 bc 89 ff d0 3d
       0.007386463 -0.0022967996 -0.024492197 0.102049895
000050 30 e4 0a bc f6 dd d2 3c f8 d2 8c 3c 70 10 5b bd
       -0.008477256 0.025740605 0.017190441 -0.053482473
000060 6a 75 c5 bc 1b d2 9e bd c7 c8 ac 3c f8 f5 06 bd
       -0.024103839 -0.07754918 0.021091832 -0.032949418
000070 6b c7 3c 3d d5 ec 24 bc 8f 4f 9a bd 73 f3 82 3d
       0.046088617 -0.010066231 -0.07534706 0.063940905

running_mean f4 [32]
000000 b9 a2 bf bc e5 36 ef bd 47 ab 50 be 48 a6 b0 bc
       -0.023393022 -0.11680392 -0.20377837 -0.021563664
000010 17 57 51 be 38 96 aa bd 13 b4 0e bd 79 9d d2 bd
       -0.20443378 -0.08329433 -0.0348397 -0.10283942
000020 ce 39 de 3d 44 25 1d bd d1 56 a6 3c d7 58 35 3d
       0.10850869 -0.038365617 0.02030507 0.044274177
000030 9e 4d ff 3d ef 32 47 be 6d 11 93 3d 31 a3 38 3e
       0.12465976 -0.19453023 0.07181058 0.18031003
000040 9d be 27 bd 9a b1 11 3b 5b 19 25 3d e1 b7 77 be
       -0.040953267 0.0022231103 0.040307384 -0.24191238
000050 55 10 0f be a4 b8 26 3d 6e 6e d7 3c 87 62 90 bd
       -0.13971074 0.04070343 0.026297774 -0.070500426
000060 6c e1 88 3e b4 61 5e 3e cb 37 aa bd ad 4f 0f be
       0.26734483 0.21716958 -0.08311423 -0.13995238
000070 69 a7 c8 3c c0 dc 2a be cb e2 1e be 6f 4d a0 be
       0.02449389 -0.16685772 -0.15516202 -0.31309077

running_var f4 [32]
000000 b8 19 a3 40 61 be 4d 40 6f 06 b6 40 10 08 27 40
       5.0968895 3.2147448 5.6882854 2.609867
000010 f6 a1 0c 40 63 83 dd 3f 3b 46 65 40 9e 0f 5b 40
       2.1973853 1.7305721 3.5824115 3.4228282
000020 6f d8 95 40 66 5d c3 3f 50 d7 28 40 5b bf 59 40
       4.68267 1.5262878 2.6381416 3.4023044
000030 08 e3 09 40 90 2b be 40 c0 f7 24 40 15 f6 a6 40
       2.154482 5.9428177 2.5776215 5.2175393
000040 0e 89 fe 40 6e 4b 90 40 23 cd fa 3f 99 93 8c 40
       7.9542303 4.5092077 1.9593853 4.3930173
000050 5d b9 15 40 cb 44 ec 3f 9c 43 61 40 61 e8 76 3f
       2.3394387 1.8458494 3.5197515 0.9644833
000060 f0 a5 c9 3f 62 0d 6f 40 2e fd 2a 40 d0 f7 80 3f
       1.5753765 3.7351918 2.6717029 1.0075626
000070 9c 37 a1 40 fb 99 0a 40 3a ec b4 3f cb fe 9f 3f
       5.0380383 2.1656482 1.4134591 1.2499632

weight f4 [16]
000000 56 38 62 3f 59 42 7b 3f 2e 6d 88 3f 26 66 72 3f
       0.8836721 0.98148113 1.0658319 0.94687116
000010 5a 7a 62 3f 6d 6f 82 3f 3d e1 69 3f c3 b9 91 3f
       0.88467944 1.0190254 0.9135931 1.1384815
000020 33 1a 72 3f d7 ab 78 3f 61 29 89 3f 1e 4c 82 3f
       0.94571227 0.97137207 1.0715753 1.0179479
000030 eb f7 90 3f af a5 68 3f e6 8d 73 3f cd 6e 67 3f
       1.1325659 0.90877813 0.95138395 0.90403444

bias f4 [16]
000000 2c 88 29 bd 1a 30 5c 3d 59 e2 60 3d 78 26 8a bd
       -0.04138963 0.05375681 0.054903362 -0.067456186
000010 04 8d 88 bd ef 58 c0 3d 06 b7 79 bd bc a4 4b 3e
       -0.066675216 0.09391963 -0.06096556 0.1988706
000020 b9 90 03 3d e3 38 f8 bc c9 cc 9c 3d b4 26 b9 3d
       0.03212044 -0.030300563 0.07656247 0.09040585
000030 71 86 fb 3d 97 58 2e bd ec 7b c9 3c e2 d3 a9 bd
       0.12281502 -0.042564955 0.024595223 -0.082923666

running_mean f4 [16]
000000 40 c7 00 bf fc 87 cd be 60 bd 71 3e 2c 5d 52 bb
       -0.5030403 -0.4014281 0.23607397 -0.0032098992
000010 04 8c de be 97 cc 66 3e a1 3f 59 3d d1 2b c4 3e
       -0.43466198 0.22538982 0.053039197 0.3831468
000020 e5 43 32 b9 1b f0 03 3f 53 c4 66 3d f3 1b 33 bf
       -0.00017000696 0.51538247 0.056339573 -0.6996452
000030 d9 84 c3 3d 0a 1a 97 3e 47 60 dc be 66 d9 f3 be
       0.09546823 0.29512054 -0.43042204 -0.476268

running_var f4 [16]
000000 0d bd 38 3f 95 39 9d 3f 70 a7 69 3f 0e 5d 4c 3f
       0.7216347 1.2283198 0.91271114 0.7982949
000010 5b 95 6c 3e 1f 1e b8 3f 59 68 58 3f 8e 5b 8f 3f
       0.2310385 1.4384192 0.8453422 1.1199815
000020 9d 83 0a 3f cc 30 ed 3f d3 2a 5e 3f 64 c9 94 3f
       0.54107076 1.8530517 0.86784095 1.162396
000030 a5 88 bc 3f f8 50 26 3f 6d f1 53 3f 56 05 02 3f
       1.4729201 0.649673 0.8279026 0.5078939

weight f4 [8]
000000 6a 0a a0 3f 1e f6 a9 3f e9 77 97 3f 5d 77 a2 3f
       1.2503178 1.3278234 1.1833469 1.2692677
000010 ec af 99 3f 2c 10 91 3f 8a 49 a2 3f be af 9c 3f
       1.2006812 1.133306 1.2678692 1.2241132

bias f4 [8]
000000 8c 49 7c 3e 51 5f a7 3e 18 5d 2f 3e 42 d3 40 3e
       0.24637431 0.32689908 0.17125356 0.18830588
000010 43 e6 28 3e be bc ad 3c 13 97 8d 3e 91 da 52 3e
       0.16494088 0.021208163 0.27654323 0.20591189

running_mean f4 [8]
000000 64 53 14 bf 9b 56 9b be a4 df 4b 3f db cc 82 3e
       -0.57939744 -0.30339512 0.79638124 0.25546917
000010 e7 32 83 3d 3e e9 a6 be 41 db d0 be bf 32 24 3e
       0.06406193 -0.32599825 -0.40792277 0.16034983

running_var f4 [8]
000000 d6 cd 13 40 cb 64 97 3f b5 8d a0 3f ba 53 89 3f
       2.3094382 1.1827635 1.2543246 1.0728676
000010 a7 79 83 3f 7e b0 35 3f 2c f8 cd 3f 01 ba 55 3f
       1.02715 0.7097243 1.6091361 0.83486944

weight f4 [32, 32]
000000 50 a6 14 3e b4 ac 67 be 30 a7 67 bd 71 3b ec 3c
       0.14516568 -0.22624475 -0.056555927 0.028836938
000010 d4 49 c9 bc 5e 5b f1 bc e3 26 06 3e 63 c1 7d be
       -0.024571337 -0.029462513 0.13100772 -0.24780802
000020 34 fc a5 bc 9d 99 87 be 90 7a 9a 3d 11 da f2 bd
       -0.020261861 -0.26484385 0.07542908 -0.11857999
000030 6b a2 10 3e 1d 19 6f be bf 35 dc bd 97 14 90 bd
       0.14124458 -0.23349424 -0.10752439 -0.07035177
000040 8c a0 17 3d b3 4c 76 3e 10 ca 23 3e e6 98 37 be
       0.037018344 0.24052696 0.1599505 -0.1792942
000050 b9 04 2a be 1b 23 db bd 82 1a 5f be 9f 0e 45 3e
       -0.16603364 -0.10700055 -0.21787456 0.19243859
000060 f6 58 c6 3d 52 cf 8b bb 23 de 4e 3e 4b 3e f7 3d
       0.09684937 -0.004266658 0.20201926 0.12072428
000070 22 fd 00 bd 99 d0 d1 3c 23 59 09 be 50 ac 82 be
       -0.031491406 0.025612162 -0.13412909 -0.2552209
000080 19 19 06 39 3d b8 1c 3d dd 5c 02 be bf 6b 9e 3d
       0.00012788585 0.03826164 -0.12730737 0.07735395
000090 df e6 33 3e bc 6c 52 be f2 08 83 3e f1 5b 20 3e
       0.17568539 -0.20549291 0.25592762 0.15660073
0000a0 65 db f7 bd ca e7 da 3d 24 0d ea bc 9d bb 08 bd
       -0.12102393 0.106887415 -0.028570719 -0.033382047
0000b0 e8 f8 33 3d f0 40 71 bc 3d be 6f 3e ed bd cf bd
       0.043938547 -0.014724955 0.23412414 -0.10143647
0000c0 66 b3 a5 bd 95 f0 2a be 15 f5 de bd 5e 1a 94 bc
       -0.08090858 -0.16693337 -0.108865894 -0.01807898
0000d0 ed e8 64 3d 89 44 5f 3e 75 e7 2e 3e 68 8e 66 be
       0.055886198 0.21803488 0.17080481 -0.22515261
0000e0 91 04 23 3e af 0c 27 be 23 ea 90 bd a4 ad 26 3e
       0.1591971 -0.16313432 -0.07075908 0.16277176
0000f0 b7 bd 2d be 75 0a 5a be cb a8 2f 3e 74 e2 6b bc
       -0.16966902 -0.21293052 0.17154233 -0.014397252
000100 aa 13 38 bc ba c7 56 be f9 48 84 3b e2 e7 55 3e
       -0.011235157 -0.20974627 0.0040370193 0.20889238
000110 3f 11 45 be 35 fe d9 3c 8a 1d 24 3e 4b 6a 5a bd
       -0.1924486 0.026610473 0.16026893 -0.053324025
000120 59 4f 1b be 95 ea 11 3c 6b 42 74 3e 1a 5f 37 be
       -0.15166987 0.008906026 0.23853461 -0.17907372
000130 b8 8b 2c 3e ee cc 11 3b 6c 72 14 3d 9d 40 44 3e
       0.16850173 0.0022247392 0.036241934 0.19165273
000140 39 1e cd bd 59 5f 58 3e e3 24 1e 3e 8c 41 38 3e
       -0.1001553 0.21130122 0.15443759 0.17993754
000150 b2 64 43 3e 22 c5 36 3e d0 24 1e be 9f cf dd 3d
       0.19081381 0.17848638 -0.1544373 0.10830616
000160 95 f1 55 bd 9c e6 68 3d ef 5d e1 bd f2 ca 3f 3d
       -0.052232344 0.05686055 -0.110042445 0.046824403
000170 ed 1a 5d 3e 35 ea 1d 3e 2e 33 0b be ef 67 22 be
       0.21592303 0.15421374 -0.13593742 -0.1585996
000180 44 10 8c 3d e4 54 c6 bd b5 2e 75 be a5 ab 80 3e
       0.0683904 -0.0968416 -0.23943599 0.25130954
000190 79 fc 35 bc 28 28 68 be 87 e5 56 be 1a ac 04 3e
       -0.011107557 -0.22671568 -0.20985995 0.12956277
0001a0 c3 b4 a9 3d fe a0 c3 3d 71 f9 50 3e 90 49 e3 3d
       0.08286431 0.09552191 0.20407654 0.11098015
0001b0 1e 3d bd 3c b1 dc 3f 3e d4 2c b5 3d 45 df 72 be
       0.023100432 0.18736531 0.08846441 -0.23717983
0001c0 d0 82 db bd df db 3c bd 37 62 fa bd 89 df f0 3d
       -0.1071831 -0.046108123 -0.12225764 0.11761386
0001d0 26 cd 0b bd 00 e8 e3 3d 13 1f 7d bd 50 80 c2 bd
       -0.03413119 0.11128235 -0.061797213 -0.0949713
0001e0 ab de a9 3d 36 f1 0b 3e 04 55 f4 bd 86 28 22 3e
       0.08294424 0.13666233 -0.11930278 0.15835771
0001f0 53 bd 30 bd b9 23 80 bd 7e cd f1 3d 13 b6 98 3c
       -0.043149304 -0.062568136 0.11806773 0.018641507
000200 25 21 40 be 4b 25 c0 bd 55 d1 49 be a3 59 87 3e
       -0.18762644 -0.09382113 -0.1970876 0.26435575
000210 db 7d 98 3d 79 09 5f be 06 71 a6 3b 84 9e 22 be
       0.0744588 -0.21780957 0.0050793914 -0.15880781
000220 b1 4d 7c 3d b6 53 40 be 8e 85 0a 3e e7 92 58 3e
       0.06159753 -0.18781933 0.1352751 0.21149789
000230 a7 d9 5b 3b 25 14 46 be 64 7a 85 3e 98 80 2e 3e
       0.003354648 -0.19343622 0.2606994 0.17041242
000240 22 9a 73 3d e8 16 86 3e c1 cf 63 3e 0e 7b 87 3e
       0.059473164 0.2618935 0.2224722 0.2646107
000250 63 97 aa 3c 2a 38 02 3e f2 d7 b9 3d c6 b9 a4 3d
       0.02082414 0.12716737 0.090743914 0.08043246
000260 00 f2 96 3d a4 f2 61 3d 70 69 ba bc 5b 0d 5c 3e
       0.073703766 0.05516304 -0.022755355 0.2148947
000270 59 a6 11 3e 4b f3 62 3c b4 57 51 3e 31 23 2e be
       0.14223613 0.013851951 0.20443612 -0.17005612
000280 47 29 88 3e 3c 37 ae bd cf 97 07 be 59 43 ba bd
       0.26593992 -0.08506629 -0.13241504 -0.09094877
000290 98 aa ab 3d a7 c5 46 3e 2b 4e 63 3e 49 79 f3 3c
       0.083821476 0.19411336 0.22197787 0.02972092
0002a0 ce 4d 87 be c3 f4 99 bc 47 b5 5c be 92 b2 00 be
       -0.26426548 -0.01879347 -0.21553527 -0.12568119
0002b0 b8 5f 66 3e 86 68 97 3c 9c 30 61 3e d1 1e 21 3e
       0.22497451 0.018482458 0.219912 0.15734412
0002c0 20 e8 44 be 6b 6a 91 bd 87 a9 c1 bd 5b 7f 2f be
       -0.19229174 -0.07100376 -0.09456163 -0.17138426
0002d0 e6 f2 d1 3d 6e 89 9e bd 14 6b 39 be 97 d0 9b 3d
       0.10251407 -0.077410564 -0.18107253 0.07608145
0002e0 63 e7 28 be 93 71 68 3c e4 e8 d2 3d bd d2 6c 3c
       -0.16494517 0.014187234 0.102983266 0.014454541
0002f0 89 4a 1d 3e 68 70 16 be 85 f9 0e 3e 76 7d 75 3e
       0.15360464 -0.14691317 0.13962372 0.23973641
000300 66 88 3d 3e 4a 42 a6 bd 6e 22 6b 3d 02 08 02 be
       0.18509063 -0.081181124 0.05740588 -0.12698367
000310 ea 49 47 3c d7 86 9e bd 10 a2 f9 3d f2 de 9f 3d
       0.012163619 -0.077405624 0.12189114 0.07806195
000320 f6 a2 6e be 67 5f 2e be 39 81 08 be e9 10 f0 bd
       -0.23304352 -0.1702858 -0.13330545 -0.11721975
000330 7f 44 32 3e 80 d3 0e be ed b4 84 bc 88 07 54 3e
       0.17408942 -0.13947868 -0.016199553 0.20705998
000340 c2 17 63 3b c5 56 ba bd 93 73 8f bd 29 92 0c 3e
       0.0034651612 -0.09098581 -0.07004466 0.1372763
000350 c1 1b 01 3e 46 65 06 be fc b3 33 be 32 c9 3b 3e
       0.12608244 -0.1312457 -0.17549127 0.18338469
000360 da 08 ac bd 9d 49 81 3c 33 85 0c be f7 12 18 bd
       -0.08400126 0.015782172 -0.13722686 -0.03712746
000370 28 17 a4 3b 99 88 10 be 77 25 83 be 72 4c 70 3e
       0.0050076433 -0.14114608 -0.2561452 0.23466662
000380 e9 24 c8 bd b0 5a 12 be 04 1e 0e be 9f bc 27 be
       -0.09772665 -0.14292407 -0.13878638 -0.16380547
000390 50 c9 91 bc 05 05 3d 3e 6a 00 8e 3e 95 53 34 3e
       -0.017796189 0.18458946 0.2773469 0.17610009
0003a0 31 a7 98 3d d9 8b 92 bd 12 fc 2a 3e 6d 0d 03 bd
       0.07453764 -0.0715558 0.1669772 -0.031995226
0003b0 1f ea 13 3e a7 4b 64 be 8c 21 1b 3e 75 23 cd 3c
       0.14444779 -0.22294484 0.15149516 0.025041321
0003c0 1c bc ae 3d 62 a6 f6 3d 7f c6 bf 3d 88 84 1c be
       0.08531973 0.12043454 0.09364032 -0.15284932
0003d0 25 42 da bd 87 b6 da bd b9 85 38 3e da 68 e4 bd
       -0.10657147 -0.106793456 0.18019761 -0.11152811
0003e0 d7 7e 92 3e 64 d8 1c be 91 42 56 3e 5a 6a fe bd
       0.28612396 -0.15316921 0.2092383 -0.12422629
0003f0 26 91 dd 3d 16 ca 56 be 39 36 39 be db 95 3a 3e
       0.108187005 -0.20975527 -0.1808709 0.18221228

bias f4 [32]
000000 dc aa 0a b4 77 5f 3c b1 d2 32 86 32 ac d8 14 34
       -1.291441e-07 -2.7411866e-09 1.5622764e-08 1.3862399e-07
000010 25 8d 95 b3 4d 14 0e b4 68 64 86 b2 fa 67 92 34
       -6.964027e-08 -1.3232166e-07 -1.5645313e-08 2.7270272e-07
000020 34 73 39 b4 52 0a e3 33 57 f6 3e b4 b5 d4 12 b3
       -1.7271378e-07 1.05723885e-07 -1.7784747e-07 -3.418673e-08
000030 90 43 99 31 5d 6b f5 b4 93 cd 64 33 8d c9 c4 33
       4.460567e-09 -4.5712923e-07 5.3272355e-08 9.163623e-08
000040 2a c9 e3 33 0b 84 fd b2 03 0d b9 b2 2a 24 84 b3
       1.0607103e-07 -2.9513123e-08 -2.1542752e-08 -6.153307e-08
000050 b8 82 1c b5 74 b6 fc b3 b3 00 59 32 96 e9 4d b2
       -5.830475e-07 -1.17678525e-07 1.2631221e-08 -1.1985682e-08
000060 da fc 8b b4 57 3a 86 34 65 80 99 b3 11 2d 71 34
       -2.607474e-07 2.5001893e-07 -7.1479725e-08 2.2461269e-07
000070 b7 e2 6b b3 a9 d8 31 b4 98 a9 1b 33 9f f7 ac b4
       -5.4921397e-08 -1.656323e-07 3.6242994e-08 -3.2217665e-07

weight f4 [16, 32]
000000 10 93 36 be 16 d8 12 bd a2 71 66 3e ea f8 66 bc
       -0.17829537 -0.035850607 0.22504285 -0.014097432
000010 73 4e 6e be 92 2e 07 bd ae ef dd bd 1e b5 2d 3e
       -0.23272114 -0.033003397 -0.10836731 0.16963622
000020 39 2b 9a be 53 d5 fb bd 97 81 66 bd da 66 47 be
       -0.301111 -0.12296548 -0.05627593 -0.19472829
000030 51 49 6d 3e 2b 9f f6 3d e0 d1 b6 bd 72 30 46 be
       0.23172499 0.12042078 -0.08926749 -0.19354418
000040 4f d1 24 be d3 3c d8 bd 22 83 2f be b5 11 94 be
       -0.1609547 -0.10558476 -0.17139867 -0.2891976
000050 28 74 64 3d 68 55 d1 bd 81 4f c5 3d b6 59 5c 3e
       0.055774838 -0.10221368 0.09634305 0.21518597
000060 fe 0f 11 be 4c d0 58 be 7f a2 79 3e 8d e1 80 3e
       -0.14166257 -0.21173209 0.24378394 0.25172082
000070 cf 84 75 3e a6 0e b2 bd 98 c8 07 be 35 f5 64 be
       0.23976444 -0.086942 -0.13260114 -0.22359164
000080 fd bf 85 be b9 42 45 be a1 c3 e9 bd f5 61 60 3e
       -0.26123038 -0.19263734 -0.114142664 0.21912368
000090 eb 51 0b be 10 7e 87 be c9 58 6e be a9 f6 8c 3d
       -0.13605468 -0.26463366 -0.23276056 0.06882984
0000a0 fb 42 10 be 36 40 1d 3e 60 c5 43 be 38 43 ac 3d
       -0.14088051 0.15356526 -0.19118261 0.084112585
0000b0 55 ba 3e 3e 28 c2 40 3e 20 09 1d 3e 3a 1b 89 3e
       0.18625768 0.18824065 0.15335512 0.26778585
0000c0 c6 ef c9 bd 3a 34 17 bd 3a 97 85 3e 9e e4 af be
       -0.09860186 -0.03691504 0.2609194 -0.3435411
0000d0 b9 47 4d be 9e d7 90 be e2 d7 78 3d ca 12 aa be
       -0.20046891 -0.28289503 0.060752757 -0.3321746
0000e0 af 57 57 3e ab 9f 88 3e 66 82 2f 3e fb a2 de bd
       0.21029542 0.26684317 0.17139587 -0.1087093
0000f0 89 e0 2b 3b 89 2d b0 be ec c2 6e 3e 89 8e 01 be
       0.0026226363 -0.3440974 0.23316544 -0.12652029
000100 47 e5 ee bb db c5 67 be 65 cf 97 3d 17 03 ec bd
       -0.0072905156 -0.2263407 0.07412604 -0.11524027
000110 37 2d 08 3e 5a 17 be bd 46 88 0a 3e e4 4b 39 be
       0.13298498 -0.09281798 0.13528547 -0.18095356
000120 b5 3e 56 bc 4a 19 df bd 8f 28 13 3e c8 7c ad 3d
       -0.013076474 -0.108934954 0.1437094 0.08471066
000130 d9 32 20 be f7 f6 8e 3c 63 cb ba 3d 2c af 9d 3e
       -0.15644397 0.017451746 0.09120824 0.30797708
000140 e4 3d 0c be 0a cc 5e be 2e 52 1c be e5 bc cb 3e
       -0.13695484 -0.21757522 -0.15265724 0.39792553
000150 a6 4e 4d be 4a f0 2a 3e a8 a1 0e be c2 16 b8 3d
       -0.20049533 0.16693226 -0.13928854 0.08988716
000160 98 5f 40 3e 08 45 62 be df 94 7a 3e f9 00 3f 3e
       0.18786466 -0.22096646 0.24470852 0.18652715
000170 36 2f 12 be 44 23 74 3e 4a f3 fc 3d 3b 80 bf 3b
       -0.14275822 0.23841578 0.12351091 0.0058441437
000180 76 58 0b be ed aa 23 be 63 c1 1f be 9e dd 0d be
       -0.13607964 -0.15983172 -0.15601115 -0.13854071
000190 8e 98 96 3e 28 58 69 be 86 28 b3 bd 93 37 81 bd
       0.29413265 -0.22787535 -0.087479636 -0.06309428
0001a0 20 cf 0c bd ed 0e 65 3e 82 98 a7 3c d7 b4 0f bd
       -0.034377217 0.22368975 0.020458464 -0.03508457
0001b0 f5 a8 b3 3b 49 0f ef 3d 9b 31 3d be 14 34 3a be
       0.0054827877 0.11672837 -0.18475954 -0.18183929
0001c0 00 ef 8d 3e 6e d8 21 3d fe ea 43 3d c1 71 84 3e
       0.27721405 0.039513044 0.047831528 0.25868037
0001d0 0f 58 36 be d7 10 bf bc d4 ef 82 be 60 be 10 be
       -0.17807029 -0.02332346 -0.255736 -0.14135122
0001e0 f3 8f f9 bd 4d e7 2d 3e 56 49 65 3d 9a ae a0 bd
       -0.12185659 0.16982765 0.05597814 -0.078458026
0001f0 96 80 21 3e 38 af 02 3e a9 e1 ee 3d f3 a8 33 3e
       0.15771708 0.12762153 0.11664135 0.17544918
000200 ca ed 46 3e 89 71 28 bd 19 80 da bc 61 24 37 3e
       0.19426647 -0.0411239 -0.02667241 0.17884971
000210 bf 45 18 3d de 2d 08 be 5a ca 84 3e a1 a0 89 3d
       0.03717589 -0.13298747 0.25935632 0.06720091
000220 06 8b 25 be 52 e7 9c be 77 5c fb bd 54 3d 82 3e
       -0.16166314 -0.30645233 -0.12273496 0.25437415
000230 fc 48 a3 bd 20 92 35 be 4b 19 42 bd c6 b3 0a be
       -0.07972905 -0.17731524 -0.047387403 -0.1354514
000240 9b c5 2c be 23 93 96 bd fe f1 4a be 88 2e 09 3b
       -0.16872256 -0.07352283 -0.19818875 0.0020932276
000250 40 40 6b 3d 1f 17 9a be 7b 50 e6 3d 6d 03 49 be
       0.05743432 -0.30095765 0.11245819 -0.19630213
000260 a1 d2 33 3e 04 6e 58 be 8a c5 cb 3d 06 ce f5 3d
       0.17560817 -0.21135718 0.09949787 0.120021865
000270 86 a7 05 3e 7b 5d 93 be ea 25 6f bd b2 b7 96 bd
       0.13052186 -0.28782257 -0.058385767 -0.07359256
000280 f5 19 45 be 36 7f 62 3e 90 c0 32 bd 9c 91 85 3e
       -0.19248183 0.2211884 -0.043640673 0.26087654
000290 46 6a 53 bd a9 15 8e be 0f fa 97 be c7 59 47 bd
       -0.051615022 -0.277509 -0.29682967 -0.048669603
0002a0 23 14 92 bd 10 81 68 be 73 96 54 be 08 cb 48 be
       -0.07132747 -0.22705483 -0.20760517 -0.196087
0002b0 09 4f 5b bd b5 a2 95 3d 03 34 5f 3e 51 62 ef bc
       -0.05354217 0.073064245 0.21797185 -0.029221686
0002c0 0b 44 1e 3e c9 5b 98 bd b9 1e 73 3e 86 a5 ac 3e
       0.15455644 -0.07439382 0.23742189 0.33720034
0002d0 b4 bf 62 3e 97 a1 87 bd 32 56 38 3e c9 a3 09 3e
       0.22143441 -0.06622618 0.18001631 0.13441385
0002e0 ee fe 60 3e 1e 50 85 be 4c 37 22 be aa b5 e2 3d
       0.21972248 -0.26037687 -0.15841407 0.11069806
0002f0 c4 de 77 3e 7e 25 b4 3c ac 8d c9 3c 84 a8 27 3e
       0.24206072 0.021990534 0.024603687 0.16372877
000300 bc 5a 04 3d be 50 88 bc a8 6b 58 be a8 82 75 be
       0.032313094 -0.016640063 -0.21134818 -0.23975623
000310 75 0b 69 be 8b 2d ff bd 1f ef a0 3e 20 a5 01 3e
       -0.22758277 -0.124598585 0.31432435 0.12660646
000320 30 f5 81 be 56 ff 4c 3e 70 e8 f5 bd 2b df 76 3d
       -0.25382376 0.20019278 -0.120072246 0.060271423
000330 02 0b e7 bc fa 08 f1 3c 2c e5 90 3e 02 84 40 3e
       -0.028203491 0.029423226 0.28299844 0.18800357
000340 a9 b2 74 be be 68 04 3e d4 7e 56 3e 58 10 8e be
       -0.23896278 0.12930581 0.20946819 -0.27746844
000350 86 3c 8d 3d 07 da dd bd 12 ca 02 3d 49 ee 89 bd
       0.068963096 -0.10832601 0.03193099 -0.067349024
000360 ca 01 44 3e d8 e7 31 be 7c 15 a0 3e 43 4f 93 3e
       0.19141307 -0.17373598 0.3126639 0.2877141
000370 67 af 67 be ac e1 b9 3d c8 ef 1d be 29 69 61 3d
       -0.22625504 0.090762466 -0.154235 0.05503193
000380 9c ae 53 3e b7 0f 04 bd 93 36 70 3e 7b 42 d9 bd
       0.20672077 -0.03224155 0.23458318 -0.10608383
000390 0d a1 32 3d 8f a7 b7 3d 1b 77 0b 3e 9c 9a b1 bd
       0.04361062 0.08967506 0.13619654 -0.086720675
0003a0 8a 01 ad 3c c2 f7 c6 bd 4a f9 18 be e6 60 ac bd
       0.021118898 -0.09715225 -0.14938846 -0.084169194
0003b0 39 d4 73 be 2e f6 90 3d cb 5e d2 3d f4 1c 88 be
       -0.23811425 0.07078205 0.102719866 -0.2658459
0003c0 b5 b7 92 3d 0a 89 14 3e ac f8 30 be 45 33 84 3e
       0.071639456 0.14505401 -0.17282361 0.25820366
0003d0 16 42 bc 3d f1 f3 71 3e e4 dd 2f be c1 ef ba bd
       0.091922924 0.23628213 -0.17174488 -0.09127761
0003e0 ac 1c 20 3d 05 b1 07 be 42 c3 a9 3d c8 f3 30 be
       0.039089844 -0.13251121 0.082891956 -0.17280495
0003f0 7e 57 76 3e 22 b3 8e 3e 88 1b 4a 3e f8 c8 75 3e
       0.24056813 0.27871042 0.19737065 0.24002445

bias f4 [16]
000000 26 f8 1f 33 b6 a8 16 b5 f5 3d bb 34 e0 59 e6 b3
       3.7245762e-08 -5.612486e-07 3.4876544e-07 -1.0726558e-07
000010 11 ed 34 35 d9 19 20 34 8c 8a b2 33 ec 98 13 b5
       6.74002e-07 1.4910565e-07 8.3139724e-08 -5.49843e-07
000020 6a 40 56 b4 7d d7 1c b3 d1 16 e1 b2 2a 6d 06 b5
       -1.9953737e-07 -3.6517566e-08 -2.6203823e-08 -5.0077745e-07
000030 41 c2 2f b5 c9 1a 44 35 17 18 85 b4 e3 f4 ce b4
       -6.5475257e-07 7.305467e-07 -2.4790708e-07 -3.854867e-07

weight f4 [8, 16]
000000 e7 18 bc 3e 15 97 d1 3e 0b 62 00 bf 6f 6c ac be
       0.3673775 0.4093558 -0.501496 -0.33676478
000010 5b 23 5b 3e 9c ed 37 be 79 64 40 be c6 18 d9 bd
       0.21400206 -0.17961735 -0.18788327 -0.10600428
000020 79 13 9c be d5 a3 ed bc 92 30 79 3c 4d e8 83 3e
       -0.30483606 -0.029008785 0.015209334 0.2576317
000030 bb d7 fe be f2 5e 13 be ce e2 49 bd 2c 81 69 be
       -0.49773964 -0.14391688 -0.049288563 -0.22803181
000040 50 7f f7 bd 6d 51 42 3e f9 2e 5b be c5 39 76 3d
       -0.1208483 0.18976374 -0.21404637 0.060113687
000050 b8 fa 5f 3e 03 6f 8c be 10 66 04 be fc c3 8e be
       0.21872985 -0.27428445 -0.12929559 -0.278839
000060 d6 db b2 3c 9e ce 65 3b 7d e6 ea bd 79 ea ab 3e
       0.021833342 0.003506578 -0.114697434 0.33577326
000070 9b 90 8b be 92 0a 71 be 8b 19 8d 3d 05 3d b8 3d
       -0.27258763 -0.23539189 0.068896376 0.089960136
000080 26 f6 2c 3e c2 52 57 3d 38 b8 ab 3e 38 90 b1 bd
       0.16890773 0.05256916 0.33538985 -0.08670086
000090 e3 d4 48 3e fd a8 52 3d 3e e5 51 be 00 2d d0 3e
       0.1961246 0.05143069 -0.20497605 0.40659332
0000a0 37 e0 55 3e 24 4c 72 3e a8 3c a7 bd 68 dd 27 bc
       0.20886312 0.23661858 -0.08165866 -0.010245658
0000b0 f7 dc d6 3e 97 f6 ca 3e 79 0e 45 be c5 a1 af bd
       0.41965458 0.39641258 -0.19243802 -0.08575777
0000c0 44 6a 3a 3e 90 81 10 bd df c5 49 3e e4 cd 4c 3d
       0.182046 -0.03527981 0.19704388 0.05000104
0000d0 62 5d 58 be 77 89 b6 bd c6 2e 37 be a7 6d 92 3e
       -0.21129373 -0.08912938 -0.17888936 0.28599283
0000e0 ee 13 3c 3e f3 f6 29 bd 8c 03 ba 3e 3e f4 b4 be
       0.18366978 -0.041495275 0.3633083 -0.35342592
0000f0 34 70 ab 3e 0d 57 62 be b7 d0 1f 3e 6d f6 89 be
       0.33484042 -0.2210352 0.15606962 -0.2694582
000100 ad 7f 23 be c1 b0 5a be 4e c0 c4 3e 1c 83 3e 3d
       -0.15966673 -0.21356489 0.38427967 0.046511754
000110 e6 83 90 3c 83 7d b2 3e f9 86 a0 be 38 0c 52 bd
       0.01764102 0.34861383 -0.31352976 -0.051281184
000120 40 27 cb 3e fb d2 84 3e 14 67 15 3e 0a 19 b8 be
       0.39678383 0.25942215 0.14590102 -0.35956603
000130 36 08 09 be 24 af a3 3d 57 6a c0 bc ab 36 85 be
       -0.13382038 0.0799239 -0.023488207 -0.2601827
000140 59 10 96 bc c1 6e 92 be 2a 3b eb bd fd 33 92 bd
       -0.018318342 -0.28600124 -0.11485894 -0.07138822
000150 80 53 2d be 85 f0 5c 3e c4 b0 4c 3c 40 49 35 3e
       -0.16926384 0.21576126 0.012493316 0.17703724
000160 b5 26 3a be 86 94 68 be af 7d a6 3e 81 62 97 be
       -0.18178828 -0.22712907 0.32517764 -0.2956734
000170 5c 71 63 3e 61 9a a6 bd 9b c1 9f be 66 22 8d be
       0.22211212 -0.08134914 -0.31202397 -0.27565306
000180 cd 86 e7 ba 46 df 3a 3e 9d 0d 94 bd d2 61 ed be
       -0.0017664075 0.18249235 -0.07229159 -0.46363693
000190 12 3c 74 bd b3 16 65 3e c6 ce a3 be 66 c6 aa be
       -0.0596276 0.2237194 -0.31993693 -0.3335449
0001a0 21 93 80 3d 51 11 2c be 65 8b a9 be b8 d8 9e 3e
       0.062780626 -0.1680348 -0.33114162 0.31024718
0001b0 8f 7d 09 bf 51 12 40 3e c5 ab ad 3e 25 c0 2e bc
       -0.5370721 0.18756987 0.33920112 -0.010665928
0001c0 fe a6 1d 3d b0 f9 1c be 93 66 8c 3d 12 ef bc bd
       0.038489334 -0.15329623 0.06855502 -0.092252865
0001d0 51 02 01 be 07 ae bb 3e 5f e8 0b be da 1b 36 3d
       -0.1259854 0.3665621 -0.13662861 0.044460155
0001e0 59 3a 47 3e 6a 67 8c 3e 36 1e 3d 3e 2c 87 9e be
       0.19455852 0.2742265 0.18468556 -0.30962503
0001f0 f2 7a d8 3d c9 39 29 3e 76 eb 52 be b7 61 84 bc
       0.10570325 0.1652595 -0.20597634 -0.016159875

bias f4 [8]
000000 c0 79 9e 35 3e cc 8b 35 ee 2e 09 b5 e6 d3 17 34
       1.1807351e-06 1.0415749e-06 -5.110477e-07 1.4140059e-07
000010 09 b3 45 b5 4c d9 1a 34 cd 64 8d 35 0d 8b 06 34
       -7.364875e-07 1.442142e-07 1.0534656e-06 1.2530309e-07

weight f4 [2, 8]
000000 d7 a1 ae be 66 53 30 bf a5 14 a3 3e d8 c0 aa 3b
       -0.3410785 -0.68877256 0.31851688 0.005210977
000010 8a c0 ae 3e e4 03 83 3d 9d fc 42 be cd fc 83 3e
       0.3413127 0.063972265 -0.19041677 0.2577881
000020 6b 02 81 3f 04 87 15 be c6 59 f2 be 33 93 c4 be
       1.0078863 -0.14602286 -0.47334117 -0.38393554
000030 68 4b b8 be 97 90 98 be 3e e2 20 3f 58 4d b0 be
       -0.3599503 -0.29797813 0.6284522 -0.3443401

bias f4 [2]
000000 6d 60 35 be 6c 60 35 3e
       -0.17712565 0.17712563
