serology/results_intermediate_encoders_2/models/5fold/classifier_adverse_7.pt (torch, 18016 bytes, 20 tensors)

weight f4 [32]
00000000: 52ea 653f 5c27 863f ba5e 873f d984 903f
00000010: eadd 823f 9adf 6e3f f22b 913f 5296 873f
00000020: 0a0b 6e3f 346a 853f 02d0 843f 511e 6b3f
00000030: 8927 8d3f 3fea 833f 8702 6e3f 0797 853f
00000040: 1a4d 803f e82a 8e3f c879 883f 7796 873f
00000050: b2f0 723f 01cd 7e3f 8cbc 7d3f 2c70 803f
00000060: ef0f 7d3f e304 783f b6d5 7e3f 8ec2 813f
00000070: e20e 893f 025f 7d3f b939 813f 014f 803f
0.8981067 1.0480762 1.0575783 1.1290542 1.0223973 0.9330994 1.1341536 1.0592749
0.92985594 1.0423036 1.0375979 0.91843134 1.102769 1.0305861 0.92972606 1.0436715
1.002353 1.1106844 1.0662165 1.0592793 0.9489852 0.9953156 0.99115825 1.0034232
0.9885244 0.96882457 0.99544847 1.0137498 1.0707667 0.98973095 1.009574 1.002411

bias f4 [32]
00000000: 98da d8bd e9c4 85bc 5c10 f63c bb66 99bd
00000010: ca96 04bd 77da 74bd 2134 033e 62b9 3d3e
00000020: 922f 953d fb5a 53bc 1342 c33d 858b 16bd
00000030: 8067 043d cbbb 00bc 730c 9fbd d026 473d
00000040: 1500 bbbd 2c3d dd3d da97 fb3d 4b3b 04bd
00000050: 1622 23be cb2b 88bd 27e4 01bc 9a21 20be
00000060: 2f40 43bd 1d35 02be 7b70 aabc 830a 21bd
00000070: 26d3 ce3d 736f 6d3b f3f2 c8bc 372f e5ba
-0.105885684 -0.016329246 0.030037098 -0.074902974 -0.032370366 -0.059778657 0.12812854 0.18527749
0.07284464 -0.012900109 0.09534087 -0.03675415 0.032325268 -0.007857273 -0.077660464 0.048621
-0.09130875 0.10802683 0.12284823 -0.03228311 -0.15930972 -0.06648978 -0.007927931 -0.15637818
-0.047668632 -0.12715574 -0.020805588 -0.039316665 0.10098867 0.003622976 -0.02452991 -0.0017485385

running_mean f4 [32]
00000000: 6cd7 dcbf 0db7 d5bf aca3 cebe f2e5 15bd
00000010: 1664 a13f bfba 3e3f 8076 d13f 352c 1e40
00000020: 2ce9 ca3f 7787 653f dfff b8bf b73b debe
00000030: 4a99 9cbf 6358 cfbd ab33 943f 87ff cd3e
00000040: 8e58 a9be fd07 c6bf cd22 3dc0 b06b 873f
00000050: 0f57 023f 7ab8 3fbf 422d d53f 1e1a c23f
00000060: bd8f 073f cf6d 3e3f 8be7 88bf e58b 063f
00000070: 8c5c a83f 97c9 8b3e c123 1ebf f64a a1be
-1.7253242 -1.6696488 -0.40359247 -0.036596246 1.2608669 0.745037 1.6364288 2.4714482
1.5852408 0.8965983 -1.4453086 -0.43404934 -1.223428 -0.1012428 1.1578268 0.40234014
-0.33075374 -1.5471188 -2.955249 1.0579739 0.5091409 -0.74890864 1.6654437 1.516422
0.529537 0.74386305 -1.0695661 0.5255721 1.3153243 0.27302238 -0.61773306 -0.31502503

running_var f4 [32]
00000000: 7e77 f640 9a5b 8241 f12a f13f 387e 1740
00000010: 0c1d 1a41 78aa c940 a1d2 2b41 c2c0 2c41
00000020: 2d7a ec40 edcb 0740 4a34 0941 4237 d53f
00000030: 5ea4 9940 fbb5 6c3f 034d f240 1713 763f
00000040: 394c a83f 8e3c 2b41 b2ea c741 d08e 2d40
00000050: edbf c83f cef0 f13f 5fc0 8841 f91d 9e40
00000060: 5762 4b40 7435 b140 da4e 8740 3958 ad3f
00000070: 455f 5140 8b6a fd3e 2405 a840 a8dc 973f
7.7020864 16.294727 1.884123 2.3670788 9.6320915 6.302059 10.738923 10.79706
7.389914 2.1218216 8.575266 1.6657488 4.8013144 0.9246518 7.571901 0.9612288
1.3148261 10.702284 24.989597 2.7118416 1.5683571 1.8901613 17.093931 4.941159
3.1778772 5.537775 4.2283754 1.3542548 3.2714398 0.49495348 5.2506275 1.1864214

weight f4 [16]
00000000: 79e4 713f 15b5 4e3f bf81 613f 365f 943f
00000010: cc4b 7d3f 1875 833f 0d57 8a3f dc62 903f
00000020: d935 793f c813 8b3f f263 803f 4460 723f
00000030: 7f2e 8c3f d3f8 4e3f e978 833f 6293 893f
0.94489247 0.8074506 0.880886 1.1591556 0.9894378 1.0270109 1.0807816 1.128017
0.9734779 1.0865412 1.0030501 0.9467814 1.095169 0.80848426 1.0271274 1.0748103

bias f4 [16]
00000000: 1ca5 27be 4710 03be 5037 65be 0589 9f3d
00000010: c46a 903d cfe9 0e3b 92cb 4bbd 5505 5f3c
00000020: a0b5 00be f39d d5bd d74c cc3d bd0b 94bd
00000030: e60e 8a3d 86e5 5fbe 01e2 95bd 34af cebd
-0.16371578 -0.12799178 -0.22384381 0.07789806 0.07051614 0.0021806841 -0.049754687 0.013612111
-0.12569284 -0.10430517 0.099755935 -0.072288014 0.06741123 -0.218649 -0.073184974 -0.10092011

running_mean f4 [16]
00000000: e205 52bf 75a8 0b3f d3b5 b3be bbaa 783f
00000010: 93b0 ffbe 756a 873e be4d 08be b41b 523f
00000020: f709 d03e e2aa 40be 5cd4 1bbf 452b 93be
00000030: f2db 773e 1a1f 14bf ad4e 003f 38e4 373d
-0.82040226 0.5455392 -0.35099658 0.97135514 -0.49939403 0.26448408 -0.13310906 0.8207352
0.40632603 -0.18815187 -0.6087091 -0.2874395 0.24204996 -0.5785996 0.5012005 0.04489538

running_var f4 [16]
00000000: 3d21 4b3f 814d bf3f 6968 bf3f 09ae f03e
00000010: 802d 953f e4f2 583f 0026 5c3f 1fbb d13f
00000020: baaa 1d3f 47fc c53f 5602 8e3e 10b1 303f
00000030: 9b51 783f 2937 203f e97c 2d3f c9d4 733f
0.7934759 1.4945527 1.4953738 0.47007778 1.165451 0.8474562 0.85995483 1.638523
0.61588633 1.5467614 0.27736157 0.69020176 0.9699952 0.6258417 0.6776872 0.9524656

weight f4 [8]
00000000: a9e8 603f ef02 5f3f b68b 453f b295 b03f
00000010: be51 4f3f de67 9a3f 8621 a63f 75a1 663f
0.8785501 0.8711385 0.77166307 1.3795683 0.80984104 1.2062948 1.297898 0.90090114

bias f4 [8]
00000000: 1c09 25be a753 35be 77dd 7bbe d4fc 193f
00000010: b1ea 7dbe c70a dc3e 42f4 303e ccfa 0abe
-0.16116756 -0.17707692 -0.24596201 0.6015141 -0.24796559 0.42976972 0.17280677 -0.13572234

running_mean f4 [8]
00000000: 5961 023f 1d35 ae3e 5bb2 9e3e dc61 323f
00000010: 9e79 e23d 664d 94be c198 e03d 4505 313f
0.5092979 0.34024897 0.3099545 0.6968057 0.11058353 -0.289653 0.109666355 0.69148666

running_var f4 [8]
00000000: 6c4f 643f 8235 653e 93a9 263f 2607 553f
00000010: c5a5 0a3f 7cd4 9f3f 2996 703e 065e a13f
0.8918369 0.22383693 0.651025 0.8321403 0.54159194 1.248672 0.23494782 1.2606819

weight f4 [32, 32]
00000000: e17b e53d 1233 af3e 46f9 efbd 2422 833e
00000010: 6a47 403d 8d34 3cbc 2f86 473e 9721 8a3d
00000020: a04b d83d ecc1 19be 97a6 b93c 90ab 6e3d
00000030: a1be 113e 798c 7dbc 8437 0abb a306 97bd
00000040: 0ba0 ef3d d03a b2bd b17e 113e 6852 ac3d
00000050: d579 a23e 9438 6a3d 17e4 d8bc dd8a b83d
00000060: 7ae2 9e3e cd22 83bd 16dd 453e 076f 693e
00000070: 7185 02bc c668 fe3d 338c 82be e8d5 d83d
00000080: 5c77 0abd 2da7 16be 723b 1a3e b9e3 3c3e
00000090: 0416 7cbe 92e2 bdbc b7b9 34be d983 19be
000000a0: 9d10 a1bd 6260 42be 53c2 91bd f972 4fbe
000000b0: ee23 52bd 324d 7b3e f711 e43d e36f a93d
000000c0: 5ec7 913e 2f72 813e 36f4 c6bd 90d1 3c3e
000000d0: caaa da3d 02f7 a23c 9212 133d ede1 283e
000000e0: 5327 30be d485 983d 2e1e abbe bdc4 47be
000000f0: 1ede 30bd dea5 01be c94d efbd cb82 213e
00000100: 3e1a d2bc feae a9be 53cf c13d 8b9d 83bc
00000110: f1e5 7ebe 731d 21be 7a1c a8be 56df 20bc
00000120: 3f6a 9a3d 4491 df3c c7e0 f43c ce0e 7ebd
00000130: 9444 94bd 1f8f bd3d 629e 3b3e 1b2d 203e
00000140: a7a1 68be 12fd 7bbe 731f 393e 0b4b 403e
00000150: b235 f4bc 7f71 603e bbca c33d af5a dbbc
00000160: 57dd 8ebe 0005 88bd 7d20 343e e5df 443d
00000170: a972 86bd 7095 0fbc 23b2 f5bd 3506 a13d
00000180: be7b 2c3b f503 96be 7829 ffbd e6f5 22bd
00000190: 56b2 28be 4f09 95bb 6564 5c3d 3778 1a3e
000001a0: f6e2 17be e175 4ebe 2513 0d3e 6ab9 23bd
000001b0: 3bd6 8bbd 80ea e93d 8980 4f3c 5f2e b03e
000001c0: 5d27 edbd fe52 823e 88f7 8a3e 4dc6 bc3d
000001d0: 57ba 47bd 98c1 983e 88e2 2c3e 04d3 b33d
000001e0: 9dd2 6fbc 0b99 80be 4373 b4be 2cd7 f23d
000001f0: 5242 1abe b94e d4bd a666 12be c2b2 dfbd
00000200: 0de3 543e 797e d23c 24db 79be 34ca 2fbe
00000210: 8614 7ebd f15d 59bc 0697 823b ab9c 3fbe
00000220: 81d4 28be ddc3 323d 96da 4ebe 07fa 41bd
00000230: a8f9 883e df4e 0abe 0cf3 313e 0910 143c
00000240: a42d 26be 51ae 92be da39 263e 8913 903e
00000250: 3e7d 34be 5744 363c cafe 9bbe ee09 0d3d
00000260: 7e46 d6bd e06f 4f3e 6554 cdbc fd17 80bd
00000270: cb0d a83d 990e 903e 0038 1cbe 0a9e 873c
00000280: fd81 f3bc f5ca 14bd 5639 313e 89a1 18be
00000290: e3c9 6d3d b883 583e fb56 d23c baa8 7fbe
000002a0: 1fe0 2b3e bca3 3e3e f8e5 9fbc 804c 963e
000002b0: ae00 92be 785a 10be d997 65be c075 dc3b
000002c0: 39e1 49be 4f9f 7fbe 69f3 1f3e 1081 513c
000002d0: 0fe2 2dbd 5e0d 53be 3312 45bd 3a7b 063e
000002e0: ba38 dcbb bf77 5e3e fc19 f83d 5499 95be
000002f0: c9b7 4ebd 4beb 04bc fa4a 02bc 3a63 9bbc
00000300: 78bc 1a3e 1ec7 0b3e 9d16 0fbe 115a fcbd
00000310: 3a55 c23e 85a5 71be 3f0b f0bb 376a 72bc
00000320: c882 5c3e 5522 d7bd e198 4abe 29e8 6dbd
00000330: 0031 d93e d489 87bc 683e 1fbd 0ada f43d
00000340: 833b 09bd 3ed6 9a3a a537 cdbd fe8a 183d
00000350: 863d 893d 1604 93bc c0ae 50be 01d6 93bd
00000360: 47a9 f73d 3c45 da3c db52 733e 3a77 843b
00000370: e070 753d 9557 a63d 91bb 32be 723d 5ebe
00000380: 90b0 ccbd 1101 363d 4742 97bd 1fbf 7bbe
00000390: 98d0 f0bd 6dd0 6fbe b423 ecba c076 4f3e
000003a0: dc5c 503e 0c3a 233e 12d1 513e 3550 533d
000003b0: bce7 3b3d bb27 0b3e fcc0 083e 9a7b 4ebd
000003c0: 7627 02be cd4d 793e 16e4 16be ddb5 a3bc
000003d0: f4d4 df3d d051 813c f5ec d5bb 5c6c 53bb
000003e0: 47f2 953e 42ec a23c a102 03bd 0b80 7abe
000003f0: c528 d23d 1ffd e33c efda 743e ab32 223e
0.11205269 0.3421865 -0.11717467 0.25611985 0.046943106 -0.011487138 0.1948478 0.06744688
0.10561299 -0.15015382 0.022662444 0.058269083 0.14232875 -0.015475386 -0.0021090219 -0.07374313
0.11700448 -0.08702624 0.14208485 0.08414155 0.31733575 0.057182863 -0.02647595 0.09010861
0.31032163 -0.06403122 0.19322619 0.2279626 -0.007966385 0.12422328 -0.2549759 0.105876744
-0.033805236 -0.1471221 0.15061739 0.18446244 -0.24617773 -0.023179326 -0.1764897 -0.14991702
-0.07864497 -0.1898208 -0.071171425 -0.20258702 -0.051303796 0.24541166 0.11136239 0.08273294
0.28472418 0.25282428 -0.09714548 0.18439317 0.10677107 0.019893173 0.035906382 0.16492434
-0.17202501 0.07447401 -0.33421463 -0.19508643 -0.043180577 -0.1266093 -0.11684758 0.1577255
-0.025647279 -0.3314132 0.09463372 -0.016066333 -0.24892403 -0.1573389 -0.32834226 -0.009818872
0.07539796 0.027290948 0.029892338 -0.062025838 -0.07239643 0.09255814 0.18322137 0.15642206
-0.22717915 -0.24608257 0.18078403 0.18778627 -0.02981076 0.21918295 0.09560152 -0.02677664
-0.27903244 -0.06641579 0.17590518 0.048065085 -0.065648384 -0.008763656 -0.119968675 0.07862512
0.0026318873 -0.29299894 -0.124590814 -0.03978529 -0.1647428 -0.004548229 0.05380668 0.15084921
-0.14832672 -0.20162155 0.13776834 -0.039971747 -0.068279706 0.114216805 0.0126649225 0.34410378
-0.115797736 0.25453943 0.27141976 0.0921751 -0.048761692 0.298352 0.1688329 0.087804824
-0.014637616 -0.25116763 -0.35244188 0.11857447 -0.15064362 -0.10366578 -0.1429697 -0.10922767
0.20789738 0.025695072 -0.24400002 -0.17166978 -0.06203129 -0.013267026 0.0039852886 -0.18712108
-0.16487314 0.04364382 -0.20200571 -0.047357585 0.26752973 -0.1350665 0.17377871 0.009037026
-0.16228348 -0.28648618 0.16233006 0.28139904 -0.17625901 0.011124692 -0.30467826 0.034433298
-0.10462664 0.2025752 -0.025064657 -0.062545754 0.08205756 0.28136137 -0.15255737 0.016554851
-0.02972507 -0.036326367 0.17307028 -0.14905371 0.058053862 0.21143997 0.025676241 -0.24966708
0.16784714 0.18617147 -0.019518837 0.2935524 -0.28516144 -0.14097011 -0.22421207 0.006727904
-0.19714822 -0.24963115 0.15620197 0.012787119 -0.042451914 -0.20610568 -0.04811306 0.13132945
-0.0067206295 0.21725367 0.12114331 -0.29218543 -0.05046824 -0.008112739 -0.007952446 -0.018968213
0.15110958 0.13650176 -0.1397347 -0.12321866 0.37955648 -0.23598297 -0.0073255594 -0.014795831
0.21534264 -0.10504595 -0.19784881 -0.058082733 0.42420197 -0.016545214 -0.038877875 0.1195565
-0.03350402 0.0011813117 -0.10020379 0.03724193 0.06701188 -0.017946284 -0.20379162 -0.072185524
0.12092834 0.026644342 0.23762076 0.004042533 0.0599221 0.08122174 -0.17454363 -0.21703127
-0.09994614 0.04443461 -0.07385688 -0.24584626 -0.11758536 -0.23419352 -0.0018016011 0.20260143
0.20347923 0.15940112 0.2048991 0.051590163 0.045875296 0.13589375 0.13354868 -0.050410844
-0.12710366 0.24346085 -0.14735445 -0.01998418 0.109292895 0.015786082 -0.0065284916 -0.0032260632
0.29286405 0.019888047 -0.03198493 -0.24462907 0.102616824 0.027830658 0.23911642 0.15839641

bias f4 [32]
00000000: e8f2 b6b9 89dc 5d3a c38d a2b9 ce4a 6f3a
00000010: e2e7 c0ba 77bf 0239 e42f 373a f029 2b3a
00000020: 556a 83ba 0137 db3a a3bf eaba 6e8c ca3a
00000030: 2edf af3a 4304 8f3a d1c1 1239 87f8 243b
00000040: 5f33 bdb9 7f85 24ba 8228 38ba e980 83ba
00000050: 4c41 083b e9e9 8c3a be0d a3ba 95b0 5abb
00000060: 7cd4 60ba d5d6 64bb 8c26 8c3a f143 acba
00000070: f899 e1b9 3dd4 cf39 26ee fcba f3c3 1b3b
-0.00034894724 0.0008463343 -0.0003100467 0.0009128273 -0.0014717544 0.00012469092 0.0006988032 0.00065293815
-0.0010026196 0.0016724766 -0.0017909895 0.0015453228 0.0013417953 0.0010911304 0.00013995847 0.0025172548
-0.00036087164 -0.0006275996 -0.0007025079 -0.0010032925 0.0020790873 0.0010750863 -0.0012440009 -0.0033369411
-0.00085765845 -0.003491809 0.001069264 -0.0013142807 -0.0004303006 0.00039640247 -0.0019297048 0.0023767918

weight f4 [16, 32]
00000000: 4ce2 86be 6dbd 3bbe a0a7 e1bd 6af7 463d
00000010: f510 60bd 8978 9ebd fb30 d03d 19cf a63d
00000020: 2063 f3bd 0093 80be 413e 9d3d a1cb 39be
00000030: 061a 71be 7d42 f9bd 4aa4 fcbc 4aa4 48be
00000040: 2cf6 8d3e 1f71 b0be 39e2 99be 3fd5 ccbd
00000050: 809e c13e 1366 4b3d 9704 0a3e 7046 f8bd
00000060: 8978 21be cf4f 113e c0e5 eabd 6f92 60be
00000070: 85e9 3dbe e79e 923c fbab b5bd 4173 903e
00000080: 8d65 c4bd 51a0 8b3e 14f7 d93d 430b 6d3e
00000090: cf14 14be cfdd a23c 72ba 5cbe 25f4 3abd
000000a0: 8ad2 72be b667 90be dfc4 a0bd 0a88 eebd
000000b0: 2f35 a03d 5286 c83e cc13 e2bd 3a4b 613e
000000c0: 2fb0 f53c 093b 623e 66e2 7c3e 9f9f fc3d
000000d0: 5b73 ea3d ba83 af3d 7dd4 6ebe 09d2 95bd
000000e0: dd8b 913e a0d7 8a3e 722e b93d c43c 1a3e
000000f0: 2aa1 ffbd c7a1 ab3d 82ce d1bd 9e1b 8b3e
00000100: c682 8d3d 2809 563e 8c24 d7bd 234d a83e
00000110: 2009 30bc 0497 1ebe ba10 afbe a134 0bbd
00000120: a03f 783e 414a 0b3c 9445 97be 5346 8dbb
00000130: 996a 36bd 66c9 7dbe 29b0 92bc 1de9 28bd
00000140: 99f8 2a3e f061 813e f746 b43e 7425 75be
00000150: 8416 643d cb4f 90bc da23 7ebe 011b 1f3e
00000160: 10ee 20be d136 06be acac 953d 9b58 71be
00000170: 9fe9 c2be 7266 63be 3a76 bf3d 1271 573e
00000180: 345e a7bd b404 1abe 55e7 c9bd 68bd 843e
00000190: 296b 35be d6b9 e63d 35eb e53d 962a 33bd
000001a0: 4a44 f03c e17c 033e 89cf 9b3e 91d6 6e3d
000001b0: 89df 1cbe c0ec e73d e8c7 103e c86b 90bc
000001c0: b934 a73d 7c29 5d3e 46cf 323e 99f1 ea3c
000001d0: d1af 70bb 7b43 173e c9f9 9a3e d9f7 143e
000001e0: 9839 4bbe 7b3d 7c3e 132e b0bd e055 0abc
000001f0: e1e1 933e 7696 403e 104b 983e 49ec 943d
00000200: d7b5 f53b f122 74be 9e69 95be e9cb d03d
00000210: b350 043e effe ba3e 07e9 dfbd 5d54 03bd
00000220: f717 6d3e 5dd8 0c3d 88dd f73b 258d b2be
00000230: b263 7bbe 3565 073e 574f e53d f470 73be
00000240: 202b 8fbd 7581 a7be d9b2 c13d 5513 94be
00000250: f2c1 b0bc 794e 87be 0eb5 003e 18ce 56be
00000260: b130 893d bcfc 9e3d 4a40 663d dd89 54be
00000270: f340 b03e a217 95bd bdf7 6a3d 3af7 e3bd
00000280: 82f2 2f3e 0576 96be 9178 89bd b232 60be
00000290: 2346 703e 75c2 143e 419f 213d b16f 69bd
000002a0: a6c5 0fbe fc8e 2e3e 971f 623e 7b18 42be
000002b0: c2f4 5dbe 74fa 233e d9dd 0a3e f8fe 5e3d
000002c0: 9840 4a3e d07d 88be bc7d 073d 2427 5ebe
000002d0: faa6 2f3e 7430 973d 38d7 8a3e 2abf 9f3e
000002e0: 9201 743e c03c 3f3e c506 6e3e c29a 1cbe
000002f0: d597 4fbd 7a28 193e 5f7c 04be d323 3dbe
00000300: 50a5 adbd 4814 b93d 06c1 be3e b74e 83bd
00000310: 9f6b b5bd 80c4 5b3e a320 98be 1fa6 76be
00000320: 2609 22be ef5f bbbd ace2 b73e 572c 523e
00000330: f8a8 263d 46b9 403d fbdb 1f3e 4b8a 16be
00000340: 329d b6bb 8bdb 5a3e cae7 8abd 6c42 703e
00000350: e4e3 de3d 4eac 92be 4903 6abe c695 55be
00000360: 98e6 7c3d e20e f0bd a46c 523d a2ca 6d3d
00000370: 5d5a 3abe 0518 b33b 489f 90be 8dec 033e
00000380: d844 d7bc 6c4d 263e aaf0 1f3e 79c2 113d
00000390: e036 7a3e ab1c 55be 147f 383e d400 a3bd
000003a0: b0df 46bb 55af 423d 3925 203e 22cf 803d
000003b0: 10a1 ca3d 5817 673d cd90 c23d a242 12bc
000003c0: cd46 503e bdc3 2f3e 203f 253e 9088 bcbd
000003d0: 3c5f 823e d56f e63b ea56 68bb fd32 543e
000003e0: d458 03be 7ac8 13bd 0796 e63c 30a2 3dbd
000003f0: fa4a b1be 956b e03d 159b 773e 8897 003f
-0.26344526 -0.18333979 -0.110183 0.048575796 -0.05470367 -0.07737834 0.10165592 0.081449695
-0.11884141 -0.25112152 0.076778896 -0.18144085 -0.23545083 -0.12170885 -0.030840058 -0.19593921
0.27726877 -0.34461305 -0.30055407 -0.10001611 0.37816238 0.049657892 0.13478313 -0.1212281
-0.15768637 0.14190601 -0.114696026 -0.2193086 -0.18546112 0.017898036 -0.08870693 0.28212932
-0.09589682 0.2727075 0.106428295 0.23148827 -0.14461063 0.019881157 -0.21555498 -0.04564299
-0.23713127 -0.28204125 -0.0785005 -0.11647041 0.07822644 0.39164978 -0.11038932 0.22001353
0.029991237 0.22092833 0.24695739 0.12335133 0.114477836 0.08570047 -0.23323245 -0.07315452
0.2842702 0.27117634 0.09042062 0.15062243 -0.124819115 0.08380466 -0.10244466 0.27169508
0.06909709 0.2090193 -0.10505018 0.3287135 -0.010744363 -0.15487295 -0.3419245 -0.033985738
0.24243021 0.00850159 -0.2954527 -0.004311362 -0.044535253 -0.24783859 -0.017906265 -0.04123794
0.16696395 0.25270033 0.35210392 -0.23940068 0.055685535 -0.017616173 -0.24818364 0.15537645
-0.15715814 -0.13106848 0.07308325 -0.23568957 -0.38068864 -0.22207049 0.09348722 0.21039227
-0.08172265 -0.15040857 -0.09858576 0.25925756 -0.1771666 0.11265914 0.11226503 -0.043741785
0.029329438 0.12840606 0.30431774 0.058310095 -0.15319647 0.11324453 0.14138758 -0.01762952
0.08164353 0.21597856 0.17461881 0.028679656 -0.0036725888 0.14771836 0.30268696 0.14547671
-0.19846189 0.24632828 -0.08602538 -0.008443326 0.2888327 0.18807396 0.29744768 0.0727163
0.0074984836 -0.23841454 -0.29182142 0.10195143 0.1292141 0.36522624 -0.10933118 -0.032062877
0.23153673 0.034386028 0.0075642504 -0.3487331 -0.2454975 0.13222201 0.111967735 -0.23773557
-0.06990647 -0.32715955 0.094579406 -0.28921 -0.021576855 -0.26427057 0.12569067 -0.20977056
0.0669874 0.07763049 0.056213655 -0.20755716 0.34424552 -0.07279898 0.057365168 -0.11131139
0.17182353 -0.29386917 -0.06712449 -0.21894339 0.23464255 0.14527304 0.039458517 -0.056991283
-0.1404024 0.17046732 0.22082363 -0.18954651 -0.21675399 0.16013509 0.1356119 0.054442376
0.19751203 -0.26658487 0.033078894 -0.21694618 0.1715354 0.073822886 0.27117324 0.31200534
0.23828724 0.18675518 0.2324477 -0.1529341 -0.050681908 0.14956847 -0.12938069 -0.18470697
-0.084787965 0.090370715 0.3725664 -0.06411498 -0.08858418 0.21461678 -0.297124 -0.24086808
-0.15823802 -0.09149157 0.35915124 0.20524727 0.040688485 0.04705169 0.1561126 -0.14701192
-0.0055729384 0.21372811 -0.067824915 0.23462838 0.108833104 -0.28647083 -0.22852816 -0.20857915
0.06174335 -0.11721589 0.05137314 0.058054574 -0.18198533 0.00546551 -0.28246522 0.12883206
-0.026277944 0.16240472 0.1561915 0.035585854 0.24434996 -0.20811717 0.18017226 -0.07959142
-0.003034573 0.04753049 0.156392 0.062895074 0.098940015 0.056418747 0.09500275 -0.008927019
0.20339508 0.17164512 0.16137362 -0.09205735 0.25463283 0.0070323744 -0.0035452195 0.20722575
-0.12826854 -0.03607986 0.02814771 -0.046297252 -0.34627515 0.1095802 0.24180253 0.5023122

bias f4 [16]
00000000: bac9 5bbb 57ca 60bb 16d6 9b3a 9980 523b
00000010: 8000 873b e50d 51bb 303a a6ba a307 39ba
00000020: 65aa f9ba 1c68 053b 8cfc 393b 5a2c 353b
00000030: fe7c d7ba 53f8 eb3a 2b08 04bb 2517 ccb9
-0.0033536986 -0.0034300291 0.0011889364 0.0032120107 0.0041199327 -0.003189915 -0.0012682136 -0.0007058328
-0.0019047974 0.0020356243 0.002837929 0.0027644844 -0.0016440449 0.0018003084 -0.002014647 -0.00038927156

weight f4 [8, 16]
00000000: 5c09 b73b 5df3 e93c 8d61 df3e 0715 b03d
00000010: fb3a f93c fe15 433e 9d31 243f 3921 84be
00000020: 115a b23e 1285 d03e b9db 76be 4115 2f3e
00000030: a630 0bbd 25c5 4f3d 456d 15be eab6 8abd
00000040: 81a2 bb3e 0c8c 8fbe 3e5a 5e3d ab31 ab3e
00000050: 24f6 953e 0f95 9c3e c84f 7dbe 4936 c43d
00000060: 9d5b 7a3e 041e 62bd 941f dabd e217 be3e
00000070: c370 9b3e b031 d1be 8624 08bf dac6 cdbd
00000080: 5240 1fbe 56be 8abe 1854 8a3e 979e 59be
00000090: 418c d43c a7c3 bd3e e8bd 5dbe 96d6 763e
000000a0: fbcb 7abe aac3 dd3e 13ef 3abe bc58 933d
000000b0: c6b4 d73e 282e 593e c4c4 b5be 363d dd3e
000000c0: 6ee7 863e eebc 663e d4c3 f6bd f4cb 8aba
000000d0: 405f 733e ce52 62bd d3bc b93d aa74 a73e
000000e0: 1d52 43bd 4a18 293e ab6f 133e a182 1fbe
000000f0: 171d 863e 59b0 263e 8fb0 4e3d bf0d b03e
00000100: 93e6 8f3e e47e ab3d 35a5 38be c301 f53e
00000110: aca7 a1be c374 c43e e155 12bd 3fae bb3e
00000120: 6659 483e b897 56be a9d2 abbe 7620 a3be
00000130: 3ed7 35be 38d5 323e c544 ddbd 0e71 b83d
00000140: d262 f8bd 41ef 473e a947 3e3d 93d4 d63e
00000150: 6a7f 963e f6b7 a9bc a6cc fcbe 8f4a f9bd
00000160: 09b3 61be 5f3f b9be 7c1d 8c3e 2196 753d
00000170: 6f36 7ebe 801e e8bd b6c6 26bd 80fb e1be
00000180: cc19 ba3d b8b4 b43b 2618 753e f393 8ebd
00000190: c7ec 81be 5ff3 043e 96db 1fbe 1d71 623e
000001a0: 7f2b 1f3e b4c9 393e 9b45 4dbe 54cb 673d
000001b0: be76 acbc 431a 6bbc a89c c93d 46b4 5f3d
000001c0: 2bf9 7f3d 6165 80bc 27f9 94bd 9ad2 b93e
000001d0: e0b1 793e 1965 31be 0e0b 403e 8e59 883e
000001e0: c048 043f c51f f3bd 81f7 b13c fff1 163e
000001f0: bf48 54bc 0144 2ebe 591b 203c adac d73e
0.0055858325 0.028558427 0.43629113 0.08597761 0.030423632 0.19051358 0.64138204 -0.25806597
0.3483434 0.40726525 -0.24107255 0.17097951 -0.03398194 0.05072512 -0.14592464 -0.06773169
0.36647418 -0.28036535 0.05428528 0.3343633 0.29289353 0.30582473 -0.24737465 0.095806666
0.2444901 -0.055204406 -0.10650554 0.37127596 0.30359468 -0.4085822 -0.5318073 -0.100476936
-0.1555188 -0.2709834 0.27017283 -0.21251903 0.025945785 0.37063333 -0.21654475 0.24105296
-0.24491875 0.43313342 -0.18255262 0.07194659 0.42130107 0.21209013 -0.35501683 0.43210763
0.26348442 0.22533008 -0.1204907 -0.0010589347 0.23766804 -0.05525475 0.090692185 0.32706195
-0.04768573 0.16513172 0.14398067 -0.15577175 0.2619407 0.16278209 0.05046135 0.34385487
0.28105602 0.08373812 -0.18031771 0.47852907 -0.31573236 0.38370332 -0.03572643 0.36656377
0.19565353 -0.20956314 -0.33559158 -0.31860703 -0.1775789 0.17464149 -0.10804132 0.090059385
-0.121282235 0.19524862 0.04645506 0.41959056 0.29394084 -0.020717602 -0.49374884 -0.12172424
-0.22040953 -0.3618116 0.27366245 0.059957627 -0.24825452 -0.113339424 -0.04071685 -0.44137192
0.090869516 0.0055147074 0.23934993 -0.06961813 -0.2537596 0.12983464 -0.15611109 0.22113462
0.15543936 0.1814335 -0.20046084 0.056590393 -0.021052714 -0.014349523 0.09844333 0.05461528
0.062493484 -0.015673341 -0.072740845 0.3629349 0.2438426 -0.17323722 0.18754217 0.26630825
0.5167351 -0.11871294 0.021724464 0.14740752 -0.012956797 -0.17018129 0.009772145 0.4212393

bias f4 [8]
00000000: 5be3 d5bb 4395 9ebb 5ec1 d43a 89f7 caba
00000010: f148 19bb 1464 98bc 1f80 37bb b761 fbba
-0.006527347 -0.0048395707 0.0016231944 -0.0015485148 -0.0023389424 -0.018602408 -0.002799995 -0.0019178902

weight f4 [2, 8]
00000000: 61f2 7b3e 5fde b03e 53d5 623e fe87 cc3d
00000010: dacb 32be 0fc5 60bf ff4e 47bf 1395 f83e
00000020: e223 4dbe 67ee ddbe 8286 00bf 5f4d 753f
00000030: caca f0be 7890 dc3e 4e34 babe d22f 123f
0.24604179 0.34544656 0.22151689 0.09986876 -0.17460576 -0.8780069 -0.77854913 0.48551235
-0.2003322 -0.4334595 -0.5020524 0.95821184 -0.47029716 0.4307897 -0.3636803 0.5710422

bias f4 [2]
00000000: d63b f8be d63b f83e
-0.4848315 0.4848315
