serology/results_intermediate_encoders_2/models/5fold/classifier_adverse_1.pt (torch, 18016 bytes, 20 tensors)

weight f4 [32]
00000000: 4166 8c3f 5dcf 913f e06b 6f3f 59b6 773f
00000010: 9c3d 8d3f c6a0 8c3f 63df 6e3f 7452 843f
00000020: 7f8b 923f c980 813f 369a 983f 70ec 7e3f
00000030: 77a7 783f b341 743f 04b8 5c3f 43a0 863f
00000040: a8dd 823f 43a0 813f dc1b 8b3f ad67 783f
00000050: 7783 823f 0344 6a3f 5f9a 643f 70a1 8b3f
00000060: 349a 7e3f 3a79 7d3f aa47 8f3f c29a 733f
00000070: 7a55 4f3f d7bf 743f 6a98 623f 8273 783f
1.0968705 1.1391407 0.9352398 0.96762615 1.1034427 1.0986564 0.9330961 1.0337663
1.1448821 1.0117427 1.1922061 0.99579525 0.9713053 0.9541275 0.86218286 1.0517658
1.0223894 1.0127033 1.0867877 0.97033197 1.019637 0.9151003 0.8929805 1.0908642
0.99454045 0.990131 1.1193745 0.95158017 0.809898 0.95605224 0.88513815 0.9705125

bias f4 [32]
00000000: 9b40 41bd 38d1 2b3e 2e8d adbd 961a 32bd
00000010: 87a9 dc3d c04d aebc 305a eebd 8c59 c1bc
00000020: 1d77 933d f1b6 29be 2efa c73d 39b4 50bd
00000030: 1578 86bc 7f64 1ebe 83a9 55bd f17e 2c3e
00000040: 178e db3d 18a8 a13b 52e2 073d 233b 1cbe
00000050: 07d4 593e 6576 c5bd 648b a5bd cb85 d43d
00000060: b1e0 193d ad29 823d 2a3a 3d3d cd8c 65bc
00000070: 377c 2dbe 56b8 12bb 4f6b dcbd 58f1 8cbd
-0.047180753 0.1677903 -0.084741935 -0.043482386 0.10774522 -0.021277308 -0.11638296 -0.02360227
0.072004534 -0.16573693 0.09764515 -0.050953124 -0.016414681 -0.15468024 -0.052163612 0.168453
0.10720461 0.0049333684 0.03317482 -0.15256934 0.21272288 -0.096417226 -0.08083227 0.103770815
0.037567798 0.06355605 0.046198048 -0.01401062 -0.16941915 -0.0022387705 -0.10762655 -0.0688197

running_mean f4 [32]
00000000: 6081 67bf 9178 08c0 4ee1 ef3d f890 fd3f
00000010: 4446 3a3e fd20 a6bf db02 e5bf ce5c f7be
00000020: 2c84 073e af61 a1bf c1d1 6c40 6a47 81bf
00000030: 327a a43f afed 4bbf 192d f93f a112 183e
00000040: fd07 c0be 6726 0240 e25f 8fbf 54d1 b0bf
00000050: ebd9 2040 b687 46bf 1c23 303f 381f 1640
00000060: 148f 76bf 807c 573f 02f1 7dbf c1ab 813d
00000070: 9ba4 12bf 8d16 cabf 6ed9 94bd 607f a0bf
-0.90431786 -2.1323588 0.11712895 1.9809866 0.18190867 -1.2978817 -1.7891496 -0.48312992
0.13234013 -1.2607936 3.7003024 -1.0099919 1.2849791 -0.7965955 1.9466888 0.14850856
-0.37506095 2.033594 -1.1201136 -1.3813882 2.5133007 -0.7755083 0.6880357 2.3456554
-0.9631207 0.84174347 -0.99195874 0.063315876 -0.5728242 -1.5788132 -0.07268034 -1.2538872

running_var f4 [32]
00000000: fabd c23f 4ec4 dc40 df99 583f 4174 b240
00000010: ea36 3f3f aa21 5440 7461 8140 66a0 ee3f
00000020: 9b64 a23f 011d 9c40 a424 3f41 8609 0840
00000030: 4136 c040 07f1 833f 4fb7 9040 b786 1440
00000040: b3c5 c73f e5d4 dd40 8e44 5440 85f8 3240
00000050: e781 b040 d40b 963f 95dc bc3f 9f61 af40
00000060: 7afe 6a40 f52f b43f 5ae7 8340 ac59 e83f
00000070: bab4 a43f 7ebd 5340 013d fe3f fbfd 4140
1.5214226 6.898963 0.8460979 5.576691 0.7469317 3.3145547 4.043146 1.86427
1.2686952 4.8785405 11.946445 2.1255813 6.006623 1.0307931 4.5223765 2.3207223
1.5607208 6.932238 3.3166842 2.7964184 5.515857 1.172236 1.4754816 5.4806666
3.671782 1.4077135 4.121991 1.8152366 1.2867653 3.3084407 1.9862367 3.0311267

weight f4 [16]
00000000: de75 863f d1a4 7e3f 43f2 723f 8b6a 8a3f
00000010: 2d98 913f 5587 843f 54e2 993f b216 8d3f
00000020: 3064 5a3f 17f6 6c3f dffe 5e3f c834 663f
00000030: 6751 753f 5c5e 943f 5b74 9a3f aad1 753f
1.050472 0.9947024 0.9490091 1.0813764 1.1374565 1.03538 1.2022195 1.1022551
0.85309124 0.92563003 0.8710765 0.8992429 0.95827335 1.1591296 1.2066759 0.96023047

bias f4 [16]
00000000: ec64 e53d db7b 76ba 4c97 323c 3268 17bc
00000010: 4f6f 293c 6891 253e 926e 3f3e 85f0 d63d
00000020: d631 143d dab9 93bc 9057 f5bd 14a2 b2bd
00000030: e924 bebd 54f8 463e 6569 893c 5c6c e1bd
0.1120089 -0.0009402611 0.01090033 -0.009241151 0.010341479 0.1616875 0.18694523 0.10495094
0.03618034 -0.018032957 -0.11979592 -0.0872232 -0.09284384 0.19430667 0.016773889 -0.11006996

running_mean f4 [16]
00000000: f61e 8dbe 9f64 4f3f 4f76 2bbf 39da cd3e
00000010: f551 603f 4078 54bf 30d4 56bf 548a c5be
00000020: 9a25 8cbd ef3d 093d 903d 733e 7a3f f13e
00000030: 4700 6dbd 2e34 743d 8db7 513f 6e10 c23e
-0.27562684 0.8101291 -0.669774 0.40205553 0.87625057 -0.82995987 -0.8391752 -0.38582098
-0.068431094 0.03350633 0.23753953 0.4711874 -0.057861593 0.059620075 0.819207 0.3790316

running_var f4 [16]
00000000: b1c1 303f ed7b 753f e385 1e3f 76f0 c93f
00000010: 5bf7 4f3f b743 a93f 4bc0 c63e bd5c 0c3f
00000020: d201 b13e 0f16 943f 2463 243f 06fc 4f3f
00000030: e75f 233f cbaa dd3e 8f1f 993f 5c4d 3d3f
0.6904555 0.9589222 0.61923045 1.5776508 0.8123681 1.322379 0.38818583 0.5482901
0.345717 1.1569232 0.64213777 0.8124393 0.6381821 0.43294367 1.1962756 0.73946166

weight f4 [8]
00000000: 7a34 af3f 637f 813f fb1d 8a3f 0a27 883f
00000010: 632a b03f 354d b23f ba3c a83f 4232 763f
1.368789 1.0117 1.0790399 1.0636914 1.3762935 1.3929812 1.3143532 0.9617044

bias f4 [8]
00000000: 8258 993e 2872 d7bb 4f76 633e 2644 a13c
00000010: f440 d13e 1a5d da3e 3daf ea3e 656c b6bc
0.2995034 -0.006574888 0.222131 0.019685816 0.40869868 0.42649156 0.4583682 -0.022268483

running_mean f4 [8]
00000000: 0183 7abe f7d4 9bbe b1a5 4fbf 0f7e acbb
00000010: 9993 493e 6348 d63e 9f3f e7be 1785 533d
-0.24464037 -0.30435917 -0.811122 -0.005264051 0.1968521 0.41852102 -0.45165727 0.051640596

running_var f4 [8]
00000000: 3af8 643e 1412 203f 94b1 d83f c6ef 743f
00000010: 6095 9e3e 58ff 7e3f 91f5 c53f d133 0240
0.22360316 0.62527585 1.6929193 0.95678365 0.3097334 0.99608374 1.5465566 2.0344126

weight f4 [32, 32]
00000000: 047c 053d bd81 073e a3d0 f5bd 05f1 f13d
00000010: 3dcc 7e3e 345d 44be 48cf 8fbe 047e a43d
00000020: fe9b 593e cf2f 6cbe 0b3a 933d 7fce 54be
00000030: 88a7 0c3e 3669 b23c b066 bc3b fb04 aa3d
00000040: a261 30bd 356e 82bc f952 3c3e 74f9 99bc
00000050: 55ed 3d3e ff21 2d3d 9844 473e 7c78 a53d
00000060: b958 453e 0bac 603d 94b9 0c3e 2db6 2ebe
00000070: f4a8 78be b33b db3d 357a 5c3e 7fa4 0d3d
00000080: b440 8dbe 5de4 83be a263 763d 8481 ecbd
00000090: d654 1d3d e9dd 933e 9f91 fc3d 80cc e2bd
000000a0: c6b2 5d3e 2f24 393d 9664 e43d 3c8f ec3c
000000b0: 1b89 69be 82b3 a8bc a989 8fbe 3f77 4ebd
000000c0: 7a60 ce3d da75 a73d 39ac b23d dffc 8ebe
000000d0: 86d0 a83d 6585 22be b7a9 9a3d 424c 423d
000000e0: 7b75 a2bd ae1b 873d 74d2 92be d7f8 79be
000000f0: 56b1 9b3d 7c6d a33e d3ad 743d 4880 f8bc
00000100: 9edf 3c3e 276d 42be c613 233e a89e eb3c
00000110: c62e 833d 09bb 9fbc 86f0 223e 1ade fd3d
00000120: a267 70be 3772 ef3d 5ede 2aba aef1 93ba
00000130: ca67 08be 59a9 4b3e 00eb 973e 5a16 903e
00000140: 809e f3bd 89cd 993d bf5e 33be 3a61 88be
00000150: 31db 16be e5b8 36be ea06 6dbe 60ec 19bb
00000160: 27e1 853d 5970 97be cc73 10be d4cb 34be
00000170: 26b2 a13a b307 c1bd 9fbc e1bd 7ae5 80bc
00000180: 531f 9fbd 9d9d 1abe 2f03 4e3e 99d1 2abe
00000190: a7b9 ac3c e451 94be e8b7 c73a db50 ddbd
000001a0: ad13 b83c e084 6cbd 61b9 023e 0067 ea3d
000001b0: 6c98 0b3e 3a29 c1bd 9b3b 5d3e 0ee6 ffbc
000001c0: cfc2 d63d a3b2 ad3d fceb 45be dae0 c6bd
000001d0: 2399 f33d 36d9 233c 55f1 423e 1ae4 a3bd
000001e0: f646 33be 4bfa 153e 6f1d 5abd 46ca 643e
000001f0: a97a bdbe 41be 40be 2a4e 98bd a725 f6bc
00000200: 81ca 343c d41f 8e3e 79b1 5ebe 4801 3fbe
00000210: d1aa d93d ad9b b1bc a4e9 87bd 3448 123d
00000220: 589a d53d af6e cb3d 7ec2 69be e737 033e
00000230: 9d16 f7bb ca09 3ebc 488c ffbc 0980 5fbd
00000240: 16a3 8abd 7108 793e 5561 79be b9c5 be3d
00000250: 56c8 bdbd 55af b13d 82be 253d 4aa9 573e
00000260: 19a3 cc3d f576 bd3d 5d11 fdbd f7fc be3d
00000270: cd59 83be 94fc 14be f57f ee3d 7a43 7bbe
00000280: 5a9e 24be d316 94bd e471 133e d378 7dbd
00000290: 8a92 a73e 7f85 893c 8ce9 c7bd 6f05 d03d
000002a0: 548f 103e 5a6a 8fbd 6e54 c3be 2fad 8ebe
000002b0: bf9b abbe bcb3 82be 8963 f9bd c705 02be
000002c0: 30e2 0abd 9253 e83d 5a31 a8bd b9f7 3abd
000002d0: cbca 583e c823 7fbc 3025 70be 7a07 7ebe
000002e0: 3fd6 78bd dbe8 5ebd 31b9 a33c 3669 83bc
000002f0: 9bd1 4bbd 1f62 1abe b2c6 f9bd 3db9 1f3d
00000300: d454 383d 3108 10be ffbc 523d 6db6 903c
00000310: 3457 adbc d405 6b3e e7c8 51be 8469 283d
00000320: bcad 15be 9c97 c23d 3585 b5be 365d bfbd
00000330: 3321 e9bc 6f18 c03d 32a3 d4bd 340b 8e3c
00000340: db21 b73d 1a43 223e 5261 54be 6075 2ebe
00000350: 4a45 af3e c42a d6bd e447 23bd 3760 03be
00000360: b6f7 06bd 25cb 653d a39c 08bd abb2 23bc
00000370: 6edf e7bd 1fec f9bd fccb 5abe 340c 77be
00000380: 4ba8 59be 7694 eebd efe3 5abe 3b9a b1bd
00000390: ff6d 5bbe f51d c0bc 277c 853c 9784 ab3e
000003a0: 5c7f 813e 2b19 f2bc f169 263c 156b 79be
000003b0: 280b d23d 6410 d33b db8c 0e3e c07c c03d
000003c0: db95 8ebe e421 35be 3a45 0c3e 967f 593e
000003d0: 1f18 b6bc 7377 693d 3773 f0bd 8358 41be
000003e0: 870c eebd 878d 49be 82ef 423d f11c 7e3d
000003f0: 4a50 6ebe 73cb 1c3e de12 1cbd 2402 233e
0.032588974 0.13233085 -0.12002685 0.11813549 0.24882598 -0.19176179 -0.2808783 0.08031848
0.21250913 -0.23065113 0.07188805 -0.20781897 0.13735783 0.021778684 0.005749546 0.08301731
-0.04306186 -0.015921691 0.18391027 -0.018795706 0.18547566 0.04226875 0.1945976 0.08079621
0.19272126 0.054851573 0.13742667 -0.17061682 -0.242832 0.10704746 0.21530993 0.034580704
-0.27588427 -0.25760165 0.06015361 -0.11548141 0.038410984 0.28880242 0.123324625 -0.110741615
0.21650228 0.045200523 0.11151998 0.028876893 -0.22806208 -0.020593408 -0.28034714 -0.05040669
0.10076995 0.08176775 0.08724255 -0.279273 0.08242898 -0.15871198 0.07551902 0.047436006
-0.07932564 0.06597076 -0.28676188 -0.24411331 0.076021835 0.31919467 0.059736084 -0.030334607
0.18444678 -0.18986951 0.15925512 0.028762177 0.06405406 -0.019498365 0.15912065 0.12395878
-0.23477033 0.11691707 -0.00065181206 -0.0011287236 -0.13320842 0.1988882 0.29671478 0.28142053
-0.11895466 0.07509906 -0.17516612 -0.26636678 -0.14732052 -0.17843969 -0.23147169 -0.0023486838
0.06537085 -0.29577902 -0.14106673 -0.1765588 0.0012336418 -0.09425297 -0.11022305 -0.015734423
-0.077696465 -0.15099187 0.20118402 -0.16681518 0.02108462 -0.28968728 0.0015237303 -0.108064376
0.02247032 -0.057743907 0.12766029 0.11445427 0.13632363 -0.094316915 0.21604769 -0.031237628
0.104863755 0.08481338 -0.19328302 -0.09710856 0.11894443 0.010000518 0.19037373 -0.08002491
-0.17507538 0.1464626 -0.053250726 0.22342786 -0.37007645 -0.18822576 -0.074367836 -0.03004725
0.011034609 0.27758658 -0.21747388 -0.18652833 0.10628284 -0.021680677 -0.0663636 0.03571339
0.10429829 0.099332206 -0.22828099 0.12814294 -0.0075405375 -0.011599014 -0.031194821 -0.054565463
-0.067693874 0.24319626 -0.24353535 0.09315056 -0.09266727 0.0867602 0.040464886 0.21060672
0.09992046 0.09251205 -0.123568274 0.09325593 -0.2565445 -0.14549476 0.116454996 -0.24537459
-0.16076031 -0.07230916 0.14398915 -0.061882805 0.32728988 0.016787289 -0.097613424 0.101572864
0.14117175 -0.07002707 -0.38150352 -0.27866504 -0.33517262 -0.2552775 -0.12177188 -0.12697516
-0.033907115 0.11344065 -0.08212538 -0.045646403 0.2117111 -0.015572496 -0.23451686 -0.2480754
-0.060751196 -0.054421287 0.019985767 -0.01604138 -0.049760442 -0.15076493 -0.12196101 0.038995016
0.045002773 -0.14065625 0.051449772 0.017665112 -0.021159746 0.22951442 -0.20486794 0.041116253
-0.14617056 0.095015734 -0.3545319 -0.093439505 -0.028458213 0.0937966 -0.103826895 0.017339326
0.08942004 0.1584591 -0.2074025 -0.17036963 0.3423255 -0.10457376 -0.039863482 -0.12829672
-0.03295108 0.056101937 -0.033352505 -0.009991328 -0.11321913 -0.1220324 -0.21366876 -0.24125749
-0.21255605 -0.116494104 -0.21376012 -0.08671995 -0.21428679 -0.023451785 0.016294552 0.33499596
0.2529248 -0.029553017 0.010157094 -0.24357255 0.10256034 0.006441163 0.1392092 0.09398794
-0.27848706 -0.1768871 0.13698283 0.21240076 -0.022228299 0.05699868 -0.117407255 -0.18881421
-0.11623483 -0.19682895 0.047591694 0.06203932 -0.23272815 0.15311985 -0.03810393 0.15918785

bias f4 [32]
00000000: 9e8d ee38 3daf 153b bc28 3ebb 63e3 d4ba
00000010: a6b8 edb7 db5a 49ba 01b1 53bb a2d8 a33a
00000020: 9c3b da39 0b24 92ba 26d0 95ba 660a 9eb9
00000030: 79a9 03bb 3770 bcb8 164a b7b9 7506 9a3a
00000040: 3c86 403a 8944 f6ba fdf9 d739 fbf4 cdba
00000050: 43ee ae3a 80af 5fba 5cd0 11bb 8f8c f5b9
00000060: 8f9b c23a 6892 353b 7b45 43ba a769 7839
00000070: d7a9 30bb 7775 a93a 94c7 ebbb d237 b9bb
0.000113751026 0.0022840046 -0.0029015979 -0.0016242083 -2.8338585e-05 -0.000768108 -0.0032301547 0.0012500475
0.00041624613 -0.0011149658 -0.0011429831 -0.00030143856 -0.0020090027 -8.98544e-05 -0.00034959678 0.0011751192
0.0007344221 -0.0018788736 0.0004119425 -0.0015713269 0.0013346154 -0.00085329264 -0.0022249436 -0.00046834766
0.0014847385 0.0027705673 -0.0007449013 0.00023690482 -0.0026956701 0.0012928684 -0.0071954224 -0.0056524063

weight f4 [16, 32]
00000000: b7d8 82be 738d 913e 14e0 abbd 0f37 cfbe
00000010: ba6c 133d 4054 15be f2bc 0a3e 1db8 82bd
00000020: dab4 633e aca2 93bd 132b 45be 3e87 ab3e
00000030: 4a45 6a3d aaa5 ecbd 1b5c a33d f226 94bd
00000040: db80 663d f7a3 11be e6f1 e9bd e33b 0e3e
00000050: c248 e7bd bc18 e83d ab46 1e3e c3ee 6dbe
00000060: 122f adbe 5d9c b7bd 7856 013e afbe 063d
00000070: 1ccf 913d 0213 f0bd dd47 103e 76be 1cbe
00000080: f7c3 c63c d383 ab3d d07a 273e c05f ddbd
00000090: 6dd4 f3bd 4260 023e df7e df39 b2fc 453e
000000a0: 9b93 25be 0e4a 3bbe ad80 3b3e 4186 7b3e
000000b0: d4ae 59be 510e 623e a146 1f3e c265 b1bd
000000c0: 9d95 873e c59c 573e 3185 4b3e 35d5 3a3e
000000d0: b599 c93c 06e9 61be 20e4 8a3e b920 723e
000000e0: cad5 30be cad6 953e 336d a5be dd4e 96bd
000000f0: 6a95 9e3e 96f2 563e 929c 603e 06ac c43e
00000100: e8d2 21be a6e9 5b3e 0166 543d 9dfb 7bbe
00000110: 326f 49bd 2523 febd eaf0 bd3d 42ad 77bd
00000120: 24d2 a1bd 7b4b d0bd 9680 debe 245e ebbd
00000130: 45fa 703e e068 abbd d267 d53d b420 55bd
00000140: 75f7 733e f30d 7abc 51c9 1b3d da3d e4be
00000150: 5e20 7fba 0511 d9bd 49aa ac3d 4dda 17be
00000160: 6b60 47be 11f9 babe fbfa dabe f805 803d
00000170: 05c5 403e 130b af3b 7315 413e d04d afbc
00000180: e751 bc3c 65cf 853e c932 863d f2c6 c83d
00000190: b338 563e 1d13 143d a828 733e 7b69 653d
000001a0: 77b9 38be f24f 9d3e e3d7 97be 1ddb cabd
000001b0: 3074 6c3e 4d9c 0e3e 5aa9 9c3e 9e35 b8be
000001c0: b575 69bd 22db f7bd 6edd c03e 2b5b 7dbd
000001d0: 53e6 6dbe 5592 303e b516 5ebe 8be5 90bd
000001e0: 244f d13e 5bb1 673e 47b4 4abe b666 ecbd
000001f0: 8bc2 b3bc cdb9 033e 899d 503e 5f0d 3c3e
00000200: 31c6 a73e f7bd a33c b949 4d3e d3fb 26be
00000210: 6188 e43c 066e 5bbe a67f c9bd 252e 9e3e
00000220: c627 f03e dccd 7e3e 8db3 e5bd 715c 9f3e
00000230: cae6 97bd f984 d43c 0915 8ebd 30da 343c
00000240: 4d0c 223b 121b 823d a54e 1abe 6026 c2bb
00000250: b424 923e 69ef b83c 3923 cf3e daf2 a33b
00000260: 27aa 293d da59 df3b dd79 603c 263a 9f3e
00000270: b9a9 813d ddcc 58bd 4016 babc 9791 8e3c
00000280: 60f1 3cbd acad bfbe ab5f 823e 40b6 86be
00000290: 5ef7 dfbc 5197 a6be 98ff fa3d 788d 7bbe
000002a0: 068a b0bd 10d1 76bc b85f 8a3e ef64 1a3c
000002b0: 2273 813b 8321 3ebe 6086 843e bf56 03bd
000002c0: ed7b 603d bc45 5cbd f3dc afbe 0ae9 01be
000002d0: f2f8 293d c706 80bd 9e57 4cbe a39a 11be
000002e0: 6778 f93d cb26 a5be f6bd 87be 0953 40be
000002f0: 23c2 21be e80d 8bbc 2400 573e b34d 11bd
00000300: e9d3 de3d 3d7a 833d 9400 35be 8390 b3bc
00000310: 4102 d0bd d273 903d ca20 ac3e 8571 1cbc
00000320: c764 8dbe 4756 2e3d 4345 d8be 4e29 12bd
00000330: 4b50 403e 4769 99bd 8a76 3fbd 7286 b0be
00000340: b49b 17be 8fa6 acbe 66db cebd 78ad 39be
00000350: dc82 d33d 567d 333e ff9b 593d efe6 a9be
00000360: 1727 233c 263e 72be 396f 6ebe 88a8 e8bb
00000370: 83f3 5cbe 5c30 adbd bf94 903e b411 8a3d
00000380: 30f0 bc3d 8b85 873b 828c 86be ec48 c43e
00000390: 0e55 183e 175f 28be f16b 7f3e b5bd eabd
000003a0: 1625 bfbe da64 91bc 4ed8 f4bd aa5c bd3d
000003b0: 1a0a f4bd ef7a 633e f819 153e f001 6f3e
000003c0: 414a ddbc 033d b4bd ec23 b0be 6885 8fbc
000003d0: 12b3 84be 0059 b93c 2d48 023a c73e f4bd
000003e0: b988 663e 405d 4dbe d475 4bbe 8c39 21be
000003f0: 0c8d 1fbe c6bf c6bb c597 903e f703 2abe
-0.25555965 0.2842823 -0.08392349 -0.40471694 0.03599236 -0.1458292 0.1354864 -0.06382773
0.22236958 -0.072087616 -0.19254713 0.3350162 0.057194985 -0.115550354 0.07976552 -0.07233991
0.05627523 -0.14222704 -0.114230916 0.13890032 -0.11293174 0.11332843 0.15456645 -0.23235612
-0.33824974 -0.08965371 0.12630641 0.032896694 0.07119581 -0.117223755 0.14089914 -0.1530703
0.024263365 0.08374753 0.16355443 -0.108092785 -0.119057514 0.12732032 0.000426284 0.19334677
-0.16169588 -0.18289968 0.18310805 0.24562933 -0.21258098 0.22075774 0.15554287 -0.08661987
0.26481333 0.21055897 0.19875027 0.18245395 0.024609426 -0.22061548 0.2712717 0.23645295
-0.17269054 0.29265434 -0.32309875 -0.07339261 0.3097337 0.20990977 0.21934727 0.38412493
-0.1580311 0.21475849 0.05185509 -0.24607702 -0.04917831 -0.12409047 0.09274466 -0.060467966
-0.07901409 -0.10170647 -0.43457478 -0.11492565 0.2353297 -0.08369613 0.10420193 -0.05203314
0.23824866 -0.015262115 0.038033787 -0.4457844 -0.0009732301 -0.10598949 0.08430917 -0.14829369
-0.19470374 -0.36518148 -0.42769608 0.062511384 0.18825157 0.0053418963 0.18855838 -0.021399409
0.022988273 0.26134792 0.06552655 0.09803571 0.20920067 0.03615104 0.23745978 0.056008797
-0.18039499 0.30725056 -0.29656896 -0.09905074 0.23091197 0.13926812 0.30597955 -0.35978407
-0.05699702 -0.12102343 0.37668937 -0.061854523 -0.23232393 0.17243321 -0.2168835 -0.07075032
0.40880692 0.2262625 -0.19795333 -0.11543028 -0.021943351 0.12863846 0.20372595 0.18364476
0.32768396 0.019988043 0.20047654 -0.16307001 0.027897062 -0.2142869 -0.098388 0.3089458
0.46905345 0.24883217 -0.11215887 0.31125215 -0.074170664 0.025942313 -0.06937606 0.011038348
0.002472657 0.063528195 -0.15069063 -0.005924985 0.28543627 0.022575097 0.4045656 0.0050033154
0.041422036 0.006816131 0.0137009295 0.3109905 0.063312 -0.052929748 -0.022715688 0.017403407
-0.04612863 -0.3743719 0.25463614 -0.2631092 -0.027339634 -0.3253732 0.12255782 -0.24565685
-0.08620076 -0.015064493 0.27026153 0.0094234785 0.0039504925 -0.18567471 0.2588377 -0.03206515
0.054805685 -0.05377744 -0.34348258 -0.12686554 0.04149718 -0.06251293 -0.19955298 -0.14219145
0.12181168 -0.3225616 -0.26512116 -0.18781675 -0.15796714 -0.016974404 0.20996147 -0.03547449
0.108802624 0.064197995 -0.17676002 -0.021919494 -0.1015668 0.07053341 0.33618766 -0.00954855
-0.2761595 0.04256275 -0.42240342 -0.035683922 0.1878063 -0.07490783 -0.046743907 -0.34477574
-0.1480549 -0.33720824 -0.10100441 -0.1813258 0.10327694 0.1752828 0.053127285 -0.33184
0.00995805 -0.2365652 -0.23284616 -0.0071001686 -0.21577267 -0.084564894 0.28238484 0.06741658
0.092255 0.0041357926 -0.26279074 0.38336885 0.14876196 -0.16442524 0.2494352 -0.11461965
-0.37332982 -0.017748285 -0.11955319 0.0924619 -0.11915989 0.22214864 0.14560688 0.23340583
-0.027012946 -0.088006996 -0.34402406 -0.017519668 -0.2591787 0.022625446 0.00049698615 -0.11926036
0.22513093 -0.20055103 -0.19869167 -0.15744609 -0.15581149 -0.0060653416 0.2824079 -0.16603075

bias f4 [16]
00000000: f508 0d3b c094 70b9 d5ef 3a3a 4893 59bb
00000010: 7994 91b9 3dc4 20bb f4e9 f23a 4bc3 8a3a
00000020: d6b0 473b 0e84 513b b626 bfbb 26d8 17bc
00000030: b505 c8bb df34 d63b ea85 223b 8637 2dbb
0.0021520231 -0.00022943597 0.00071310747 -0.0033199359 -0.00027767176 -0.002453103 0.0018532858 0.0010586766
0.0030470393 0.003196958 -0.005833472 -0.009267842 -0.006104196 0.0065370644 0.0024799057 -0.00264308

weight f4 [8, 16]
00000000: 0add 40bd d83e bebc 1d33 1dbe f676 33be
00000010: 0b77 e43e b087 8abd dd15 b6bd 2e21 11be
00000020: 0aba e9bd 3365 8ebb 3456 febc f897 69be
00000030: 31f6 76be ae7d 8cbd 14d8 423e 4b4c 8d3d
00000040: d0fe 49be 676e e9be f1f1 fc3d 1c5b 91be
00000050: e36b 5ebe de34 70be 9e78 653d cfe5 603e
00000060: 5b82 64bd 128b bcbe 66eb 213e eb53 cd3e
00000070: 0840 ad3d 30a2 c1bc 389a 49be 6819 4e3e
00000080: 8732 a03c 2238 a9bd c7d2 72be 588c 99be
00000090: e028 613e 3702 41be 9b80 b0be 6b58 c2bd
000000a0: 239a 44be 959e 203d 8105 22be 89fe 8f3e
000000b0: fe96 2c3e f63e 08bf 9a5a adbe 2f58 37be
000000c0: 4902 50be 4e59 c43e 8f5f ce3e 9f69 cd3e
000000d0: fa20 3b3c c46d a4be 265b 04bf 4183 06be
000000e0: 0a04 063a 28ad 493e a747 d1be 3fa2 073e
000000f0: 1a77 6f3e 2d1d 523d 7b57 803e e6c3 023e
00000100: ac16 98be 6fe8 ccbc 88d3 303e faf9 193d
00000110: bd73 c1bd b178 7abe 12c8 b83e 41cb 543e
00000120: 1b12 023e 3def d5bd 4247 bfbd 9ec2 b63d
00000130: dce5 673e 9ddd 15be c94b 3d3e d27e fe3d
00000140: 117f 933e 1d1b 823e b60a 88be d131 203e
00000150: 3937 58be 2331 b33e ebd3 f23d b9ef e0be
00000160: 8618 0abc 61e9 b83e 2471 db3e 46ba a6be
00000170: 614f c2bd 16db 893e 3a8c a83e 7cb8 fbbd
00000180: ac1a a8be 91d4 dc3b b977 7fbd 497e f7bd
00000190: 4c50 06bf e7ed 843e 466d 913e ce57 043d
000001a0: dd03 813e cba7 7a3e 9bd6 91be 1092 bbbe
000001b0: a3ae 11bf cc4e 46be 3e9f 24bc 63a9 9b3c
000001c0: a512 55be 67a4 d73e 53fd e7bd 68d4 083f
000001d0: 3547 54be b623 1abc 728b 77bd 8699 6fbe
000001e0: 89c4 9cbe dd08 853e 1bf7 973e 1bb6 4ebe
000001f0: 2d7b e1bd a6bf 4f3d 2acd bf3e 6d0a b53d
-0.0470858 -0.023223326 -0.1535153 -0.17525849 0.44622073 -0.067641616 -0.08890889 -0.14172813
-0.11412437 -0.00434556 -0.031046964 -0.22811878 -0.24117352 -0.06859909 0.1902774 0.06899317
-0.1972611 -0.45592043 0.12350834 -0.28389823 -0.21720843 -0.23457667 0.056023233 0.21962665
-0.05578838 -0.36824852 0.15812454 0.40103087 0.084594786 -0.023636907 -0.19687736 0.20126879
0.019555343 -0.082626596 -0.23713218 -0.29989886 0.21988249 -0.18848501 -0.34473118 -0.09489521
-0.19199423 0.039213736 -0.15822412 0.28123882 0.16854474 -0.5322107 -0.33858186 -0.17904733
-0.20313372 0.38349384 0.4030728 0.40119645 0.011421436 -0.32114995 -0.5170158 -0.13136007
0.0005112296 0.1969496 -0.4087498 0.13245486 0.23385277 0.051297355 0.25066742 0.12770042
-0.29704797 -0.025013177 0.17268193 0.03759191 -0.094459035 -0.24460103 0.36090142 0.2078066
0.12702219 -0.10446022 -0.09339763 0.08923839 0.22646278 -0.1463532 0.18485941 0.12426533
0.2880788 0.2541131 -0.26570672 0.15644003 -0.21114816 0.34998426 0.118568264 -0.43932894
-0.008428698 0.36115554 0.42859757 -0.3256399 -0.094877966 0.26924962 0.32919484 -0.12291047
-0.3283285 0.006739207 -0.062370036 -0.12084634 -0.52466273 0.25962755 0.28403682 0.0323103
0.2519826 0.2447807 -0.28484043 -0.36634874 -0.569071 -0.19365996 -0.010047732 0.019001668
-0.20807894 0.42117617 -0.11327615 0.53449106 -0.20730288 -0.009407928 -0.06043572 -0.23398408
-0.30618694 0.25983325 0.29680714 -0.20186655 -0.11009822 0.05071988 0.37461215 0.08839879

bias f4 [8]
00000000: 0f8b ed3a 8895 21bc 8840 3cbb 5499 3bbc
00000010: c6ed 1d3b 3b4f 933b cc81 023c 9ca2 b6bc
0.0018123108 -0.009862311 -0.0028724987 -0.0114501305 0.0024098023 0.004495529 0.007965516 -0.022294335

weight f4 [2, 8]
00000000: e74a b03d fb85 7abe 39ca 15bc cc1b b2bc
00000010: 9bef c4bd 1075 5cbf bfa3 0bbf bd0e 6b3e
00000020: 06e8 283f 1599 fbbe 7e15 453f b75c 05bf
00000030: 6e2a 423f 3bb4 283f 1a1e 6f3f 7a91 13bf
0.086080365 -0.24465172 -0.009142452 -0.02174177 -0.096160136 -0.86116123 -0.5454673 0.22954841
0.6597904 -0.4914023 0.7698592 -0.52094597 0.7584599 0.6590001 0.93405306 -0.57643855

bias f4 [2]
00000000: f15b a3be f25b a33e
-0.31906083 0.31906086
