serology/results_intermediate_encoders_2/models/5fold/classifier_adverse_6.pt (torch, 18016 bytes, 20 tensors)

weight f4 [32]
000000 ca 91 90 3f 95 40 7d 3f 3c 7f 81 3f 3d c3 7a 3f
       1.1294491 0.9892667 1.0116954 0.9795416
000010 da b7 83 3f 1f 74 95 3f f1 c9 6e 3f b8 0a 8f 3f
       1.0290482 1.1676062 0.9327689 1.1175146
000020 83 c2 6b 3f 80 0d 76 3f 0b a9 82 3f 7d de 7e 3f
       0.92093676 0.9611435 1.0207838 0.9955824
000030 4c 3c 84 3f c7 b2 8b 3f b6 7d 7f 3f cc ee 89 3f
       1.0330901 1.0913934 0.99801195 1.0776
000040 94 f1 80 3f e7 64 70 3f 40 b8 91 3f ce 3b 80 3f
       1.0073724 0.93903965 1.1384354 1.0018251
000050 60 10 8e 3f 9a de 6f 3f 05 1d 79 3f 31 d3 7d 3f
       1.1098747 0.9369904 0.97309905 0.9915038
000060 3c 44 8b 3f a5 79 66 3f 0c 07 6c 3f ba 84 5d 3f
       1.0880198 0.90029365 0.9219825 0.8653065
000070 49 0e 8d 3f f1 9b 64 3f 57 00 7f 3f e8 8a 84 3f
       1.1019984 0.8930045 0.99609894 1.0354891

bias f4 [32]
000000 cd 0d cb 3d 6c d2 be 3d 71 49 02 be e9 e5 14 be
       0.09914742 0.093174785 -0.12723328 -0.14540829
000010 ae 30 06 bd 62 2c 6d bc d2 ff 8b bd a8 c9 e3 3d
       -0.03276127 -0.014475914 -0.06835903 0.11122447
000020 f2 5c bd bd d0 86 0c be 81 8c 37 bc c5 45 4c bd
       -0.092462435 -0.13723302 -0.011202932 -0.049871225
000030 72 5e bc 3c f2 18 ef 3d 54 81 18 3d 2e ee 96 3d
       0.022994254 0.1167468 0.037232712 0.07369648
000040 0d f4 d4 3c 71 4b 97 bd b5 38 4a 3d 56 c5 7b bd
       0.025995279 -0.07387436 0.049370486 -0.06146749
000050 4c cb f5 3d 33 5f bb 3d 3b 8d 02 bd 2c b1 20 bd
       0.120016664 0.09149017 -0.03187297 -0.039231464
000060 0b 8b d1 3d e5 29 12 be 72 bc 91 3c 2c 1f cf bd
       0.102315985 -0.14273794 0.017790053 -0.101133674
000070 2e cd 0e 3d 10 86 d4 bd 11 56 9d bd 4d eb 86 3d
       0.034863643 -0.10377133 -0.076824315 0.06587849

running_mean f4 [32]
000000 44 66 43 40 30 4b 63 bf 6d 08 b3 bf 6f c5 50 3f
       3.0531168 -0.887866 -1.3986946 0.8155126
000010 db f8 4f 40 d9 a7 ff bf 1b 04 18 40 30 18 83 be
       3.249564 -1.9973098 2.3752506 -0.2560439
000020 18 4b 8f bf 8c b2 a5 3e e5 87 b8 bf 3b 09 ab bf
       -1.1194792 0.32362783 -1.4416472 -1.3362192
000030 78 c4 81 3e de b7 27 c0 0c 39 66 bf 8c 9a 28 bf
       0.25345206 -2.6205974 -0.89930797 -0.6586082
000040 52 d6 bb be a8 1c 61 bf 56 f1 42 bf 81 a8 b8 3f
       -0.3668695 -0.8793435 -0.761495 1.4426423
000050 fd 23 66 40 3c ba 02 40 b9 c9 ef bf 6b 6b ae 3f
       3.5959466 2.0426168 -1.8733436 1.3626531
000060 98 0f 9b 40 28 e1 36 3f d8 c4 88 bf b7 30 cd 3f
       4.8456535 0.7143731 -1.0685072 1.6030492
000070 1a 3c 54 3f 33 6f 1e 3f cd 2a cd bf 83 59 ea 3f
       0.8290421 0.61888427 -1.6028687 1.8308567

running_var f4 [32]
000000 71 b6 43 41 94 84 42 40 18 33 85 40 82 80 b0 3f
       12.232041 3.039342 4.162487 1.3789217
000010 2a 89 25 41 d5 42 84 40 ad c2 68 40 f8 af 16 40
       10.345987 4.133158 3.636882 2.3544903
000020 71 04 1c 40 f8 3d af 3f bc 77 46 40 f0 46 b0 3f
       2.437771 1.3690786 3.101058 1.3771648
000030 70 c2 5a 3f c6 6f de 40 9e eb c0 3f b5 ce 43 40
       0.8545294 6.951144 1.5071905 3.0594914
000040 4a 40 ad 40 1f 50 0c 40 cd d4 7f 40 ec 3b 07 40
       5.414098 2.1923902 3.9973633 2.1130323
000050 b4 bb 17 41 7a 60 19 41 e4 69 46 40 fe ad 25 40
       9.483326 9.586054 3.100213 2.5887446
000060 5b 03 aa 41 a6 29 93 3f 00 c6 25 40 94 f9 1b 40
       21.251638 1.1497085 2.59021 2.437108
000070 30 1c 10 40 a0 1b c3 3f 59 63 4e 40 86 1c 9b 40
       2.2517204 1.5242805 3.2248137 4.847232

weight f4 [16]
000000 8c f2 9f 3f 52 1f 69 3f 3b 30 6e 3f a7 86 6c 3f
       1.2495894 0.91063416 0.93042344 0.92392963
000010 af 94 90 3f b8 07 83 3f 9c 39 88 3f e8 38 6e 3f
       1.1295375 1.023673 1.0642581 0.9305558
000020 1b d1 92 3f 3d 3c 84 3f 7e d4 83 3f 1a 59 78 3f
       1.1470064 1.0330883 1.0299222 0.9701096
000030 ea 53 86 3f 24 a5 95 3f 0a 63 74 3f 58 e9 6a 3f
       1.0494359 1.1691022 0.9546362 0.91762304

bias f4 [16]
000000 2a 7b 00 3e 0d 89 12 bc 24 ca 9b bc a1 21 a8 bc
       0.12546983 -0.008943808 -0.019017287 -0.020523848
000010 35 d3 51 3e 63 24 01 3d b6 f2 1b 3e 3a 97 41 3c
       0.20490725 0.03152884 0.15229306 0.01181584
000020 b4 26 9d 3d 88 31 26 3d eb 53 87 3c 1c 28 65 bd
       0.07673398 0.04057458 0.016519507 -0.055946454
000030 4d 16 49 3d 4b d3 4f 3d de 51 39 bd 34 84 9c bd
       0.049093533 0.050738614 -0.04524409 -0.07642403

running_mean f4 [16]
000000 ab 74 da 3e d7 da 1e 3e 0a c4 1b 3f c9 5b 03 3e
       0.42667136 0.15513168 0.60846007 0.12827982
000010 53 5e 18 bf 46 16 dc 3e 0b 41 43 3c 28 f9 8e bf
       -0.5951893 0.42985743 0.011917363 -1.1169786
000020 76 0d e9 3d 39 62 c4 3e e3 48 0d 3d 76 f2 46 be
       0.113795206 0.38356188 0.03449334 -0.19428429
000030 dd cc 0a 3f 4a 97 50 3f be 35 1a bf 60 2a 0f 3f
       0.54218847 0.8148085 -0.60238254 0.55924034

running_var f4 [16]
000000 27 f5 a2 3f 4a fb fd 3f 15 5c 28 3f 5f 97 d6 3f
       1.2731065 1.9842312 0.65765506 1.6764945
000010 e2 a2 8f 3e b3 e7 f8 3e 8d a3 28 3f c8 14 04 3f
       0.28053957 0.48614272 0.6587456 0.5159421
000020 5b c2 76 3f 28 16 4b 3f 5f 13 95 3f 58 d1 87 3f
       0.9639031 0.7933068 1.1646537 1.0610762
000030 f2 19 78 3f c9 07 cf 3e f4 9b 05 3f ed 9d 1e 3f
       0.9691459 0.40435627 0.5219109 0.61959726

weight f4 [8]
000000 9c 8c 9d 3f 53 1c 68 3f cb 00 ce 3f 26 59 c3 3f
       1.2308536 0.9066822 1.6093992 1.5261581
000010 3e 95 3e 3f b8 59 95 3f ba b2 57 3f e9 95 5b 3f
       0.74446476 1.1668005 0.8425709 0.8577562

bias f4 [8]
000000 dc ac cc 3e 1c 23 bc bd c9 cd d0 3e b3 a1 1c 3f
       0.3997563 -0.09186384 0.40782002 0.61184233
000010 c5 3c 80 be a6 b5 a3 3e dd fd 29 be 0b 87 50 be
       -0.25046363 0.31974524 -0.16600747 -0.20364015

running_mean f4 [8]
000000 58 c0 e1 3c 8b d8 8d be 1e 27 18 3e fb 59 dc 3e
       0.027557537 -0.27704272 0.14858672 0.430374
000010 cc 18 17 3e 4c 37 cd bd 19 7a 0c 3f 09 44 7c 3e
       0.14755553 -0.10020313 0.54873806 0.24635328

running_var f4 [8]
000000 ac d9 8e 3f 54 50 02 3f 73 2e 25 40 60 a3 8e 3f
       1.1160178 0.5090382 2.58096 1.1143608
000010 67 ec 8b 3f 48 ec c9 3e 66 91 98 3f 2e 16 60 3f
       1.0931519 0.3943808 1.1919372 0.87533844

weight f4 [32, 32]
000000 3c 24 8e bc 2c ba 4a 3e b3 11 40 3e 04 5a f6 3d
       -0.017351262 0.19797581 0.18756752 0.12028888
000010 31 dc 3b be 5e 68 95 bd 17 cd 1b 3d c5 a9 3a bd
       -0.18345715 -0.07295297 0.038037386 -0.04557206
000020 30 36 3f be 50 60 dd 3c 77 7e da bd 63 f2 2e 3c
       -0.18673015 0.027023464 -0.106686525 0.010677907
000030 f5 37 81 3e ac a4 0e 3d c3 3d 6d be 5c d9 be 3d
       0.25238004 0.034825012 -0.23168091 0.09318802
000040 e3 8b 3b 3e 6f 8c d6 bc f7 0b ad 3e c6 30 21 3e
       0.18315081 -0.02619001 0.3379819 0.15741262
000050 0a 9c de bd b4 74 6b 3e e8 b4 30 be 70 1d 12 3e
       -0.10869606 0.22993737 -0.1725651 0.14269042
000060 4b 0e 18 be 27 50 4c be be e9 28 3e c3 12 78 be
       -0.14849202 -0.1995245 0.16495416 -0.24225907
000070 06 3f b4 be e5 1d 72 3d 02 62 72 be 2b 42 73 3e
       -0.35204333 0.05911054 -0.236702 0.2375571
000080 02 87 4a 3e f9 be f3 3c 4c c0 27 3e 4f 37 84 bd
       0.19778064 0.029754149 0.16381949 -0.06455862
000090 c7 e9 01 be 5e 39 ae 3d 48 2d 56 be 7f 54 85 bc
       -0.12686835 0.08507036 -0.20915711 -0.016275642
0000a0 ec 60 3f be 35 3a 91 3a 20 3c e3 bb 53 5a 8c be
       -0.18689317 0.0011079969 -0.0069346577 -0.27412662
0000b0 78 e0 14 3e 1a 43 0d 3e 34 35 4e 3e e9 e2 2a be
       0.14538753 0.13795128 0.20137483 -0.16688122
0000c0 6f 2c 85 be d7 c5 93 be b7 0b b6 bc 4e ba aa be
       -0.26010463 -0.28861877 -0.022222383 -0.33345264
0000d0 13 fd 2b 3e be 1f 1b 3d a9 ae cb bd 3d 68 10 be
       0.16795759 0.03787207 -0.09945423 -0.14102264
0000e0 14 18 3c 3c fd 51 1b be 20 81 31 3e fe f1 2f bd
       0.01148035 -0.15167995 0.17334414 -0.04295539
0000f0 cb 96 e4 3b 20 44 61 3e 0a 2c 8b bc ff d9 51 be
       0.0069759837 0.21998644 -0.016988773 -0.20493315
000100 c1 ef f8 bd c1 2a 13 be 68 b6 b5 3d d2 e5 42 3e
       -0.121551044 -0.14371778 0.08872682 0.19032982
000110 b8 49 0a be 87 bb bf 3d 50 b0 e4 3d 26 1a 75 be
       -0.13504684 0.0936194 0.111664414 -0.23935756
000120 4c 20 6a 3e 1e 15 49 bd cb 72 85 be 3e 40 04 be
       0.22863883 -0.049092405 -0.26064143 -0.12915131
000130 f1 8c 65 3d 3b 64 c5 3d ae 99 1a 3e be 60 50 3c
       0.056042615 0.09638258 0.15097687 0.012718378
000140 5f 1b 94 be 34 48 25 be 0c f6 f5 bd 66 c1 78 bd
       -0.28927132 -0.16140825 -0.1200982 -0.060731314
000150 df 35 3c bd 19 e4 58 3d ef bd 00 3e 3a 45 42 3c
       -0.045949813 0.052951906 0.12572454 0.011857325
000160 34 4c 50 3e dc 3d 75 3d e2 f1 07 be 7a 68 79 bd
       0.20341569 0.059873447 -0.13275865 -0.060890652
000170 a8 0e 82 bd 9a 57 ec bc 72 6e 8c bd 2b dd 0d 3d
       -0.06350452 -0.028850365 -0.06857003 0.03463475
000180 63 c6 61 3e 97 89 98 bd 00 05 db bc 5f 24 3c be
       0.22048335 -0.07448118 -0.026735783 -0.1837325
000190 2d e3 a6 bd f2 2f 81 3d 91 ec 6c be d3 3f ae bd
       -0.08148799 0.06307973 -0.23137118 -0.08508267
0001a0 5b ab 1f 3e bb 1f 37 be 9a ef ff 3d 2e a8 b7 3e
       0.1559271 -0.17883198 0.12496872 0.35870498
0001b0 ab 4d 1a 3e 5f f3 60 3e 4b 9c 8a bb 84 d9 34 3e
       0.1506869 0.21967839 -0.0042300574 0.176611
0001c0 a9 88 0b be 36 b6 73 be ad 35 7a 3d 34 38 12 3e
       -0.1362635 -0.23799977 0.061086345 0.14279252
0001d0 c4 fd 15 3e 49 77 07 bd a0 f1 a9 be 16 1d 91 bd
       0.14647585 -0.033072744 -0.33192158 -0.07085626
0001e0 ce 2f 2c 3e 1e b6 bd 3d bf c4 db 3d 3c e6 25 3d
       0.16815111 0.09263252 0.10730886 0.04050277
0001f0 dd 7e aa bd e2 d4 8d bc 12 ec a6 3d 9a 87 02 be
       -0.083249785 -0.017313424 0.081504956 -0.1274704
000200 cf 16 65 be 8e 51 a8 bd 71 1a 80 3e 48 8b 45 bc
       -0.22371982 -0.0821868 0.25020173 -0.012057133
000210 c0 22 25 be 5b 65 f1 3c b2 2f df bc 3c ca 1d 3d
       -0.16126537 0.029467275 -0.027244423 0.038522944
000220 d5 3e 6d be 38 06 36 3c 39 28 65 3e 67 09 2e be
       -0.231685 0.011109881 0.22378625 -0.16995774
000230 7a 0f 2a 3e ff 5a 3f be e9 17 ce 3d 26 91 f4 bd
       0.16607466 -0.18687056 0.10063154 -0.11941747
000240 46 90 42 bb b7 ee 7e 3d 2f b6 85 3e 6b 1f 2c 3d
       -0.0029688044 0.062239375 0.26115558 0.04202215
000250 64 01 96 3e 02 a4 d7 3c b1 43 19 3c 5d 61 7a 3d
       0.29297936 0.026323322 0.009354518 0.06112801
000260 1f de 32 3e 84 be c2 bc c2 03 40 be 11 c6 0a be
       0.17467545 -0.023772486 -0.18751433 -0.13552119
000270 24 e9 d2 bd df 38 98 3c f1 5b 96 be ca 60 ad 3d
       -0.10298374 0.018581806 -0.2936702 0.08465727
000280 6e 4c 8b 3e e5 e4 db bd bb 74 09 bd 3a c0 98 bc
       0.2720675 -0.107370175 -0.03355859 -0.018646348
000290 15 72 af 3e 79 b7 f7 bd 9c 6f 13 3c 02 4b 1a be
       0.34266725 -0.120955415 0.008998778 -0.15067676
0002a0 8b e0 5b 3e cc 81 af 3d 74 03 da bd cb 0b 81 be
       0.21472375 0.08569679 -0.1064519 -0.2520431
0002b0 a2 2d 33 3e 69 c6 28 3e 74 84 27 3e b3 a7 d1 3d
       0.17497876 0.16481937 0.1635912 0.10237064
0002c0 b2 79 5f be b1 bd 83 be 49 63 38 bd 1b 1b 31 be
       -0.21823767 -0.2573066 -0.04501656 -0.17295496
0002d0 d8 60 03 be db 53 a1 bd 7a dc 8e 3c 1d 5e 29 be
       -0.12829912 -0.07877322 0.017439116 -0.16539808
0002e0 12 02 4f 3e 45 d9 ad bd a5 18 d7 3d 67 91 3c 3d
       0.20215634 -0.084887065 0.105027474 0.046037104
0002f0 44 bf e9 bb 25 a0 06 3e 81 ab 35 3e 9e a4 12 be
       -0.0071333963 0.13147028 0.17741205 -0.14320609
000300 5a 13 01 3e bf 70 84 3d d4 a2 40 3e 94 f8 5c 3e
       0.12605038 0.06466817 0.18812114 0.215792
000310 af 7d 4f be e8 ad 73 3d cd 93 7d 3d 5b 03 67 3e
       -0.20262788 0.05949202 0.061908532 0.22559874
000320 2a 79 a4 bc f0 c8 65 3d 02 34 61 bd be 7c 46 3e
       -0.020077307 0.056099832 -0.05498124 0.19383523
000330 10 d8 2b 3d ca d9 d9 bd 25 c5 9d be 25 90 a7 3d
       0.0419541 -0.10637243 -0.30814472 0.0818179
000340 92 6c 22 be 31 50 68 bd 29 04 d9 3c 56 ca 0e 3e
       -0.15861729 -0.0567171 0.026491242 0.13944373
000350 79 5c b1 3e 4b 60 fd 3d c5 f7 8c be 75 da 12 3e
       0.34640864 0.12371882 -0.27532783 0.14341147
000360 51 42 66 be 9e fe ed 3d ca b0 04 bd 63 09 b3 bd
       -0.22486235 0.1162083 -0.03239516 -0.08742025
000370 7b 22 a1 be c1 b6 59 3e 73 9a f3 3d bf 3f db 3c
       -0.3147162 0.21261121 0.11894693 0.026763795
000380 59 f2 72 3e 54 6e b4 bd a6 5e 0c 3d 0b a6 14 3d
       0.23725261 -0.08810106 0.03426995 0.036291163
000390 3a 2b 29 3d 76 70 3d bd e2 39 5a be 17 7f 09 3e
       0.04130099 -0.04624983 -0.21311143 0.13427387
0003a0 f4 9d 4c be 1c b0 17 3e da 7e e2 bd 15 a2 81 be
       -0.1998213 0.14813274 -0.11059351 -0.2531897
0003b0 7c 6a ef 3d 37 e3 b9 bd c9 a6 8d bd 8a 74 52 be
       0.11690232 -0.09076541 -0.06916577 -0.20552269
0003c0 ad d2 eb bd 98 f6 96 bd dc 5d 82 bb e9 dc 17 bd
       -0.115147926 -0.07371253 -0.003978474 -0.03707591
0003d0 93 48 ef bc 0e fe ed 3d 99 3c 8c be 71 2d 5c 3e
       -0.02920941 0.11620723 -0.27389982 0.2150171
0003e0 9e 8f 69 be 78 fa 19 3e 0e 94 99 bd b4 b2 66 be
       -0.22808692 0.15036952 -0.07498942 -0.22529107
0003f0 bf 54 29 be 6f 70 36 3d ac c9 51 3e a6 04 67 be
       -0.16536234 0.04454082 0.20487088 -0.22560367

bias f4 [32]
000000 21 9a 0e 3a fb c6 6f ba 89 dc db ba 15 9b f4 b9
       0.0005439837 -0.0009146777 -0.0016774099 -0.00046654852
000010 c8 8a c6 ba da 88 66 b9 2f c6 b1 b9 4d 66 c5 b9
       -0.0015147561 -0.0002198549 -0.0003390773 -0.00037650988
000020 a2 e9 2f ba d1 90 1b 3b e5 b2 b6 ba 9b 7d 04 bb
       -0.0006710534 0.002373744 -0.0013938813 -0.0020216468
000030 98 48 f7 ba 02 09 06 b8 95 43 8b b9 14 e7 bd 39
       -0.0018866239 -3.195648e-05 -0.00026562499 0.00036221056
000040 ba 4d 05 bb 9f a8 a2 3a 62 6f 08 bb f7 b4 48 ba
       -0.0020340518 0.0012409872 -0.0020818342 -0.00076563604
000050 83 7c 46 ba 0c 02 9d 39 25 b7 c2 3a 01 ed b6 38
       -0.0007571654 0.000299469 0.0014855607 8.722582e-05
000060 3b 22 ac ba b1 9c 8f 3a 06 d0 00 3b af 60 02 3a
       -0.001313276 0.0010956732 0.0019655242 0.00049735134
000070 32 2b 0a 39 ae 64 d2 3a 1c 1d 50 3a e4 95 0a bb
       0.00013176797 0.0016051733 0.0007938908 -0.002114647

weight f4 [16, 32]
000000 2d 6c 89 3d 6a e9 35 3e 7b fd 96 bc 66 14 20 be
       0.06710086 0.17764822 -0.018431416 -0.15632781
000010 84 d2 29 3e ca 34 a1 3e c3 25 9b bd f8 c7 d6 3e
       0.16584212 0.31485587 -0.07575562 0.4194944
000020 dc 19 47 3e 8b eb 9e 3e 46 8a 1b bd 06 b5 1d 3e
       0.19443458 0.3103908 -0.037973665 0.15401086
000030 ff 2b 33 3e ac 21 b5 3d ad cd c4 3d 10 bd cf bd
       0.17497252 0.08844313 0.09609542 -0.10143483
000040 6a 8b ed 3d e5 07 e0 3d 74 63 28 3e 86 5b d6 3d
       0.11598857 0.10939006 0.16444188 0.104666755
000050 80 60 54 be 38 f2 d3 bc fc a5 43 be c0 d1 c2 3d
       -0.20739937 -0.025872335 -0.19106287 0.09512663
000060 85 65 86 be ab a7 4b 3e 64 b5 50 be 48 5d 9d bd
       -0.26249328 0.19888179 -0.20381695 -0.076838076
000070 87 83 74 be ad 9d a3 bd b8 c5 d8 b8 fb 6f 41 be
       -0.23878299 -0.07989059 -0.000103365106 -0.18890373
000080 92 d2 44 be 74 a5 0b be da 28 3a be c2 55 2d be
       -0.19220951 -0.13637334 -0.18179646 -0.16927245
000090 3d 82 4d be d1 d8 a4 3e 41 ad 32 be a0 fb e8 3d
       -0.20069213 0.32196668 -0.17448904 0.11376119
0000a0 5f f9 58 3e 1b 24 7e 3e d3 d8 b6 3e 3e 96 47 be
       0.21188878 0.2481846 0.357123 -0.19490907
0000b0 c4 ed cd 3d ad f6 bb 3e 85 88 31 be 55 25 22 3e
       0.10055116 0.36711636 -0.17337234 0.15834554
0000c0 be 01 79 be 69 12 4e be d2 e9 53 3e bc 46 9a bd
       -0.24317071 -0.2012421 0.20694664 -0.07533023
0000d0 40 f6 c8 bc 3d 8b 74 3e 2a a9 c6 3e 20 aa 6b be
       -0.024531484 0.2388124 0.38800937 -0.23014116
0000e0 2c ed b0 bd ec 7a 2c be 9d 2c 1e be e6 83 2d 3e
       -0.08638987 -0.16843766 -0.15446706 0.16944847
0000f0 88 2e 81 be c0 33 03 3e 8b cf 41 3e 7d 8c 9e 3d
       -0.25230813 0.1281271 0.18926828 0.0774164
000100 37 40 aa be d7 35 5a be 4d a2 94 3e a0 73 39 bc
       -0.33252117 -0.21309601 0.29030076 -0.011319071
000110 2b 33 ed bd c6 37 15 3d 7f 3d 0c 3d b1 ac 7d bc
       -0.11582025 0.036430143 0.034238335 -0.015483067
000120 0e bf 88 3e 86 73 73 bd 04 9f 04 be 48 df 22 3e
       0.26708263 -0.059436344 -0.12951285 0.15905488
000130 74 81 07 3e 90 31 19 be bc 0a 8f 3e 4a 4f 81 bc
       0.13232976 -0.14960313 0.27937877 -0.015784878
000140 e5 50 67 3c 8b 2e 93 3d 8e 0f 14 3e f7 cd c5 3c
       0.014118408 0.07186612 0.14459059 0.024146063
000150 53 df 5f be 4c bf 2d 3e 6c 90 3f 3e b4 b9 d2 3e
       -0.21862535 0.16967505 0.18707436 0.41157305
000160 b2 ec 49 3e 6a 8d 96 bd 52 34 f0 3d 26 ec b6 3d
       0.19719198 -0.07351191 0.11728729 0.089317605
000170 56 d1 1e be b4 f6 82 3e 31 6d 8d 3e 12 d8 58 3e
       -0.15509543 0.25578845 0.2762237 0.21176174
000180 be 2a 62 3e 7e 82 a8 be 0b 6c 4b be 8a c6 07 be
       0.22086617 -0.32912058 -0.19865434 -0.1325933
000190 d6 92 ef 3c bb 4e 21 3e f9 5e 16 be e5 c6 e6 3d
       0.029244822 0.1575269 -0.14684667 0.11268405
0001a0 1b d0 88 be 5b 0e 84 be a3 43 11 be a7 88 14 be
       -0.26721272 -0.25792202 -0.14185958 -0.14505254
0001b0 d8 47 8f 3e fb 7d f5 be 1a 04 3c 3e 86 c4 b6 be
       0.279845 -0.47947678 0.1836094 -0.3569681
0001c0 b0 0d 81 3e 51 2d 79 3e f5 8c 2f 3d ac ab 46 3e
       0.25205755 0.24333693 0.042859036 0.19401425
0001d0 dd 12 39 be f8 a3 31 3e 1f 98 8d be 1f 0f 78 3e
       -0.18073602 0.17347705 -0.27655122 0.24224518
0001e0 c8 be c0 3e 49 4f 82 3e 73 f3 33 3e 7f 66 b2 3e
       0.37645555 0.25451115 0.17573337 0.34843823
0001f0 29 ae 29 be 54 b1 73 be 7a bc b1 bd 9b de 88 3e
       -0.16570343 -0.23798114 -0.08678527 0.26732334
000200 35 67 4b be 18 14 95 bd a6 b2 82 ba 87 53 45 be
       -0.19863589 -0.07279223 -0.0009971454 -0.19270144
000210 05 db 6b 3e a7 19 5b 3e 6f f4 e5 bc ad fb de be
       0.23032768 0.21396504 -0.028070657 -0.43551388
000220 63 01 e4 3c d8 b7 bc bd e1 d3 5b be f0 10 8a bd
       0.027832692 -0.09214753 -0.21467544 -0.06741512
000230 eb 4b 00 3e f1 b3 65 be dd ff 0e be dd 39 0a 3d
       0.1252896 -0.22431923 -0.13964792 0.03374659
000240 57 98 86 be c5 bd ed 3d 2c 77 12 3e 18 74 ae be
       -0.262881 0.11608461 0.14303273 -0.34072948
000250 c9 31 c8 3c ae f3 eb 3d 92 dd dc bc 41 db 1f be
       0.024437802 0.115210876 -0.026961122 -0.15610982
000260 c3 ec 2b 3e 1d c4 fa 3c 06 a7 62 3d 7d 1d 64 3e
       0.16789536 0.030611092 0.055335067 0.22276874
000270 54 ce 64 be b1 70 7e be 41 29 e9 bc 71 74 82 bc
       -0.22344333 -0.24847676 -0.028462054 -0.015924664
000280 10 17 2a 3e a7 43 22 3e 48 e1 61 3e 72 f2 d2 ba
       0.1661036 0.1584612 0.22058594 -0.0016093983
000290 40 a3 63 3e 58 db 75 be 9e d9 82 3e 8f 7e 3f be
       0.22230244 -0.24009454 0.25556654 -0.18700622
0002a0 5b 68 7d 3e 4a f5 19 be a5 70 85 3d bd af 07 3e
       0.2474684 -0.15034977 0.06515626 0.13250633
0002b0 ad a8 08 be af 71 0e bc 33 17 bc bd 2f 0a a0 bc
       -0.13345595 -0.0086940965 -0.091841124 -0.019536106
0002c0 9d 94 67 be 0e 6b 7e 3e 50 43 51 bd bf d3 87 3e
       -0.22615285 0.24845526 -0.051089585 0.26528737
0002d0 39 09 f1 3d ee 3f 0d 3e 55 d4 ff 39 d0 16 67 3d
       0.11769337 0.13793918 0.0004879559 0.05641824
0002e0 55 6b 70 3e b3 43 39 3e 11 a9 62 be fd 66 5e 3e
       0.23478444 0.18092231 -0.22134806 0.21718974
0002f0 a3 d4 fa bd ee bf 81 3e 16 39 4e 3d a6 d0 a3 be
       -0.122475885 0.25341743 0.05034741 -0.31995124
000300 f1 78 af 3e 7c 93 b4 bd 15 8d 85 3d 18 19 85 be
       0.34271958 -0.08817193 0.0652105 -0.25995708
000310 c1 60 08 3e b1 97 91 be 75 a1 14 3e 86 25 f0 bd
       0.13318159 -0.28436044 0.14514716 -0.11725907
000320 af 70 63 bd 85 22 96 bd 16 89 31 be ec 0f 93 3c
       -0.055527385 -0.07330803 -0.1733745 0.017951928
000330 bf bd f9 bc cb ad 68 be 34 84 05 3e f4 ec f1 bc
       -0.030485986 -0.22722547 0.13038713 -0.029531933
000340 1a a0 7f 3e 86 a8 5a 3d 7d 2f 82 3e 5e 26 23 be
       0.24963418 0.053383373 0.25426856 -0.15932605
000350 9d fd 4a 3e 8c 28 23 3e 99 03 93 bd 35 bc 8d bc
       0.19823308 0.15933436 -0.071784206 -0.017301658
000360 99 1a 85 bd cf 43 7a bc b7 2d 50 3e 15 7c 1e be
       -0.06499214 -0.015274956 0.20329939 -0.15477021
000370 e0 12 a2 3c ff a6 54 3e d2 28 9e be c6 67 84 be
       0.01978439 0.20766829 -0.30890518 -0.25860423
000380 91 19 c5 bd 91 39 28 bd 2a 64 2d 3e fd 06 87 be
       -0.09624017 -0.041070525 0.16932741 -0.2637252
000390 fa da e3 bd 97 c2 85 bd f5 f8 55 be 66 bb 91 3d
       -0.11125751 -0.06531256 -0.20895751 0.071158215
0003a0 41 3a af 3d ab 6f 42 be 3d 80 ae bd fb 5b 18 3d
       0.08556033 -0.1898791 -0.08520553 0.037197094
0003b0 26 6f 5f be e7 de a4 3d 8f f4 87 bd b2 3a ca be
       -0.21819744 0.08050328 -0.06638443 -0.39497906
0003c0 f4 f0 84 be b1 aa 5e be 8c 8f d3 be c4 b5 82 be
       -0.25965083 -0.21744801 -0.41320455 -0.255293
0003d0 68 aa 0d be c5 0c 3f be 51 f9 3c be 7b 89 6f 3d
       -0.13834536 -0.18657215 -0.18454482 0.05848072
0003e0 24 af a6 3e cb b4 f2 3d 84 da 1a be 32 bb c0 bb
       0.32555497 0.1185089 -0.1512242 -0.0058816904
0003f0 6b 0e 1a be 46 9d 3b 3e 99 5c 74 be 25 94 97 3d
       -0.15044563 0.18321714 -0.23863448 0.07401303

bias f4 [16]
000000 ef dd ba 3b e9 aa 42 3a 50 e1 e3 bb d0 77 12 3b
       0.005702726 0.00074259803 -0.0069543496 0.0022349246
000010 20 6d f7 bb b9 5a a6 ba 35 ab 0a 3a 20 02 57 3b
       -0.0075508505 -0.0012691832 0.0005289794 0.0032807663
000020 3e 60 b1 3b 9f a0 15 3a 92 a9 97 b9 17 54 e0 b9
       0.0054130843 0.00057078333 -0.00028927304 -0.0004278726
000030 d6 c4 d5 3a 23 cf 7e ba 8d 0d 2e 3c 42 58 7f 3a
       0.0016309272 -0.0009720197 0.010623348 0.00097406295

weight f4 [8, 16]
000000 fd be 7b 3e bc 34 72 3e df fb 97 be 6e 8e c7 3e
       0.24584575 0.23652929 -0.2968435 0.38975853
000010 f6 d4 a9 3e 75 c4 e0 3e 4e b4 a3 3e af e6 32 3e
       0.3317029 0.43899885 0.319735 0.17470811
000020 83 fb af be 0a c3 72 bd 95 ae 1c 3c ed f4 b8 be
       -0.34371576 -0.059268035 0.009563108 -0.36124364
000030 fd 69 e6 be 45 bd b7 be b5 c4 de 3c fb 7a f4 be
       -0.45002738 -0.3588659 0.027193407 -0.47750077
000040 09 96 fd 3e ff 21 c4 be 40 d6 92 bb a1 e1 93 be
       0.4952853 -0.38307187 -0.004481107 -0.2888308
000050 39 2b c1 be 76 87 74 be 3f d9 04 be 5c 97 54 be
       -0.3772829 -0.23879799 -0.12973498 -0.20760864
000060 03 29 cb 3d 39 d0 a0 3e 42 63 89 be fc e3 8c 3e
       0.09919932 0.3140886 -0.2683354 0.27517688
000070 47 6b ac 3c 8e 03 08 be f4 d8 a1 3e 54 35 96 be
       0.021047248 -0.13282606 0.31610835 -0.2933756
000080 77 14 02 3f 0e 03 0b 3e 32 13 80 be 4c f8 96 3e
       0.50812477 0.13575384 -0.25014645 0.2948631
000090 d8 b8 72 be 74 31 7d be b8 3c 0d be f2 92 71 be
       -0.23703325 -0.24725896 -0.13792694 -0.23591211
0000a0 55 62 dd 3e 5b d7 4b 3e 49 82 07 be 86 42 55 be
       0.43239084 0.1990637 -0.13233294 -0.20826158
0000b0 2e 6a f3 3e 5f 20 c1 3d 9d 01 8e be f1 78 19 ba
       0.47541946 0.094300024 -0.27735606 -0.00058545085
0000c0 15 83 a6 3e 06 ca 30 3e 95 f5 aa be 60 f2 e1 3d
       0.32521883 0.17264566 -0.3339049 0.110325575
0000d0 92 24 14 3e a8 1a 94 be b9 57 3d be 8f 38 84 3e
       0.14467075 -0.28926587 -0.18490495 0.258244
0000e0 90 4b 53 3e a3 ee e9 3e 04 52 38 be 1c b7 e3 ba
       0.20634294 0.45689878 -0.18000036 -0.0017373296
0000f0 3e 7f 42 bd b0 f2 dc 3e 1b 89 1c 3e fc 78 9d be
       -0.04748463 0.43153906 0.15286677 -0.30756366
000100 15 cd 82 3d ee 35 42 3e 9f 55 cb be 55 b1 a7 bc
       0.063867725 0.18965885 -0.3971376 -0.0204703
000110 81 ca b5 be c4 1e 8b be d1 79 e0 3d d5 b0 25 3d
       -0.3550606 -0.2717191 0.10960735 0.040451843
000120 79 e4 98 3e 76 1d 93 3e 52 0a f7 3e 16 1f a9 bc
       0.2986181 0.28733414 0.4825006 -0.020644706
000130 5c d4 99 bd 50 ea eb 3d 5e 9a 92 3e e6 d3 69 be
       -0.075112075 0.11519301 0.28633398 -0.22834739
000140 e0 8d 7e bd 20 b9 a6 3e 92 c8 cf 3e 58 b4 d2 be
       -0.06214702 0.32563114 0.4058271 -0.41153216
000150 7c 4e 28 bd c1 4e 64 be 04 2c 73 3e 95 81 2e be
       -0.041090474 -0.22295667 0.2374726 -0.17041619
000160 e0 53 b2 3e d0 cd b9 be bd e6 b0 be 49 78 81 3e
       0.34829617 -0.36289835 -0.3455104 0.25287083
000170 4b 70 bb 3e 24 53 a8 be 9f b9 4a be d1 c7 73 3e
       0.3660911 -0.3287593 -0.19797371 0.23806693
000180 93 f5 47 bc 9e 75 c4 3d ff 9e 2c 3e cf cc 1b be
       -0.012204546 0.09592746 0.16857527 -0.15214847
000190 9b 11 d8 bd 0f 04 1c 3e c8 3b f4 3d e5 2a 17 be
       -0.10550233 0.15235923 0.11925465 -0.14762457
0001a0 5a 1d 5f 3e 34 e8 6b bd 31 97 d9 3e 3d c7 8b be
       0.2178854 -0.057594493 0.42498162 -0.27300444
0001b0 f1 a8 bb 3e ab c2 1e 3e ec 69 35 3d 7c 04 ef 3e
       0.3665233 0.15503947 0.044290468 0.4668311
0001c0 ed 05 12 3f c5 50 e8 3e 12 8a b7 3e 81 07 a0 be
       0.5704029 0.45374122 0.35847527 -0.31255725
0001d0 81 11 8f be 62 a9 4a 3e 38 23 fc 3e bf c6 40 be
       -0.27943042 0.19791177 0.4924562 -0.18825816
0001e0 93 7b 76 be d2 8e 2b 3d d0 01 cb bd 78 14 58 3c
       -0.24070577 0.04188425 -0.09912455 0.013188474
0001f0 25 fe 36 be 2f 7f 2d 3e 5a a3 a1 be 2a ab 84 be
       -0.17870386 0.16943048 -0.3156994 -0.25911838

bias f4 [8]
000000 0c 83 42 bc e3 92 7e 3c fe 07 ed bb 72 d0 15 bb
       -0.011872064 0.01553795 -0.0072336188 -0.0022859839
000010 80 e9 14 bb df 60 72 bc 9c b5 e2 bb 5f 06 be 3a
       -0.0022722185 -0.014793604 -0.006918622 0.0014497748

weight f4 [2, 8]
000000 e9 e7 af be ca 80 e2 3e 11 43 ed be 6a be 83 bf
       -0.3435662 0.44238883 -0.4634023 -1.0292485
000010 a3 d7 87 3e f5 1d 37 bf ea e5 a2 3e e3 12 1b 3f
       0.26531705 -0.71530086 0.31816036 0.60575694
000020 f5 1d 58 3f e7 1e 45 ba 5d 2d 36 3f a9 39 d9 3d
       0.8442071 -0.00075195584 0.7116297 0.10606701
000030 ec 0d d3 be 41 a7 01 3f 20 43 6c 3d 4d 44 69 bd
       -0.4122156 0.50645834 0.057681203 -0.056949902

bias f4 [2]
000000 6b 2c c2 be 6a 2c c2 3e
       -0.37924513 0.3792451
