serology/results_intermediate_encoders_2/models/5fold/classifier_adverse_3.pt (torch, 18016 bytes, 20 tensors)

weight f4 [32]
000000 19 6f 79 3f c5 b3 8c 3f 3d 31 7a 3f f4 53 7a 3f
       0.97435147 1.0992361 0.9773138 0.9778435
000010 f1 e0 97 3f 7b 3a 84 3f 8f 0d 88 3f 5a 33 85 3f
       1.1865522 1.0330347 1.0629138 1.0406296
000020 9a 75 77 3f dc c6 60 3f a4 a7 81 3f 57 26 82 3f
       0.9666382 0.87803435 1.0129285 1.016795
000030 c6 1c 85 3f a5 43 88 3f 1d 43 82 3f 9b f0 74 3f
       1.0399406 1.0645643 1.0176731 0.95679635
000040 b3 85 69 3f b1 1b 82 3f 19 1f 7e 3f 36 57 88 3f
       0.91219634 1.0164701 0.992662 1.0651615
000050 9e d9 89 3f e8 f3 8b 3f cf dd 64 3f b4 46 73 3f
       1.0769536 1.0933809 0.89400953 0.9502976
000060 d9 c9 92 3f cc a3 64 3f 56 b5 66 3f 8a 58 75 3f
       1.1467849 0.89312434 0.90120447 0.95838225
000070 20 64 92 3f 6e 00 75 3f aa 92 8b 3f 75 4e 6d 3f
       1.1436806 0.9570378 1.0904133 0.9269784

bias f4 [32]
000000 46 d4 da 3c 69 22 e1 bc 8b d9 ad 3c 0a 7b 15 bd
       0.026712548 -0.027482228 0.021221897 -0.036494292
000010 9e 16 1d 3e df 6a 40 3d 50 8c 90 3d ea 40 07 3e
       0.15340659 0.04697692 0.070580125 0.13208356
000020 41 4d 0b 3d 2c 84 e8 bc 10 5a 89 3d 0c 31 1a 3d
       0.034009222 -0.028383337 0.06706631 0.03764443
000030 c3 52 a5 bd 26 b6 32 3e 2d ea 29 3d a7 e6 88 bd
       -0.08072426 0.17452297 0.041483093 -0.066846184
000040 9b f3 03 3b 7f 07 ac 3d 37 9e 6d bd e5 69 73 bc
       0.0020134214 0.08399867 -0.058012214 -0.01485679
000050 d5 3d 90 3d 89 01 0a be 9e 38 04 be 5d 81 48 3d
       0.070430435 -0.13477148 -0.12912223 0.048951495
000060 b2 8c 8c bc 6c 07 0b be 95 bd 31 3d 9e 6c 87 bc
       -0.017156933 -0.1357705 0.04339369 -0.016531285
000070 5c b4 0b 3d c0 f3 73 bd 1a c8 3d 3d cd 09 92 bd
       0.03410755 -0.05955863 0.04633341 -0.071307756

running_mean f4 [32]
000000 da 44 02 40 62 f1 14 c0 b7 3f 4a bf 82 07 5b bf
       2.0354524 -2.3272328 -0.7900347 -0.8555833
000010 a9 c0 46 bf ca 85 d2 3e a9 ce 3f bf 75 1e ad bf
       -0.77637726 0.41117698 -0.74924713 -1.352492
000020 22 bc 80 40 88 9e d1 bd fc 85 9d 3f 33 2e 0f c0
       4.0229654 -0.102353156 1.2306514 -2.2371948
000030 6f b5 9a bf 82 3b 16 bf c0 11 4d c0 4c 9e 1f 3f
       -1.2086619 -0.5868455 -3.2042084 0.62350917
000040 cd 99 53 40 78 6b 2b bf a6 ef fa 3f 5a aa a8 3f
       3.3062623 -0.6696086 1.9604385 1.3176987
000050 7a 9a 46 40 6c 62 ce bf ad ff bf bf b9 00 01 c0
       3.1031785 -1.6123786 -1.4999901 -2.015669
000060 d5 46 0f c0 65 ce 7d bf b6 00 d1 3f 47 9a 09 40
       -2.2386982 -0.9914306 1.6328342 2.1500413
000070 e3 84 50 bf 0f f6 10 40 8c 38 bd bf 60 95 75 bf
       -0.8145277 2.2650182 -1.4782882 -0.95931053

running_var f4 [32]
000000 90 49 41 40 04 51 ae 40 05 02 d7 3f 3e ba 23 40
       3.020115 5.4473896 1.6797491 2.5582423
000010 84 5a 40 40 eb 0d 93 3f eb 56 c0 3f fb b2 84 40
       3.0055246 1.1488622 1.5026525 4.146848
000020 e2 7e 01 41 7e 3c 96 40 4a fd b0 40 02 d2 03 40
       8.093477 4.6948843 5.530919 2.0596929
000030 b5 56 9e 40 f2 05 f3 3f 7b 72 ac 40 8e b9 8c 3f
       4.9480844 1.8986189 5.3889747 1.0994127
000040 21 5d 93 40 1d ac ac 3f d5 a9 5a 40 1a 81 ca 40
       4.6051183 1.3490025 3.4166157 6.3282595
000050 48 b1 6d 40 f5 83 d8 40 3a 80 c4 3f bd 3c d5 40
       3.7139454 6.766108 1.5351632 6.6636643
000060 b8 73 df 40 8a 21 ef 3f 5f 7e 07 40 f5 bd d7 3f
       6.982876 1.868211 2.117088 1.6854845
000070 69 c7 1d 40 60 5a 26 40 e6 b0 6b 40 c8 5d 4e 40
       2.465296 2.599266 3.682672 3.224474

weight f4 [16]
000000 1d 03 70 3f ab 56 90 3f e6 bb 91 3f b6 c5 86 3f
       0.9375475 1.1276449 1.1385467 1.0529087
000010 1e bd 80 3f 8e 0b 61 3f 21 6e 69 3f af b3 81 3f
       1.0057714 0.87908256 0.9118367 1.013296
000020 d7 fa 95 3f 21 65 7c 3f ba f4 6e 3f 58 a8 9e 3f
       1.1717175 0.9859181 0.93342173 1.2395124
000030 e1 95 88 3f 1e 54 6b 3f 6e 8c 84 3f 83 da 71 3f
       1.067074 0.9192523 1.0355356 0.9447405

bias f4 [16]
000000 97 e5 d5 bd a1 e8 57 3b 8f a1 0d 3e 56 94 3f 3d
       -0.104441814 0.0032945054 0.13831161 0.046772324
000010 0b f9 23 be 22 6f 19 3c f6 f2 f7 bd f1 10 0e 3d
       -0.16012971 0.009364875 -0.12106888 0.034684125
000020 94 23 47 bd 1d df 70 bd a9 02 f0 bc d0 32 15 3e
       -0.048617914 -0.058806527 -0.029298143 0.14570165
000030 c4 e8 81 bd fe 68 5e 3c 91 50 0c bd ab 56 8a bc
       -0.06343225 0.013574837 -0.03425652 -0.01688703

running_mean f4 [16]
000000 f5 82 20 bc 2d 89 5d 3f e6 c4 7a 3e 69 0b 90 bf
       -0.009796848 0.8653744 0.24489173 -1.1253482
000010 20 a9 ec bd 18 0e 35 3e ac 63 33 3f 23 2f 8d 3e
       -0.115556955 0.17681158 0.7007396 0.27575025
000020 85 e6 5c 3f 5a 7f 20 bf 3a fe 98 bf 42 98 10 3e
       0.86289245 -0.62694323 -1.1952584 0.14120582
000030 03 0a 17 3f e3 2d db be ce 1b 11 3f 6c 40 48 3e
       0.5899965 -0.42808446 0.5668305 0.19555825

running_var f4 [16]
000000 5b ab 40 3f 54 0a eb 3e 8c c0 23 3f 7f 8f ab 3e
       0.7526147 0.45906317 0.6396568 0.33507916
000010 f6 e6 06 3f 09 f6 31 3f 47 1c 7b 3f 51 90 ff 3e
       0.5269617 0.69516045 0.9809002 0.49914792
000020 15 de 20 3f 4e 09 35 3f fe d7 29 3f d8 b5 79 3f
       0.6283887 0.7071732 0.663452 0.97543097
000030 12 79 16 3f 76 28 6c 3f 92 02 22 3f a1 55 04 3f
       0.5877849 0.9224924 0.6328517 0.5169316

weight f4 [8]
000000 0d f3 6c 3f 51 fd 97 3f 52 76 93 3f 5f de 81 3f
       0.92558366 1.1874181 1.1520483 1.0145987
000010 4f e0 75 3f 61 05 6d 3f 5f d2 b2 3f 65 64 a7 3f
       0.9604539 0.9258633 1.397045 1.3077513

bias f4 [8]
000000 b5 93 10 be 23 8d 43 3e 7a 02 ad 3e 41 66 2d bc
       -0.14118846 0.19096808 0.33790952 -0.010583461
000010 f8 87 0d be e1 42 8f bd 3e 2f e6 3e 0b f6 4d 3e
       -0.13821399 -0.06995178 0.44957918 0.20113389

running_mean f4 [8]
000000 e7 ed 9a 3e 29 eb 53 be c6 7d 2d 3e f2 c1 03 3f
       0.3025963 -0.20695175 0.1694251 0.5146781
000010 10 10 25 3f 84 a0 a6 3e 12 5d f1 3e 01 7a 8c be
       0.64477634 0.3254434 0.4714132 -0.27436832

running_var f4 [8]
000000 7e a0 8c 3f e5 36 0b 3f 65 e8 af 3e f3 cc b7 3e
       1.0986478 0.5438064 0.3435699 0.3589855
000010 81 f9 c0 3e cb 4a 1f 3f 26 aa 9a 3f 16 f5 13 3e
       0.37690356 0.622235 1.2083175 0.14448962

weight f4 [32, 32]
000000 73 68 c7 bd 63 43 19 3e 2a 1d 32 be fa 7f 64 be
       -0.09736719 0.14967112 -0.17393938 -0.22314444
000010 c5 9e 83 bd 34 c3 2a bd 45 a5 39 3e 12 7b 43 3d
       -0.06426767 -0.041690066 0.18129452 0.04772479
000020 ef 7d 31 bb 89 d7 cf 3d 23 8e 4a 3e 67 37 bc bd
       -0.002708312 0.10148532 0.19780783 -0.09190255
000030 85 b0 91 3d 8b c0 bb 3d 19 b4 7d 3e 26 59 3f 3b
       0.071137466 0.09167584 0.24775733 0.0029197424
000040 ed 55 5e 3e 05 e6 87 3d 26 0e ea 3d 89 3b d0 3d
       0.21712466 0.066356696 0.1142848 0.101676054
000050 dc f1 78 bd cc 40 20 3e 6d 1a 19 3e ae 0a f5 3d
       -0.06077753 0.15649718 0.14951487 0.119649276
000060 93 18 22 be 41 63 f1 3d 51 c0 36 3e 40 d0 a8 3c
       -0.15829687 0.11786509 0.178468 0.020607114
000070 79 6e 89 3d 6b de ae be 1a 9f 3f 3e a2 2b 6d bd
       0.06710524 -0.34154066 0.18713036 -0.05790294
000080 b3 4a 0b 3e dc e8 f2 3d 9c fa d6 3d 25 c9 00 3e
       0.13602714 0.11860821 0.10497019 0.1257673
000090 3d f5 29 3d 34 2e 87 3e e9 4d 3d be 4f 69 42 be
       0.041493643 0.26402438 -0.18486752 -0.18985485
0000a0 ff a7 23 3e 92 73 5d be 67 11 85 be c6 5d 06 be
       0.15982054 -0.21626118 -0.2598984 -0.13121709
0000b0 6b 48 62 bd 1a 56 80 3d 1e 4e 2c be b4 de 2f be
       -0.055244844 0.062664226 -0.16826674 -0.17174798
0000c0 5d b9 03 3e ae b0 ad 3d 91 f9 1e be f7 e1 c5 3c
       0.12863679 0.084809646 -0.1552489 0.0241556
0000d0 c1 b8 a1 3d 59 5b 2a 3d d0 46 a1 be 28 2b cd bd
       0.07896567 0.041591022 -0.31499338 -0.10017997
0000e0 ce 28 f1 3c 5b dc 8f be 4a 69 91 3e 1a 5e 44 bd
       0.029438403 -0.28097805 0.28400642 -0.047941305
0000f0 e1 92 e0 bd 56 9b ea bd df fd 39 3a 4a e9 04 3e
       -0.10965515 -0.11455409 0.00070950197 0.12979618
000100 30 91 42 be 31 4e ef bc b9 6b d4 bd ab f9 bd bd
       -0.19000697 -0.02921209 -0.10372109 -0.09276136
000110 3a d2 04 bd a9 7b 87 3e b0 87 a6 bd 30 b7 9f bd
       -0.03242705 0.26461533 -0.08131349 -0.07798612
000120 da 69 b2 3e 98 48 9c bc 86 98 ec bd da cb 14 3e
       0.34846383 -0.019077584 -0.11552529 0.14530888
000130 3e 3f 28 be 14 e4 80 bc de c7 0d 3d 9d ca 54 be
       -0.16430375 -0.015733756 0.034614436 -0.20780416
000140 79 2a 6e 3e 4a 22 57 3d 5c 6a 89 3e b0 ee 25 3e
       0.2325839 0.052522935 0.26838958 0.16204333
000150 18 96 b8 3d 55 96 70 bd 3c 08 4c bd c2 32 fa bd
       0.09013003 -0.058737118 -0.04981254 -0.122167125
000160 7c 04 09 3e cc b8 e4 bd 3d e9 93 3d 35 9c 26 be
       0.13380617 -0.1116806 0.07222221 -0.16270526
000170 56 ae 53 3e b8 5e 93 b9 72 6f 71 be c8 6c be 3c
       0.20671973 -0.00028108596 -0.2357767 0.02324523
000180 2d af 9c 3e 1f 27 dc bb 41 89 58 bd 22 c8 67 bd
       0.306024 -0.006718531 -0.05286527 -0.056587346
000190 d9 77 c6 3d c9 21 16 3e 43 8f 59 be 43 99 1e 3e
       0.09690828 0.14661326 -0.21246056 0.15488152
0001a0 0e e0 c5 bd a9 3f ad bc 6f dc a9 3d d7 f1 41 3c
       -0.09661876 -0.02114852 0.082939975 0.011837444
0001b0 4c f2 1d be f3 c9 5e 3d 5e a2 c3 3d 03 5a a3 bd
       -0.1542446 0.054391813 0.095524535 -0.07976153
0001c0 d9 ad ea bd fe 3d e3 bd e7 2a b8 3c e8 75 cd be
       -0.1145894 -0.110958084 0.022481395 -0.40129018
0001d0 7f 57 95 bd e8 2c 9a be 3d 0d 60 ba 7d b1 56 3d
       -0.07292079 -0.30112386 -0.00085468945 0.05241536
0001e0 48 fe ae 3c ad ab 2b bd 06 f9 fb bb 71 0e 17 3e
       0.021361485 -0.04191177 -0.007689598 0.14751603
0001f0 86 82 b3 3e 19 d5 7a 3d 79 f6 5e 3d 5c 0d 11 3e
       0.3506052 0.061238382 0.054434273 0.14165252
000200 8f 0a 12 be f2 dd fc bd 70 8d 09 be 9c 5a b3 bd
       -0.1426184 -0.1234702 -0.1343286 -0.08757517
000210 54 9c 5a bc b8 c1 94 3e db 9e 04 3e a0 06 46 3e
       -0.013342936 0.29054046 0.12951224 0.19338465
000220 ae 67 1d be b7 7f 9c be 85 25 47 3d 5a 21 0c be
       -0.15371582 -0.3056619 0.048619766 -0.13684598
000230 6d 9c 3a 3e 9d 8d 79 bc c5 12 94 bd b4 16 06 be
       0.18223734 -0.015231517 -0.072301425 -0.13094598
000240 20 b7 7b be 42 cb 46 3e 2c cb 39 3c 0d ae 17 3e
       -0.24581575 0.19413474 0.011339944 0.14812489
000250 f3 67 10 bb 5c 87 82 3e a9 a4 b8 bd 63 c7 0f be
       -0.0022034615 0.25493896 -0.090157814 -0.14040904
000260 f2 0b 0e 3c 00 fe b4 3d 81 37 2a be 9e 0e 26 be
       0.00866984 0.08837509 -0.16622736 -0.16216514
000270 62 6f 2b 3e 78 4c 60 3d da 03 30 3e 00 dd 73 3e
       0.16741708 0.054760426 0.17188969 0.23814774
000280 5c 0f 1a be ae 8c ce 3e 3a a3 83 3e dd b8 9a 3b
       -0.15044922 0.40341705 0.2571047 0.0047217445
000290 ce e6 81 bd 82 f8 3a 3e c5 e0 ef bc 1e 37 5b bd
       -0.063428506 0.1825886 -0.029281983 -0.05351936
0002a0 49 57 50 bd 12 33 83 bd 9a 05 4e 3e ab 10 90 3d
       -0.05086449 -0.06406225 0.20119324 0.07034429
0002b0 a0 b7 8f 3c 4a 06 f6 bc 2d 35 b6 bd e2 1f 9d 3d
       0.017543614 -0.030032296 -0.08896861 0.07672097
0002c0 9f 8c 78 bd 25 9d ed bd 6d 0c 37 bd 83 0c 12 3e
       -0.06068098 -0.116022386 -0.044689585 0.14262585
0002d0 47 64 7c bc da 3a 56 be 0d 1d 82 3e 0f 4e 04 3e
       -0.015404767 -0.20920888 0.2541279 0.12920402
0002e0 e4 dd 03 3e 13 7d 92 bd 1f 17 53 be b0 33 a7 3d
       0.12877613 -0.07152762 -0.20614289 0.081641555
0002f0 4d 44 e1 bd 3d 78 10 3d f2 e1 3d 3e 0a cd 25 be
       -0.109993555 0.03527092 0.18543223 -0.16191497
000300 10 f4 f6 3d c9 b9 39 be eb 43 13 bd 97 62 d6 bd
       0.1205827 -0.18137278 -0.035953443 -0.10468023
000310 e4 7e 67 3e 76 1e 04 be d1 2f 18 be 9f d6 80 3d
       0.22606999 -0.12902245 -0.1486199 0.06290936
000320 b2 a3 d7 bd d7 18 60 3d 48 ab c3 3d d3 18 d9 b8
       -0.10529269 0.05471119 0.09554154 -0.0001035199
000330 07 9d 83 3e 20 fd 05 be 84 4e c4 3a c5 c2 a7 3d
       0.2570574 -0.13084841 0.0014977013 0.08191446
000340 25 07 b0 bd 29 bc a7 be 97 94 a2 bd 77 c8 7b be
       -0.08595113 -0.32760742 -0.079384975 -0.2458819
000350 91 32 c4 bd 8c d4 9e bd a1 9c ef 3d 19 e6 29 be
       -0.09579957 -0.07755384 0.116997965 -0.16591682
000360 ec dd 44 3e 40 5f 65 3d 7c 35 cd 3d 2e ed 87 be
       0.19225281 0.05599904 0.10019967 -0.2654814
000370 2a 9a 65 ba 3f 6e aa bd 8a f9 d1 bc 81 5a 30 be
       -0.0008758629 -0.08321809 -0.025631685 -0.17222025
000380 58 87 a7 3d 62 b3 21 be b5 2b 90 3d 25 ca 02 be
       0.08180112 -0.15791085 0.070395865 -0.12772425
000390 04 bc 38 3c 9f df 10 be 6f a2 0a be a4 91 cd bc
       0.011275295 -0.14147805 -0.13538526 -0.02509386
0003a0 c9 cf b7 bd e8 31 f9 3d d9 3e 6f 3e 1e c2 a4 be
       -0.08975179 0.12167722 0.23363818 -0.3217935
0003b0 60 f7 8d bd 78 ac 9a bc 48 48 dc bd 10 84 8b 3e
       -0.06931949 -0.018881068 -0.10755974 0.27249193
0003c0 e5 eb da ba e4 e4 17 be 74 e6 e1 bd 97 56 30 3d
       -0.0016702382 -0.14833409 -0.110302836 0.04305133
0003d0 3f b8 07 3e 2c 78 83 3e 82 b9 33 3e a8 f2 ef bc
       0.13253878 0.2567762 0.17551234 -0.029290512
0003e0 94 ff 63 3e 65 ee 28 3e 7e 22 23 be c5 f9 43 bb
       0.22265464 0.1649719 -0.15931126 -0.0029903513
0003f0 0c 75 95 3e 73 28 88 bd e5 c2 a5 bd 5c 0c 73 bc
       0.29190862 -0.0664834 -0.08093814 -0.01483449

bias f4 [32]
000000 67 d6 9e 3a 9f 58 90 3a 6e 18 11 3a 22 7e 81 ba
       0.001211834 0.0011012739 0.00055349513 -0.000987951
000010 a1 7e f4 38 c3 83 66 bb 46 d6 cb 38 56 76 90 39
       0.00011658413 -0.003517375 9.719706e-05 0.00027553987
000020 1c c4 8d 3a 92 b3 81 b8 b5 b2 04 ba c1 cb 8c 3a
       0.0010815891 -6.184647e-05 -0.000506203 0.0010741876
000030 60 64 d9 ba d7 64 bf b9 c9 1d bb 3a 22 f4 ca b9
       -0.00165857 -0.0003650549 0.0014275844 -0.00038710336
000040 73 fe 12 ba db 1f 61 b6 fd 63 f0 38 8b ea 00 3a
       -0.0005607374 -3.3546155e-06 0.00011462716 0.0004917762
000050 41 ae 50 ba 2d 22 8f ba b1 32 da ba d1 e9 9b 3a
       -0.0007960536 -0.0010920219 -0.0016647187 0.0011895244
000060 aa 41 f1 3a ba de ed ba ea 65 07 3b b9 ba 7f ba
       0.001840641 -0.0018148043 0.002066011 -0.0009755302
000070 8d 4b 31 3a 2e f3 f1 39 6a ed 83 39 aa 23 86 38
       0.0006763272 0.00046148285 0.00025163154 6.396261e-05

weight f4 [16, 32]
000000 0c 8d 54 be 07 ad 04 be ad bc d3 3b 66 53 4b be
       -0.2075693 -0.1295663 0.006461701 -0.19856033
000010 36 3b c7 3d 2e 06 80 bd 2c d4 0d be af c0 62 bd
       0.097280905 -0.06251179 -0.13850468 -0.05535954
000020 79 0a 43 bd 74 7e 23 3e cc 5a 19 be 8a 74 0f 3e
       -0.04761741 0.15966207 -0.14976043 0.140093
000030 72 c2 8c 3e ab b1 68 3e ce 47 1a 3e b3 f6 00 be
       0.274921 0.22724025 0.15066454 -0.12594108
000040 b4 fe 87 be b1 ac a0 be b1 93 0d 3e 26 5e 21 3e
       -0.2656151 -0.31381753 0.13825871 0.15758571
000050 a8 e4 62 be 65 8d 8a bd fa 04 5f 3e 00 5d a1 3e
       -0.22157538 -0.0676525 0.21779242 0.31516266
000060 88 e2 a6 3e b6 b8 80 3e 1b cf 45 be c9 20 50 be
       0.32594705 0.25140923 -0.19317286 -0.20325007
000070 a6 85 18 3e 66 a2 f2 bc 3d 37 35 3c cd e0 01 be
       0.14894733 -0.029618453 0.011060533 -0.12683411
000080 04 bf 8b 3d ba 7b 83 3e 2a e2 13 be db 45 4c 3e
       0.06823543 0.25680333 -0.14441743 0.19948523
000090 12 52 4a 3e 1c f7 16 3e f3 fc 22 3d f1 87 50 be
       0.1975787 0.14742702 0.039792012 -0.20364358
0000a0 cf b9 45 3e 6f da 9a 3d 7b c5 94 3e 94 4b 94 be
       0.19309162 0.07561194 0.29056916 -0.28963912
0000b0 b5 16 cc 3e 0c 3e 8e be 66 3c 27 3e a0 29 7b 3e
       0.39861074 -0.27781713 0.16331634 0.24527597
0000c0 61 9c 6d 3d 67 aa 3f bc e6 58 44 bd 27 46 81 bd
       0.058010463 -0.011698342 -0.047936343 -0.063122086
0000d0 be 60 e6 bd 43 75 b5 3e 35 6a 5d bd 1f 23 8a bd
       -0.11248921 0.35441026 -0.054056365 -0.0674498
0000e0 e2 9a af 3d 2d f7 93 3d a8 3c 08 3e 5e a0 da 3d
       0.085744634 0.072248794 0.13304389 0.10675119
0000f0 b6 da a0 3e ae 74 14 be 96 90 a8 3e 80 11 21 3e
       0.31416863 -0.14497635 0.3292281 0.15729332
000100 97 c5 90 be af b3 ba 3d f6 d0 5b be d5 b9 8d bd
       -0.2827575 0.09116303 -0.21466431 -0.0692021
000110 67 65 cd 3e 47 64 b8 3d 46 99 f7 3c b4 76 3e 3e
       0.40116426 0.090035014 0.030224454 0.18599969
000120 db a7 ce 3e 42 9f 21 3e 14 dc cf 3a 71 8f dd bd
       0.4036244 0.15783408 0.0015858435 -0.10818375
000130 1b 9f 67 bb f9 6e 3a 3e c5 fe e0 3d 71 d7 f1 bd
       -0.0035342637 0.18206395 0.109860934 -0.1180867
000140 02 c5 4f 3c dc 9d 9f bd 2e 1c 50 be 3b eb 6a be
       0.012681248 -0.07793781 -0.2032325 -0.22941296
000150 08 e2 64 be 19 ee 1d bd 90 45 cc bd bd 45 a0 3e
       -0.22351849 -0.038557146 -0.099742055 0.31303206
000160 a3 7c ac bc fc c5 19 3e 07 82 10 3d a4 04 91 3d
       -0.021055525 0.15016931 0.035280254 0.07080963
000170 22 b6 ac bd 31 d0 e1 bd 85 f8 3b 3e c6 d0 de bd
       -0.084331766 -0.110260375 0.18356521 -0.10879664
000180 1f 90 7c bc ae 5f 93 bc 1c a5 31 be 0e ea 42 be
       -0.0154152205 -0.01798996 -0.1734814 -0.19034597
000190 eb 86 82 3d e0 c0 83 3e 0e 72 8a bd f1 1b da bd
       0.0637339 0.2573309 -0.067600355 -0.10649861
0001a0 2c 3c f9 bd 55 6d 0f 3e c5 20 f7 3d 2c a9 a9 bd
       -0.1216968 0.1400655 0.12066797 -0.0828422
0001b0 86 83 ba be 96 d6 63 bc 1f bd 4a be f8 d7 f6 3c
       -0.3642847 -0.013906142 -0.19798706 0.030132279
0001c0 52 c6 23 be a4 88 c4 bd e0 2c 90 bd 82 ea c0 be
       -0.15993622 -0.09596375 -0.07039809 -0.37678915
0001d0 9a 95 e1 bd 07 f5 b1 be 06 a8 9d bd a4 95 c7 3d
       -0.11014862 -0.34757254 -0.076980636 0.097453386
0001e0 c2 8d cf be 0c 31 1d 3e 77 a1 56 be cf 31 99 bd
       -0.4053784 0.15350741 -0.20960031 -0.07480203
0001f0 d2 95 c9 be eb 11 65 be 90 e3 8c bd 08 01 5a 3d
       -0.39372116 -0.22370116 -0.068793416 0.05322364
000200 6d 67 43 3e 53 2a 1e bd 8d 61 73 bd 42 b1 85 3e
       0.19082423 -0.038614582 -0.059419204 0.261118
000210 6f 99 3a be ad 4e e7 bd 02 d2 c9 bd 16 09 52 be
       -0.18222593 -0.11294303 -0.09854509 -0.20511279
000220 48 9d 8d 3d d7 31 74 3e a1 99 4a be d6 17 55 be
       0.06914765 0.23847137 -0.19785167 -0.20809874
000230 b5 00 96 bd 77 49 81 3e 4c 0a 1a be 9e 6b ec bd
       -0.073243536 0.25251362 -0.1504299 -0.11543964
000240 bb 82 85 3d f9 d6 8a bd d2 c2 cb bd 77 c9 30 be
       0.065190755 -0.06779284 -0.099492684 -0.17264353
000250 16 b7 60 bd 72 04 bd 3e e6 d4 03 be 9c ff 41 be
       -0.054862104 0.36917454 -0.12874183 -0.18945163
000260 3e 94 a7 3d b9 c6 fa bd e0 42 8d be 2f c5 f3 bd
       0.08182572 -0.122449346 -0.27590084 -0.11902844
000270 0b 22 5f 3e 3e 2e af 3e 48 d9 74 3e 8e f0 82 3e
       0.2179033 0.34214967 0.23911011 0.25574154
000280 14 37 84 be 9d 26 c5 be cb b7 2a 3e f7 38 37 3e
       -0.2582327 -0.38506022 0.16671674 0.17892824
000290 99 e7 51 3e 3f ca 07 3e da 2e 72 3d 6e 88 b5 3e
       0.20498504 0.13260745 0.059126712 0.3545565
0002a0 98 c6 c9 3c 44 08 1f be 30 04 99 3e ea e1 05 3e
       0.02463083 -0.15530497 0.29886007 0.1307446
0002b0 f8 15 89 be 82 55 85 ba 28 1d 8c bd 97 f4 f2 3d
       -0.26774573 -0.0010172578 -0.068414986 0.11863058
0002c0 b8 f0 d9 3d 86 7d fc 3a 1c 5e 3c 3e aa 49 3a bc
       0.106416166 0.0019263483 0.18395275 -0.011370102
0002d0 b9 6e 90 be ac c3 7d be b3 5e 00 3e a7 75 56 be
       -0.28209475 -0.24781674 0.12536125 -0.20943318
0002e0 88 32 75 be b2 76 79 be 2e 79 42 3e 15 bf 8c 3d
       -0.23945057 -0.24361685 0.18991539 0.068723835
0002f0 cf 2b 26 bd 3a 35 f0 3d b4 52 70 3d b9 9f 2d 3e
       -0.040569123 0.11728902 0.05867262 0.1695546
000300 1e 4f 0e bd 66 17 07 3e 03 77 13 3e e3 01 4d be
       -0.03474342 0.1319252 0.14400868 -0.20020251
000310 0a e5 6f 3e f1 82 31 3d 77 43 cb 3e 4d a3 ee 3d
       0.23427215 0.043337766 0.3969991 0.11652241
000320 a9 b2 1e be 78 e4 3e 3e 6b 15 2c be 94 90 d2 3c
       -0.15497841 0.18641841 -0.16805045 0.025703706
000330 4a d1 fb 3c 1a 20 47 be 7b 98 44 bd 37 30 df bd
       0.030739445 -0.1944584 -0.04799698 -0.10897868
000340 eb 6e 25 be 23 54 ee 3d e3 78 12 bd 57 30 88 3d
       -0.16155593 0.116371416 -0.035759818 0.06649845
000350 5c 86 f9 bd 74 ff a1 3e bd e2 cc bd 84 dc 03 bd
       -0.1218383 0.31640208 -0.100041844 -0.032192722
000360 a2 1d 29 3e f4 6d 95 3a 9a f7 77 3e 20 2c 50 be
       0.1651521 0.0011400566 0.24215546 -0.20329332
000370 08 11 dc 3e 13 24 92 3e 42 ea bc 3e e1 d0 c5 bc
       0.42981744 0.28543147 0.36897475 -0.024147453
000380 db 1b 01 be 7d 2d 1d 3e 05 f3 4a 3e 87 87 8d 3c
       -0.12608282 0.15349384 0.19819267 0.017276539
000390 36 82 d6 bd 22 fc 0a 3e c7 97 01 3e 55 e0 5a bd
       -0.104740545 0.13572744 0.12655555 -0.053436596
0003a0 68 5f a5 3d bf 9c 87 3d 96 e1 74 3d 04 25 26 3e
       0.08074838 0.06621694 0.059785448 0.16225058
0003b0 4a 02 8e 3e 82 5b 17 be d7 11 a1 be 74 2e 07 3e
       0.2773612 -0.14781001 -0.31458923 0.13201314
0003c0 c7 91 62 bd 35 ff b8 bc d0 2f c5 bd 55 3c 2b be
       -0.055314805 -0.02258263 -0.0962826 -0.16722234
0003d0 e9 ea f0 bc ca 29 19 bd 89 92 ef bc d4 36 da 3c
       -0.029408889 -0.03739337 -0.029244678 0.026637472
0003e0 b8 89 40 3d 7d fd 44 3e 82 6a 29 be f2 a4 fe 3d
       0.04700634 0.19237323 -0.16544536 0.124338046
0003f0 f0 8e 54 3e 75 85 db bd 35 a8 c7 3c cd 0f b4 3e
       0.20757651 -0.10718814 0.0243722 0.35168305

bias f4 [16]
000000 3e ea 7a ba f3 2d 18 3b 1a a7 de 39 7f 57 e8 3a
       -0.0009571648 0.0023220747 0.0004246764 0.0017726271
000010 cb 44 13 bb b6 1f 6f bb 2b 1f 05 3a a7 73 83 ba
       -0.0022471424 -0.0036487407 0.0005078192 -0.0010028974
000020 ed b8 9c 3a 9b 58 5d bb f5 4e ad 3b 29 72 2d ba
       0.0011956968 -0.0033774737 0.0052889534 -0.00066164375
000030 bb c0 61 39 32 f3 ee 3a 60 26 06 3b 42 54 ac bb
       0.0002152947 0.0018230437 0.002046965 -0.0052590678

weight f4 [8, 16]
000000 6c 62 19 be 7b 81 12 3f c4 7e a2 3c 42 9e b0 be
       -0.14978951 0.5722882 0.019835837 -0.3449574
000010 13 33 de 3e 98 45 f6 3d 8b 0e 84 be ab 3b 7a 3e
       0.43398342 0.12024993 -0.25792345 0.24436824
000020 26 03 c3 3e ab c5 6e be 83 5f 47 be 4d 34 4b 3d
       0.3808834 -0.23317592 -0.19470029 0.049610425
000030 77 14 a1 bd 6a 39 84 be 23 ad f8 3e 67 da 87 be
       -0.078652315 -0.25825053 0.48569593 -0.26533815
000040 7d 99 b7 be 42 e4 26 3e f0 52 d3 be 7a f5 bf 3e
       -0.3585929 0.16298011 -0.41274214 0.3749197
000050 11 c5 cb be 4e 37 65 be c1 ab a4 3b 86 5a 93 be
       -0.39798787 -0.22384378 0.0050253575 -0.2878
000060 00 15 a2 3e ba 21 81 3e 44 10 80 3e 03 d5 aa be
       0.31656647 0.25221044 0.2501241 -0.3336564
000070 b5 ad fd 3d 76 1a 09 3e 7c 0e 8a be 0a df 4f 3e
       0.123866476 0.13389 -0.26964176 0.20299926
000080 85 3e d9 bb 2a 79 41 be 7b 65 c0 3d a2 43 8e be
       -0.0066297674 -0.18893877 0.09394356 -0.27785975
000090 d2 16 84 3e be ec ba be f0 3a a1 3e fe f7 98 3e
       0.2579866 -0.36508745 0.31490278 0.29876703
0000a0 d5 a5 bd bd 30 49 e1 bd 7b 31 a2 3e fd 16 ed 3e
       -0.092601456 -0.110002875 0.31678376 0.463066
0000b0 93 f0 48 bd 0b e1 65 3e 08 6b 3a bd 8f a8 7f be
       -0.049057554 0.22449128 -0.04551223 -0.24966644
0000c0 12 98 9c bd d4 82 1a 3e b7 fc a0 be 1a 6f df 3e
       -0.076461926 0.1508897 -0.31442806 0.4363945
0000d0 dc ca 89 3e b3 c1 27 be 91 62 28 be 58 a3 fd 3d
       0.26912582 -0.16382484 -0.1644385 0.12384671
0000e0 9c ad 95 3e 76 b6 fb 3e b4 fb 9c be 0d 6a 4b 3e
       0.29234016 0.49162644 -0.30660784 0.19864674
0000f0 30 15 90 3e 80 31 da bd 83 72 6b 3e f0 be 9b bd
       0.28141165 -0.106539726 0.22992902 -0.07604778
000100 a6 ff fa 3e 5d 54 51 3c 35 31 ea be 0d 08 76 3e
       0.4902317 0.012776461 -0.45740667 0.24026509
000110 41 f4 21 3e 83 97 ac 3d 7e de c0 be db b0 e5 3d
       0.15815832 0.08427336 -0.37669748 0.11215373
000120 28 39 d0 bd 6e f1 cc 3e 3e 4e 08 3d ef 5b b2 3e
       -0.10167152 0.40027946 0.033277743 0.34835765
000130 b8 b2 db 3e 9a 6a 45 3d da e8 32 3e 8b ab 83 3e
       0.4290979 0.048197366 0.17471638 0.25716814
000140 51 c3 9d 3e 77 72 fd 3e 06 c0 94 3e 91 b3 82 be
       0.30813077 0.49501392 0.29052752 -0.25527623
000150 ea 47 cf 3c 75 bf 1c be 56 4f d7 3d 2c bb 7a 3e
       0.025302846 -0.1530741 0.10513179 0.24485463
000160 36 e3 3a be 91 b9 f7 3e df 75 5f be 62 3e 9b be
       -0.18250737 0.48383763 -0.21822308 -0.30321032
000170 21 0b 68 3d 2a 5d 56 bd 3e e1 6c 3e d4 07 d1 bd
       0.05665124 -0.052334942 0.23132798 -0.10206571
000180 f1 24 7b be 01 3f 15 3e 47 0e 01 3f 65 3b 2d be
       -0.24525811 0.14574815 0.5041241 -0.16917188
000190 0c d6 04 3d 54 88 91 be cb 82 df 3e 04 3f 4f 3e
       0.032430694 -0.28424323 0.43654475 0.20238882
0001a0 d3 54 f6 3e 8e df 77 bc fe b4 7b be dd 5e 50 3e
       0.4811159 -0.015128983 -0.24580762 0.20348687
0001b0 b3 6e 42 3e fe a9 9d bc 2e fb 54 be ee 6b b2 bd
       0.18987541 -0.019246098 -0.20798942 -0.08711992
0001c0 fd 9b 44 bd 5f b8 e5 bd ef 6f 88 be 05 0d 1a be
       -0.048000325 -0.112168066 -0.266479 -0.15044029
0001d0 6f 87 a0 bc 09 81 67 bd 39 2f 4a be f5 de 8b be
       -0.01959583 -0.056519542 -0.19744577 -0.2731854
0001e0 07 1d e9 3d 3b e0 83 3e 79 41 01 3e 13 af 51 be
       0.1138249 0.25757012 0.12622632 -0.20476942
0001f0 11 8b 76 3e f9 5f e3 bc 75 9a bb bb 35 25 11 3e
       0.24076487 -0.027755724 -0.0057252 0.1417435

bias f4 [8]
000000 af c0 d6 ba 7b 49 d3 bb bf 0e 80 bc 07 d7 d8 39
       -0.0016384328 -0.0064479685 -0.015632031 0.00041358938
000010 e2 ae bb 3b b1 ac 32 b9 be 48 66 bc b1 f3 1b bc
       0.0057276348 -0.00017039735 -0.014055429 -0.00951855

weight f4 [2, 8]
000000 6a 8d fa 3e 41 be 4d bf 35 71 41 bf d9 c2 ea 3e
       0.48936015 -0.8036843 -0.75563365 0.45851782
000010 da d6 2b 3f f0 8d 05 3f 0b 51 b2 be e7 cf 41 bf
       0.6712471 0.52169704 -0.34827456 -0.7570786
000020 6a 63 bc be b1 75 c9 bd 4b 85 86 be 48 0c 4d bd
       -0.36794597 -0.09836901 -0.2627357 -0.05006054
000030 96 1f 01 3e 9e e0 b0 bd 86 70 0f 3f 43 bb a0 be
       0.12609705 -0.08636592 0.5603107 -0.3139287

bias f4 [2]
000000 34 4e 09 bf 35 4e 09 3f
       -0.53634953 0.5363496
