serology/results_intermediate_encoders_2/models/5fold/classifier_0.pt (torch, 18016 bytes, 20 tensors)

weight f4 [32]
0.9820193 1.05196 0.91522604 1.070255 1.1439042 0.94399536 0.98620206 0.97171134
0.883464 0.97990257 1.0013663 0.9448852 1.0641481 1.0034485 0.8912431 0.93131626
1.0141337 0.9975986 0.95594347 1.0769581 0.97701293 0.97427315 1.0036762 1.000466
1.1675767 0.93740106 1.0259105 0.9935092 1.0797516 0.95564145 0.883434 0.92180556
00000000: 9e65 7b3f a0a6 863f 414c 6a3f 1efe 883f
00000010: 746b 923f aea9 713f bd77 7c3f 13c2 783f
00000020: b22a 623f e5da 7a3f c52c 803f ffe3 713f
00000030: 0136 883f 0071 803f 8228 643f be6a 6e3f
00000040: 22cf 813f 9f62 7f3f b6b8 743f c3d9 893f
00000050: 851d 7a3f f769 793f 7678 803f 450f 803f
00000060: 2773 953f 84f9 6f3f 0951 833f 9e56 7e3f
00000070: 4d35 8a3f eba4 743f bb28 623f 73fb 6b3f

bias f4 [32]
0.092095315 -0.10799164 0.02351894 -0.22488137 -0.06929836 -0.08950731 -0.05669469 -0.29105958
-0.009901783 -0.15646678 0.058430444 0.025221663 -0.2636916 0.032609038 -0.10419433 -0.08244076
-0.14043172 -0.16858459 -0.022670105 -0.06032865 -0.04451216 -0.09191344 0.09671117 -0.021288011
-0.021985076 -0.11339591 0.021924436 -0.15362252 -0.07341985 0.023532288 -0.07947 -0.056351416
00000000: 789c bc3d b92a ddbd cbaa c03c 4d47 66be
00000010: 4cec 8dbd 9c4f b7bd b138 68bd c305 95be
00000020: 173b 22bc d438 20be c354 6f3d a99d ce3c
00000030: 9602 87be 0e91 053d d663 d5bd b4d6 a8bd
00000040: 55cd 0fbe 70a1 2cbe a8b6 b9bc 2d1b 77bd
00000050: 6252 36bd 1d3d bcbd 8210 c63d 3264 aebc
00000060: 0c1a b4bc 1d3c e8bd e09a b33c 394f 1dbe
00000070: 255d 96bd c9c6 c03c 2bc1 a2bd bed0 66bd

running_mean f4 [32]
-2.1666055 0.71040666 2.1711392 -1.9544237 -0.77643627 -0.058105066 0.4636703 2.9186661
1.0875416 -1.4315377 0.5296639 2.1429868 -1.7221173 0.65709335 -0.81853336 0.7463151
-2.8004072 1.1611286 2.6954753 -0.84904784 -1.9443989 0.69360083 -0.1312826 0.53069085
-1.5165404 -1.9055107 2.003971 -1.6723572 -0.07411189 1.7568649 1.4028232 2.4144416
00000000: aaa9 0ac0 36dd 353f f2f3 0a40 8e2a fabf
00000010: 87c4 46bf 94ff 6dbd 3266 ed3e 6dcb 3a40
00000020: 9034 8b3f a13c b7bf 0e98 073f b226 0940
00000030: 576e dcbf 4537 283f 678b 51bf 820e 3f3f
00000040: df39 33c0 dd9f 943f ab82 2c40 335b 59bf
00000050: 10e2 f8bf d38f 313f f26e 06be 5bdb 073f
00000060: ff1d c2bf c6e7 f3bf 1041 0040 cd0f d6bf
00000070: f9c7 97bd f3e0 e03f b68f b33f 3686 1a40

running_var f4 [32]
4.7950797 2.980971 7.7597475 9.41874 10.861524 4.0253406 4.792516 8.005625
3.0554252 6.331784 4.9460335 9.419367 14.07867 2.4992964 3.8218012 4.5026536
9.563335 4.364534 5.798344 3.4303064 7.3154926 3.423103 1.5592971 5.3241305
5.7371626 6.9568257 6.3462987 8.647779 3.0547159 4.7257657 4.477683 8.358301
00000000: 4b71 9940 3bc8 3e40 da4f f840 29b3 1641
00000010: cdc8 2d41 97cf 8040 4b5c 9940 0a17 0041
00000020: 168c 4340 f99d ca40 e845 9e40 bab5 1641
00000030: 3b42 6141 79f4 1f40 6498 7440 bd15 9040
00000040: 6c03 1941 43aa 8b40 098c b940 248a 5b40
00000050: 8418 ea40 1f14 5b40 0c97 c73f 475f aa40
00000060: d696 b740 519e de40 e114 cb40 4e5d 0a41
00000070: 7780 4340 7939 9740 2e49 8f40 9abb 0541

weight f4 [16]
1.1994371 1.2308575 0.8625974 0.9736846 0.9134291 0.7568771 1.1773822 0.986076
0.8736829 0.836762 1.0008891 0.83077186 0.9566951 0.80577713 0.9549862 1.0434839
00000000: 2887 993f bd8c 9d3f 2fd3 5c3f 6543 793f
00000010: 7dd6 693f b3c2 413f 76b4 963f 7a6f 7c3f
00000020: afa9 5f3f 0936 563f 221d 803f 77ad 543f
00000030: f8e9 743f 6947 4e3f fa79 743f e190 853f

bias f4 [16]
-0.09567631 -0.14158136 -0.053511903 -0.011789413 -0.065230116 -0.19132255 -0.07840358 0.19533005
0.0545682 -0.13005182 0.10542094 -0.07456188 -0.11708986 -0.14420263 -0.14790112 0.13197
00000000: f1f1 c3bd b4fa 10be 4c2f 5bbd 6228 41bc
00000010: 5e97 85bd 0fea 43be 0e92 a0bd 9a04 483e
00000020: e882 5f3d 4e2c 05be efe6 d73d e6b3 98bd
00000030: cfcc efbd dba9 13be 6473 17be 2523 073e

running_mean f4 [16]
0.9031872 0.8141339 -0.52302647 -0.0063895937 -0.46116176 -0.44464314 0.82065356 -0.6612983
-0.426021 -0.07320412 -0.73428166 0.08617139 0.5659238 0.36466533 0.26256403 -0.5390441
00000000: 4737 673f 146b 503f 10e5 05bf cc5f d1bb
00000010: 651d ecbe 44a8 e3be 5a16 523f d84a 29bf
00000020: 6d1f dabe 0bec 95bd e2f9 3bbf a07a b03d
00000030: 62e0 103f 6ab5 ba3e cb6e 863e cbfe 09bf

running_var f4 [16]
2.4758544 3.0382023 1.8576865 1.0469358 1.0678545 0.4246936 2.5683026 1.479259
1.067104 0.9507028 1.1171871 1.0550413 1.2344668 1.0841842 2.2085373 1.4313469
00000000: 6674 1e40 e871 4240 acc8 ed3f fe01 863f
00000010: 75af 883f 7171 d93e 125f 2440 5c58 bd3f
00000020: dd96 883f 4261 733f fdff 8e3f 980b 873f
00000030: 0203 9e3f 8cc6 8a3f ad58 0d40 6036 b73f

weight f4 [8]
1.324448 1.3829825 1.4596579 1.3368021 1.3725469 1.3358583 1.6614901 1.4537945
00000000: 8387 a93f 9205 b13f 12d6 ba3f 551c ab3f
00000010: 9eaf af3f 68fd aa3f b5ab d43f f015 ba3f

bias f4 [8]
0.34718043 0.37091145 0.5111214 0.3467206 0.4116176 0.37651432 0.3123861 0.54379374
00000000: a2c1 b13e 1be8 bd3e dad8 023f 5d85 b13e
00000010: 8bbf d23e 7cc6 c03e 12f1 9f3e 1136 0b3f

running_mean f4 [8]
-0.5742239 -0.39452246 -0.20270465 -0.70948464 -0.3423122 -0.45241222 -0.20664242 -0.21415718
00000000: 5600 13bf d9fe c9be cf91 4fbe c9a0 35bf
00000010: 8b43 afbe 93a2 e7be 129a 53be 054c 5bbe

running_var f4 [8]
2.1113312 1.4892019 1.7351592 2.2123702 1.9233345 2.1197357 1.3593599 2.330199
00000000: 0d20 0740 2b9e be3f b219 de3f 7997 0d40
00000010: d32f f63f c0a9 0740 81ff ad3f fb21 1540

weight f4 [32, 32]
-0.16244109 -0.22112456 -0.042965766 0.15305786 0.15057892 -0.24588232 -0.032800805 0.029567242
-0.09367714 0.2176592 -0.03969291 -0.2177306 0.21175349 -0.13116276 0.09787321 0.012227703
-0.15518212 0.12103224 -0.059144337 0.2163973 0.08124402 0.20955037 -0.13943319 0.13608009
-0.23712759 -0.17672946 -0.22274053 -0.09364777 -0.373645 -0.15322441 -0.17582658 -0.03190377
-0.10034899 0.09089262 0.14400592 0.1247174 0.07180679 0.23603296 -0.2309391 0.330898
-0.25977334 -0.19815327 -0.1261371 0.24355744 0.03813945 -0.054553904 -0.047060218 -0.020227863
-0.058905635 0.031833217 -0.13244212 0.011660455 -0.24360853 -0.14564246 -0.033670813 -0.21509208
-0.13064465 0.04536982 -0.24536791 0.021828715 -0.12489269 -0.0169718 0.31634173 -0.14787295
0.2805831 -0.03824431 0.119903274 0.17282422 0.117237106 0.35967916 -0.017920692 -0.1598811
-0.058068566 0.31497294 0.32602564 -0.23072837 -0.3459526 0.13608143 0.31061623 -0.1302828
0.25943598 0.07794504 -0.15239464 -0.18409312 -0.12979151 0.16902854 0.22009292 0.06605475
0.018891092 0.27825144 0.2519505 -0.055862583 0.21487947 0.1825128 0.14986183 0.1501321
-0.07824063 -0.2580788 0.31457517 -0.13133736 -0.3219584 -0.12598144 0.23908222 0.10405417
0.14135489 -0.18347812 0.1696206 -0.24290693 -0.21195048 0.13197353 0.10396616 -0.12232615
0.20671368 0.29467812 -0.099432364 -0.05007491 0.24974597 -0.33176222 -0.24944356 -0.0076158103
0.06742631 -0.14515555 -0.14390741 0.13634464 -0.097562365 -0.14900425 -0.2752048 -0.04545139
-0.33493152 -0.114092916 0.19767012 0.24960618 0.11837207 0.1227117 -0.0004861752 0.19268319
-0.1757743 -0.31694624 -0.1707835 -0.3517705 0.14679936 -0.044322986 -0.08358102 -0.24410863
-0.13943507 0.23773494 0.17076147 -0.21012686 0.14893526 0.054332662 -0.11112129 -0.17408232
0.13499193 0.24893126 -0.15953246 -0.22499143 0.107400656 0.06389682 -0.1405517 -0.20537478
-0.07573449 -0.28471118 0.003740369 0.11115118 0.22677024 -0.0036908588 -0.24770328 -0.16008444
0.11182858 0.08260153 -0.24764028 -0.112186685 -0.03728708 -0.19001237 -0.040449753 -0.086805955
0.07987988 -0.23106794 0.19928096 -0.1614 -0.14385338 -0.134879 0.33219278 -0.040837236
0.23002478 -0.26241466 0.024552599 -0.38243863 -0.06157163 0.23364897 0.080164164 -0.062415667
0.3305377 0.20807494 0.07826259 0.25813532 -0.079007916 0.105457306 0.21900678 0.14007767
0.19764946 0.19545446 0.06146786 0.13995752 -0.34764367 -0.056216434 0.06981693 0.077936076
0.29627594 -0.14947009 0.274169 -0.06325734 0.069336265 -0.29019126 0.019394148 -0.26681897
0.15484542 -0.058039017 0.21032652 0.28017983 0.15842438 -0.045248043 -0.04184918 -0.14354452
0.21532881 0.18055321 0.012325039 0.13789599 0.050073627 -0.23807916 0.11585656 0.07674727
0.14931656 0.027187927 -0.3496546 -0.31484765 -0.071747035 0.021883462 -0.09885022 -0.09695491
0.094697 0.019943811 0.084008634 0.11473964 0.20723505 -0.22714378 -0.14899182 -0.029642008
-0.14415444 0.29040346 -0.13583261 -0.1438854 0.35505146 0.15612017 0.24497312 0.42179692
00000000: f556 26be 7a6e 62be dffc 2fbd 33bb 1c3e
00000010: 5c31 1a3e 93c8 7bbe 235a 06bd 0037 f23c
00000020: cdd9 bfbd 0ee2 5e3e 0895 22bd c5f4 5ebe
00000030: e8d5 583e 884f 06be c071 c83d b456 483c
00000040: 10e8 1ebe c0df f73d 5541 72bd 4197 5d3e
00000050: 4463 a63d 5f94 563e 93c7 0ebe 9458 0b3e
00000060: 93d1 72be 91f8 34be 1816 64be 67ca bfbd
00000070: 664e bfbe dce6 1cbe e20b 34be 87ad 02bd
00000080: c583 cdbd e925 ba3d 4a76 133e d66b ff3d
00000090: 700f 933d a0b2 713e 4d7b 6cbe 766b a93e
000000a0: 0301 85be b1e8 4abe 152a 01be 1f67 793e
000000b0: 1d38 1c3d ea73 5fbd 37c2 40bd e7b4 a5bc
000000c0: 0947 71bd 8c63 023d e89e 07be 7e0b 3f3c
000000d0: 8474 79be 4c23 15be 68ea 09bd 1941 5cbe
000000e0: b6c7 05be b4d5 393d ba41 7bbe 22d2 b23c
000000f0: bdc7 ffbd 7208 8bbc 8bf7 a13e 026c 17be
00000100: 97a8 8f3e 11a6 1cbd d98f f53d d5f8 303e
00000110: 021a f03d de27 b83e 6ace 92bc dfb7 23be
00000120: 4ed9 6dbd 2244 a13e d5ec a63e 0f44 6cbe
00000130: b320 b1be ee58 0b3e 1709 9f3e db68 05be
00000140: cbd4 843e a6a1 9f3d 570d 1cbe e882 3cbe
00000150: 11e8 04be d115 2d3e 0a60 613e b647 873d
00000160: 7ec1 9a3c f976 8e3e a8ff 803e 2ad0 64bd
00000170: 5d09 5c3e a3e4 3a3e 6175 193e 3bbc 193e
00000180: a03c a0bd e822 84be ff0f a13e 4d7d 06be
00000190: bbd7 a4be 4701 01be f8d1 743e 5a1a d53d
000001a0: 56bf 103e b0e1 3bbe 06b1 2d3e 98bc 78be
000001b0: 8c09 59be 1224 073e 36ec d43d 2286 fabd
000001c0: c0ac 533e 0de0 963e 32a3 cbbd 591b 4dbd
000001d0: 68bd 7f3e bddc a9be 226e 7fbe 0c8e f9bb
000001e0: ce16 8a3d a8a3 14be 775c 13be ee9d 0b3e
000001f0: c7ce c7bd 9294 18be a5e7 8cbe 3d2b 3abd
00000200: 257c abbe 8ca9 e9bd 096a 4a3e c398 7f3e
00000210: 0e6d f23d 4650 fb3d 55e5 feb9 be4e 453e
00000220: 2efe 33be c746 a2be dfe1 2ebe 431b b4be
00000230: 9252 163e 058c 35bd 872c abbd 9df7 79be
00000240: 11c8 0ebe ca70 733e 18dc 2e3e 7f2b 57be
00000250: 7c82 183e ed8b 5e3d 8f93 e3bd a342 32be
00000260: 533b 0a3e d6e7 7e3e 7a5c 23be 2764 66be
00000270: e0f4 db3d 56dc 823d c9ec 0fbe c44d 52be
00000280: af1a 9bbd aac5 91be fb20 753b 3ba3 e33d
00000290: 7536 683e 56e2 71bb eea5 7dbe 2ded 23be
000002a0: 6206 e53d fe2a a93d 6a95 7dbe 22c2 e5bd
000002b0: 56ba 18bd 9a92 42be a4ae 25bd 52c7 b1bd
000002c0: 1098 a33d 139d 6cbe 4f10 4c3e 0b46 25be
000002d0: 4d4e 13be b81d 0abe 2c15 aa3e f244 27bd
000002e0: 9e8b 6b3e 375b 86be 8822 c93c ffce c3be
000002f0: 8932 7cbd ad41 6f3e 1c2d a43d 92a7 7fbd
00000300: 3d3c a93e 9911 553e 2348 a03d 502a 843e
00000310: e7ce a1bd 00fa d73d 5043 603e 8570 0f3e
00000320: 9f64 4a3e 3725 483e b9c5 7b3d 0651 0f3e
00000330: 5afe b1be 3443 66bd 2efc 8e3d f39c 9f3d
00000340: 7bb1 973e b00e 19be e15f 8c3e 108d 81bd
00000350: 2c00 8e3d f393 94be 7ae0 9e3c 7f9c 88be
00000360: cc8f 1e3e 52ba 6dbd d65f 573e bb73 8f3e
00000370: 003a 223e 0356 39bd 0c6a 2bbd 56fd 12be
00000380: 287f 5c3e f1e2 383e f6ee 493c 9b34 0d3e
00000390: 011a 4d3d 06cb 73be 3446 ed3d ac2d 9d3d
000003a0: 71e6 183e 37b9 de3c ed05 b3be b633 a1be
000003b0: 1cf0 92bd f244 b33c fc71 cabd 4c90 c6bd
000003c0: 80f0 c13d 3461 a33c b80c ac3d 9efc ea3d
000003d0: 6d35 543e 6198 68be 5091 18be ccd3 f2bc
000003e0: 399d 13be c3af 943e b417 0bbe b256 13be
000003f0: 4ec9 b53e f7dd 1f3e 3cda 7a3e c4f5 d73e

bias f4 [32]
-6.640519e-05 1.1181929e-06 1.1019971e-05 -2.837945e-05 5.208709e-05 1.4081795e-05 -1.5521362e-05 -4.3207318e-05
7.4629465e-06 -5.080527e-06 -3.8147864e-05 3.820428e-05 -2.1362921e-05 -1.0760391e-05 1.9580866e-05 2.153435e-05
3.144485e-05 -1.4323384e-05 -2.2238846e-05 7.350588e-05 -8.881305e-06 7.006097e-05 5.2883595e-05 -8.268509e-06
7.6727076e-05 7.063988e-05 -9.162179e-06 3.0867628e-05 3.071336e-05 -3.2807908e-05 -2.7138356e-05 -6.6527027e-06
00000000: 0443 8bb8 d114 9635 6ae2 3837 6810 eeb7
00000010: 1678 5a38 d940 6c37 df33 82b7 8139 35b8
00000020: 396a fa36 6579 aab6 f500 20b8 893d 2038
00000030: 8634 b3b7 8787 34b7 9741 a437 aaa4 b437
00000040: a7e3 0338 774e 70b7 8f8d bab7 2b27 9a38
00000050: ea00 15b7 b2ed 9238 54cf 5d38 fab8 0ab7
00000060: 89e8 a038 7f24 9438 42b7 19b7 dd77 0138
00000070: 38d2 0038 399b 09b8 2da7 e3b7 483a dfb6

weight f4 [16, 32]
-0.13975775 0.26161772 0.12968089 0.2418391 0.18511915 0.17820024 0.08655308 0.20582373
0.26703995 0.29598588 0.055291608 -0.2737878 0.2537213 0.12961113 -0.016094282 0.27041233
0.14368455 0.05332814 -0.13649367 0.39155143 0.33405006 -0.1757174 -0.09553286 -0.08477584
0.018489972 0.29251555 0.19291463 -0.087810814 0.32708114 -0.2068253 0.3089918 -0.36980104
-0.008709819 0.25918496 -0.008720841 0.35783818 0.22711353 0.0822143 0.16942057 0.26870131
0.0468576 -0.05230883 0.30623922 -0.1275366 0.21211082 -0.0705529 0.15955181 0.05002977
0.09114509 0.3659323 -0.105641805 0.4055243 0.38446224 -0.27225366 -0.027581165 -0.1461425
-0.026008023 0.056159273 0.18091257 0.04408474 0.10674823 -0.023069259 -0.14708911 -0.18129128
-0.23465167 -0.114716865 -0.02511312 0.10311125 -0.07646673 -0.39232457 -0.26403123 -0.08967331
0.18769968 -0.40761018 0.099593915 0.22042188 -0.3877419 -0.15939477 0.00022537971 0.16309465
-0.34995854 -0.33958018 0.26932666 0.17805266 -0.30724937 0.026275387 -0.0053760097 -0.17589884
-0.43597305 -0.13188694 0.21651931 0.19183125 0.2204079 0.098649174 0.26543763 -0.19547406
-0.16235523 -0.09498873 0.31926525 -0.29636437 -0.31919992 0.019767696 0.3675483 0.25924668
-0.051541843 -0.25013122 0.23130965 0.31456837 -0.16606927 0.1608197 -0.2104784 -0.17428932
0.2012198 -0.08713602 0.24318407 0.26921588 -0.20729208 0.2591293 0.026464432 0.07796915
-0.22387594 -0.08877517 -0.24030845 0.078987524 0.12414326 -0.08946051 -0.20904118 -0.16835615
-0.2879877 -0.07827766 0.15019171 -0.2608619 0.101594955 -0.32681832 -0.15257111 -0.11031491
0.24744071 0.12684777 -0.062179368 0.014593892 0.19432148 0.22757314 0.21915123 -0.34374577
-0.350738 -0.23719925 0.12787688 -0.30443975 -0.112175494 0.026779275 -0.15094301 0.32333496
-0.30805844 0.2077069 -0.23288645 0.052212898 -0.053591754 0.12375252 -0.2610848 0.15279445
-0.06545031 -0.23717655 0.29382008 0.06796622 -0.028206242 0.03181217 0.21582814 -0.16032204
0.07811551 -0.0055317148 -0.010056844 0.07273036 0.28135073 0.04411932 -0.0381434 -0.004206201
-0.08599747 0.19052759 -0.18810834 0.119371526 0.019600186 -0.32858405 -0.053668052 0.031290133
-0.30270848 0.105468675 -0.16258858 -0.09659117 -0.29304513 -0.18487142 -0.32314283 -0.28477225
-0.24160843 -0.031230485 -0.1332586 0.26717156 -0.0005902802 0.20795216 0.31799734 0.27174342
-0.27745324 0.40806317 -0.054005366 -0.2681214 0.35882634 -0.14419979 0.44220218 0.072248235
0.18617278 -0.11560479 0.01998887 0.00026244466 -0.024961222 -0.20256877 0.21040002 0.2534813
0.45653132 0.065722145 0.16085511 0.2875129 0.1656763 0.18147053 -0.018519506 0.023757724
0.026976265 0.18397401 0.22547182 -0.057030153 0.08943016 -0.2779127 0.19661443 -0.1130624
0.19472273 -0.20473637 -0.4095521 -0.24302943 -0.3108748 -0.075859845 -0.07738364 -0.28062958
-0.09237538 0.061712008 0.19966762 0.07653031 -0.30327553 0.1184476 -0.23783113 0.094977446
-0.3467539 -0.28368855 0.07750914 -0.12335503 0.027080832 0.21608002 -0.3487165 -0.18626058
00000000: a81c 0fbe c2f2 853e 11cb 043e aba4 773e
00000010: e08f 3d3e 207a 363e be42 b13d 75c3 523e
00000020: 76b9 883e 768b 973e 7479 623d ea2d 8cbe
00000030: c2e7 813e c8b8 043e 28d8 83bc 7c73 8a3e
00000040: 0b22 133e 9c6e 5a3d ffc4 0bbe 6e79 c83e
00000050: 9c08 ab3e 43ef 33be bba6 c3bd f59e adbd
00000060: 4878 973c 99c4 953e 6a8b 453e 28d6 b3bd
00000070: 2e77 a73e 03ca 53be 2c34 9e3e 9056 bdbe
00000080: a1b3 0ebc e4b3 843e dce1 0ebc 9136 b73e
00000090: 7390 683e f95f a83d 967c 2d3e 3893 893e
000000a0: c1ed 3f3d c941 56bd 63cb 9c3e f498 02be
000000b0: 9433 593e 0a7e 90bd 8d61 233e 04ec 4c3d
000000c0: 47aa ba3d 7a5b bb3e bb5a d8bd e2a0 cf3e
000000d0: 3cd8 c43e d564 8bbe e5f1 e1bc 61a6 15be
000000e0: c70e d5bc 4407 663d 2541 393e 3392 343d
000000f0: d19e da3d befb bcbc 879e 16be 6ca4 39be
00000100: 8748 70be adf0 eabd 08ba cdbc fe2b d33d
00000110: 979a 9cbd c4de c8be 1a2f 87be a4a6 b7bd
00000120: 5834 403e 48b2 d0be e5f7 cb3d 46b6 613e
00000130: 1b86 c6be 6238 23be e853 6c39 4902 273e
00000140: c42d b3be 74dd adbe 2fe5 893e 7053 363e
00000150: ca4f 9dbe 7b3f d73c 3d29 b0bb d31e 34be
00000160: dc37 dfbe 5f0d 07be 3db7 5d3e 696f 443e
00000170: 9cb2 613e 9408 ca3d 71e7 873e 5a2a 48be
00000180: 7340 26be 7489 c2bd bc76 a33e 12bd 97be
00000190: 2c6e a3be ddef a13c 4a2f bc3e fbbb 843e
000001a0: 8a1d 53bd 3311 80be 70dc 6c3e 1b0f a13e
000001b0: 100e 2abe ebad 243e a687 57be e678 32be
000001c0: 900c 4e3e 5f74 b2bd 3f05 793e aad6 893e
000001d0: 6044 54be 98ac 843e f0cb d83c 4aae 9f3d
000001e0: bc3f 65be c2cf b5bd 6b13 76be 36c4 a13d
000001f0: d23e fe3d 1237 b7bd e40e 56be 8e65 2cbe
00000200: 2073 93be 0a50 a0bd dbcb 193e b18f 85be
00000210: 0411 d03d bb54 a7be 9a3b 1cbe c9ec e1bd
00000220: 1961 7d3e 62e4 013e cbaf 7ebd 381b 6f3c
00000230: 36fc 463e ef08 693e 2e69 603e 72ff afbe
00000240: ee93 b3be 5ce4 72be 28f2 023e 87df 9bbe
00000250: 44bc e5bd 3660 db3c ce90 1abe 298c a53e
00000260: d6b9 9dbe 1eb1 543e c979 6ebe 31dd 553d
00000270: 0783 5bbd f671 fd3d e8ac 85be 2676 1c3e
00000280: d00a 86bd 69de 72be 966f 963e e031 8b3d
00000290: c710 e7bc 7a4d 023d 0d02 5d3e 762b 24be
000002a0: 06fb 9f3d 6343 b5bb 76c5 24bc a8f3 943d
000002b0: 340d 903e 76b6 343d 413c 1cbd 2cd4 89bb
000002c0: 711f b0bd aa19 433e 799f 40be 0f79 f43d
000002d0: 9290 a03c 2b3c a8be 08d3 5bbd 152a 003d
000002e0: 9bfc 9abe f6ff d73d 9f7d 26be 97d1 c5bd
000002f0: 030a 96be ef4e 3dbe fa72 a5be abcd 91be
00000300: 3368 77be 13d7 ffbc f174 08be b6ca 883e
00000310: 09bd 1aba 69f1 543e 8cd0 a23e f421 8b3e
00000320: 5a0e 8ebe a8ed d03e bb34 5dbd 3547 89be
00000330: 16b8 b73e 1ca9 13be 5368 e23e e2f6 933d
00000340: 14a4 3e3e 34c2 ecbd b3bf a33c ba98 8939
00000350: 7a7b ccbc 306e 4fbe 1a73 573e 4dc8 813e
00000360: 79be e93e 5599 863d 34b7 243e e434 933e
00000370: 0ca7 293e 69d3 393e 38b6 97bc 8f9f c23c
00000380: 54fd dc3c af63 3c3e 16e2 663e 7398 69bd
00000390: 2927 b73d 934a 8ebe 4b55 493e 428d e7bd
000003a0: 6565 473e 69a6 51be d0b0 d1be b5dc 78be
000003b0: fb2a 9fbe 685c 9bbd 507b 9ebd aeae 8fbe
000003c0: 4e2f bdbd bbc5 7c3d ab75 4c3e ecbb 9c3d
000003d0: ee46 9bbe a894 f23d 018a 73be 8983 c23d
000003e0: ba89 b1be a03f 91be 1dbd 9e3d 90a1 fcbd
000003f0: 9fd8 dd3c 1544 5d3e f88a b2be 18bb 3ebe

bias f4 [16]
-6.024683e-05 2.3600913e-05 9.800967e-06 -2.5885274e-05 -1.8099308e-05 1.9880732e-05 8.141907e-05 -2.3749315e-05
4.3080603e-05 3.6197382e-06 2.8914926e-06 -2.3667577e-05 0.00011083372 -4.9273363e-05 -0.00010028396 -3.4292367e-05
00000000: 8bb1 7cb8 93fa c537 d56e 2437 3424 d9b7
00000010: f8d3 97b7 8cc5 a637 88bf aa38 4439 c7b7
00000020: 72b1 3438 a1ea 7236 770b 4236 bc89 c6b7
00000030: 666f e838 dfaa 4eb8 8b4f d2b8 26d5 0fb8

weight f4 [8, 16]
-0.34488687 -0.4575427 -0.039261207 -0.2677073 0.28283072 -0.073161624 -0.12271268 0.3884204
-0.17104474 0.2265351 0.10767658 -0.4287148 -0.4314424 -0.5127891 0.17852196 -0.3664601
-0.10602749 -0.41866422 0.4139297 -0.12878023 -0.33017164 0.065482534 -0.21584825 0.05917324
0.37820074 -0.40434244 0.3578327 -0.18277971 -0.15909818 -0.3078832 -0.12926888 -0.34897926
-0.31413072 -0.35836932 -0.4433728 0.3102762 0.047153585 0.08802048 0.018406175 0.22505303
0.028371202 0.12764497 0.054611195 0.16410965 -0.44219714 -0.07451309 -0.21088731 0.10924125
-0.32900828 -0.4363603 -0.075424835 -0.44355187 -0.10999221 -0.04381108 -0.42013568 -0.0047049834
0.094674475 -0.41404623 -0.26644093 0.052144498 -0.39407942 -0.122182816 0.16805835 0.39623696
-0.39121908 -0.0691322 0.3408766 0.21821631 0.25670493 -0.07475176 -0.40921313 -0.04395541
-0.100070186 0.36573043 -0.32687914 0.2672363 -0.22039577 0.11683222 -0.3527973 -0.10227216
-0.35448876 -0.3904953 -0.11258332 0.1404375 -0.1828328 0.26539874 -0.39401162 -0.35682833
-0.5045642 0.3820771 0.2723296 -0.20709288 -0.074176416 0.22968422 -0.41012093 0.5497162
0.24393605 0.17475665 0.12186023 -0.25958654 -0.042705208 0.18018146 0.23039158 -0.30991217
-0.27454248 0.26281768 -0.27777418 -0.08785791 0.045810327 0.0140881045 0.2393141 -0.47212747
-0.3924269 -0.41592184 -0.21874055 -0.2146758 0.049379002 -0.21455003 -0.34849897 0.18974036
0.35353324 -0.10880673 0.15948166 0.3651306 0.25523233 -0.0748275 -0.41814217 0.19647542
00000000: 0395 b0be 0943 eabe 5cd0 20bd ee10 89be
00000010: 30cf 903e c3d5 95bd c950 fbbd 0adf c63e
00000020: 5a26 2fbe d1f8 673e 8a85 dc3d 8280 dbbe
00000030: 05e6 dcbe 2546 03bf 76ce 363e a9a0 bbbe
00000040: f124 d9bd 285b d6be 98ee d33e f7de 03be
00000050: 420c a9be b51b 863d 5307 5dbe a45f 723d
00000060: 87a3 c13e f905 cfbe d935 b73e 9b2a 3bbe
00000070: a2ea 22be dea2 9dbe 105f 04be 69ad b2be
00000080: bed5 a0be 2f7c b7be c201 e3be 86dc 9e3e
00000090: 1e24 413d 1544 b43d 8cc8 963c 4d74 663e
000000a0: b96a e83c 5db5 023e fdaf 5f3d 5c0c 283e
000000b0: aa67 e2be 529a 98bd d8f2 57be e0b9 df3d
000000c0: c673 a8be 9e6a dfbe 5678 9abd 3b19 e3be
000000d0: 9943 e1bd 3f73 33bd 061c d7be 432c 9abb
000000e0: b1e4 c13d defd d3be f26a 88be 7895 553d
000000f0: c7c4 c9be fc3a fabd 7d17 2c3e 92df ca3e
00000100: de4d c8be 2f95 8dbd 6187 ae3e 1974 5f3e
00000110: d46e 833e 7317 99bd 6284 d1be 970a 34bd
00000120: 99f1 ccbd 0541 bb3e b45c a7be 32d3 883e
00000130: 6eaf 61be bb45 ef3d d9a1 b4be 1174 d1bd
00000140: 8d7f b5be 00ef c7be 1592 e6bd d9ce 0f3e
00000150: 8638 3bbe 58e2 873e e4bb c9be 34b2 b6be
00000160: 1f2b 01bf 9c9f c33e c96e 8b3e 2810 54be
00000170: cee9 97bd 5732 6b3e 5ffb d1be 33ba 0c3f
00000180: 5fca 793e 68f3 323e db91 f93d 87e8 84be
00000190: a8eb 2ebd 7d81 383e c5eb 6b3e cfac 9ebe
000001a0: d590 8cbe 0a90 863e 6b38 8ebe d9ee b3bd
000001b0: 9ca3 3b3d cbd1 663c c10e 753e b1ba f1be
000001c0: 2eec c8be b5f3 d4be 86fd 5fbe f9d3 5bbe
000001d0: a341 4a3d 01b3 5bbe 756e b2be 4c4b 423e
000001e0: 4f02 b53e 10d6 debd 294f 233e 66f2 ba3e
000001f0: d0ad 823e 293f 99bd bb16 d6be da30 493e

bias f4 [8]
-8.8390894e-05 -0.00019035189 -1.1960801e-05 1.809343e-05 -3.8478793e-05 2.8191052e-05 0.0001504138 -0.0001200637
00000000: 805e b9b8 3299 47b9 40ab 48b7 58c7 9737
00000010: 4a64 21b8 d37b ec37 66b8 1d39 b5ca fbb8

weight f4 [2, 8]
-0.5528985 -1.1193181 -1.0143204 -0.87038916 -0.8636539 -0.8639118 0.6417578 -0.6425362
0.6623934 0.86408305 0.6264261 0.14553039 1.0466863 0.5095958 -0.78985107 1.1531655
00000000: c28a 0dbf d145 8fbf 40d5 81bf d3d1 5ebf
00000010: 6c18 5dbf 5329 5dbf 3d4a 243f 417d 24bf
00000020: 9d92 293f 8c34 5d3f 765d 203f eb05 153e
00000030: d1f9 853f df74 023f ae33 4abf ed9a 933f

bias f4 [2]
0.31010276 -0.3101027
00000000: cac5 9e3e c8c5 9ebe
