serology/results_intermediate_encoders_2/models/5fold/classifier_2.pt (torch, 18016 bytes, 20 tensors)

weight f4 [32]
00000000: 98d5 6f3f 6975 6f3f a3eb 543f 9d44 863f
00000010: af60 923f 378b 7a3f 9a6f 763f 2d22 813f
00000020: a2ea 813f a9dc 843f 4044 6e3f f453 6e3f
00000030: a0ca 823f 253a 773f 7e3c 843f 55f2 793f
00000040: 77d9 843f 34a2 703f 692b 8c3f 76d8 6d3f
00000050: 97d9 7b3f 41c6 853f 691d 8b3f eeb3 593f
00000060: b50d 5c3f 4d49 883f 1bc5 6d3f 16f1 7e3f
00000070: 7b78 883f 2758 913f a41b 803f 66f2 7a3f
0.93685293 0.9353853 0.83172053 1.0489689 1.1435755 0.97868675 0.9626404 1.0088555
1.0149729 1.037984 0.9307289 0.9309685 1.0218086 0.96573097 1.0330961 0.97635394
1.0378865 0.939975 1.0950748 0.9290842 0.9837889 1.0451127 1.086835 0.85040176
0.85958415 1.064737 0.92878884 0.9958662 1.0661768 1.1355027 1.0008435 0.9802612

bias f4 [32]
00000000: d211 ccbc 3f9b eabd 23a8 bcbd a1a1 68be
00000010: ca48 9cbd b063 b53d d12c 62bd 1ba5 05be
00000020: e06e d439 d053 8a3c cace f8bd b4ff 22bd
00000030: b806 e93d 0c49 c6bd 1962 203e af94 62bd
00000040: 88a3 1abe 4adf 93bd 3159 6dbd 01ed d5bd
00000050: 0c88 3d3d e993 00be 8e1d 65bc 1dd4 83bd
00000060: 3740 bcbd ea41 dbbd 0c77 79bd e72a cabd
00000070: 9d8d 533c 4d85 603c 1163 11be 3e98 a1bb
-0.024910841 -0.11455392 -0.09211757 -0.22717907 -0.07631071 0.088569045 -0.05521852 -0.13051264
0.000405184 0.016885668 -0.12148817 -0.03979464 0.113782346 -0.09681901 0.15662421 -0.055317577
-0.15101445 -0.072203234 -0.057946388 -0.104455955 0.046272323 -0.12556423 -0.013984097 -0.06436942
-0.091919355 -0.107059315 -0.060904548 -0.09871464 0.012912181 0.013703656 -0.14197947 -0.0049314788

running_mean f4 [32]
00000000: 0694 42bf d485 1140 00e7 86bd 6ae2 2a40
00000010: 59f3 bebe 6ca5 a2bf ce5e 7e3f 678a 8bbc
00000020: b10e 553f e205 b6be 6a69 05c0 5256 e9bf
00000030: d4b0 52bf d9f5 b43e afdf 803f bc7e 493f
00000040: ad81 e5bf dd72 3cbf e610 f4bd 2e3f 02bf
00000050: d625 e63e 6d22 2140 0daa 46be a1b2 b53d
00000060: d8fa 2abf b00a e1be 1cba 0e40 7655 b53e
00000070: b32e 60bf 0543 d6be 7494 fcbf 3224 6ebf
-0.76007116 2.2737932 -0.065870285 2.6700692 -0.37295035 -1.2706733 0.9936341 -0.017033769
0.8322554 -0.35551363 -2.084559 -1.8229468 -0.8230107 0.35343817 1.0068263 0.78709006
-1.7930199 -0.7361277 -0.119172856 -0.50877655 0.44950742 2.5177262 -0.19400807 0.088719614
-0.6678901 -0.43953466 2.2301092 0.35416764 -0.8757126 -0.41848007 -1.9732804 -0.9302398

running_var f4 [32]
00000000: a214 5140 8cca 8841 01e0 cb3f e087 8441
00000010: 840c 8b40 35a8 8640 4a7d c940 d7b0 f03f
00000020: 9a81 3f40 18b1 5c40 7b2e 3441 6729 f440
00000030: be58 bc40 f808 ad40 f96d 5a40 0ef6 a640
00000040: d710 1541 4272 9840 1fe7 8440 2984 6c40
00000050: 73ba 2540 72ab 9641 f979 7c40 edc8 1240
00000060: 09c3 e63f 98bd 3740 1b0b 3541 2af3 4540
00000070: 6769 8f40 640d b540 73b7 4d41 310c c040
3.2668843 17.0989 1.5927736 16.566345 4.345278 4.208033 6.296544 1.8803967
2.9922853 3.448309 11.261348 7.630054 5.885833 5.407345 3.4129622 5.217536
9.316611 4.7639475 4.153213 3.6955664 2.589505 18.833714 3.9449446 2.2935135
1.802827 2.870947 11.315211 3.0929666 4.4816165 5.6578846 12.857287 6.001488

weight f4 [16]
00000000: c343 8f3f bf81 973f 0da8 553f 7a7d 903f
00000010: bf82 9b3f 3a0e 5b3f 45c3 473f 123e 483f
00000020: 9671 863f 236a 913f 50b4 563f 613a 683f
00000030: 4b24 483f 9bde 723f caec 493f bb19 693f
1.1192554 1.183647 0.8345955 1.1288292 1.2149276 0.85568583 0.7803233 0.7821971
1.0503414 1.1360515 0.83868885 0.9071408 0.7818038 0.9487092 0.78876936 0.91054887

bias f4 [16]
00000000: 4eda a5bd 2b1f ccbc 4dcf 04be 0bcd 36bc
00000010: 8625 1abd 7b58 04bd 037a 0abe 1a02 85be
00000020: e96f 59bd 1759 7bbd a69d 20be b5ce 913d
00000030: 9969 12be 5312 d0bc 9edd 03be 085e 09bd
-0.08098279 -0.024917206 -0.12969704 -0.0111572845 -0.03763344 -0.032310944 -0.13523106 -0.25978166
-0.05308524 -0.06136426 -0.15685138 0.07119504 -0.14298095 -0.025399363 -0.12877509 -0.03353694

running_mean f4 [16]
00000000: 64fb 313f 01df 1c3f eb05 1ebf afc8 3e3f
00000010: d93f ea3e 1be2 9d3f af6f e43e 116b ee3e
00000020: a932 9b3e 21c0 a53e dfd1 03bf 9f98 a2bf
00000030: 758f 37bf d855 c13e 9d07 353f aa68 5ebf
0.69524217 0.61277777 -0.6172778 0.7452497 0.45751837 1.2334627 0.44616458 0.4656606
0.30312088 0.32373145 -0.5149211 -1.2702826 -0.71703273 0.37760806 0.7071474 -0.86878455

running_var f4 [16]
00000000: f53b 0340 fadd b83f f8e3 993f 2fcd f13f
00000010: 1dfc c73f bba5 a93f 1368 0a40 0062 573f
00000020: ff1b 8d3f 90c1 953f 9ab5 483f eb32 c93f
00000030: 5400 543f e6bf 073f 5f6b 923f 4a9e 2240
2.0505345 1.4442742 1.2022696 1.8890742 1.5623814 1.3253702 2.1626022 0.8413391
1.1024169 1.1699696 0.784021 1.5718664 0.82813 0.5302719 1.1439017 2.5409112

weight f4 [8]
00000000: 0bb8 8e3f 156c c53f f454 a43f f90e 7f3f
00000010: 1dee b83f ae47 c23f 2f60 9c3f b457 bc3f
1.1149915 1.5423609 1.2838426 0.9963222 1.4447666 1.5178125 1.2216853 1.4714265

bias f4 [8]
00000000: 2d0b 8bbb e5c7 193f 1303 a93d 1e1f 84bd
00000010: baf0 013f e025 0a3f 875f 3f3d 9308 003f
-0.0042432756 0.6007064 0.082525395 -0.06451248 0.50757945 0.5396404 0.04672196 0.50013083

running_mean f4 [8]
00000000: 1df5 953e e633 a3bf a0fb 1b3f 4c15 91bc
00000010: 5fa6 0fbf bc9c 39bf f08f 583f cfcd 7cbf
0.2928857 -1.2750213 0.60930824 -0.01771035 -0.5611324 -0.7250478 0.8459463 -0.9875154

running_var f4 [8]
00000000: 8750 bb3f 9eb6 6f40 1d1e 2540 61b6 8a3f
00000010: a6b3 1540 00af 3040 f6a4 5c40 c72f 7b40
1.463395 3.745521 2.579963 1.0836908 2.3390899 2.7606812 3.4475684 3.924791

weight f4 [32, 32]
00000000: ea11 803e 80f8 28be 9441 07bc 4469 d63c
00000010: bf1d 96bd 8763 85be 7ec7 473e 6fb1 ca3c
00000020: 438f 8dbe 1da9 793d 9e38 b53d 3636 c33d
00000030: 7aec 2ebe c562 75be 28bc 73be e9ed 163d
00000040: b4c1 423d 7374 3cbe 9d4a 8abe e921 913e
00000050: 753d 77bd ed15 823d 991c 9ebc 0f85 97bd
00000060: 517e 1b3e 1604 1ebe 1f19 5bbe 2a29 f3bd
00000070: c0db ddbe e9f5 7dbd 43ec f53d 263e 1bbe
00000080: 0bc0 cf3d 0e75 663e 341a 943e 0eb3 2e3d
00000090: 252f 88be ee69 193e 1bad 853e f699 97bd
000000a0: 319d f5bd 173d 1ebe fa19 ccbd c8d9 0c3e
000000b0: 69ab 2fbe 806e 9c3d 70ab 1d3e 22c6 753e
000000c0: 6d77 583e 0755 e93d 499d 2f3e 9f56 663e
000000d0: 4ed4 9cbd b5fe 9b3e 5aa4 c6bd cdc4 9ebd
000000e0: 14d6 253e c27c a53d a8c6 92be 3576 a53e
000000f0: befe c63d a5c7 24be 844a a8be 7679 fabd
00000100: ea0b 86be 65a1 2dbd 98c5 18bc ca92 f53d
00000110: ba41 263e 06a1 8f3e d3d2 66be 9f33 d2bd
00000120: 2bae 34be 9a4e 3b3e b240 d63d 791a 7bbe
00000130: c8bd 30be bca2 8c3e 0671 643e 1131 3abd
00000140: b89b 1f3b 3604 a53d a5c2 52be 93f0 61be
00000150: 7102 84bc 8f51 51be e769 68bd d213 9fbd
00000160: 8765 673e 1653 ff3c 93f3 623e 225e d9bd
00000170: 684a 7f3e 3542 723e da06 7cbe 412a 293d
00000180: 47d1 03be 6e7e 313d 6375 06be 65fe b1bd
00000190: 8ba1 a7be 59c6 2f3d 7368 ad3d d1db 71be
000001a0: 3c04 a73e 8b45 7b3c 2bd7 003e 252b 473d
000001b0: b6c0 27be 31b2 9abd b87f 99be 8cd6 f53b
000001c0: dd0e 883c 9e9c 023d 55e3 bb3d b33d cfbd
000001d0: 16c6 1dbe 97d8 a13e 1e04 6dbe d7a0 ddbd
000001e0: 0bef aebc 5b1a 6f3e da77 49be 93de b23e
000001f0: 0e5e d4bc b5cd 833d babf 503e 7614 1e3e
00000200: a0c9 1cbe cf34 77be 7cae bdbe 7bcf 98be
00000210: eefa ecbc 8836 94be e353 a9be be6a 243a
00000220: 908a 10be 9d00 763e d46d cbbd d5ec 47bd
00000230: b404 053e a346 bc3c ed1e 9cbe 6d97 4cbe
00000240: 46ba 8abd da5b 863d 0e2b 35bb 118c a9be
00000250: bd4d 613d ede3 053e 73dd bcbc af58 82be
00000260: 3d75 2dbd 6dc7 983e 78ae 26be 743e b3bc
00000270: 2741 b83d 7968 79be 546f 263e c6db 84bd
00000280: 5035 bbbd b10c c73d d0eb f2bc 65b6 793e
00000290: 4682 a7bd 8633 11be 10f3 033e 9bdb abbd
000002a0: 073f ea3d 1fb4 8dbe 0042 763c 3bb8 0e3e
000002b0: 6b12 cebd c880 8abd 69f0 263e ece4 ccbc
000002c0: 3f4a 76be df1a 15be 10d5 213e a4e9 f73d
000002d0: df6a 8d3e 1271 ccbb e1f8 efbd f484 0d3d
000002e0: f7c9 753e 1ad7 853e 777b 953c b1db 54be
000002f0: ca1c 8d3e 398d cdbc 858a 353e 7fdb 99be
00000300: 645a 383e e52a a5be 052d 823d 97e6 4d3e
00000310: 5978 2abe 7084 b03d 5292 6abe 5cd9 0ebe
00000320: 2fc4 0e3e d304 09bd 55fb 033e b2e2 9cbe
00000330: c53d 603e a167 22be f7ff 153e da89 3abd
00000340: a1a0 403e d879 fb3d e858 6abe 59a8 19be
00000350: c2e3 8bbe 7dbb 923e 5a8e b9be cd3f 1a3e
00000360: 3346 9d3e 50cb 183e 30aa 53be ddff 273d
00000370: d764 0f3c c01a 6cbe ba68 4abe 2df9 20be
00000380: 13ae 413d 01d8 9a3e e800 18be 32fa 1c3e
00000390: 7ad7 b43d 8ae2 90be 3c8f 3d3e b0ff 593e
000003a0: c96a c8bd f4d5 7f3e f60d 353d ac62 2dbd
000003b0: bcd8 2a3c 1cd2 863e 39be 223d 464f 8fbd
000003c0: c62d c6be 0c1f dd3d 0b4b 28be 7477 a1bd
000003d0: 821f 2dbd 1698 1e3e f442 743c 0e42 4c3e
000003e0: 192b 873d 472f 5bbe 5c10 fcbd 6579 193c
000003f0: 8f40 923d 12a5 fd3d aa71 a53c 4619 e93d
0.25013667 -0.16501045 -0.008255381 0.026173241 -0.07329892 -0.26052496 0.19509694 0.02474281
-0.27648363 0.060952295 0.088486895 0.09531824 -0.17082396 -0.23963459 -0.23802245 0.036847983
0.04754801 -0.18403797 -0.2701005 0.28346184 -0.060361344 0.06351838 -0.019300746 -0.07398426
0.15184905 -0.15431246 -0.21396302 -0.11873086 -0.43331718 -0.062002096 0.12007954 -0.15160426
0.10144051 0.2250559 0.2892624 0.04265123 -0.26598468 0.14981815 0.26108631 -0.074024126
-0.119928725 -0.15452991 -0.09965892 0.13754952 -0.17155232 0.07638264 0.1539743 0.24001363
0.21139307 0.11393171 0.17149843 0.22493981 -0.076576814 0.30467764 -0.09699316 -0.077523805
0.16194946 0.08080436 -0.28667188 0.32316747 0.09716557 -0.16091783 -0.3286935 -0.12230198
-0.26180965 -0.042390246 -0.009324454 0.119908884 0.1623601 0.2805254 -0.2254136 -0.10263752
-0.17644565 0.18291703 0.104615584 -0.24521817 -0.17259896 0.27467906 0.2230874 -0.04545695
0.002435429 0.08057444 -0.20582063 -0.22064428 -0.016114445 -0.20441268 -0.05674162 -0.07767452
0.22597323 0.031167548 0.22163229 -0.106136575 0.24930727 0.23658068 -0.24611989 0.041300062
-0.12872802 0.043333463 -0.13130717 -0.086911 -0.32740435 0.04291377 0.08467188 -0.2361901
0.32620418 0.015336405 0.1258208 0.04862513 -0.16382107 -0.075535186 -0.29980254 0.0075023826
0.01660865 0.031887643 0.091742195 -0.1011919 -0.15407595 0.31610557 -0.23146102 -0.108216934
-0.021354219 0.23349898 -0.19674626 0.34935436 -0.025923755 0.0643572 0.20385638 0.15437493
-0.15311289 -0.24141239 -0.37047184 -0.29845795 -0.028928246 -0.28947854 -0.33071813 0.00062720093
-0.14115357 0.24023671 -0.099330574 -0.048809845 0.12990075 0.022982901 -0.30492344 -0.1997964
-0.0677381 0.06560488 -0.002764407 -0.33114675 0.055005778 0.13075228 -0.023054814 -0.25458285
-0.042348135 0.2983965 -0.16277492 -0.021880366 0.08996802 -0.2435626 0.16253406 -0.06487231
-0.09141028 0.097192176 -0.02965346 0.24385984 -0.081791446 -0.14179811 0.1288569 -0.08391496
0.11437803 -0.27676484 0.015030384 0.13937466 -0.10062107 -0.06762844 0.16302647 -0.025011502
-0.2405176 -0.14561032 0.15803933 0.1210511 0.276206 -0.006239065 -0.11717392 0.034550622
0.24002825 0.26140672 0.01824735 -0.2078693 0.27561027 -0.025091754 0.17728622 -0.30050275
0.18003231 -0.32259288 0.06356243 0.20107494 -0.16647471 0.086190104 -0.2290738 -0.13950104
0.13942026 -0.033451866 0.12888844 -0.30641705 0.21898563 -0.15859844 0.14648424 -0.04554162
0.18811275 0.12279099 -0.22885478 -0.15005626 -0.27322203 0.28658667 -0.36241418 0.150634
0.3071762 0.14921308 -0.2067039 0.041015495 0.008752069 -0.2305708 -0.19766513 -0.15720053
0.04728515 0.30242923 -0.14844096 0.15329817 0.088301614 -0.28297836 0.18511671 0.21288943
-0.09785993 0.2498396 0.044202767 -0.04233043 0.01042765 0.26332176 0.03973219 -0.06997542
-0.38706797 0.10796937 -0.16434877 -0.07884112 -0.042266376 0.15487704 0.014908541 0.19947073
0.06600017 -0.21404754 -0.12307808 0.009367322 0.0714122 0.12385 0.0201958 0.11381774

bias f4 [32]
00000000: 4247 1137 1cb2 e6b7 cead 1838 6425 44b8
00000010: 9ae3 2c36 4f45 9237 2fe6 4f36 d45d 03b8
00000020: 0d7d 8538 2692 06b8 aed1 8e37 195c a337
00000030: e4e3 1fb7 4347 cd37 1258 cdb7 c7be 33b7
00000040: 9297 37b6 aa0a ab37 2fd0 17b8 c402 a2b7
00000050: 460f 7037 eed9 f4b7 8f5c f6b7 ada8 c0b7
00000060: a3ad 8837 bfdf d7b7 727e 3b37 c152 8136
00000070: 3dcb 6338 0523 e137 9e18 16b8 3ec2 cc36
8.6592645e-06 -2.7501075e-05 3.6401492e-05 -4.6764864e-05 2.5762479e-06 1.743683e-05 3.0979388e-06 -3.1320218e-05
6.365227e-05 -3.20842e-05 1.7025359e-05 1.9474e-05 -9.530198e-06 2.4471088e-05 -2.4478915e-05 -1.071365e-05
-2.735735e-06 2.0389754e-05 -3.619509e-05 -1.9313193e-05 1.4308671e-05 -2.9188548e-05 -2.9368586e-05 -2.296673e-05
1.629332e-05 -2.5734187e-05 1.1175509e-05 3.8541334e-06 5.4310298e-05 2.6838397e-05 -3.5785713e-05 6.1022865e-06

weight f4 [16, 32]
00000000: 3731 c83e 3b60 b6bd 7146 6abe f8f2 183e
00000010: 8dcd c23e 07e4 9bbe a6ac f83c 2348 6d3e
00000020: 2412 11bd 38e1 86bd 0d59 993d 46e9 52be
00000030: 2673 8d3e d903 25be 78d5 cabd 0345 0bbe
00000040: 65ba 8e3e 23f2 98bd 1107 b83e d809 813e
00000050: 1898 24bc e1f4 873e 94fb 733e 8d6a 74be
00000060: 1f56 8ebe cafb 473d b627 953d 8f05 373c
00000070: 8360 a63e f146 9a3e ff07 fc3d ac55 49be
00000080: b5e9 893e 1d2a 233e 91bd 73be 35c2 a93d
00000090: 3aa3 8abd e52c aebe 0801 893d 2d8b 0d3e
000000a0: 6d4b 87bd baa8 993e 9a9f 443d eb2b 2cbc
000000b0: 5ebc 97bd 8619 b03e 4b6c 20be 7c3a be3d
000000c0: a3d1 c53c 0a91 283e 158c 743e ca4d d8bc
000000d0: 2271 8abe a12a 913e 1329 0c3e 6feb 1bbd
000000e0: cd78 8f3d 801e f03d 20c6 133d cca6 513d
000000f0: c551 b63c 5f09 783d 6593 933e 2f03 3c3e
00000100: 9b3d 893c a72e 0b3e 766a 603e e6e0 a2be
00000110: 012b 8abe 7c63 b0bc 4f43 89be 07d5 f83c
00000120: 1e46 213e 78f1 b8bd 1424 bc3e 3c2e e03d
00000130: e1cb 96be 5685 07be 1925 ca3c 35df 48be
00000140: 4490 01bd 9e59 0bbe b03c a1be 8ece 12be
00000150: 1c32 853e 02c0 97be cec3 2b3e cb77 093e
00000160: 2e13 68bd 92c7 b4be 7532 0e3e 016b 64be
00000170: 56b1 243e 02bd ab3c eb3a 92be 0e18 74be
00000180: be2d 5d3d 5269 393e db0b 71bd 8ed5 a03c
00000190: 72ee b73e c7c4 f1bd dec1 d43e 7185 293e
000001a0: a8d0 98be c051 af3e a4b9 bd3d 1d89 f83d
000001b0: d6d2 823e 1115 7b3e b331 1ebe 5443 7a3d
000001c0: 6e71 84bd 4b74 dcbd 2b66 573e 8490 b93e
000001d0: 7479 46be 7c6d 6e3e cafb 263e 42d8 81be
000001e0: 2975 533e 8475 ed3d ec01 5cbe b7c9 1e3e
000001f0: d026 65be 2c97 79bc 7fe3 62bd b762 633e
00000200: 5fe7 04be 21ae 323e 9be5 5fbb 442d 953e
00000210: cbb1 683e 14e7 99be 882c 12be 29f4 7a3e
00000220: 6050 96be d118 b23d 1c4d 85be b3ac 793e
00000230: dc43 1d3e 6415 cdbd ce57 5fbe 6ade adbe
00000240: 48c6 22be 99b9 5b3e ff9b 00bb 077b 923e
00000250: 3adf 9dbe 3923 9c3e abd9 a83d 25d4 b43e
00000260: 83a2 7dbe 5416 253e c8da bf3d 5029 bb3e
00000270: 50bd 153e 18a4 103e b3cd 903e 6e26 413e
00000280: 10af 953e 202c 6d3e 1a68 233e de9a 903e
00000290: 73bc b13e 1331 e93c f502 043e baa3 b13e
000002a0: ba62 c43d 9ebd 02be d921 71be dacb 8c3e
000002b0: 7720 b43e e901 523e a2f9 58bd dfcd 8c3e
000002c0: 01a3 263d 7228 22bc 3982 9a3c 9787 17be
000002d0: d63b 913d 5e02 a7bd 9305 aabb 3bda 453e
000002e0: 5ae0 62be e02d 4a3e 7489 93bc ba65 32be
000002f0: c251 a63d b34a 533e 24fa bf3e 7dcd 543e
00000300: 18cd 4e3d d4a3 a93c 531f c83d 9889 80be
00000310: 44e7 06be 231f 71bd 9f0b 3dbe ad8f 17be
00000320: b66b e3bd 6bba d9bd 2198 53be cf65 783e
00000330: bf13 383e 0a0b 273e a191 413e c3c0 77bd
00000340: f163 c73e 04e8 503e 8956 8d3d 1ce0 dd3e
00000350: 5e59 56be cc49 31be e8af 1dbe ca53 cdbc
00000360: 933a 20bd a149 4d3e ef0d 47be 774a 3e3e
00000370: 014c b33d 93cc c63e 2513 b2bd 30f4 933e
00000380: 94f1 603e 3983 833d cc7f 993e f4e1 95be
00000390: bbb4 96bd a94c 63be cb26 2f3c 49d1 85bd
000003a0: ac47 8d3e 7370 2b3d 4065 ab3e db2c 0d3e
000003b0: 738a 913e a50b 94be 9151 9b3c 3c10 82be
000003c0: 43e6 66be c6c3 5b3e 15aa b23d 4771 933e
000003d0: 3cad 5d3e 215f bb3e 28dc 6abe 5061 8f3e
000003e0: 8177 52be 6265 ccbe bc4c bc3d 1c31 8ebe
000003f0: 5544 12bd b0b1 7b3e a141 2a3d 3037 4c3e
0.39100048 -0.08905073 -0.22878434 0.14936435 0.38047448 -0.3044741 0.030355763 0.23172049
-0.03541769 -0.06585926 0.07487688 -0.20596799 0.27626914 -0.16114749 -0.09903997 -0.13600545
0.27876583 -0.07468059 0.3594289 0.25202823 -0.010046028 0.26554015 0.23826438 -0.23868771
-0.2780008 0.04882411 0.07282965 0.011170759 0.32495508 0.3013225 0.12306213 -0.19661587
0.26936117 0.15934034 -0.23802783 0.08288995 -0.06769414 -0.34018627 0.0668965 0.13822623
-0.06606183 0.3001154 0.04800377 -0.010508518 -0.07408975 0.34394473 -0.1566631 0.09288499
0.024147814 0.16461578 0.23881562 -0.02640428 -0.27039438 0.28352836 0.13687544 -0.038066324
0.07005463 0.117245674 0.03607762 0.05118446 0.022255788 0.060555812 0.2882339 0.1836059
0.016753009 0.13592015 0.21915612 -0.3181221 -0.26985934 -0.021531813 -0.26809165 0.030375017
0.15749404 -0.090304315 0.36746275 0.109463185 -0.29452422 -0.13234457 0.024675893 -0.19616397
-0.031631723 -0.13608405 -0.31491613 -0.14336607 0.26014793 -0.29638678 0.16773912 0.13424604
-0.056658916 -0.3530851 0.13886435 -0.22306444 0.16083273 0.02096415 -0.28560576 -0.23837301
0.0539987 0.18106583 -0.058849197 0.01963308 0.35924107 -0.118051104 0.4155416 0.1655481
-0.29846692 0.34242058 0.09263924 0.12135527 0.2555148 0.24519755 -0.15448646 0.061099365
-0.064669475 -0.107643686 0.21035068 0.3624307 -0.19382268 0.23283952 0.16306987 -0.25360304
0.20650162 0.1159468 -0.21485108 0.15506636 -0.22378087 -0.015233796 -0.05539274 0.22205625
-0.12978886 0.17449237 -0.0034163955 0.29136097 0.22724073 -0.3005911 -0.142748 0.24507202
-0.29358196 0.086961396 -0.26035392 0.24382286 0.15357918 -0.100138456 -0.21810839 -0.3395875
-0.15895951 0.21457519 -0.001962423 0.28609487 -0.3083437 0.30495623 0.08244642 0.35318103
-0.24769025 0.16121799 0.09367901 0.36554956 0.14622998 0.14125097 0.28281936 0.18862316
0.29235125 0.23161364 0.1595768 0.28243154 0.34714088 0.028465783 0.12891753 0.34695226
0.09589143 -0.12767646 -0.23548068 0.27499276 0.3518102 0.20508541 -0.052972443 0.27500817
0.040682796 -0.009897338 0.018860923 -0.14797817 0.07091491 -0.081547484 -0.005188653 0.1932153
-0.22155896 0.19744062 -0.018009879 -0.17421618 0.08121063 0.20633964 0.3749553 0.20781513
0.05048856 0.020708002 0.097715996 -0.25104976 -0.13174158 -0.058867585 -0.18461464 -0.14800902
-0.111045286 -0.106312595 -0.20663501 0.24257587 0.17976283 0.16312805 0.1890321 -0.060486566
0.38943437 0.20401007 0.06901271 0.43335044 -0.20932528 -0.17313308 -0.15399134 -0.025064368
-0.03911836 0.20047618 -0.19438909 0.18583094 0.08754731 0.38827953 -0.08695058 0.28897238
0.21967155 0.06421513 0.29980314 -0.2927395 -0.0735869 -0.22197212 0.010690401 -0.065340586
0.27593744 0.041855287 0.33475685 0.13786642 0.2842594 -0.28915134 0.018959792 -0.2540301
-0.22548775 0.214614 0.08723847 0.2879736 0.21648115 0.36596015 -0.22935545 0.2800393
-0.205534 -0.399211 0.091943234 -0.27771842 -0.035709698 0.24579501 0.041566495 0.19942927

bias f4 [16]
00000000: 1c3b eeb7 09d0 7038 8b04 9336 50ec 00b9
00000010: 3d80 1038 5089 1f37 4c3a feb7 fcee dfb7
00000020: ce1d c638 22c4 a5b7 cbc2 62b6 b068 13b8
00000030: 4621 eb37 d3f8 8137 3ccd 5c38 7f65 22b6
-2.8399336e-05 5.7414207e-05 4.3814703e-06 -0.00012295065 3.4451707e-05 9.509109e-06 -3.0306306e-05 -2.6694957e-05
9.446927e-05 -1.9760864e-05 -3.3790009e-06 -3.514503e-05 2.8029677e-05 1.5493866e-05 5.2643227e-05 -2.419896e-06

weight f4 [8, 16]
00000000: 6c60 c43d 39af 063e 4429 2e3e 6173 d33e
00000010: a303 69be 7b7c c6bb 805d d13e de90 54be
00000020: e469 0b3f 55e2 003e 9b53 903e 7104 c8be
00000030: 675f 35be 0958 2ebe 8539 e4bb e793 d9be
00000040: ed8b 263d 4b31 03bf 90cd 813c acb2 c7be
00000050: 448e 9cbe 0bea 3cbe 9e58 d6be b882 69be
00000060: 24fc 29be ca54 d2be b705 253e b646 96be
00000070: 4a82 babe 07f1 cabd 2fb9 bdbe 6af9 babd
00000080: 15a5 173e 44b3 b3bd c862 b7bd 1bc5 3a3e
00000090: 601b 033f ac24 863e b083 be3e 9872 c6be
000000a0: 313e 5e3e 0120 e33e 0c5b 49bd 57f8 49bd
000000b0: 753b fdbd a7ef 7b3c fd91 503e 5c79 a5be
000000c0: b108 2e3e 82cb c03e a539 bcbe c30c df3b
000000d0: d064 b63e 086b 40be d25b 933d c56b e1bc
000000e0: b733 82be 9d3a 0c3f 3129 adbe 660d a4be
000000f0: f2ae 9dbe 1572 8f3d 4a8b 8ebe a67f 98be
00000100: 1fb7 7cbe c345 3bbe 7402 0c3e 36a7 e5be
00000110: 2218 4abe 587b debe bba9 7c3d 746f 6c3e
00000120: 35f2 87bd 23ee 97bd 8c6d bdbe 0b04 c73e
00000130: 9631 86bd 5068 073d c75e d1be 4d51 863e
00000140: d7a7 03bf 3959 40be 68a6 5f3e d4d1 89be
00000150: 919c debe 284e 8f3e 242f 13be 2919 823e
00000160: 3b53 08bf 1cc2 babd 4682 983e aedd 00be
00000170: 9d40 18be ed5f 973d d372 52be 4553 063e
00000180: 8aa6 cf3e 6b28 043f f9a2 0b3c 94fc 873e
00000190: 6476 e23e 09cb 513e 0599 a2be 7786 463e
000001a0: 2b51 c73e 1c1f bebd e0b9 8fbd 7d3f afbd
000001b0: e459 853e 74f7 8ebe 2942 d73e 00c6 abbd
000001c0: f0ac 04bf 5993 71be 35c8 b7be 6967 04be
000001d0: 8bc9 06bf 62da a2be e6bb b9be 6c2b c8be
000001e0: 6fd3 e4be 3a9f 17bd a679 833e d42b edbd
000001f0: 0aa9 b03e 0bc7 303e 88de 193e efaf 1fba
0.095887035 0.1315278 0.17007929 0.41298965 -0.22755294 -0.0060573197 0.40891647 -0.20758387
0.5445845 0.12586339 0.28188786 -0.3906589 -0.17712174 -0.1702577 -0.0069648647 -0.42495653
0.040660787 -0.5124709 0.01584509 -0.39003503 -0.3057729 -0.18448655 -0.41864485 -0.22803771
-0.1660009 -0.41080314 0.16115461 -0.29350823 -0.36427528 -0.099092536 -0.37055346 -0.09129603
0.14809068 -0.087744266 -0.08954388 0.18239252 0.51213646 0.26199853 0.37209845 -0.38759303
0.21703412 0.44360355 -0.049159095 -0.0493091 -0.12364856 0.015376962 0.2036819 -0.32319152
0.16995503 0.37655264 -0.3676273 0.0068069412 0.3562379 -0.18790829 0.07195248 -0.027517209
-0.2543008 0.54776937 -0.3382049 -0.32041472 -0.30797535 0.07004181 -0.27840644 -0.29784888
-0.2467923 -0.1828833 0.13672811 -0.44854134 -0.19735768 -0.4345348 0.061685305 0.23089391
-0.06637994 -0.07418468 -0.3699764 0.38870272 -0.065524265 0.033058465 -0.40892622 0.26233903
-0.5142798 -0.18784036 0.21840823 -0.269179 -0.43478826 0.27989316 -0.14373451 0.2540982
-0.53252 -0.09119055 0.2978689 -0.12584564 -0.14868398 0.07391343 -0.20551614 0.13117702
0.40556747 0.5162417 0.008522742 0.2655989 0.4423095 0.20487608 -0.3175737 0.19387232
0.38929114 -0.092832774 -0.07017875 -0.08557031 0.26045144 -0.27923167 0.42042664 -0.08387375
-0.5182638 -0.23591365 -0.35894933 -0.12930073 -0.5265128 -0.31807238 -0.36276168 -0.39095628
-0.4469256 -0.037017085 0.25678748 -0.11580625 0.34503967 0.17263429 0.15026295 -0.0006091585

bias f4 [8]
00000000: ffbb d737 bc72 3a38 341f f2b7 4f35 13b8
00000010: 7b35 c838 5b4a ba37 0611 c6b3 1505 6fb8
2.571754e-05 4.445271e-05 -2.8863178e-05 -3.509718e-05 9.546705e-05 2.2207552e-05 -9.22319e-08 -5.6986773e-05

weight f4 [2, 8]
00000000: a3d9 c03e 0df8 84bf d5d0 043f 2c41 083f
00000010: 5857 5abf 627b 55bf 9fd8 743f a3c9 c8be
00000020: 15cc d7be 1dd2 043e bb5a 04bf 10c7 13bf
00000030: 315b 5b3f 92bc 4b3f 38e6 34bf eb56 a13f
0.37666044 -1.0388199 0.5188115 0.53224444 -0.85289526 -0.8339139 0.9564304 -0.39216337
-0.4214789 0.12970777 -0.51700944 -0.5772562 0.8568602 0.7958461 -0.70663786 1.260465

bias f4 [2]
00000000: 3ebf 9fbe 3dbf 9f3e
-0.31200594 0.3120059
