serology/results_intermediate_encoders_2/models/5fold/decoder_human_0.pt (torch, 38799 bytes, 7 tensors)

weight f4 [64]
0.9400473 0.8022067 0.7047061 0.90112156 0.7353621 0.74969584 0.82886875 0.8729993
0.8560561 0.7782927 0.8963085 0.7251115 0.9569533 0.76594466 0.8558909 0.76206803
0.81565326 0.8746562 0.7975904 0.7710942 0.7580676 0.9523188 0.8887658 0.8598325
0.77796996 0.76003695 0.7990993 0.7623121 0.75512993 0.74726915 0.8545503 0.72433716
0.7608905 0.70242476 0.7708588 0.69443864 0.85953355 0.7715406 0.959243 0.7461147
0.8321144 0.78584385 0.6872045 0.8193215 0.7274553 0.865253 0.80246365 0.82551515
0.9380383 0.7262333 0.7803551 0.8080701 0.71346486 0.6892692 0.87183285 0.6684972
0.92018205 0.8931016 0.7813609 0.9206073 0.8439502 0.74233824 0.9015215 0.72362006
00000000: f1a6 703f 6b5d 4d3f 9e67 343f e7af 663f
00000010: b140 3c3f 11ec 3f3f be30 543f e27c 5f3f
00000020: 7e26 5b3f 313e 473f 7974 653f e8a0 393f
00000030: e4fa 743f f314 443f ab1b 5b3f e416 433f
00000040: a7ce 503f 78e9 5f3f e22e 4c3f 6e66 453f
00000050: b810 423f 2acb 733f 2886 633f fc1d 5c3f
00000060: 0a29 473f c891 423f c691 4c3f e326 433f
00000070: 3250 413f 084d 3f3f cfc3 5a3f 296e 393f
00000080: b8c9 423f 1cd2 333f 0157 453f bbc6 313f
00000090: 640a 5c3f af83 453f f390 753f 5f01 3f3f
000000a0: 7305 553f 102d 493f a2ec 2f3f 0ebf 513f
000000b0: 833a 3a3f 3881 5d3f 426e 4d3f f654 533f
000000c0: 4723 703f 6dea 393f 5ac5 473f afdd 4e3f
000000d0: a2a5 363f f273 303f 7030 5f3f a222 2b3f
000000e0: 0d91 6b3f 4ea2 643f 4507 483f ecac 6b3f
000000f0: 1f0d 583f e109 3e3f 1dca 663f 2a3f 393f

bias f4 [64]
-0.16577747 -0.13843277 -0.14477067 -0.20643336 -0.10272795 -0.14219952 -0.16379762 -0.17133103
-0.15171278 -0.11707894 -0.19736733 -0.15609704 -0.20524372 -0.17058459 -0.17484693 -0.11352665
-0.12294928 -0.2020503 -0.13114393 -0.12699522 -0.14831492 -0.17411077 -0.11994812 -0.13885769
-0.11159873 -0.14162877 -0.16653772 -0.11628312 -0.15566665 -0.10881713 -0.16461109 -0.12916163
-0.14665008 -0.1349619 -0.12340834 -0.105205275 -0.14333448 -0.12749447 -0.25455785 -0.110843256
-0.1785997 -0.15565725 -0.17708063 -0.08882743 -0.15432067 -0.20554347 -0.12710911 -0.13964887
-0.14818174 -0.078731366 -0.17112143 -0.16430828 -0.100929126 -0.14225204 -0.17183761 -0.12545276
-0.18579486 -0.18039532 -0.13479078 -0.15109003 -0.14488319 -0.050168727 -0.17953008 -0.14462002
00000000: 92c1 29be 52c1 0dbe c33e 14be 4463 53be
00000010: 0863 d2bd c09c 11be 90ba 27be 6771 2fbe
00000020: 985a 1bbe 15c7 efbd a91a 4abe e7d7 1fbe
00000030: 692b 52be baad 2ebe 130b 33be a980 e8bd
00000040: d5cc fbbd 46e6 4ebe 984a 06be 090b 02be
00000050: dedf 17be 184a 32be 5ca7 f5bd b630 0ebe
00000060: e08d e4bd 2207 11be dd88 2abe d825 eebd
00000070: 1467 1fbe 84db debd cf8f 28be f242 04be
00000080: 702b 16be 7433 0abe 83bd fcbd dd75 d7bd
00000090: 46c6 12be e98d 02be 6855 82be ca01 e3bd
000000a0: d7e2 36be 9d64 1fbe a054 35be 28eb b5bd
000000b0: 3d06 1ebe fd79 52be e428 02be 1d00 0fbe
000000c0: f4bc 17be e93d a1bd 753a 2fbe 6e40 28be
000000d0: eeb3 cebd 85aa 11be 33f6 2fbe b076 00be
000000e0: 0241 3ebe 8db9 38be 9806 0abe 58b7 1abe
000000f0: 425c 14be b97d 4dbd bcd6 37be 4517 14be

running_mean f4 [64]
-0.29138717 -0.16248855 -0.3182332 -0.22666053 0.02594133 -0.0561611 -0.23785347 -0.07013893
-0.1880397 -0.17081885 -0.16004297 -0.070560135 -0.24015975 -0.023883214 -0.21364328 -0.22250517
-0.07620344 0.0146111045 -0.094444975 -0.36272734 -0.17171437 -0.2895607 -0.23984987 -0.10182491
-0.3134167 -0.17752247 0.23085606 -0.24556571 -0.33082226 -0.29040897 -0.34440938 -0.3279584
-0.03195675 -0.27224216 -0.22756322 -0.06902861 -0.1299026 -0.16131723 -0.19427565 -0.08187273
0.10329652 -0.35617796 -0.16475509 -0.22893381 -0.060723852 -0.03368518 0.11710735 -0.115580164
-0.41978627 -0.377153 0.1399027 -0.013483495 0.1132402 -0.38100454 -0.09813753 0.09925494
-0.14401256 -0.2964731 0.0002519345 -0.012338108 -0.16509272 0.020183444 -0.0999714 -0.35335734
00000000: b330 95be 6663 26be 76ef a2be b319 68be
00000010: e982 d43c 2e09 66bd dc8f 73be 00a5 8fbd
00000020: 7b8d 40be 23eb 2ebe 4ee2 23be d581 90bd
00000030: 70ec 75be bba6 c3bc 4ec5 5abe 65d8 63be
00000040: 8d10 9cbd 6a63 6f3c 5e6c c1bd 66b7 b9be
00000050: e4d5 2fbe 4d41 94be 349b 75be 9489 d0bd
00000060: 2778 a0be 73c8 35be 8865 6c3e 9475 7bbe
00000070: 8961 a9be 7cb0 94be 6d56 b0be 2aea a7be
00000080: 15e5 02bd 5363 8bbe 5506 69be df5e 8dbd
00000090: 3005 05be 5830 25be 32f0 46be e4ac a7bd
000000a0: 208d d33d f55c b6be 8fb5 28be a06d 6abe
000000b0: 93b9 78bd 79f9 09bd fad5 ef3d 4bb5 ecbd
000000c0: 3aee d6be 331a c1be a742 0f3e e1e9 5cbc
000000d0: 7aea e73d 0713 c3be 54fc c8bd 2d46 cb3d
000000e0: 0778 13be 52cb 97be 1416 8439 c725 4abc
000000f0: 110e 29be c057 a53c cebd ccbd 41eb b4be

running_var f4 [64]
1.3468622 0.68676496 0.9963108 0.42408997 2.3984113 1.1163245 0.80543983 1.2218773
1.2155124 0.46169838 1.1894636 1.6404347 1.734745 0.3906531 1.0078859 1.0783598
0.4670248 1.1209067 1.7637994 1.2224085 1.3392152 0.901816 0.4648643 1.3273368
0.8203021 0.39965606 0.35871458 0.84557015 1.150489 0.8553825 1.5952513 0.9987938
2.8411696 0.6206339 1.4865924 0.4187158 1.8844023 1.5857823 1.4401312 0.48537514
1.4542946 0.95615125 6.495522 0.572422 2.3505275 0.5333793 6.1324105 5.486515
1.9837224 0.84051293 4.5545897 1.2290807 3.3281708 1.5876579 1.3352915 2.4354844
0.86322 1.2755003 7.9531765 1.0985932 0.824933 0.9260703 0.47705606 0.7898854
00000000: fb65 ac3f d4cf 2f3f 390e 7f3f 5222 d93e
00000010: 927f 1940 b9e3 8e3f 4e31 4e3f 7a66 9c3f
00000020: e995 9b3f bb63 ec3e 5840 983f c4f9 d13f
00000030: 200c de3f af03 c83e 6802 813f b207 8a3f
00000040: e01d ef3e df79 8f3f 2ec4 e13f e277 9c3f
00000050: 676b ab3f 6add 663f b202 ee3e 2ce6 a93f
00000060: 52ff 513f b89f cc3e 70a9 b73e 4977 583f
00000070: 3943 933f 59fa 5a3f 3231 cc3f f3b0 7f3f
00000080: b9d5 3540 dde1 1e3f a948 be3f eb61 d63e
00000090: 1834 f13f eafa ca3f 3856 b83f 1783 f83e
000000a0: 5326 ba3f 54c6 743f 51db cf40 408a 123f
000000b0: 0b6f 1640 8c8b 083f b53c c440 8891 af40
000000c0: 9eea fd3f db2b 573f 33bf 9140 8452 9d3f
000000d0: c000 5540 6038 cb3f d5ea aa3f fade 1b40
000000e0: fcfb 5c3f 9843 a33f 6c80 fe40 b49e 8c3f
000000f0: cf2e 533f f112 6d3f b140 f43e ee35 4a3f

weight f4 [64, 32]
-0.2782097 -0.14352107 0.06534438 0.09504703 -0.13216783 0.2384018 0.019991063 0.033103902
-0.045790613 0.09145895 -0.040493283 -0.081640944 -0.15748833 -0.065344706 -0.21919416 0.14225347
-0.2748227 0.027624257 0.082554474 -0.2566227 0.019931268 -0.060641114 -0.14729494 -0.09704703
-0.26127967 -0.015909992 -0.09591404 0.23613726 -0.11735464 0.1670083 0.28926083 -0.07782243
0.06823438 0.13468723 -0.010548722 -0.0019670422 -0.2212874 0.2876999 0.009884971 0.10504378
0.105990276 0.108406715 0.16167799 0.07285938 0.17922585 0.10011967 -0.13879381 0.01707595
-0.38440457 0.18094897 -0.04128161 0.03797581 0.20538577 -0.23710872 0.089248925 -0.037028246
-0.045198765 0.112944275 0.24063712 -0.07325397 -0.10340927 -0.100071035 -0.0046497807 -0.2314159
-0.07822968 0.14993995 0.11422198 0.18047579 -0.25943714 -0.18834135 0.09630183 0.27831537
-0.08037738 0.1249546 -0.19446985 0.19053157 -0.08620614 -0.12799767 -0.0025389774 0.21025367
-0.28239462 -0.18217091 0.066652045 -0.1980109 0.15039256 -0.07234932 -0.12805676 -0.27375296
-0.17455696 -0.001629921 0.068099424 0.025424385 -0.10375307 0.19707741 0.013854163 -0.12368972
-0.23683676 -0.0070238593 0.079999074 0.119193114 -0.103604585 0.1008493 0.10531957 0.22685759
-0.0368655 0.12995279 -0.07307901 0.1591173 0.0058509177 0.21690403 -0.11850329 0.2499887
0.15618958 0.032863412 0.24699183 0.044745542 0.15645488 -0.16205072 -0.15455613 -0.067299955
0.0045597963 -0.2718976 0.15234098 0.27111724 -0.058146276 -0.09406466 0.122974135 -0.031912062
-0.068443134 0.16444126 0.2394614 -0.09725831 0.22544892 -0.32270852 -0.01930495 -0.045337796
0.11704974 -0.13689983 -0.24024439 -0.17176877 -0.044135854 0.12968445 -0.20025826 0.024120854
-0.045431126 -0.13908784 0.01950183 -0.18252756 -0.070224814 0.0044048172 0.03976887 0.08109728
0.041595865 0.13385512 0.11558693 -0.031324387 -0.07915277 0.15722658 -0.2045526 0.040019214
-0.2173444 0.007876373 -0.13873951 0.24403979 -0.21083279 -0.16487223 -0.09224773 0.13274702
-0.09928159 0.21987115 0.07210513 0.08831883 0.059258644 -0.025839344 -0.14680915 0.035786178
-0.2038164 0.22437434 -0.23323232 0.16728309 0.027298594 0.020596895 -0.21395375 0.12904646
0.0030466404 0.00043234593 -0.074970834 0.058557842 0.07466661 0.1326662 -0.18956481 0.057416283
-0.016045202 0.024856124 0.059298087 0.1095125 -0.034619763 0.06267645 -0.13145831 0.120049745
-0.20629437 0.11114639 -0.19358264 0.13802011 0.16308236 0.051078 0.21910623 0.20472951
-0.13649997 0.033581022 0.21050818 0.2647518 0.06679634 -0.12885578 -0.14493452 -0.19319391
-0.05214032 -0.05070954 0.14393926 -0.11294828 -0.21179807 0.04310847 -0.18350634 -0.2573303
0.14229572 0.19610918 -0.07186215 0.010816323 0.14842749 -0.15507682 0.11535327 0.07190494
0.13046898 -0.14848046 0.120442875 -0.00019346915 0.19319755 0.16573346 0.0075516086 0.22747661
0.047064573 -0.049455304 -0.113554984 0.07636333 0.062712364 -0.063430294 0.20107643 0.0419934
-0.2544005 0.14511374 0.001725854 0.23561592 0.072073825 -0.08322882 0.19461541 -0.32157716
00000000: 8071 8ebe 30f7 12be 46d3 853d 04a8 c23d
00000010: 0157 07be 9a1f 743e 4cc4 a33c f597 073d
00000020: f08e 3bbd d44e bb3d 49dc 25bd 5e33 a7bd
00000030: 9f44 21be 72d3 85bd 6f74 60be e5aa 113e
00000040: 90b5 8cbe 444c e23c 5212 a93d 0d64 83be
00000050: e646 a33c d162 78bd 7cd4 16be 98c0 c6bd
00000060: 73c6 85be ac55 82bc 956e c4bd f7cd 713e
00000070: a157 f0bd 3904 2b3e ff19 943e 5e61 9fbd
00000080: 77be 8b3d 73eb 093e 8cd4 2cbc 7ee9 00bb
00000090: 2a99 62be 674d 933e 93f4 213c 3121 d73d
000000a0: 6e11 d93d 5704 de3d ea8e 253e 4c37 953d
000000b0: fb86 373e 8b0b cd3d f71f 0ebe dde2 8b3c
000000c0: add0 c4be b04a 393e e816 29bd 868c 1b3d
000000d0: a650 523e a1cc 72be 24c8 b63d eeaa 17bd
000000e0: 5722 39bd 544f e73d 9469 763e 2d06 96bd
000000f0: 3dc8 d3bd 0bf2 ccbd 305d 98bb 4af8 6cbe
00000100: e236 a0bd dc89 193e 37ed e93d a5ce 383e
00000110: f2d4 84be 8edc 40be e539 c53d 5a7f 8e3e
00000120: e59c a4bd 33e8 ff3d 1b23 47be b51a 433e
00000130: d88c b0bd d211 03be f964 26bb bd4c 573e
00000140: 0796 90be 038b 3abe de80 883d 5fc3 4abe
00000150: 8200 1a3e e12b 94bd 5021 03be 5929 8cbe
00000160: 0fbf 32be 13a3 d5ba b677 8b3d cd46 d03c
00000170: 7d7c d4bd a9ce 493e 92fc 623c 0951 fdbd
00000180: 5685 72be 6728 e6bb 8ed6 a33d 851b f43d
00000190: a42e d4bd 148a ce3d c9b1 d73d 5b4d 683e
000001a0: 4700 17bd 5812 053e 73aa 95bd a5ef 223e
000001b0: 0eb9 bf3b 171c 5e3e dab1 f2bd 0afd 7f3e
000001c0: 29f0 1f3e c99b 063d 6deb 7c3e 1a47 373d
000001d0: b535 203e a0f0 25be f643 1ebe 8fd4 89bd
000001e0: 586a 953b 2a36 8bbe 46ff 1b3e e1cf 8a3e
000001f0: ca2a 6ebd f9a4 c0bd ddd9 fb3d 39b6 02bd
00000200: ea2b 8cbd 4a63 283e 5f35 753e 5d2f c7bd
00000210: 15dc 663e 0d3a a5be 6a25 9ebc 20b4 39bd
00000220: c6b7 ef3d 782f 0cbe a002 76be 27e4 2fbe
00000230: ccc7 34bd 00cc 043e 8010 4dbe 1999 c53c
00000240: fd15 3abd 0b6d 0ebe 4dc2 9f3c 81e8 3abe
00000250: 07d2 8fbd 4956 903b afe4 223d 5516 a63d
00000260: 6d60 2a3d 5111 093e d7b8 ec3d 004e 00bd
00000270: d91a a2bd 0100 213e 3d76 51be 30eb 233d
00000280: 888f 5ebe e70b 013c bb11 0ebe 91e5 793e
00000290: 8de4 57be 44d4 28be 61ec bcbd d6ee 073e
000002a0: 2554 cbbd e725 613e dbab 933d 81e0 b43d
000002b0: 31b9 723d 08ad d3bc 2355 16be 8794 123d
000002c0: 3fb5 50be 63c2 653e 74d4 6ebe 424c 2b3e
000002d0: 4da1 df3c d2ba a83c b116 5bbe c124 043e
000002e0: 25aa 473b 7dac e239 4f8a 99bd 59da 6f3d
000002f0: cfea 983d a6d9 073e 471d 42be 562d 6b3d
00000300: 3a71 83bc 129f cb3c 8de2 723d 1748 e03d
00000310: 74cd 0dbd 835c 803d 029d 06be a4dc f53d
00000320: d53e 53be b8a0 e33d 873a 46be 2555 0d3e
00000330: 10ff 263e 2a37 513d 625d 603e 9da4 513e
00000340: a6c6 0bbe 418c 093d 758f 573e 8c8d 873e
00000350: 85cc 883d c5f2 03be b769 14be a0d4 45be
00000360: 1791 55bd ceb4 4fbd d064 133e 6e51 e7bd
00000370: 98e1 58be 8292 303d 16e9 3bbe ccc0 83be
00000380: f8b5 113e d8d0 483e 772c 93bd f236 313c
00000390: 60fd 173e 75cc 1ebe 563e ec3d e642 933d
000003a0: a999 053e 430b 18be c1aa f63d fbdd 4ab9
000003b0: 94d5 453e 08b6 293e 7c73 f73b a1ef 683e
000003c0: c8c6 403d a591 4abd 848f e8bd 6164 9c3d
000003d0: 576f 803d bee7 81bd fbe6 4d3e 4501 2c3d
000003e0: c840 82be b298 143e 0d36 e23a 4d45 713e
000003f0: 719b 933d df73 aabd 4349 473e c3a5 a4be

bias f4 [64]
0.00069383427 0.0014182772 6.169906e-06 0.0004114242 -0.00077091146 -0.00073273916 0.00075935957 -0.00018717928
0.00020059873 0.00047383044 0.00065647 6.8517484e-06 -1.4310366e-05 -0.00060102396 0.0012276057 0.00010013797
-0.00021705753 -0.00013036282 -0.00024074092 -0.00021767322 0.0004922649 -0.00033023558 0.00018405772 0.0014343057
0.0001727615 0.00044411316 6.152409e-05 0.00054043543 0.00042540903 -0.00068114436 -0.00035745435 0.0003555424
0.00028969243 -0.0008630726 0.0005119497 0.0021187288 0.00084828655 -0.00090097624 0.00091956585 0.00042904945
0.00058350817 0.00026230188 -0.00031624184 0.0003669236 -0.00012670539 -0.00036308222 0.00021007453 5.770734e-05
-0.0011776864 0.00044025053 0.00015374177 -0.00075134175 7.5624484e-05 -0.000523768 -0.0013870542 -3.0901672e-06
0.0010933736 0.00093918346 0.0004724038 0.0005690933 0.00034970444 0.00025959624 0.00016622864 -3.5713467e-05
00000000: 6ee2 353a 7ce5 b93a 1707 cf36 6cb4 d739
00000010: fe16 4aba 4b15 40ba c20f 473a 8e45 44b9
00000020: d057 5239 726c f839 f516 2c3a 12e8 e536
00000030: 8e16 70b7 098e 1dba 9de7 a03a 2a01 d238
00000040: f099 63b9 01b2 08b9 666f 7cb9 363f 64b9
00000050: 570b 013a 7823 adb9 9eff 4039 50ff bb3a
00000060: 5027 3539 dcd7 e839 7f06 8138 02ac 0d3a
00000070: 6f09 df39 d38e 32ba b668 bbb9 1868 ba39
00000080: dce1 9739 d23f 62ba 5d34 063a 5fda 0a3b
00000090: 8c5f 5e3a 7e2f 6cba 050f 713a 0bf2 e039
000000a0: 92f6 183a 9085 8939 43cd a5b9 a75f c039
000000b0: 38dc 04b9 125c beb9 7447 5c39 c90a 7238
000000c0: 995c 9aba 6dd1 e639 be35 2139 b1f5 44ba
000000d0: 9698 9e38 7a4d 09ba d1cd b5ba ab60 4fb6
000000e0: 884f 8f3a 8933 763a f7ac f739 342f 153a
000000f0: 8958 b739 6b1a 8839 a94d 2e39 0bcb 15b8

weight f4 [99, 64]
0.09541761 0.1066755 0.061436668 0.047738366 -0.017222907 0.006662372 0.12556052 0.08594336
-0.025745543 -0.03260549 -0.020511692 -0.004311446 -0.08744896 0.096846886 0.10521305 -0.036086082
-0.038403265 0.20374224 -0.020842582 -0.03554937 -0.11402407 -0.049202822 -0.11746639 -0.06545725
-0.050541133 0.079085864 0.053378124 -0.03717564 -0.029715724 -0.018499045 -0.057508375 -0.04412955
-0.01718077 -0.03731128 -0.023297215 -0.014787302 -0.053005297 0.10437702 -0.0203863 0.09709634
-0.02998516 -0.08277893 -0.0175185 -0.025908342 -0.020063 -0.014753291 -0.019461496 -0.02538877
-0.106267184 -0.048810057 -0.0043295324 0.08843396 0.050715595 -0.022515964 0.023484536 -0.005041519
-0.10477289 0.04654979 -0.008044436 0.006340377 0.12816045 -0.00857207 -0.03652188 -0.024514869
-0.078866355 -0.09554974 -0.0746522 0.011096282 -0.009673715 -0.059650447 0.010214165 0.1406193
-0.1179099 0.039467417 0.07816488 -0.027768644 -0.0012577364 0.025824856 0.033794597 0.0021418964
-0.0036578719 0.04919985 0.036255807 -0.053175054 -0.09635883 0.16598742 0.117170736 -0.045933
-0.06330182 0.0016947158 -0.0066037085 0.004656304 -0.07055545 0.069474235 0.044655096 0.02513941
0.009727206 0.03554877 0.029138798 0.116958626 0.08430991 0.037248276 -0.03891647 -0.039561685
0.11583303 0.0056746723 -0.006849268 -0.0077274265 -0.022675503 0.061179142 -0.021240132 -0.0133195445
-0.022682913 -0.06334109 -0.015090792 0.14280923 0.026768219 -0.036396306 0.05310725 -0.0044856234
-0.09994213 0.05432087 -0.008085577 0.029308246 0.011382064 0.022067083 -0.011246911 -0.019445343
-0.03915214 -0.07817247 -0.050088864 0.02101895 -0.0068442454 -0.031074211 0.02182202 0.14110959
-0.041959144 -0.014682355 0.037801817 -0.030162616 -0.011637364 0.044922974 0.0037392383 -0.017905915
-0.017342037 0.048416942 0.040741708 -0.044577196 0.024219533 0.1431028 0.051204346 -0.0357351
-0.033127997 -0.03945479 0.07950295 -0.034919716 -0.043008387 -0.0011309305 -0.03416878 -0.00214906
-0.014736792 0.0015650258 0.0012354538 0.00022554093 0.080271065 0.04832989 -0.07733949 -0.02728703
0.05619586 -0.016015897 -0.022987789 0.009685175 -0.02523193 -0.03880342 -0.027309475 -0.024576332
-0.006682692 -0.0072717196 -0.021250464 0.16832148 0.07223235 -0.008428868 0.13251476 -0.02915698
0.054080132 0.1296774 -0.017142149 0.009081867 0.093927994 0.008854331 0.011751803 -0.012208185
-0.051949468 -0.03304768 -0.0720892 -0.13417883 -0.011617932 -0.039904177 0.038983446 0.062039126
-0.07763605 0.0017073195 -0.021657702 -0.029652959 -0.039732598 0.011836042 0.14039364 -0.006290352
-0.014973267 -0.03653271 0.14081548 -0.04876556 0.100099914 0.041228883 -0.054247852 0.039379936
-0.043267112 -0.02316997 -0.028917758 0.0026249299 -0.011544941 0.0023999284 0.05865347 -0.004770099
-0.012875261 -0.018485429 -0.0060371477 -0.044126593 0.18718457 0.13636313 -0.058252737 0.10085731
0.08012416 -0.015903337 -0.0050807917 -0.045874674 -0.011430537 -0.015310157 -0.007992322 -0.013317224
-0.0257239 -0.05566082 -0.0064680832 0.06835977 0.079096206 -0.023195675 0.11084262 -0.0038328469
-0.09094696 0.06328181 -0.014614854 -0.035320148 0.004484245 0.023121854 0.08797485 -0.031002058
00000000: 4f6a c33d af78 da3d 04a5 7b3d 4e89 433d
00000010: 0e17 8dbc 0750 da3b f092 003e 1303 b03d
00000020: 51e8 d2bc 568d 05bd 2308 a8bc 0847 8dbb
00000030: 7118 b3bd a957 c63d f179 d73d 00cf 13bd
00000040: be4c 1dbd cea1 503e 10be aabc 379c 11bd
00000050: 7485 e9bd e688 49bd 3892 f0bd 730e 86bd
00000060: 3804 4fbd c5f7 a13d 05a3 5a3d 7c45 18bd
00000070: 646e f3bc 4f8b 97bc e78d 6bbd 30c1 34bd
00000080: b0be 8cbc b6d3 18bd cdd9 bebc 7146 72bc
00000090: 151c 59bd 9ec3 d53d 2b01 a7bc 72da c63d
000000a0: 70a3 f5bc 0088 a9bd f582 8fbc bb3d d4bc
000000b0: 295b a4bc cab7 71bc b76d 9fbc 1cfc cfbc
000000c0: 9ca2 d9bd 0eed 47bd c0de 8dbb dd1c b53d
000000d0: 28bb 4f3d 6673 b8bc a462 c03c 5433 a5bb
000000e0: 2b93 d6bd feaa 3e3d cfcc 03bc f0c2 cf3b
000000f0: 7e3c 033e de71 0cbc f897 15bd 68d3 c8bc
00000100: af84 a1bd 95af c3bd 41e3 98bd 2ecd 353c
00000110: 807e 1ebc 0754 74bd 5059 273c 81fe 0f3e
00000120: bf7a f1bd 96a8 213d e914 a03d 117b e3bc
00000130: a1da a4ba a68e d33c 346c 0a3d 0f5f 0c3b
00000140: e8b8 6fbb c885 493d f880 143d 16ce 59bd
00000150: c757 c5bd 9bf8 293e 36f7 ef3d 3e24 3cbd
00000160: 62a4 81bd 3a21 de3a ec63 d8bb e993 983b
00000170: 607f 90bd 8248 8e3d 43e8 363d 2af1 cd3c
00000180: dc5e 1f3c 969b 113d 7db4 ee3c 0188 ef3d
00000190: adaa ac3d a691 183d e066 1fbd 6f0b 22bd
000001a0: de39 ed3d 9af2 b93b d36f e0bb 5a36 fdbb
000001b0: fac1 b9bc fb96 7a3d c9ff adbc 383a 5abc
000001c0: 84d1 b9bc f9b8 81bd 5f3f 77bc 953c 123e
000001d0: 0649 db3c 4b14 15bd fd86 593d 23fc 92bb
000001e0: 76ae ccbd 907f 5e3d 5e79 04bc d917 f03c
000001f0: d67b 3a3c 07c6 b43c f744 38bc d74b 9fbc
00000200: ff5d 20bd e318 a0bd fb29 4dbd ef2f ac3c
00000210: b145 e0bb 588f febc 18c4 b23c 087f 103e
00000220: 5add 2bbd 438e 70bc 14d6 1a3d 9717 f7bc
00000230: a4aa 3ebc 2701 383d 020e 753b 6daf 92bc
00000240: e310 8ebc d850 463d c7e0 263d 9496 36bd
00000250: 0b68 c63c 8a89 123e a6bb 513d f85e 12bd
00000260: 39b1 07bd 599b 21bd 71d2 a23d fa07 0fbd
00000270: 9029 30bd bb3b 94ba 90f4 0bbd 3ed7 0cbb
00000280: 9672 71bc 8d21 cd3a f3ee a13a 2f7f 6c39
00000290: 2865 a43d 90f5 453d 2b64 9ebd 0d89 dfbc
000002a0: a12d 663d c533 83bc e350 bcbc 91ae 1e3c
000002b0: 31b3 cebc 56f0 1ebd 1fb8 dfbc 4e54 c9bc
000002c0: 7cfa dabb 9b47 eebb 7415 aebc 775c 2c3e
000002d0: 8eee 933d 3c19 0abc f3b1 073e 9eda eebc
000002e0: 2183 5d3d 27ca 043e b16d 8cbc 1ccc 143c
000002f0: 525d c03d c211 113c a28a 403c d704 48bc
00000300: f7c8 54bd 015d 07bd 81a3 93bd 2d66 09be
00000310: 2359 3ebc 9072 23bd 1bad 1f3d bd1c 7e3d
00000320: a6ff 9ebd 23c8 df3a 7e6b b1bc c3ea f2bc
00000330: a6be 22bd f5eb 413c 5ac3 0f3e 4c1f cebb
00000340: 6f52 75bc 53a3 15bd ef31 103e 65be 47bd
00000350: 2f01 cd3d 9edf 283d ff32 5ebd db4c 213d
00000360: db38 31bd f3ce bdbc efe4 ecbc 0407 2c3b
00000370: fe26 3dbc 1e48 1d3b 9f3e 703d 7e4e 9cbb
00000380: c2f2 52bc c16e 97bc 44d3 c5bb 16be 34bd
00000390: 50ad 3f3e c7a2 0b3e 6c9a 6ebd 478e ce3d
000003a0: 2318 a43d b747 82bc c57c a6bb 15e7 3bbd
000003b0: 2647 3bbc 74d7 7abc 3af2 02bc 7c30 5abc
000003c0: eeba d2bc 9afc 63bd 37f2 d3bb 3500 8c3d
000003d0: 31fd a13d db04 bebc 7501 e33d 8030 7bbb
000003e0: 6642 babd e599 813d 2473 6fbc dcab 10bd
000003f0: 93f0 923b 0b6a bd3c 282c b43d 07f8 fdbc
