serology/results_intermediate_encoders_2/models/5fold/decoder_primates_3.pt (torch, 157583 bytes, 7 tensors)

weight f4 [128]
0	0x3f6d7a63	0.9276487
1	0x3f7e0ef9	0.99241596
2	0x3f695f5e	0.91161144
3	0x3f7be835	0.98401195
4	0x3f7a72b5	0.9783128
5	0x3f5324a1	0.82477766
6	0x3f43ac04	0.7643435
7	0x3f7dabf9	0.99090534
8	0x3f890b39	1.070655
9	0x3f7113c0	0.9417076
10	0x3f6a033d	0.9141119
11	0x3f6ecc29	0.93280274
12	0x3f61634f	0.8804216
13	0x3f74d478	0.956367
14	0x3f8b2fa7	1.0873917
15	0x3f6063d5	0.8765233
16	0x3f696a7e	0.9117812
17	0x3f6130a2	0.8796483
18	0x3f750d26	0.9572319
19	0x3f536670	0.8257818
20	0x3f70f177	0.94118446
21	0x3f5f6d49	0.8727613
22	0x3f8142cc	1.009851
23	0x3f7cf8b2	0.9881698
24	0x3f5dd6f9	0.8665615
25	0x3f5b251d	0.85603505
26	0x3f66b062	0.9011289
27	0x3f84f1cd	1.0386292
28	0x3f66505d	0.89966375
29	0x3f6889b5	0.90835124
30	0x3f61b6b9	0.8816944
31	0x3f5a51e1	0.8528119
32	0x3f796830	0.974246
33	0x3f60bb48	0.8778577
34	0x3f65fc10	0.8983774
35	0x3f6ea645	0.9322246
36	0x3f5920d3	0.8481571
37	0x3f79debe	0.976055
38	0x3f6435a6	0.8914436
39	0x3f639402	0.88897717
40	0x3f87915a	1.0591233
41	0x3f6814e7	0.90656894
42	0x3f74431f	0.9541492
43	0x3f7e368e	0.99301994
44	0x3f6ec795	0.9327329
45	0x3f664229	0.899447
46	0x3f6d5c7e	0.92719257
47	0x3f725a83	0.9466936
48	0x3f6748c3	0.903454
49	0x3f6949a3	0.91127986
50	0x3f5cb032	0.8620635
51	0x3f6514d1	0.8948489
52	0x3f668b6c	0.9005649
53	0x3f665bf8	0.89984083
54	0x3f733a40	0.9501076
55	0x3f62facd	0.8866394
56	0x3f60a1bd	0.87746793
57	0x3f775ea5	0.9662879
58	0x3f4d96c0	0.8030815
59	0x3f81212a	1.0088246
60	0x3f6b35f7	0.9187922
61	0x3f5ea65d	0.869726
62	0x3f771906	0.9652256
63	0x3f81cfe4	1.0141568
64	0x3f710d18	0.94160604
65	0x3f74e6ad	0.95664483
66	0x3f5c9ba2	0.86174977
67	0x3f64e64a	0.89413893
68	0x3f713203	0.94216937
69	0x3f81d1a0	1.0142097
70	0x3f7784db	0.96687096
71	0x3f58837d	0.84575635
72	0x3f60a799	0.87755734
73	0x3f62e4a5	0.88630134
74	0x3f8d2c39	1.1029121
75	0x3f64e118	0.89405966
76	0x3f5289b0	0.82241344
77	0x3f77150b	0.96516484
78	0x3f80aa27	1.0051926
79	0x3f57bad0	0.8426943
80	0x3f4f4dd5	0.8097814
81	0x3f70e137	0.9409365
82	0x3f48ecf6	0.78486574
83	0x3f801dd0	1.0009098
84	0x3f7c267d	0.9849623
85	0x3f65470a	0.8956152
86	0x3f6ad322	0.91728413
87	0x3f739a79	0.9515758
88	0x3f69fd46	0.9140209
89	0x3f5951a2	0.84890187
90	0x3f6a63a9	0.9155832
91	0x3f4967ba	0.786739
92	0x3f8112f2	1.0083907
93	0x3f641e73	0.8910896
94	0x3f806960	1.0032158
95	0x3f4cb78d	0.79967576
96	0x3f7a2f28	0.97728205
97	0x3f6746d4	0.9034245
98	0x3f6dcf27	0.92894214
99	0x3f6d5074	0.92700887
100	0x3f871220	1.0552406
101	0x3f7f9bb6	0.9984697
102	0x3f7819e1	0.9691449
103	0x3f84fb87	1.038926
104	0x3f78996c	0.97109103
105	0x3f70ac3c	0.9401281
106	0x3f7d77f3	0.99011153
107	0x3f662ba7	0.8991036
108	0x3f61644a	0.88043654
109	0x3f6a0cc0	0.91425705
110	0x3f82c6c1	1.0216905
111	0x3f68a9de	0.90884197
112	0x3f75f2f4	0.9607384
113	0x3f60a525	0.8775199
114	0x3f63a724	0.8892691
115	0x3f58d41b	0.8469865
116	0x3f61620a	0.8804022
117	0x3f74d2b6	0.9563402
118	0x3f615838	0.88025236
119	0x3f52cc16	0.8234266
120	0x3f714ebf	0.9426078
121	0x3f86097c	1.0471644
122	0x3f7eeda0	0.99581337
123	0x3f6dd8c9	0.9290891
124	0x3f86042f	1.0470027
125	0x3f6c4ca6	0.92304456
126	0x3f73014a	0.9492384
127	0x3f721ccb	0.94575185

bias f4 [128]
0	0xbdea0247	-0.114262156
1	0xbe77baef	-0.24192403
2	0xbe0c9b74	-0.13731176
3	0xbe2e17f6	-0.17001328
4	0xbe6ad125	-0.22931345
5	0xbc55a6c5	-0.013040249
6	0xbd64eb4f	-0.05588847
7	0xbe291770	-0.16512847
8	0xbeb98f1c	-0.36241996
9	0xbe327ffa	-0.17431632
10	0xbe1a6a21	-0.15079547
11	0xbe759daa	-0.23985925
12	0xbe126947	-0.14297973
13	0xbe82d5b6	-0.25553674
14	0xbe528293	-0.20557623
15	0xbe262a1a	-0.16226998
16	0xbe76080f	-0.24026512
17	0xbe0d7e30	-0.13817668
18	0xbe11cad7	-0.14237534
19	0xbe0a0898	-0.13479841
20	0xbe758b1d	-0.23978849
21	0xbe21d5b8	-0.15804183
22	0xbe622c2c	-0.22087163
23	0xbe7c5804	-0.2464295
24	0xbe1a9729	-0.15096726
25	0xbe6ad292	-0.22931889
26	0xbe87d9cf	-0.26533362
27	0xbeb5f870	-0.35541105
28	0xbe312247	-0.17298232
29	0xbe077e25	-0.13231714
30	0xbe44790b	-0.19186799
31	0xbdabfc94	-0.08397785
32	0xbe80dff0	-0.2517085
33	0xbdd93b6a	-0.106070355
34	0xbe5f00e0	-0.21777678
35	0xbe2f259a	-0.17104188
36	0xbe29a76e	-0.16567776
37	0xbe8f4ed3	-0.27989826
38	0xbe9221e8	-0.28541493
39	0xbd892de5	-0.06698207
40	0xbe0fcf85	-0.14044006
41	0xbe246690	-0.1605475
42	0xbe654408	-0.22389233
43	0xbe798fc2	-0.24371246
44	0xbdc5dae9	-0.096608944
45	0xbe4a7e36	-0.19774708
46	0xbe8353dd	-0.2564992
47	0xbe919cd9	-0.28439978
48	0xbde0d3e7	-0.10977917
49	0xbe4ee675	-0.202051
50	0xbe769c9f	-0.24083184
51	0xbe05dbad	-0.13072081
52	0xbe6b1d10	-0.22960305
53	0xbe6c62cb	-0.23084562
54	0xbe66e4c9	-0.22548212
55	0xbe3088c6	-0.17239675
56	0xbdb63457	-0.08896702
57	0xbe2dbd0e	-0.1696665
58	0xbe469b1e	-0.1939511
59	0xbe3b49aa	-0.1828982
60	0xbe2f458b	-0.17116372
61	0xbe7ca9a9	-0.24674095
62	0xbe738d76	-0.23784432
63	0xbe7c1e8e	-0.2462103
64	0xbea5f0bf	-0.32410237
65	0xbe4f3cda	-0.20238057
66	0xbe1a9d0a	-0.15098968
67	0xbe79450e	-0.24342749
68	0xbd920286	-0.071293876
69	0xbe6ae058	-0.22937143
70	0xbe7fe67c	-0.24990267
71	0xbe5220ef	-0.20520376
72	0xbe11a171	-0.14221741
73	0xbd91a9c8	-0.07112461
74	0xbe639f48	-0.2222873
75	0xbe292e4f	-0.16521572
76	0xbdeed890	-0.116624
77	0xbe86a875	-0.26300398
78	0xbe85e722	-0.26152903
79	0xbe0e5cee	-0.13902637
80	0xbe36c3e2	-0.17848161
81	0xbe78d784	-0.24300963
82	0xbd59afb4	-0.05314608
83	0xbe1f6dca	-0.15569225
84	0xbe313825	-0.17306574
85	0xbde1c216	-0.11023347
86	0xbe57e9df	-0.21085308
87	0xbe0afcc7	-0.1357299
88	0xbe0df233	-0.13861923
89	0xbde63887	-0.112412505
90	0xbe43e7e0	-0.19131422
91	0xbda13102	-0.078706756
92	0xbe545c58	-0.20738351
93	0xbe3d80c4	-0.18506151
94	0xbe3f939b	-0.18708651
95	0xbe0b42fe	-0.13599774
96	0xbe100504	-0.14064413
97	0xbe1660d5	-0.14685376
98	0xbdbddfda	-0.09271212
99	0xbe8c17e2	-0.2736197
100	0xbe544a44	-0.20731455
101	0xbe0c499a	-0.13699952
102	0xbe8b0e52	-0.27159363
103	0xbe5f9bcc	-0.21836776
104	0xbe4c9746	-0.19979581
105	0xbe384b0a	-0.17997375
106	0xbe777c80	-0.24168587
107	0xbdeb4e5c	-0.11489555
108	0xbe132da9	-0.14372887
109	0xbe37a241	-0.17932989
110	0xbe9239b7	-0.28559658
111	0xbe13cbbf	-0.14433192
112	0xbe0e3e80	-0.1389103
113	0xbe3b04e2	-0.18263581
114	0xbdc471f9	-0.09592051
115	0xbe066f36	-0.13128361
116	0xbd802d36	-0.06258623
117	0xbdf059a9	-0.11735851
118	0xbe103cb6	-0.1408566
119	0xbe03f1a6	-0.1288515
120	0xbe087f7b	-0.1332988
121	0xbe975559	-0.29557303
122	0xbe49631b	-0.19666712
123	0xbe45087f	-0.19241522
124	0xbe614813	-0.2200015
125	0xbe751c5b	-0.23936598
126	0xbe8d3a54	-0.27583563
127	0xbe34868e	-0.17629454

running_mean f4 [128]
0	0xbd7652cf	-0.060137566
1	0xbd851fee	-0.06500231
2	0xbd8811a4	-0.0664399
3	0xbd478fcd	-0.048721123
4	0xbd84ae26	-0.06478529
5	0x3e03d5b4	0.1287449
6	0x3e05866a	0.13039556
7	0x3c25f4d5	0.010129173
8	0xbcffa7b0	-0.03120789
9	0xbdff729a	-0.124730304
10	0xbd4adc07	-0.04952624
11	0xbd486016	-0.04891976
12	0xbd5b13ea	-0.05348579
13	0xbd2ecc42	-0.042675264
14	0x3d9a0e03	0.07522204
15	0xbc9fdefa	-0.019515503
16	0xbd957dbc	-0.072993726
17	0xbdf03808	-0.11729437
18	0xbd663910	-0.056206763
19	0xbe4774a3	-0.19478087
20	0x3d0c7aca	0.03429679
21	0x3d218171	0.039430086
22	0xbd84ab48	-0.06477982
23	0xbdacbf1a	-0.08434887
24	0xbda22d1e	-0.07918762
25	0x3cdab407	0.026697172
26	0xbd0cf74c	-0.03441553
27	0x3d7c70fc	0.061631188
28	0x3d9c8fa3	0.07644584
29	0x3dac25e4	0.084056646
30	0xbcacf8d8	-0.021114752
31	0xbd7f2e26	-0.06229987
32	0x3d3cf23f	0.04612946
33	0x3a8b7c5d	0.0010641922
34	0xbc429927	-0.011877335
35	0xbe13d96d	-0.1443841
36	0x3d81a7c4	0.06330827
37	0x3d782745	0.060584325
38	0xbd0ca42b	-0.03433625
39	0xbd8be4e3	-0.06830766
40	0x3c917009	0.017753618
41	0xbdaa858c	-0.08326253
42	0xbdf8e831	-0.12153662
43	0xbdcb5c02	-0.099296585
44	0x3bf9818d	0.0076143206
45	0x3c77291a	0.015085483
46	0xbd3a4e71	-0.045484964
47	0xbd7adacc	-0.061243817
48	0xbd618049	-0.055053983
49	0xbd05bd2e	-0.03265112
50	0x3d8ce927	0.06880408
51	0xbd821986	-0.063525245
52	0xbc9d12ad	-0.019173944
53	0x3baf30ae	0.0053463792
54	0xbe35aeb1	-0.1774242
55	0x3d31028f	0.04321533
56	0xbdde89ee	-0.10866152
57	0x3d2b45e4	0.0418147
58	0x3d6df092	0.058090754
59	0x3d97c127	0.07409888
60	0x3d03cda6	0.032178544
61	0xbd3fa909	-0.046792064
62	0x3ce45ecf	0.02787724
63	0x3decf0f8	0.11569399
64	0xbdbf255b	-0.09333297
65	0xbd664700	-0.056220055
66	0xbd34551f	-0.04402649
67	0x3e2d013b	0.16895
68	0xbbe85e0c	-0.0070912894
69	0xbcafa4e6	-0.021440934
70	0x3be205fc	0.006897686
71	0xbd881b96	-0.066458866
72	0xbda12ee2	-0.0787027
73	0xbe03e41c	-0.12879986
74	0xbcfc82f7	-0.030824168
75	0xbdfd8aa4	-0.12379959
76	0xbd1f55e6	-0.03890028
77	0x3d5433bc	0.05180715
78	0xbe113aaf	-0.14182542
79	0xbd839b63	-0.06426122
80	0xbd61936c	-0.055072233
81	0xbdf82764	-0.12116888
82	0xbc362f9c	-0.011119749
83	0x3d243b08	0.04009536
84	0xbe35c5da	-0.17751256
85	0xbcf0b57f	-0.02938342
86	0x3dec20f2	0.11529721
87	0x3d17f7f9	0.03710172
88	0xbe30db8d	-0.17271252
89	0x3d3b1f16	0.045683943
90	0xbd40be48	-0.047056466
91	0xbd8004e4	-0.06250933
92	0xbda2e8ef	-0.07954585
93	0x3c21276d	0.00983606
94	0x3cccc257	0.024995012
95	0xbdb0a7e6	-0.08625774
96	0xbde13b1f	-0.109976046
97	0xbd196921	-0.037453774
98	0xbc9fb293	-0.01949433
99	0x3b44fc4d	0.003005761
100	0xbda381be	-0.07983731
101	0xbdb9a09f	-0.09063839
102	0xbdee69f9	-0.116413064
103	0xbcc067e7	-0.023487044
104	0xbd8ac4b4	-0.067757994
105	0xbc28f856	-0.010313114
106	0xbddb0b24	-0.10695484
107	0xbd82dbae	-0.06389557
108	0x3cb9badf	0.022672115
109	0xbe113ec5	-0.14184101
110	0x3cd01bb6	0.025403839
111	0x3d66832a	0.05627743
112	0x3d070f66	0.03297367
113	0x3d78277e	0.060584538
114	0xbd977de4	-0.073970586
115	0xbe2c09e9	-0.16800655
116	0xbe4c47d4	-0.19949275
117	0x3d27557d	0.040853012
118	0x3cda6d70	0.026663512
119	0x3d4f21a6	0.0505692
120	0xbde593b1	-0.112098105
121	0xbe0d9a8a	-0.13828483
122	0x3d0590ce	0.0326088
123	0xbdc3a0de	-0.09552167
124	0xbe08201c	-0.13293499
125	0xbd768d6a	-0.060193457
126	0xbb3cf0d9	-0.002883008
127	0x3d08aa70	0.033365667

running_var f4 [128]
0	0x3f863ad5	1.0486704
1	0x3f7cba53	0.9872181
2	0x3efa26b7	0.48857662
3	0x3f664f7a	0.8996502
4	0x3f2044da	0.6260506
5	0x3f8d1d83	1.1024631
6	0x3f6dea29	0.92935425
7	0x3ef4205d	0.4768094
8	0x3ef958a5	0.48700443
9	0x3f6409b4	0.89077306
10	0x3f3f191d	0.74647695
11	0x3ee2e345	0.44314018
12	0x3f2358cf	0.63807386
13	0x3f52f14e	0.8239945
14	0x3f6644b4	0.8994858
15	0x3eb40bd5	0.35165277
16	0x3ef3bb6d	0.47603932
17	0x3f9d00a0	1.2265816
18	0x3f6ca65e	0.92441356
19	0x3fb348a0	1.4006538
20	0x3f3be929	0.7340265
21	0x3f88a0c2	1.0674059
22	0x3f28f631	0.6600066
23	0x3f16a32a	0.5884272
24	0x3eed1a03	0.46308908
25	0x3f295b83	0.6615526
26	0x3ec4e8f4	0.3845898
27	0x3e91b33d	0.2845706
28	0x3e8fbaa0	0.2807207
29	0x3ec60bf2	0.3868099
30	0x3f256245	0.6460307
31	0x3ea5fa3a	0.3241747
32	0x3e5c07d8	0.21487367
33	0x3f11db05	0.5697482
34	0x3eebe6af	0.46074435
35	0x3f371940	0.71522903
36	0x3f176115	0.5913251
37	0x3eef41ab	0.46729788
38	0x3ef46bde	0.47738546
39	0x3f2bcd17	0.6710982
40	0x3f1dd7ea	0.61657584
41	0x3eeb6eae	0.4598288
42	0x3f043243	0.51639193
43	0x3f1942fb	0.5986783
44	0x3f00f577	0.5037455
45	0x3f5d49d6	0.8644079
46	0x3ee76025	0.4519054
47	0x3f433803	0.7625734
48	0x3f3d868c	0.7403343
49	0x3ebdd949	0.37079838
50	0x3eab38df	0.33441827
51	0x3f311c48	0.6918378
52	0x3f613c1e	0.87982357
53	0x3f000ebc	0.5002248
54	0x3f3aa125	0.7290214
55	0x3eb7cd80	0.35898972
56	0x3fa6144b	1.2974943
57	0x3f643a19	0.8915115
58	0x3f21314b	0.6296584
59	0x3ecc6379	0.39919642
60	0x3e82847a	0.25491697
61	0x3e9c088b	0.30475268
62	0x3ed12978	0.4085195
63	0x3f700d1f	0.9377002
64	0x3f13aa1a	0.5768143
65	0x3f612835	0.87951976
66	0x3eee736e	0.4657244
67	0x3f62528d	0.8840721
68	0x3f9e91a6	1.2388198
69	0x3efefdd7	0.4980304
70	0x3eb4f643	0.35344133
71	0x3f98e1db	1.1943926
72	0x3fb7ff05	1.4374701
73	0x3f75a816	0.95959604
74	0x3f1a20a4	0.60206056
75	0x3effaa41	0.4993458
76	0x3f12515b	0.5715539
77	0x3f1d4e63	0.61447734
78	0x3f2da30b	0.6782691
79	0x3f456c97	0.7711882
80	0x3ed157ec	0.40887392
81	0x3ed2edc4	0.41197026
82	0x3f4fddf4	0.8119805
83	0x3ec12fd3	0.377318
84	0x3eb0b072	0.34509617
85	0x3f5ee95b	0.8707482
86	0x3f137c5a	0.5761162
87	0x3ed6957f	0.4191093
88	0x3f341b7a	0.70354426
89	0x3f454eda	0.7707344
90	0x3f1cbfe1	0.61230284
91	0x3f9dde57	1.2333478
92	0x3f30a2e7	0.6899857
93	0x3f5bb965	0.85829765
94	0x3f3e1dae	0.7426404
95	0x3ea3bba4	0.31979096
96	0x3f729013	0.9475109
97	0x3f33f9a8	0.7030282
98	0x3e837503	0.2567521
99	0x3f0e178e	0.5550469
100	0x3f0aaf81	0.5417405
101	0x3f687af4	0.9081261
102	0x3fac329a	1.3452942
103	0x3f7526e4	0.9576247
104	0x3ebfd98d	0.37470666
105	0x3e8e62b2	0.27809674
106	0x3eeb3cd1	0.45944837
107	0x3ef3fb8e	0.47652858
108	0x3f148567	0.58016056
109	0x3f70bb03	0.9403536
110	0x3eb66cc0	0.35629845
111	0x3f5fb4b8	0.8738513
112	0x3e62274d	0.22085305
113	0x3f0b4923	0.5440847
114	0x3f5a1536	0.85188615
115	0x3f907b5b	1.1287645
116	0x3f8cb57d	1.0992886
117	0x3f012f27	0.50462574
118	0x3f12a2d9	0.57279736
119	0x3fa6527a	1.299392
120	0x3faaee18	1.335391
121	0x3f372ae3	0.71549815
122	0x3f06c948	0.5265088
123	0x3f225b17	0.6342024
124	0x3f709a16	0.93985116
125	0x3f0fa5e2	0.5611249
126	0x3eae4f50	0.34044886
127	0x3f0b63f0	0.5444937

weight f4 [128, 32]
0	0x3d806898	0.0626995
1	0xbe2766eb	-0.16347854
2	0x3e5ad99a	0.21372071
3	0x3dea459a	0.11439057
4	0x3dda0f14	0.10647407
5	0x3b818ec2	0.0039537856
6	0xbd2fca28	-0.0429174
7	0x3c9d66ff	0.019214151
8	0xbe03684e	-0.12832758
9	0x3e93878b	0.2881435
10	0xbdfcedb0	-0.12350023
11	0xbd9430f0	-0.072358966
12	0xbd0fd420	-0.035114408
13	0xbe18957f	-0.14900778
14	0x3e5fe730	0.21865535
15	0xbcc274bc	-0.023737304
16	0xbca3cfc3	-0.01999653
17	0xbb33de62	-0.0027445783
18	0x3d598ac5	0.053110857
19	0xbe02cd31	-0.12773587
20	0xbdd1384e	-0.102158174
21	0x3db9dcb6	0.090753004
22	0x3cadec36	0.021230798
23	0x3c5c5846	0.01344878
24	0x3d09b64d	0.03362112
25	0xbdb61bc4	-0.088920146
26	0x3e3642bc	0.17798895
27	0x3d86b6e3	0.065778516
28	0xbe161ba1	-0.14658977
29	0x3d826d34	0.06368485
30	0x3d2bc465	0.041935343
31	0x3e768842	0.24075416
32	0xbdc21b46	-0.09477858
33	0x3e30e22e	0.1727378
34	0x3dcbf935	0.09959642
35	0xbc9eda32	-0.019391153
36	0x3dfa0de6	0.12209682
37	0x3d7c62ac	0.06161754
38	0xbe6f9165	-0.23395307
39	0xbd777359	-0.06041274
40	0xbcc8c9b3	-0.02451024
41	0xbbc75997	-0.006083678
42	0xbda95435	-0.08268014
43	0xbd98803d	-0.074463345
44	0xbc3cfb80	-0.011534572
45	0x3dac98ec	0.08427605
46	0xbe3b10e0	-0.18268156
47	0xbe19e066	-0.15027007
48	0xbd814583	-0.063120864
49	0xbe3678dc	-0.17819542
50	0xbdbccaaf	-0.09218346
51	0xbe60ef25	-0.21966226
52	0x3e2b3e66	0.16723022
53	0xbe4b4656	-0.1985105
54	0xbe4c0900	-0.19925308
55	0x3e22538f	0.15852188
56	0xbe14abdd	-0.14518686
57	0xbe1776d2	-0.1479142
58	0x3c291130	0.010319039
59	0x3e1f7bb1	0.15574528
60	0xbdc24b14	-0.09486976
61	0x3e76c729	0.24099411
62	0x3dc8f2b4	0.09811917
63	0xbe623084	-0.2208882
64	0x3a5f1cfa	0.0008511093
65	0x3db329ac	0.08748183
66	0xbd6efa50	-0.058344185
67	0x3e07b4f4	0.13252622
68	0xbb500189	-0.0031739196
69	0xbd879e37	-0.06621974
70	0xbdce6726	-0.10078268
71	0xbe1f39f6	-0.15549454
72	0x3d9ae7fc	0.07563779
73	0xbd912f53	-0.070891045
74	0xbccb9a48	-0.02485384
75	0x3dafaaab	0.08577474
76	0x3dd28961	0.10280109
77	0x3dd04a12	0.10170378
78	0x3de4c8bd	0.111711
79	0xbd6caeca	-0.05778388
80	0x3c75b83b	0.014997537
81	0xbe067b52	-0.1313298
82	0xbde2d518	-0.11075801
83	0xbdc24940	-0.094866276
84	0x3e166813	0.14688139
85	0xbd03d4e6	-0.032185458
86	0x3e56aa01	0.20963289
87	0x3e15dde1	0.14635421
88	0x3e28997c	0.164648
89	0xbcbb088f	-0.02283123
90	0x3e2f875e	0.17141482
91	0xbdd9d8ab	-0.10637029
92	0x3db266d3	0.087110184
93	0xbc24eafb	-0.010065789
94	0xbda4b6a2	-0.08042647
95	0x3d9b7ad7	0.07591789
96	0xbe1008fc	-0.14065927
97	0xbe255fa2	-0.16149762
98	0x3e076afb	0.13224404
99	0x3e56874d	0.2095005
100	0xbbd56f1c	-0.0065134894
101	0x3d6043c3	0.054752123
102	0xbb67665f	-0.003530882
103	0x3e61c2a3	0.22046904
104	0x3d026bbc	0.031841025
105	0xbd76fec2	-0.06030155
106	0x3ccfa981	0.02534938
107	0xbe060ce3	-0.13090853
108	0x3d6feefc	0.058577523
109	0xbe05aa1a	-0.1305317
110	0x3ca028ab	0.019550642
111	0xbdc31947	-0.09526306
112	0xbe24a645	-0.16079052
113	0x3dc1f1f0	0.09469974
114	0x3b47c771	0.0030483867
115	0x3c404b99	0.011736774
116	0xbcff55fe	-0.031168934
117	0x3de65dec	0.11248383
118	0x3e3cd992	0.18442371
119	0x3d1c9eb8	0.038237303
120	0xbe28e715	-0.16494401
121	0x3c8562c4	0.016282447
122	0x3d874d16	0.066065
123	0x3dbe6dd7	0.09298294
124	0x3da7d02e	0.08194004
125	0xbde3c6dd	-0.111219145
126	0x3da56bb2	0.08077182
127	0x3d4c7ff4	0.049926713
128	0xbdec8d33	-0.11550369
129	0xbd737f12	-0.059447356
130	0x3dcae9fb	0.099079095
131	0x3e6040e7	0.21899758
132	0x3e21de14	0.15807372
133	0xbe4a4655	-0.19753392
134	0x3dd08605	0.10181812
135	0x3ddbb7d1	0.107284196
136	0xbd19a60b	-0.037511867
137	0xbdb02bfc	-0.08602139
138	0x3db8eccb	0.0902954
139	0x3d0af374	0.03392358
140	0x3e3cb742	0.18429282
141	0xbde506d6	-0.111829445
142	0xbd4c7826	-0.04991927
143	0x3e36b9db	0.17844336
144	0x3dd4c3ba	0.103888944
145	0x3df42f69	0.11923105
146	0xbe300642	-0.17189887
147	0xbd6ce7ae	-0.057838134
148	0x3c3e3241	0.011608661
149	0xbddaae68	-0.106777966
150	0xbe089821	-0.13339283
151	0x3ccb28ae	0.024799671
152	0xbd8fe388	-0.0702582
153	0x3d140797	0.03614005
154	0xbd4e4b5f	-0.05036485
155	0xbde64254	-0.1124312
156	0x3db71134	0.08938828
157	0x3c3cdace	0.0115267765
158	0xbde83209	-0.113376684
159	0x3e4c2bb1	0.19938542
160	0xbe4ba040	-0.1988535
161	0xbd2b97e1	-0.04189289
162	0xbdb63782	-0.08897306
163	0x3e01b489	0.12666525
164	0x3dceeb63	0.1010349
165	0x3e2f6a83	0.17130475
166	0x3e2e008e	0.16992399
167	0xbd73544c	-0.059406564
168	0x3e47b2f0	0.19501853
169	0xbe45c304	-0.19312674
170	0x3e48f978	0.19626415
171	0xbdd4da66	-0.10393219
172	0xbd8329f3	-0.064044856
173	0xbd27946b	-0.040913027
174	0x3b932e86	0.00449163
175	0x3d4f6daf	0.05064171
176	0xbe19cb61	-0.15018989
177	0x3e1030a8	0.14081061
178	0xbca23559	-0.019800829
179	0x3ddb9f63	0.1072376
180	0x3dc8731a	0.09787579
181	0xbe191b1f	-0.14951752
182	0x3e34af22	0.17644933
183	0xbdc24e3d	-0.09487579
184	0xbd31547d	-0.043293465
185	0xbdbef4a3	-0.093240045
186	0xbcc542d8	-0.024079725
187	0xbd8fceac	-0.070218414
188	0xbe0f8a35	-0.14017566
189	0x3b969518	0.00459541
190	0xbe2cda42	-0.16880134
191	0x3d92e557	0.07172649
192	0xbde3eeb0	-0.111295104
193	0x3e5a063a	0.21291438
194	0xbd66f8f8	-0.05638978
195	0x3d89215d	0.06695817
196	0x3a60f0ca	0.0008580802
197	0x3c779e03	0.0151133565
198	0xbbb7425f	-0.005592629
199	0xbd7f1723	-0.062277924
200	0x3d7b6c5b	0.061382633
201	0xbd824473	-0.06360712
202	0xbe2c1de0	-0.16808271
203	0x3c56880f	0.013093962
204	0xbe2e3390	-0.17011857
205	0x3d6e8c36	0.058239184
206	0x3e830c02	0.255951
207	0x3d10e811	0.035377566
208	0xbd8961eb	-0.067081295
209	0x3dc20290	0.09473145
210	0xbca60219	-0.020264672
211	0x3de97b29	0.11400444
212	0x3e2378d2	0.15964058
213	0xbd288540	-0.041142702
214	0xbc333775	-0.010938515
215	0xbd98f6f1	-0.07468975
216	0x3d4b663c	0.049658045
217	0xbdc53dc7	-0.09630924
218	0x3e2b4354	0.16724902
219	0x3e1cf3cb	0.15327375
220	0xbe145466	-0.1448532
221	0xbd0a9785	-0.033835907
222	0x3b96a01a	0.0045967223
223	0xbe48f202	-0.19623569
224	0x3d02b408	0.031909972
225	0xbd886abb	-0.06660982
226	0xbdf49ad4	-0.119435936
227	0x3d7b7d85	0.061399
228	0x3e1d63e8	0.15370142
229	0x3e32fe2e	0.17479774
230	0xbe6d2bc2	-0.23161224
231	0xbb5aad1a	-0.0033367337
232	0x3cc7eb2e	0.024404135
233	0x3ca85ca8	0.020551994
234	0x3e122d41	0.14275075
235	0xbd320d1b	-0.04346953
236	0xbdd70495	-0.10498921
237	0xbe15635f	-0.14588688
238	0x3e3c70a1	0.1840234
239	0x3e7111f6	0.23542008
240	0xbdd6ad9f	-0.10482334
241	0x3e21e9dd	0.15811868
242	0xbd8ee1f5	-0.06976692
243	0x3d3d0553	0.046147656
244	0x3e65dd97	0.22447811
245	0xbd8f49bd	-0.06996486
246	0x3d786507	0.060643222
247	0x3cf58fb7	0.029975755
248	0xbd6d6d5d	-0.057965625
249	0xbe2ec3e4	-0.17066914
250	0x3da23d2d	0.079218246
251	0xbdb80365	-0.089850225
252	0x3e3ff40e	0.18745443
253	0xbd8880c0	-0.06665182
254	0xbd689ba5	-0.05678906
255	0xbdc20d77	-0.094752245

bias f4 [128]
0	0x39f73587	0.00047151392
1	0xba92bc5a	-0.0011195049
2	0xba43bb18	-0.0007466539
3	0x39d0d6d4	0.0003983291
4	0x37757087	1.4629338e-05
5	0x3ac2adda	0.0014852837
6	0x3b091680	0.0020917952
7	0xba95c7e9	-0.0011427376
8	0x3afe005f	0.0019378773
9	0xbab67237	-0.0013919537
10	0xba9e971d	-0.0012099479
11	0x3a10b1fa	0.00055196846
12	0xba24c3eb	-0.00062852976
13	0x3963e578	0.00021733891
14	0xb9dfc754	-0.00042682386
15	0xba889aec	-0.0010422147
16	0xb9ea1d16	-0.0004465363
17	0xbb80b859	-0.003928226
18	0xbaa8d787	-0.0012881615
19	0x38a8fc94	8.0579106e-05
20	0x3a518285	0.0007992166
21	0xb9bf1d29	-0.00036452085
22	0xb8a79cf4	-7.992415e-05
23	0xbae0e096	-0.0017156776
24	0x3a9b2be3	0.0011838641
25	0x3915da50	0.00014291075
26	0xba5dc9cc	-0.0008460551
27	0x3a44a928	0.0007502013
28	0xba163133	-0.0005729377
29	0xbaed5768	-0.0018107714
30	0x3ad8dbc6	0.001654499
31	0x398cc7ef	0.00026851843
32	0x39dcedb3	0.0004213877
33	0xb85ffa75	-5.34006e-05
34	0x3a0b3bf7	0.00053113647
35	0x3a67db52	0.0008844632
36	0x3a87ae1c	0.0010351571
37	0xba2601e8	-0.00063326815
38	0xba02b10d	-0.0004985489
39	0xbb3afaa2	-0.0028530736
40	0x3ae13a81	0.0017183573
41	0xba0f17e0	-0.0005458575
42	0xba08cef6	-0.0005218828
43	0x3851a889	4.9986444e-05
44	0x3b000c11	0.0019538442
45	0xb9757bc2	-0.00023411124
46	0xba5a6648	-0.0008331281
47	0xba3b8b13	-0.00071542076
48	0xbb5d2408	-0.00337434
49	0x38cf7039	9.891432e-05
50	0x3a9a2098	0.0011758981
51	0xb9f25356	-0.00046219927
52	0x392c769c	0.00016447384
53	0xb9f4bf30	-0.00046681752
54	0xbac023f0	-0.0014659148
55	0xb96444e3	-0.00021769437
56	0x3a5341f6	0.000805884
57	0x3ad8bfe2	0.0016536678
58	0x39a4d2d2	0.0003143759
59	0x3a0e8234	0.0005436272
60	0xba939355	-0.0011259118
61	0xb7860378	-1.597566e-05
62	0xba407e9b	-0.00073430844
63	0x39df1a7e	0.00042553613
64	0xba9d8592	-0.0012017956
65	0xbb07505f	-0.002064727
66	0xbadf4259	-0.0017033323
67	0x385ca1a2	5.260262e-05
68	0xb77037fa	-1.4318148e-05
69	0x38e377cc	0.000108465174
70	0xba22d297	-0.000621119
71	0x3a3f2acb	0.00072924484
72	0x380c6fea	3.348283e-05
73	0xbb2ba291	-0.0026189426
74	0x39beda4e	0.00036402274
75	0xba7a687d	-0.0009552313
76	0x3a1f7590	0.0006082887
77	0xba90c47b	-0.0011044884
78	0xba988fcd	-0.0011639536
79	0xbb441bc8	-0.0029923785
80	0x3789448e	1.6363596e-05
81	0x36a46a4e	4.8999564e-06
82	0xbb5a5cfd	-0.0033319585
83	0xbb1b3685	-0.002368362
84	0xb92cdada	-0.00016484727
85	0xbb0d8bd9	-0.0021598248
86	0xba4995fc	-0.0007689891
87	0xba6e70a7	-0.0009095766
88	0x3a4af6a8	0.0007742443
89	0x3a23d002	0.0006248952
90	0xb901bab8	-0.00012371957
91	0xba62360c	-0.00086292694
92	0xba9a8a3b	-0.0011790463
93	0x3a8822ac	0.001038631
94	0x3a6245c5	0.0008631612
95	0xbafc5213	-0.0019250534
96	0xb9b8c549	-0.00035242204
97	0x3a3749a5	0.000699187
98	0xbb37fb16	-0.0028073243
99	0xb9d5850d	-0.00040725656
100	0xbaae4db4	-0.0013298304
101	0xbacace51	-0.0015472864
102	0xbaf6f8d5	-0.0018842468
103	0xb9e7e03e	-0.00044226827
104	0x39adbf44	0.00033139635
105	0xba084a5b	-0.0005199068
106	0xbaf668ed	-0.0018799581
107	0xba3c71d6	-0.0007188594
108	0x3abaab6a	0.0014241759
109	0xb9322166	-0.00016987845
110	0xba7bc886	-0.00096047705
111	0x3a998267	0.0011711837
112	0xb99d2c74	-0.00029978494
113	0xb8d79805	-0.00010280315
114	0xb9aa3c72	-0.00032469962
115	0xbab32bcc	-0.0013669669
116	0xba5bfe2f	-0.00083920633
117	0xbac06bdf	-0.0014680586
118	0x3a3cbef1	0.00072000833
119	0xb8e277cf	-0.00010798836
120	0xbaf8bc3d	-0.0018976998
121	0xbaecc65d	-0.0018064488
122	0xba321101	-0.0006792695
123	0x3a08442a	0.00051981455
124	0xb7369444	-1.0882566e-05
125	0x39ea5488	0.0004469494
126	0x3ad548de	0.0016272326
127	0xb9b2a7b5	-0.00034075757

weight f4 [263, 128]
0	0xbd58a50a	-0.05289177
1	0x3d75ae83	0.05998088
2	0xbcf3fe4f	-0.02978435
3	0xbdb32f53	-0.08749261
4	0xbd64fd02	-0.05590535
5	0x3bfbfbe1	0.0076899384
6	0x3d69ec21	0.057109956
7	0x3bc0ebc0	0.0058874786
8	0xbd107428	-0.035267025
9	0xbd1b907e	-0.037979595
10	0xbdcecf38	-0.100981176
11	0x3d1a2b4e	0.037638955
12	0x3d34721e	0.044054143
13	0xbc8fca49	-0.017552512
14	0xbdcbc4ad	-0.09949622
15	0x3d04d37d	0.032428253
16	0x3c5ec740	0.01359731
17	0xbd4d55c1	-0.05013061
18	0xbda92009	-0.08258063
19	0xbb7d12e4	-0.0038615996
20	0x3c8aa513	0.016924417
21	0x3d617ddf	0.05505168
22	0xbd74f65c	-0.05980526
23	0xbc01e2a9	-0.007927575
24	0xbc80f715	-0.015742818
25	0x3d8c9b25	0.06865529
26	0xbd4e6c7d	-0.05039643
27	0x3c3f959f	0.011693387
28	0xbb15dbee	-0.0022866684
29	0x3c7197cb	0.014745663
30	0xbc12cf3a	-0.0089605395
31	0x3bf222d5	0.007389406
32	0x3c5fc74c	0.013658356
33	0xbcd164bc	-0.02556073
34	0xbd0d7b51	-0.03454143
35	0xbd968a5c	-0.07350609
36	0x3c0a9b39	0.0084598595
37	0x3d04dd5a	0.03243766
38	0x3cd04b16	0.025426429
39	0xbc6b841c	-0.014374759
40	0x3d401df3	0.04690356
41	0xbbd51d97	-0.0065037715
42	0xbdb1985c	-0.08671638
43	0x3d4f8ae4	0.050669566
44	0xbd40296d	-0.046914507
45	0x3d422b6f	0.047404703
46	0xbcc85ae4	-0.024457403
47	0x3c675443	0.014119211
48	0x3ab87625	0.0014073296
49	0xbc3b716b	-0.011440615
50	0x3d1636dc	0.03667341
51	0xbc88f1ce	-0.016716864
52	0x3d289ece	0.041167073
53	0xbc677951	-0.014128045
54	0xbb862336	-0.004093553
55	0x3cd8dc2a	0.02647217
56	0xbc902c4d	-0.01759925
57	0xbd75baa1	-0.059992436
58	0x3c0c3b75	0.008559098
59	0xbb8d15fa	-0.0043055983
60	0xbc9ad4de	-0.018900331
61	0xbd62a81d	-0.055336107
62	0xbd2cef37	-0.04222032
63	0xbdbe949d	-0.093056895
64	0x3c74faa6	0.014952337
65	0xbdaf03b1	-0.08545626
66	0xbc422cc0	-0.01185149
67	0x3d3b7bfd	0.04577254
68	0xbda1a773	-0.078932665
69	0x3cb6efff	0.022331236
70	0x3ca755ef	0.020426719
71	0x3c6d4853	0.0144825755
72	0xbb1b6507	-0.002371134
73	0x3bdbdf22	0.006709949
74	0x3c346e33	0.011012602
75	0x3c26b4fa	0.010174984
76	0x3c3365b7	0.010949544
77	0xbcfa3cd1	-0.030546578
78	0x3b2aeee9	0.0026082343
79	0xbcab95f3	-0.020945525
80	0xbd364df9	-0.044507954
81	0xbc80d287	-0.015725387
82	0x3c9abe44	0.018889554
83	0xba7a851e	-0.0009556579
84	0x3c7261a9	0.014793792
85	0xbd23c86a	-0.03998605
86	0x3d01925e	0.031633727
87	0x3c61db68	0.013785221
88	0xbd4a0a05	-0.04932596
89	0x3cfbaf08	0.03072311
90	0x3b8c624f	0.0042841802
91	0x3d250354	0.040286377
92	0xbd62827b	-0.055300217
93	0xbb09e6bc	-0.002104207
94	0xbd3da11d	-0.046296228
95	0xbca3d07c	-0.019996874
96	0x3bb3f81c	0.0054922234
97	0xbda19d29	-0.07891304
98	0xbd00f19f	-0.031480428
99	0xbc3089b9	-0.010775023
100	0xbd11bb90	-0.035579264
101	0xbcf60abb	-0.030034414
102	0x3d04820d	0.03235059
103	0x3aa8614f	0.0012846383
104	0xbd517caf	-0.0511443
105	0xbd38a06e	-0.045074873
106	0xbd897364	-0.06711462
107	0x3d5ad789	0.053428207
108	0x3d4dceda	0.050246097
109	0xbd23357c	-0.03984593
110	0xbc613f48	-0.013747998
111	0xbbdd1715	-0.0067471364
112	0x3c85518b	0.016274234
113	0x3bccdc64	0.0062518585
114	0xbcf9ae16	-0.030478518
115	0xbc07d121	-0.008289606
116	0xbdd9d4da	-0.10636301
117	0xbc063e99	-0.008193635
118	0x3c04f80e	0.0081157815
119	0x3d1856cf	0.037192162
120	0xbd4ca8b8	-0.04996559
121	0xbd60fa59	-0.05492625
122	0x3c9c75d8	0.019099161
123	0x3cc123ce	0.023576643
124	0xbcf63677	-0.030055268
125	0x3c5b06b5	0.013368298
126	0x3cba4ca1	0.022741618
127	0x3b21f0d1	0.0024710188
128	0xbcfde67b	-0.03099369
129	0x3d47fb10	0.048823416
130	0x3c68a6d9	0.014199936
131	0xbd29ddd9	-0.041471336
132	0xbc1b176a	-0.009466032
133	0x3cb3f48a	0.021967191
134	0xbc633c23	-0.013869318
135	0x3d0a2486	0.033726238
136	0xbd1be179	-0.038056824
137	0xbd01ec5b	-0.031719547
138	0x3c43bd32	0.011946963
139	0x3d94428e	0.07239257
140	0x3d2c2acc	0.042033
141	0xbd3df9a5	-0.046380658
142	0xbbfb64b1	-0.0076719155
143	0x3d8c0423	0.068367265
144	0xbce10bb4	-0.0274714
145	0xbd3d5952	-0.04622776
146	0xbafac13d	-0.0019131076
147	0x3ccca2c2	0.024979953
148	0x3c282b94	0.010264296
149	0x3b2183cc	0.0024645207
150	0x3da8a429	0.08234436
151	0x3bb52925	0.0055285865
152	0xbc5b96e5	-0.013402675
153	0x3c0d84fa	0.008637661
154	0x3cf81eec	0.030288182
155	0x3c039f6d	0.008033616
156	0xbc11b9a3	-0.008894357
157	0x3c23b688	0.009992249
158	0x3cbc7b0d	0.023007894
159	0x3cdfc970	0.027317733
160	0x3cc5d09d	0.024147326
161	0x3b2a1b5c	0.002595625
162	0x3d40593f	0.04696011
163	0xbd84986a	-0.06474383
164	0x3bec4ca0	0.007211283
165	0xbd2b6ad6	-0.041849934
166	0x3cb5e774	0.022205092
167	0xbd65bbcd	-0.056087304
168	0x3cf502ba	0.029908527
169	0xbce1aeb9	-0.027549135
170	0xbd470bd8	-0.04859528
171	0xbcbe3fb3	-0.023223734
172	0xbd214616	-0.03937348
173	0x3c148f35	0.009067346
174	0x3d3d1d3d	0.046170462
175	0xba9a67ce	-0.0011780204
176	0x3bf05217	0.0073340046
177	0xbccb6ab0	-0.024831146
178	0xbd028760	-0.031867385
179	0x3c5b3bf8	0.013380997
180	0x3c8e1473	0.017343735
181	0xbd018900	-0.031624794
182	0x3c4493ea	0.011998156
183	0xbc2c1dba	-0.010505134
184	0xbd25c230	-0.040468395
185	0xbd4d98b1	-0.050194446
186	0x3ccf6bd2	0.025319967
187	0x3d197286	0.037462734
188	0xbc3a4b70	-0.011370525
189	0x3d1547cb	0.03644542
190	0xbc0ed4ef	-0.0087177595
191	0xbd5ebaa3	-0.05437721
192	0x3c81722e	0.015801515
193	0x3d74d665	0.059774775
194	0xb9b576d0	-0.00034611532
195	0xbc312383	-0.010811689
196	0xbd3e06ca	-0.046393193
197	0xbca87244	-0.020562299
198	0xbcbbb9d4	-0.022915758
199	0x3b929572	0.0044733817
200	0xbd23bf12	-0.03997714
201	0xbc59c495	-0.013291498
202	0x3d416131	0.04721183
203	0xbd82cd8d	-0.06386862
204	0x3cfc794d	0.03081956
205	0xbbfd202d	-0.007724783
206	0x3b04229b	0.0020162228
207	0x3c254569	0.010087349
208	0x3cd38a65	0.025822828
209	0x3d335340	0.043780565
210	0x3d420955	0.04737218
211	0xbc55174d	-0.013006044
212	0xbda22331	-0.079168685
213	0xbdb75b63	-0.089529775
214	0x3ccee3cd	0.025255108
215	0x3c9d7205	0.019219408
216	0xbd97f1d4	-0.07419172
217	0x3ba85be2	0.0051379064
218	0x3c3816ab	0.011235873
219	0x3d176835	0.036964614
220	0xbd3aaff0	-0.045577943
221	0x3bf9203f	0.007602721
222	0xbd83ab0e	-0.064291105
223	0x3d1fda5a	0.039026596
224	0xbd677c42	-0.056514986
225	0xbc6b444f	-0.014359548
226	0xbc63add5	-0.013896425
227	0xbbb374dd	-0.0054765777
228	0xbd945e0b	-0.072445
229	0xbd681878	-0.05666396
230	0x3bf74d31	0.0075470437
231	0xbcd47558	-0.02593486
232	0xbcba0b35	-0.022710422
233	0xbdf3592e	-0.11882244
234	0xb955a3b5	-0.00020374249
235	0x3d8a48eb	0.06752189
236	0x3c625f74	0.013816703
237	0xbc81184d	-0.015758658
238	0xbc051392	-0.008122342
239	0xb9b6eb14	-0.00034888892
240	0xbc4bb36c	-0.012432914
241	0x3b57e03e	0.0032940055
242	0xbcf9c55d	-0.030489618
243	0xbba9f049	-0.005186115
244	0xbd7a9460	-0.061176658
245	0xbc25d26d	-0.01012097
246	0x3cdd5b90	0.0270212
247	0x3d0a69d7	0.033792343
248	0xbc62b80a	-0.013837824
249	0xbc46708f	-0.012111797
250	0x3d23dd27	0.04000583
251	0xbd8cca8d	-0.06874571
252	0xbcbc4fb3	-0.022987222
253	0x3d3c8487	0.046024825
254	0x3ccfde15	0.025374452
255	0xbc59b922	-0.013288768
