serology/results_intermediate_encoders_2/models/5fold/decoder_human_4.pt (torch, 38799 bytes, 7 tensors)

weight f4 [64]
0.7814221 0.704899 0.9048839 0.80922204 0.9684158 0.874524 0.730529 0.8866219
0.77016014 0.8656265 0.8680195 0.8390749 0.83365947 0.8790647 0.8216721 0.7266039
0.95967007 0.72996694 0.8077791 0.75595933 0.80123985 0.7652004 0.8083028 0.7944155
0.7129648 0.72812504 0.9192206 0.7858641 0.8015086 0.8456329 0.7187504 0.7821084
0.71529764 0.90379316 0.8551246 0.83489656 0.8590523 0.7686669 0.6398233 0.7660144
0.867876 0.6901242 0.8213921 0.8110209 0.8339578 0.71438795 0.7844116 0.7893607
0.7010486 0.8690567 0.7183258 0.7295525 0.774902 0.8262608 0.937403 0.76479435
0.80829823 0.8410133 0.9242512 0.8720745 0.7813245 0.886304 0.73918504 0.8666459
00000000: 470b 483f 4374 343f 79a6 673f 2d29 4f3f
00000010: 19ea 773f cee0 5f3f f303 3b3f a7f9 623f
00000020: 3729 453f b399 5d3f 8736 5e3f 9dcd 563f
00000030: b56a 553f 620a 613f 1a59 523f b702 3a3f
00000040: f0ac 753f 1ddf 3a3f 9cca 4e3f 8d86 413f
00000050: 0e1e 4d3f 2ce4 433f efec 4e3f d05e 4b3f
00000060: dc84 363f 6766 3a3f 0b52 6b3f 642e 493f
00000070: ab2f 4d3f 667b 583f 0700 383f 4238 483f
00000080: bf1d 373f fd5e 673f 72e9 5a3f c8bb 553f
00000090: daea 5b3f 5bc7 443f 76cb 233f 8519 443f
000000a0: 1f2d 5e3f fbab 303f c146 523f 119f 4f3f
000000b0: 427e 553f 21e2 363f 33cf 483f 8b13 4a3f
000000c0: ec77 333f 807a 5e3f 33e4 373f f4c3 3a3f
000000d0: fa5f 463f d485 533f a5f9 6f3f 90c9 433f
000000e0: a2ec 4e3f a64c 573f ba9b 6c3f 4640 5f3f
000000f0: e204 483f d2e4 623f 3b3b 3d3f 81dc 5d3f

bias f4 [64]
-0.11165985 -0.09376908 -0.16588947 -0.16315877 -0.2345899 -0.1999005 -0.11042218 -0.24274598
-0.092561536 -0.14811617 -0.21444376 -0.19001149 -0.1412576 -0.18765014 -0.11693037 -0.09840568
-0.30590257 -0.0956603 -0.085229784 -0.10082044 -0.11347578 -0.15103579 -0.15753916 -0.20777339
-0.13046105 -0.079077244 -0.1325538 -0.14660557 -0.0615563 -0.17149034 -0.12270754 -0.15916562
-0.093254656 -0.14246607 -0.15886167 -0.1470161 -0.19072632 -0.19931157 -0.077683486 -0.13123581
-0.17894551 -0.063400626 -0.18780681 -0.13734575 -0.20035964 -0.07662174 -0.1308347 -0.1357163
-0.15432447 -0.17389418 -0.17555873 -0.09836572 -0.054605562 -0.17210877 -0.24118693 -0.1552182
-0.17252493 -0.15623108 -0.16714287 -0.15989539 -0.12522909 -0.15576169 -0.1535296 -0.1565908
00000000: ebad e4bd 010a c0bd eede 29be 1813 27be
00000010: 5638 70be b7b2 4cbe 0625 e2bd 6792 78be
00000020: e790 bdbd c4ab 17be 2597 5bbe 5f92 42be
00000030: d5a5 10be 5c27 40be 3179 efbd eb88 c9bd
00000040: 439f 9cbe 8ce9 c3bd f48c aebd f27a cebd
00000050: fd65 e8bd 20a9 1abe f251 21be 8cc2 54be
00000060: 9597 05be 40f3 a1bd 2fbc 07be c51f 16be
00000070: 7522 7cbd 2a9b 2fbe 174e fbbd 50fc 22be
00000080: 4cfc bebd a0e2 11be a2ac 22be 638b 16be
00000090: c34d 43be 5518 4cbe 8518 9fbd ae62 06be
000000a0: 7e3d 37be 30d8 81bd 6e50 40be 5da4 0cbe
000000b0: 142b 4dbe dceb 9cbd 88f9 05be 37f9 0abe
000000c0: 3c07 1ebe 5111 32be abc5 33be f773 c9bd
000000d0: 15aa 5fbd 483d 30be b5f9 76be 85f1 1ebe
000000e0: 60aa 30be 0afb 1fbe 8027 2bbe 9ebb 23be
000000f0: 0e3c 00be fe7f 1fbe dd36 1dbe 5759 20be

running_mean f4 [64]
-0.29370788 -0.10150234 0.049984563 0.009126591 -0.036793865 -0.095291406 -0.2555905 0.083747
-0.2083778 -0.02352671 -0.2597095 -0.21067259 -0.31711122 0.07406991 -0.09649616 -0.19973385
0.21612926 -0.117657214 0.033188295 -0.08949177 0.42102322 -0.21494424 -0.26837876 -0.09547207
0.022368532 -0.15713237 -0.008507168 -0.19921765 -0.088506326 -0.12890184 -0.11944281 0.005768561
-0.13239674 0.009045421 -0.034287605 -0.084323466 0.2032021 -0.062787235 0.03387564 -0.45434758
-0.04722095 -0.15309773 -0.088448316 0.0039121 0.030788809 -0.14831762 -0.2296799 -0.20611362
-0.3680229 0.15718666 -0.2747764 0.0015316717 -0.075465806 0.12646812 -0.11359555 0.33497
0.043773353 0.10725989 -0.13223855 -0.032870326 -0.13594338 0.09644359 0.02251583 -0.14717828
00000000: e160 96be 75e0 cfbd 9dbc 4c3d b287 153c
00000010: 2ab5 16bd 2428 c3bd c2dc 82be 8c83 ab3d
00000020: fd60 55be 16bb c0bc a5f8 84be 8eba 57be
00000030: 675c a2be f7b1 973d c79f c5bd 0887 4cbe
00000040: fd50 5d3e 44f6 f0bd 73f0 073d 7647 b7bd
00000050: 5b90 d73e 581a 5cbe f168 89be dc86 c3bd
00000060: 363e b73c 4fe7 20be a661 0bbc b6ff 4bbe
00000070: ce42 b5bd d8fe 03be 6f9e f4bd 3206 bd3b
00000080: 0393 07be 3f33 143c 2971 0cbd c8b1 acbd
00000090: 3614 503e 9896 80bd 2fc1 0a3d 3fa0 e8be
000000a0: c16a 41bd a7c5 1cbe 6424 b5bd 1331 803b
000000b0: d038 fc3c 93e0 17be 3531 6bbe 730f 53be
000000c0: 7f6d bcbe 8af5 203e 7eaf 8cbe 60c2 c83a
000000d0: d18d 9abd dc80 013e c9a4 e8bd 3081 ab3e
000000e0: b04b 333d 13ab db3d 8b69 07be 09a3 06bd
000000f0: be34 0bbe 3884 c53d 1e73 b83c e7b5 16be

running_var f4 [64]
3.9794998 0.87784 0.8662726 0.72907865 0.8880994 0.877698 1.4592263 0.91509587
0.9825711 0.54143703 0.71902734 0.6565437 1.9343634 1.1247059 2.4714665 1.0019519
1.4139625 0.44195345 4.3172183 3.218708 2.0206165 1.7797767 1.0508697 0.8493656
3.7139297 4.273886 0.9847916 0.566806 4.184794 0.6869282 3.3880749 0.7083984
1.7036338 1.1369784 0.9728269 0.9765253 1.2258586 0.8289008 1.2545462 2.0594752
0.9044356 1.8012118 1.1339606 0.926691 0.83469945 1.8931715 1.5164648 4.6720133
1.2678131 0.48246166 1.4754694 0.85204005 1.170419 1.7992574 0.3095086 1.0893134
1.2120467 0.6942626 0.564312 0.63704276 2.4687195 0.7381136 1.6936148 1.6267169
00000000: 20b0 7e40 1fba 603f 0bc4 5d3f e6a4 3a3f
00000010: 7b5a 633f d1b0 603f edc7 ba3f b943 6a3f
00000020: c889 7b3f 9e9b 0a3f 2d12 383f 3f13 283f
00000030: 3899 f73f 5df6 8f3f 822c 1e40 f63f 803f
00000040: b9fc b43f b947 e23e a726 8a40 50ff 4d40
00000050: c851 0140 b9cf e33f e682 863f 0670 593f
00000060: 06b1 6d40 adc3 8840 4d1b 7c3f 331a 113f
00000070: d5e9 8540 87da 2f3f 38d6 5840 9959 353f
00000080: ac10 da3f 8288 913f 2f0b 793f 90fd 793f
00000090: efe8 9c3f d832 543f f894 a03f 71ce 0340
000000a0: 1789 673f 1c8e e63f 9f25 913f 9f3b 6d3f
000000b0: ddae 553f 7253 f23f 851b c23f 2281 9540
000000c0: b347 a23f 3705 f73e 2edc bc3f 4c1f 5a3f
000000d0: 4ad0 953f 114e e63f e977 9e3e 9f6e 8b3f
000000e0: 5924 9b3f 32bb 313f c076 103f 3c15 233f
000000f0: 80ff 1d40 03f5 3c3f 5fc8 d83f 4238 d03f

weight f4 [64, 32]
-0.09896308 -0.103131495 0.07011009 0.019454816 -0.17966202 -0.16779365 -0.16307491 -0.2328961
0.051887292 -0.07166616 -0.2001036 -0.20369798 0.19090572 0.16484456 -0.058487948 0.11454747
0.14885196 -0.12129308 -0.040880628 -0.12128069 -0.10421472 0.26976797 -0.02831176 0.020744089
0.09239936 0.22469695 0.061322026 -0.21158561 0.08078373 -0.15343401 0.090834565 0.019344036
0.20008276 -0.13259307 -0.1993644 -0.22424471 -0.07814713 -0.19301967 -0.19889592 -0.16419645
0.08101056 0.06901878 0.036279697 -0.00091049983 -0.109044 -0.125523 0.15977816 0.1613891
-0.17835787 0.024762416 -0.044932216 0.021159627 0.0068004546 -0.094706066 -0.18049748 -0.21239805
-0.036910657 -0.042932693 -0.061240513 0.08007383 0.1374414 -0.016319718 0.20788546 0.30192614
0.08369434 -0.1612881 0.023367219 -0.25774205 -0.00092502544 0.0081500495 0.115875 -0.08036189
-0.20839003 -0.023363153 0.046647932 0.16728781 0.04071218 -0.06955686 -0.06856244 -0.16066466
0.08411632 0.22184603 0.25438643 0.22103925 0.117407985 0.06612332 0.12071894 -0.13258667
0.09620087 0.17467663 -0.08072693 0.1204022 0.13958889 0.17732178 -0.20063412 -0.20848216
0.16727084 0.0951764 -0.105972685 0.07844788 0.16183281 -0.08171484 0.14374892 0.107214
0.04434681 -0.007470988 -0.01246325 -0.01363978 0.10257758 -0.13848442 0.026569027 0.004349065
-0.049869236 -0.26398486 -0.08495619 0.10240994 0.101742454 0.07728688 0.20427786 0.1281685
0.14712523 -0.034542516 0.13035768 -0.13179098 -0.02774765 -0.04480157 -0.02960623 0.27221307
0.058351398 -0.12635729 -0.10410218 -0.2672647 -0.009261702 0.094305724 -0.008140723 0.103956036
0.17110416 -0.02082587 0.18339981 -0.081293926 0.030914243 0.2832262 0.21419676 0.06388666
0.06258676 0.19625266 -0.08128656 -0.285486 -0.08841168 0.019941628 0.13295755 -0.13560148
0.18796319 0.08052336 0.18931124 0.07553023 0.06592214 -0.04076043 0.1419023 0.11645286
0.054394644 0.18945625 -0.13703781 -0.042961396 0.0010136234 0.02536195 0.38534385 -0.17201188
0.082104824 -0.10380798 0.12449294 -0.20723382 0.0076981382 0.3291892 0.22119285 -0.186553
0.072697304 -0.23483376 -0.13885736 -0.29492843 0.12422924 -0.120301634 0.077794515 0.15701991
0.13809042 0.27061036 -0.016106343 0.09250115 0.26220044 -0.020169068 0.18754472 -0.122951224
-0.14096706 -0.21841277 0.066877976 -0.066981755 -0.19359629 0.06999863 -0.1854201 -0.20015772
0.041176274 0.14072722 -0.026184024 -0.050524324 -0.066476345 0.06788262 -0.045718055 0.0650715
-0.0190396 0.30004704 0.008451818 0.20843422 -0.17203987 -0.2851872 0.20798501 -0.10381405
0.15059417 0.16523394 0.21266161 0.06400302 0.08588409 0.019031638 0.055634227 -0.17625165
0.01050921 0.0016596437 -0.20293206 0.10660611 0.14052941 0.080821514 -0.22480619 0.06518949
0.09426868 -0.15728429 -0.04080026 0.057911932 -0.09957087 0.06995788 0.20884079 0.22283395
-0.20161484 0.036875136 -0.023874663 -0.22789344 0.0716557 -0.12122997 0.1663267 -0.15358382
-0.056043908 0.011548719 0.13769038 0.018392242 0.015757306 0.24156988 0.017914608 -0.09631653
00000000: 28ad cabd 9b36 d3bd e195 8f3d b55f 9f3c
00000010: 52f9 37be 19d2 2bbe 1cfd 26be 517c 6ebe
00000020: c587 543d b5c5 92bd f5e7 4cbe 3496 50be
00000030: ca7c 433e 03cd 283e 0f91 6fbd dd97 ea3d
00000040: a66c 183e 8268 f8bd 7272 27bd 0362 f8bd
00000050: 876e d5bd 071f 8a3e 10ee e7bc 82ef a93c
00000060: e03b bd3d f516 663e ce2c 7b3d e6a9 58be
00000070: f171 a53d ce1d 1dbe 7907 ba3d 6277 9e3c
00000080: 7fe2 4c3e 7ac6 07be 2e26 4cbe 68a0 65be
00000090: 9a0b a0bd f3a6 45be 5fab 4bbe 1d23 28be
000000a0: dde8 a53d b859 8d3d 059a 143d 9cae 6eba
000000b0: 7652 dfbd 1a89 00be e39c 233e 2f43 253e
000000c0: 72a3 36be 8dda ca3c d80a 38bd f456 ad3c
000000d0: 59d6 de3b 41f5 c1bd 55d4 38be e07e 59be
000000e0: a12f 17bd 31da 2fbd 55d7 7abd c0fd a33d
000000f0: 70bd 0c3e eeb0 85bc eddf 543e 1096 9a3e
00000100: f067 ab3d b528 25be 9c6c bf3c c4f6 83be
00000110: 687d 72ba c987 053c df4f ed3d c694 a4bd
00000120: 3264 55be 1564 bfbc e711 3f3d 7f4d 2b3e
00000130: d1c1 263d d473 8ebd 776a 8cbd 4785 24be
00000140: 2d45 ac3d 9b2b 633e f03e 823e 1d58 623e
00000150: 9973 f03d aa6b 873d 7e3b f73d cdc4 07be
00000160: f604 c53d 6ede 323e 2954 a5bd 6e95 f63d
00000170: 64f0 0e3e d793 353e 0873 4dbe 597c 55be
00000180: 0c49 2b3e d8eb c23d 3508 d9bd 48a9 a03d
00000190: 80b7 253e 1c5a a7bd eb32 133e 0393 db3d
000001a0: 00a5 353d 31cf f4bb a932 4cbc 6279 5fbc
000001b0: 3214 d23d dcce 0dbe 4aa7 d93c 9a82 8e3b
000001c0: af43 4cbd 0629 87be 83fd adbd 4dbc d13d
000001d0: 595e d03d 9548 9e3d 372e 513e 9a3e 033e
000001e0: ffa7 163e 747c 0dbd 7c7c 053e 37f4 06be
000001f0: 0a4f e3bc da81 37bd c488 f2bc 835f 8b3e
00000200: e001 6f3d ce63 01be 8633 d5bd ebd6 88be
00000210: 65be 17bc 5c23 c13d ab60 05bc e7e6 d43d
00000220: ee35 2f3e 049b aabc 29cd 3b3e 6e7d a6bd
00000230: de3f fd3c 0603 913e 6556 5b3e 02d7 823d
00000240: 7d2d 803d 75f6 483e 9179 a6bd 392b 92be
00000250: 2f11 b5bd a05c a33c 0626 083e 1ddb 0abe
00000260: 6c79 403e 6ee9 a43d ceda 413e 98af 9a3d
00000270: 3002 873d 69f4 26bd d64e 113e d67e ee3d
00000280: ebcc 5e3d d200 423e a453 0cbe 4af8 2fbd
00000290: 8fdb 843a ddc3 cf3c ca4b c53e e223 30be
000002a0: 9326 a83d 4799 d4bd 28f6 fe3d 1a35 54be
000002b0: aa40 fc3b 7d8b a83e 6180 623e c007 3fbe
000002c0: 53e2 943d 4378 70be a030 0ebe dc00 97be
000002d0: e66b fe3d b460 f6bd bb52 9f3d d4c9 203e
000002e0: 9367 0d3e 718d 8a3e 73f1 83bc 3e71 bd3d
000002f0: 233f 863e 9a39 a5bc b90b 403e dacd fbbd
00000300: ab59 10be 99a7 5fbe 52f7 883d bb2d 89bd
00000310: 1b3e 46be 715b 8f3d c4de 3dbe 25f6 4cbe
00000320: 74a8 283d cc1a 103e e17f d6bc 98f2 4ebd
00000330: c024 88bd 0b06 8b3d db42 3bbd 3544 853d
00000340: eff8 9bbc c49f 993e 7e79 0a3c c86f 553e
00000350: 382b 30be 0f04 92be 06fa 543e 769c d4bd
00000360: 5c35 1a3e 1633 293e f7c3 593e 0414 833d
00000370: ffe3 af3d 3de8 9b3c b7e0 633d 507b 34be
00000380: d22e 2c3c 6788 d93a 6ccd 4fbe 4e54 da3d
00000390: f1e6 0f3e c085 a53d 9833 66be 1182 853d
000003a0: f00f c13d 220f 21be 2c1e 27bd 1035 6d3d
000003b0: d0eb cbbd 1446 8f3d 5cda 553e 952e 643e
000003c0: 1f74 4ebe 620a 173d cc94 c3bc e65c 69be
000003d0: 39c0 923d 6b47 f8bd 8c51 2a3e 1445 1dbe
000003e0: 4c8e 65bd d736 3d3c b5fe 0c3e 54ab 963c
000003f0: 7715 813c 185e 773e a8c1 923c 9a41 c5bd

bias f4 [64]
-0.00030812703 -0.0003512251 0.0007881455 -0.0004951505 0.0011091279 0.002033714 0.0011116159 0.00016893912
-0.0004530718 -0.00043596202 0.0007193661 -0.00074544933 -0.00013526528 -0.0008079981 0.00031796168 0.00011725437
-1.4134334e-05 0.0008206286 8.564758e-05 0.0006253186 6.94064e-05 -0.00038502336 -0.0010575652 0.0002934887
-0.00015147832 0.00014558347 9.6997566e-05 0.00079563045 -0.00046834175 0.00047201692 0.00018738839 0.0002772693
-0.00064794987 0.00048033535 -6.011543e-05 -0.0010514647 0.00085019256 -3.626757e-05 0.0010534426 -0.00045108184
0.00023916298 0.0003150275 -0.00055021787 0.0011829318 0.0011213397 -0.0002421615 -0.0006429371 0.00032463443
0.0002221784 -0.00010719121 3.4291093e-05 -0.00021134577 0.00017183312 0.00013560084 -0.0010075066 0.000992824
-0.0005815062 -0.0009895342 0.00048612469 -0.0008330838 -0.00012855652 3.8660983e-05 0.0011856294 0.00015455806
00000000: 1c8c a1b9 a324 b8b9 8d9b 4e3a fdcc 01ba
00000010: 2860 913a 0f48 053b a4b3 913a 4025 3139
00000020: 458a edb9 d591 e4b9 d793 3c3a 426a 43ba
00000030: ffd5 0db9 d6cf 53ba 18b4 a639 76e6 f538
00000040: 8122 6db7 741f 573a b29d b338 6cec 233a
00000050: 478e 9138 f6dc c9b9 009e 8aba 63df 9939
00000060: 27d6 1eb9 c4a7 1839 2c6b cb38 db91 503a
00000070: c48b f5b9 0a79 f739 b07d 4439 755e 9139
00000080: 2edb 29ba 85d5 fb39 7424 7cb8 4dd1 89ba
00000090: 75df 5e3a 021e 18b8 ab13 8a3a 2e7f ecb9
000000a0: d3c7 7a39 462a a539 7f3c 10ba 9b0c 9b3a
000000b0: ebf9 923a bcec 7db9 c78a 28ba b233 aa39
000000c0: 8ff8 6839 d8cb e0b8 c8d3 0f38 b39c 5db9
000000d0: 1a2e 3439 1330 0e39 500e 84ba a521 823a
000000e0: 3870 18ba 42b3 81ba 8dde fe39 4f63 5aba
000000f0: 21cd 06b9 ea27 2238 1f67 9b3a dd10 2239

weight f4 [99, 64]
-0.018161315 0.01689261 -0.004545134 0.16493252 -0.03857559 -0.042533103 -0.040045988 -0.030487984
-0.04930432 -0.10735521 -0.13757046 0.1915586 0.13875939 -0.10364255 -0.020000285 -0.02505989
-0.05365094 -0.047400266 -0.018979909 -0.025523711 0.007978643 0.07380413 -0.030413214 0.12793979
-0.01970895 -0.020506283 0.0045876577 -0.056722872 -0.026520578 0.013543654 -0.015565306 0.023191193
-0.0010738547 0.1100397 0.12845515 -0.03437156 -0.05214459 0.14887902 0.02299665 -0.040338516
0.05005784 -0.012511481 -0.08031217 0.0003555321 -0.039036505 -0.03221433 -0.03715904 -0.020102426
0.004294629 0.0077704885 0.10463502 -0.04596733 -0.006324005 -0.06212561 0.05632926 0.0029039131
-0.0010456104 0.059068453 -0.057485126 0.0029708205 -0.012645281 0.09253577 -0.004833077 0.018638112
-0.01196071 -0.009077605 0.1030643 -0.10501873 0.04995134 0.06955404 -0.030406572 -0.085599564
-0.008232067 -0.017582783 -0.017348286 0.08281109 0.011290839 -0.006769874 -0.019264068 -0.03756902
-0.018626973 0.07628373 -0.01359745 -0.014367038 -0.020442352 0.0091369795 0.15856665 0.18257211
-0.0024770864 -0.0466717 -0.123285614 -0.02679511 -0.008581137 -0.122442216 0.02701714 0.025790166
0.0059527257 -0.0025184068 -0.048865817 0.06109669 -0.030305944 0.087159894 -0.04256382 -0.01593344
-0.09739971 -0.018147383 0.04051565 -0.0645694 0.0017987858 -0.064810194 -0.0066922773 0.012132617
0.05638068 0.12347703 0.003982833 -0.013303502 -0.02631619 0.017028993 0.030450542 0.050311774
0.054594446 -0.07360005 -0.14863189 -0.041952197 -0.021206947 0.026077878 0.053858772 0.038600124
-0.0123357475 -0.070217036 0.037530746 0.0317251 0.052311692 0.09909023 -0.031228004 -0.068391025
-0.028638385 0.013044483 -0.06092139 0.023448953 0.0054080784 -0.027575556 -0.028806992 -0.08584943
-0.04103528 0.050574373 -0.017420204 -0.015222773 -0.015037671 0.03745676 0.13444518 0.08904579
-0.045297947 -0.042940527 -0.007603041 -0.014715975 -0.0114223575 -0.056633607 0.022791568 0.078340866
-0.055120625 0.09308809 -0.059386916 0.028548874 0.023850635 0.07441256 -0.049036562 -0.048674922
-0.11022305 -0.044155955 0.0023708204 -0.037457787 -0.036017824 -0.013935082 -0.038633488 -0.0048152674
0.07179246 0.10148346 0.070617124 -0.015765345 -0.03712651 0.046710692 -0.008850231 0.1179253
0.0501947 0.0338861 -0.0682256 -0.05214819 -0.027625453 -0.018121056 0.091821454 0.108514965
-0.012627015 -0.059681624 0.080369845 0.067205094 -0.07704295 -0.025352387 -0.006883156 -0.05190158
-0.001154063 0.057549268 0.05932548 0.05132472 0.042766243 0.08510707 0.006572559 -0.06469388
-0.020447856 -0.059660926 -0.0013362598 -0.0022537976 0.0023067335 0.09317911 0.050724275 0.052613884
-0.0096377 -0.004880593 0.008013525 0.0048577567 0.005122381 -0.12008599 0.09529923 0.117781036
0.0045834635 0.025576942 -0.08171386 0.04663219 0.118190095 0.10106627 -0.012429577 -0.025707267
-0.06320426 0.015423064 0.014772351 -0.034602977 -0.013458258 -0.025375566 -0.049294923 0.0046989517
0.1281565 -0.03812724 0.1337277 0.016461244 -0.030155987 0.050296366 -0.13303158 0.05688917
-0.020346286 0.01700855 0.021780606 0.076442786 -0.0012831248 -0.018030234 0.19372827 0.1185493
00000000: 0ac7 94bc 5f62 8a3c 59ef 94bb 12e4 283e
00000010: 7001 1ebd 3137 2ebd 4307 24bd f0c1 f9bc
00000020: 54f3 49bd 0cdd dbbd 45df 0cbe f027 443e
00000030: f116 0e3e 8c42 d4bd a3d7 a3bc 664a cdbc
00000040: 17c1 5bbd c826 42bd c17b 9bbc 1a17 d1bc
00000050: dbb8 023c 9f26 973d 2225 f9bc a602 033e
00000060: aa74 a1bc cbfc a7bc 1054 963b 3e56 68bd
00000070: af41 d9bc 34e6 5d3c a005 7fbc 75fb bd3c
00000080: 96c0 8cba 7f5c e13d bf89 033e 31c9 0cbd
00000090: 9195 55bd be73 183e 7863 bc3c 003a 25bd
000000a0: 7309 4d3d f4fc 4cbc b57a a4bd b666 ba39
000000b0: bee4 1fbd 2cf3 03bd 1434 18bd d8ad a4bc
000000c0: f6b9 8c3b 959f fe3b e34a d63d 3d48 3cbd
000000d0: 9939 cfbb 6c77 7ebd 83b9 663d 944f 3e3b
000000e0: dd0c 89ba c3f1 713d 8675 6bbd 19b2 423b
000000f0: 272e 4fbc 6583 bd3d ca5e 9ebb f4ae 983c
00000100: dbf6 43bc 3cba 14bc 6013 d33d 0f14 d7bd
00000110: c799 4c3d 5972 8e3d 3417 f9bc d34e afbd
00000120: cbdf 06bc c509 90bc fe1d 8ebc dc98 a93d
00000130: 36fd 383c d2d5 ddbb aecf 9dbc f9e1 19bd
00000140: 9897 98bc a53a 9c3d d7c7 5ebc ba63 6bbc
00000150: b876 a7bc 45b3 153c 4c5f 223e 2ff4 3a3e
00000160: 9d56 22bb d32a 3fbd 2b7d fcbd 6b81 dbbc
00000170: e697 0cbc fcc2 fabd 0d53 dd3c e645 d33c
00000180: 150f c33b db0b 25bb 8627 48bd 8640 7a3d
00000190: 2c44 f8bc e380 b23d 6657 2ebd d886 82bc
000001a0: 8079 c7bd d2a9 94bc bdf3 253d f63c 84bd
000001b0: 3cc5 eb3a 35bb 84bd e44a dbbb e2c7 463c
000001c0: 6eef 663d 86e1 fc3d 6d82 823b eff6 59bc
000001d0: 0d95 d7bc 6380 8b3c 6a73 f93c b813 4e3d
000001e0: 6d9e 5f3d 9fbb 96bd f532 18be 11d6 2bbd
000001f0: 31ba adbc 46a1 d53c 049b 5c3d 2a1b 1e3d
00000200: e01b 4abc f3cd 8fbd d7b9 193d 2ef2 013d
00000210: c944 563d d2ef ca3d dfd1 ffbc 9810 8cbd
00000220: 0c9b eabc 87b8 553c b588 79bd 0518 c03c
00000230: 4036 b13b 22e6 e1bc a4fc ebbc d3d1 afbd
00000240: 9c14 28bd 1327 4f3d d1b4 8ebc f068 79bc
00000250: 9060 76bc 426c 193d ffab 093e a45d b63d
00000260: 578a 39bd 68e2 2fbd ee22 f9bb 461b 71bc
00000270: d724 3bbc a4f8 67bd 62b5 ba3c 2d71 a03d
00000280: 2ac6 61bd f8a4 be3d b23f 73bd 54df e93c
00000290: 6862 c33c 9d65 983d 90da 48bd 5b5f 47bd
000002a0: 9fbc e1bd e0dc 34bd c45f 1b3b 566d 19bd
000002b0: 6d87 13bd f84f 64bc 263e 1ebd 64c9 9dbb
000002c0: ed07 933d 8fd6 cf3d b69f 903d 5326 81bc
000002d0: f811 18bd b653 3f3d 8f00 11bc d282 f13d
000002e0: f598 4d3d 27cc 0a3d ddb9 8bbd 5799 55bd
000002f0: c64e e2bc 9c72 94bc e30c bc3d 183d de3d
00000300: 8ae1 4ebc b874 74bd f298 a43d d3a2 893d
00000310: b2c8 9dbd cfaf cfbc 198c e1bb c096 54bd
00000320: ee43 97ba c8b8 6b3d 46ff 723d df39 523d
00000330: a82b 2f3d 9e4c ae3d 9f5e d73b 3a7e 84bd
00000340: 4382 a7bc 045f 74bd 7025 afba 73b4 13bb
00000350: 912c 173b b0d4 be3d 42c4 4f3d a881 573d
00000360: 72e7 1dbc 62ed 9fbb 294b 033c d12d 9f3b
00000370: a5d9 a73b a5ef f5bd 3e2c c33d 2f37 f13d
00000380: e130 963b bc86 d13c 9959 a7bd 6501 3f3d
00000390: a60d f23d d5fb ce3d 6da5 4bbc 0c98 d2bc
000003a0: 3c71 81bd 05b1 7c3c bb07 723c dabb 0dbd
000003b0: 0680 5cbc 6be0 cfbc 79e9 49bd aaf9 993b
000003c0: 753b 033e 4f2b 1cbd eaef 083e bbd9 863c
000003d0: b009 f7bc 9003 4e3d 6e39 08be 9e04 693d
000003e0: 41ad a6bc 8455 8b3c 3e6d b23c 098e 9c3d
000003f0: 862e a8ba 24b4 93bc b460 463e fac9 f23d
