serology/results_intermediate_encoders_2/models/5fold/decoder_primates_5.pt (torch, 157583 bytes, 7 tensors)

weight f4 [128]
00000000: 4968 763f 7a73 783f bd0e 583f 06eb 523f
00000010: be9c 6b3f 0517 7f3f 9f27 903f 485e 523f
00000020: 2532 8f3f 194a 653f cccf 5f3f b88c 843f
00000030: 4087 813f b275 763f 6b0f 6c3f e5da 7c3f
00000040: 8fa8 5f3f b6e2 743f eb1f 7f3f 18d1 6b3f
00000050: 2a1b 6d3f b7d5 4f3f 2117 833f b25a 5b3f
00000060: b1b6 5b3f 0ec7 823f e0ff 5a3f 196b 733f
00000070: f3ac 923f 2007 6a3f 568d 543f 3738 523f
00000080: 66cc 863f c55e 593f 70e5 5b3f bb9f 793f
00000090: b8e6 753f a87c 683f 68d2 733f 370a 5a3f
000000a0: 8c45 593f 1690 633f cf18 763f 7b40 763f
000000b0: 031e 6f3f 8da9 4b3f 718e 693f 7565 8c3f
000000c0: 50ae 673f 06b9 763f 0b49 7a3f 5e84 6f3f
000000d0: 79a4 773f eb80 7c3f 40f9 503f f951 863f
000000e0: 16ab 733f 8832 853f 8320 6d3f 50ae 6d3f
000000f0: cc23 4b3f b8d3 613f 7b52 8e3f e653 5f3f
00000100: ce5d 593f 1da4 793f 1c0a 593f 11a4 693f
00000110: 425e 853f 76f4 833f b4ad 623f 1b1f 803f
00000120: 1e63 713f f20d 763f 30a7 4f3f 17c7 5f3f
00000130: f2e7 733f ccd2 833f 0f84 7c3f 2198 713f
00000140: d019 883f 534e 833f a706 713f 14df 703f
00000150: a9bd 5f3f 0de5 603f d1c1 833f c373 753f
00000160: 23ef 783f edcb 823f db38 573f 16cb 6b3f
00000170: 50fa 5c3f a1e9 703f 0451 513f cccf 673f
00000180: 6089 643f 2556 5b3f c48a 553f 47a3 4d3f
00000190: 499c 493f 6735 6d3f 4e95 773f 6d22 713f
000001a0: 7305 503f 1616 793f 6215 893f a4d2 643f
000001b0: 370d 5e3f fb3e 833f 9caf 713f aad6 553f
000001c0: 2894 773f 148b 663f 7d15 4e3f 3a2d 8d3f
000001d0: 6217 613f 7123 7a3f 7eaa 593f 0726 783f
000001e0: c7a7 563f 59af 523f 2c09 773f 850d 6f3f
000001f0: 610f 853f b424 7c3f 2220 6c3f 0081 893f
0.96252877 0.97051203 0.8439749 0.8238987 0.92036045 0.996445 1.1262091 0.8217511
1.1187178 0.8956619 0.8742645 1.0355444 1.01194 0.9627334 0.92211026 0.98771507
0.87366575 0.95658433 0.9965808 0.92115927 0.92619574 0.8118548 1.0241433 0.85685265
0.8582564 1.0216997 0.85546684 0.95085293 1.145903 0.9141712 0.8302816 0.8211703
1.0531127 0.8491023 0.8589697 0.97509354 0.96055174 0.9081521 0.9524293 0.85171837
0.84871745 0.8889173 0.96131605 0.9619214 0.9340517 0.7955559 0.91232973 1.0968462
0.90500355 0.96376073 0.97767705 0.9356135 0.9673534 0.98634213 0.81630325 1.0493766
0.9518293 1.0406046 0.92627734 0.92844105 0.79351497 0.8821368 1.1118921 0.87237394
0.8490876 0.9751604 0.8478105 0.9126597 1.041939 1.0308979 0.885463 1.0009493
0.94291866 0.9611503 0.8111448 0.8741316 0.95275795 1.0298705 0.98639005 0.94372755
1.0632877 1.0258278 0.94150776 0.9409039 0.87398773 0.87849504 1.0293523 0.95879763
0.97239894 1.0218483 0.8407113 0.9210676 0.86319447 0.9410649 0.81764245 0.9055145
0.8927212 0.8567832 0.83414865 0.80327266 0.787541 0.9265961 0.96712196 0.94193155
0.81258315 0.97299325 1.070965 0.8938391 0.86738914 1.0253595 0.94408584 0.83530676
0.96710443 0.90055966 0.8050154 1.1029427 0.87926304 0.9771033 0.85025775 0.96933025
0.8384976 0.8229881 0.9649837 0.93380004 1.0395318 0.98493505 0.9223653 1.0742493

bias f4 [128]
00000000: b154 47be b64e bdbd cd90 73be df6e 21be
00000010: 56cb 42be 5bce 54be 1127 8fbe 553b 07be
00000020: 993e b5be fa4f fdbd 7ea7 70be 02d4 9bbe
00000030: af98 8fbe 638d 49be f4c0 35be c01a 56be
00000040: f854 50be 579e 39be d9f0 59be 5754 6abe
00000050: a099 01be 4f0e 35be 2bde 8dbe 3f17 28be
00000060: dd05 89bc 7d86 3dbe 0b51 83be 5fca 80be
00000070: ef3c 37be fdd8 3bbe a034 e7bd 9908 28be
00000080: bc4d 70be 2367 3fbe 9a44 17be 8bd2 6ebe
00000090: a108 1fbe 1595 02be b557 85be d849 d1bd
000000a0: 3791 24be 4168 f7bd 20f3 18be a586 73be
000000b0: 9125 4fbe c944 46be b607 29be 4d79 86be
000000c0: befe 18bd 82b9 68be 9736 7abe 69a9 81be
000000d0: 1e71 73be 4e5b 3bbe a692 00be ccb6 84be
000000e0: a295 2bbe 7ca8 95be 9c54 26be d3cc 93be
000000f0: 7913 66be 61a8 24be 1b9a a7be 46ea 40be
00000100: 7371 0bbe 6520 9cbe 5feb a6bd edae 63be
00000110: a3e6 18be ae25 15be 7552 5cbe 11dc 57be
00000120: 5689 4dbe 6db4 71be ac66 37be 9806 67be
00000130: 12dc 24be b14e b3be 9f53 63be b7db b3be
00000140: 429f 4fbe 2aab 03be 0774 94be 8bb2 2ebe
00000150: ce13 32be 2a1b ffbd 7f96 94be 6878 5cbe
00000160: 8b84 a9be d270 8dbe 0822 5ebe 6135 44be
00000170: 7b50 2fbe 7655 1fbe 5cfd 17be 6789 45be
00000180: 1b75 45be 1dd8 f5bd 4052 88bd 8c4f 18be
00000190: d206 2dbe 9c95 55be d876 64be 5cd5 66be
000001a0: 8791 debd 87bb 5cbe bdec 31be 7d52 14be
000001b0: 4357 05be 10f7 8ebe c0c0 5fbe 356b 54be
000001c0: f6d7 8ebe b6fb 3bbe 6387 4abd c624 7fbe
000001d0: fb16 18be ad98 6dbe 8954 09be 0471 dabd
000001e0: 1e4a cabd 39f9 ee3c 4e46 9abd 22a6 eabd
000001f0: cf93 8ebe b236 a5be 712e 74be 29e5 7fbe
-0.19465901 -0.092435285 -0.23785706 -0.1576495 -0.19022879 -0.20781843 -0.27959493 -0.13206227
-0.3539932 -0.1236877 -0.23501393 -0.30435187 -0.28046176 -0.19682841 -0.17749387 -0.20908642
-0.20344913 -0.18126808 -0.21283282 -0.22883736 -0.1265626 -0.1768124 -0.27708563 -0.16415118
-0.016726429 -0.18508334 -0.25647768 -0.25154397 -0.17894338 -0.18344493 -0.11289334 -0.1640953
-0.23467153 -0.18691687 -0.14772263 -0.23322503 -0.15530635 -0.12752183 -0.26043478 -0.10219163
-0.1607102 -0.12080432 -0.14936495 -0.23781832 -0.20229174 -0.19362177 -0.16506848 -0.2626442
-0.037352316 -0.22727016 -0.24434887 -0.25324562 -0.2377362 -0.18296549 -0.12555942 -0.25920713
-0.16756299 -0.29230106 -0.16243213 -0.28867206 -0.22468366 -0.16079856 -0.3273476 -0.18839368
-0.13617496 -0.30493465 -0.08150362 -0.22234698 -0.14931731 -0.14565155 -0.2151583 -0.21080042
-0.20071921 -0.23603983 -0.1791026 -0.22561109 -0.16099575 -0.35020974 -0.22199868 -0.35128567
-0.20275596 -0.12858263 -0.28994772 -0.17060296 -0.17390367 -0.12456353 -0.2902107 -0.21530306
-0.33108935 -0.27625138 -0.2169267 -0.19160987 -0.17120545 -0.15559945 -0.14842743 -0.19290696
-0.19282953 -0.12004111 -0.06656313 -0.14874095 -0.16897133 -0.20857853 -0.2231096 -0.22542328
-0.10867601 -0.21555911 -0.17375465 -0.14484592 -0.13021569 -0.2792287 -0.21850872 -0.20744021
-0.2789914 -0.18357739 -0.04944552 -0.24916372 -0.14852516 -0.23202772 -0.13411154 -0.10666087
-0.09877418 0.029171573 -0.07532941 -0.114574686 -0.27847144 -0.32268292 -0.23845841 -0.24989761

running_mean f4 [128]
00000000: 4a91 22be 0195 ee3c fd98 3a3d 720e ab3b
00000010: b66f 52bd 28a9 4cbd 6336 ccbd 6f94 123e
00000020: 0586 cb3a 2ae5 8a3c 1f05 593d a626 0e3d
00000030: 392e 04be 3469 cebd 4be4 533d d578 f7bd
00000040: bb93 233b 3bab 31be 70cf dcbd 830b 873c
00000050: 8e09 6b3d 766f 583e 618f cbbd 52ab 24be
00000060: b715 88bd a0c0 51be ff0f 333d 064f 92bd
00000070: 3aa6 1c3d 3f11 e5bd 9b93 11be f337 8a3d
00000080: 98f3 a5bd 3a74 fc3d ccf4 943d 7ba9 b0bd
00000090: 1cc5 93bd 347c 953d 9254 dabd d0cf 59bc
000000a0: eb3c 0cbd 5198 323d d136 9cbc d58b a43d
000000b0: c363 f6bc f7dc dbbd d6f1 13bd e2f1 7bbd
000000c0: 1f85 82bd c91d 98bc 6de9 0ebe 1c88 84bd
000000d0: 5369 98bd 74ca 0abe f44b ac3d 30b3 1ebd
000000e0: 1e5e ad3c e15d 9fbc de12 07bd fe14 c63d
000000f0: f1a9 f03d 8a7f 93bc b211 0e3c d453 0f3c
00000100: 6f26 d8bc ed02 d7bd 99b5 cab9 7fa5 bebd
00000110: d423 b7bd 3741 05be 137e 863d 4985 143d
00000120: fd51 febd b536 56bd b1c4 273e bef7 253d
00000130: 3708 ecbd f055 14bc 126f 97bd b6f9 9dbd
00000140: 7c62 81bd bfa1 01bd 142f df3d b209 52bd
00000150: 9cce d33d 5c0c 73bd 7f34 3f3d 1158 9abd
00000160: 01ca 11bd c620 dabd b454 3bbd 01d2 033d
00000170: 42de 0dbc 9502 b5bd ed23 b53d 08b5 c63b
00000180: 98e4 cfbd 74e9 d0bc ab9d bbbd ffa1 09be
00000190: aa1f a3bd c18c 493c 8977 2bbc 0d01 703d
000001a0: b3b0 323e 854f 5dbc c3ab 8abd 69be 29bd
000001b0: b5aa 503c 389d 8cbd 382e 15be f801 a4bd
000001c0: c62a 53bd 3754 cfbd e194 d0bd f039 cb3c
000001d0: db6e 28be 3b2a 3bbd d696 ad3d 6b90 03be
000001e0: 0786 e7bc f463 9f3c 0485 bdbd b2db eebd
000001f0: 1d2a a03c 54bd 7bbd f841 b3bd 555e f73c
-0.15875736 0.029123785 0.045556057 0.005220228 -0.051376067 -0.049966007 -0.09971311 0.14314435
0.0015527612 0.016954977 0.0529834 0.034704827 -0.12908258 -0.1007866 0.05173139 -0.12083594
0.002495988 -0.17350475 -0.10781753 0.016484981 0.05738216 0.21136269 -0.09939457 -0.16080979
-0.06644767 -0.20483637 0.043716427 -0.07143979 0.038244464 -0.1118493 -0.14216463 0.06748953
-0.081031024 0.12326856 0.07273254 -0.08626076 -0.0721533 0.072990805 -0.10660662 -0.013294175
-0.034237783 0.04360229 -0.019069107 0.08034483 -0.030076867 -0.10735505 -0.036119305 -0.061509974
-0.06373047 -0.01856889 -0.13956232 -0.06471273 -0.07441964 -0.13553792 0.084129244 -0.038745105
0.021163043 -0.019453945 -0.032976978 0.09671973 0.11751164 -0.018005151 0.008671211 0.0087480135
-0.026385514 -0.10498605 -0.00038663743 -0.093089096 -0.089423805 -0.13013159 0.065670155 0.036259923
-0.12417982 -0.052298266 0.16383626 0.04051947 -0.11525004 -0.009053692 -0.07394232 -0.07713644
-0.063176125 -0.031648394 0.10897651 -0.051278777 0.10342142 -0.05933796 0.046680924 -0.075363286
-0.035593037 -0.10650782 -0.045735076 0.032182697 -0.008658947 -0.08838383 0.08844743 0.006064061
-0.10151023 -0.025501944 -0.09160932 -0.13440703 -0.07965024 0.012301625 -0.010465511 0.058594752
0.17450218 -0.013507728 -0.06771042 -0.041441355 0.012736012 -0.068659246 -0.14568412 -0.08008188
-0.051554464 -0.101234846 -0.101846464 0.0248079 -0.16448538 -0.04569457 0.08476035 -0.1284806
-0.028262151 0.019456841 -0.09253886 -0.11662997 0.019551331 -0.061459854 -0.08752817 0.030196348

running_var f4 [128]
00000000: 15e7 263f 2ca7 e23e f15c ed3f 7f6e 4b3f
00000010: 8769 133f c3cb d63e 9d71 973f e07f 1e3f
00000020: 4d0c 173f 747e 1b3f 45d3 2b3f eb20 1e3f
00000030: 2ae9 1a3f 0030 383f dea2 4d3f b756 6e3f
00000040: 940f e53e ed34 663f 9aa3 383f e1bf fb3e
00000050: 8ba1 a03e e411 d43f 0def 253f 13c6 1d3f
00000060: 56bd 163f 1c1d 133f c29d 163f 7c4e 923e
00000070: 42cb 383f ce19 5b3f ee85 133f f4a2 8d3f
00000080: b05a ef3e 547c c03f b37f 5c3f 92b5 0e3f
00000090: d7a7 703f 368f 033f 53e3 3e3f 5429 513f
000000a0: 13e9 c63e 45de 8d3f 3e17 343f 19b8 593f
000000b0: 406e 723f a7ef 0b3f e086 053f 4040 503f
000000c0: a3d6 a33e e3b6 923f aa38 4c3f f287 f83e
000000d0: 499e 293f c31c 303f 487a 473f a180 f13e
000000e0: 4701 303f cf85 743f 2763 9a3e e29a 213f
000000f0: 8e91 953f 3db3 6d3f 1c05 163f a72c 4f3f
00000100: 1c81 3a3f 70a0 fa3e a98e 983e 8fa6 1a3f
00000110: 347b 423f fd28 7c3f 0132 4a3f 74f6 283f
00000120: 1943 643f 5408 a03e 2d31 3e40 0d61 7c3f
00000130: 1294 113f 831d 9e3e 25c5 ae3e 0bea c13e
00000140: 1edc 053f d763 3b3f 9f3b 693f 6e7e 443f
00000150: 910b 5f3f b60e 3d3f c251 433f 5a6e cf3e
00000160: f2bd 193f 46ad ab3f f2e0 713f cc36 073f
00000170: e273 293f 4441 313e e7af c23f 8bc0 9a3e
00000180: c0ae 663f cf69 3a3f f3c2 053f 3d36 2b3f
00000190: d8c6 653f 26f0 9c3f 4343 373f a4a6 233f
000001a0: 13ce 0a40 a3cc a73f 0ca6 f23e bb5f 043f
000001b0: c6ec 3b3f 178e 463f 4c15 853f a720 583f
000001c0: 1659 ab3f 7732 203f 793f 643f 3e14 973f
000001d0: 8c67 6b3f 1dc9 c83e 5f76 193f b198 ac3e
000001e0: 9fe6 dc3e d570 003f 299c 013f 74ca 213f
000001f0: ffd6 183f 1ed2 a83e 6743 fd3e c35f 213f
0.65196353 0.44268167 1.8543988 0.7946548 0.57582897 0.41952333 1.1831547 0.6191387
0.59003145 0.6073983 0.67119247 0.6176898 0.6051203 0.7194824 0.8032664 0.93101066
0.44738448 0.8992451 0.72124636 0.4916983 0.31373248 1.656796 0.6481789 0.6163036
0.58882654 0.5746629 0.5883447 0.28575504 0.72185147 0.8558625 0.57626235 1.1065354
0.46748877 1.5037942 0.86132354 0.55745804 0.94006103 0.513904 0.7456562 0.81703687
0.38849697 1.1083456 0.70347965 0.85046536 0.9469948 0.54662555 0.5215893 0.8134804
0.31999692 1.1462063 0.7977396 0.48541218 0.6625715 0.68793887 0.7792096 0.4716845
0.6875195 0.95516676 0.30153772 0.6312696 1.1685045 0.9285162 0.58601546 0.8092751
0.72853255 0.4895053 0.2979634 0.604104 0.75969243 0.98500043 0.7898255 0.6600106
0.8916488 0.31256354 2.9717515 0.9858559 0.5686656 0.3088189 0.34134784 0.37873873
0.52289 0.7319922 0.911066 0.76755416 0.87127024 0.7385057 0.7629663 0.4051388
0.6005546 1.3412254 0.94483864 0.5281799 0.6619245 0.17310053 1.5209931 0.30225024
0.901104 0.728177 0.52250594 0.66879636 0.89756536 1.2260787 0.7158701 0.6392615
2.1688278 1.3109325 0.4739231 0.51708573 0.7340816 0.7756056 1.0397124 0.84424824
1.3386562 0.62577003 0.8915935 1.1803052 0.91954875 0.39215937 0.59946245 0.33710244
0.431447 0.5017217 0.50628906 0.63199544 0.5970306 0.32972807 0.49465486 0.63036746

weight f4 [128, 32]
00000000: d2bc 90bb 5447 bebd a438 29bd 4343 413e
00000010: aa9e 19be cdce 1fbe df21 ba3c 538a ac39
00000020: 8318 0b3e 7d5c 2b3d 88c3 e4bd d1ff 35bd
00000030: 97dd 6a3e 6081 b13c 6998 d63d 1613 253e
00000040: 02ce 223d ce97 703b fc59 15be b231 8b3b
00000050: 3b20 a63d 6bcb 06be 8fcd 813d fd4c bd3d
00000060: 0f5f 81bc b001 443e 65ac 2a3e 42bc 5e3d
00000070: 70f9 2cbe f6dc 3fbd a540 303c 2aaa 30be
00000080: 122d bc3d d54f 8e3d 5e0f 4b3e aae3 5c3d
00000090: 040e 9fbd 93e7 43be 82ac 37be 2f8b e4bd
000000a0: 4130 3cbe c365 27be 8d86 5fbc 6504 e9bd
000000b0: 0b75 f73d 6d74 313e 98c8 12be 799e a9bd
000000c0: 719f 2cbe a8bd 4f3d d3a0 ce3d c527 52be
000000d0: 0b9d af3d 8874 18bc 7697 62be 89da f73d
000000e0: 61d3 ee3c 2fb9 3fbe cd11 76bd 67bd a3bc
000000f0: 69e2 4abe 03c0 0c3e 5fc6 1d3d 70c0 c7bd
00000100: b922 3ebe 2668 eebd 6070 4ebd 5140 0abe
00000110: 5d9e 003e c26f 5dbd 3f98 a93a 0423 6a3c
00000120: 635e 7abc 3846 e6bd dc79 15bd 5509 6e3c
00000130: 3265 883d 6019 28bc d48d ffbc 863b 0e3e
00000140: 17d2 803e 2830 0ebe 5394 08be 7524 3f3e
00000150: 1370 d6bd 9d3c 0f3e be2a 90bd 5ab4 453d
00000160: 4d52 463e d406 1dbe 6788 443e 9ae4 90bd
00000170: a75d 8b3d da1b 113e 6151 ccbd f49a 78be
00000180: 5648 f1bd 900e 29be 5dad b13c a5de 9abd
00000190: d17a 063c 71c6 063e fc69 cabd 6793 37be
000001a0: 7d24 0fbe 5f09 adbd 6517 6e3d 1218 f2bd
000001b0: 5b62 fb3d 5ecb bdbc 1679 83bd eb51 273e
000001c0: fba1 4bbc 0f73 c53d 81e5 7bbe 38d5 473d
000001d0: 8070 463c c08a e1bd 26e0 0e3e 6797 18be
000001e0: 0e4a b63d ae53 2ebd 0a7b 013e 28f5 a3bd
000001f0: f726 ccbd 6507 c0bd 3552 8fbc 3293 aabd
00000200: 0561 c93d 3907 6f3e 66be 513e df61 743c
00000210: cfab ffbd 7fe8 993c 0032 8b3d c581 bd3d
00000220: 8686 333e c676 963a 7664 f9bc 96f3 6bbc
00000230: 9a85 f5bc 225c 3e3c 3330 103c 85b3 64bc
00000240: 2951 f8bd 4555 fb3d dbd2 273e eeb2 ccbb
00000250: 8414 ecbd 9118 c8bd f744 3bbc ddd5 87bd
00000260: b4d0 63bd e5e8 ca3d c35d c43d b6c0 21be
00000270: 5514 0e3d f4b6 5abd 2b0e 5a3d 63ad 24be
00000280: 45b6 223d c4a3 aabc 1d8c 26bd 27e4 0ebd
00000290: 934f 2abe 3184 47bd 440a 92bb 1985 053d
000002a0: f30f 373d f69b 23be 0d39 e23d 1ebd 3e3e
000002b0: 29d2 10be 694e 36be 7da5 efbd c261 18be
000002c0: 638a 7f3d 30ef 483b ff70 d6bd 9d2f fdbd
000002d0: ace2 ec3d bb8f 5bbe 1120 38bd 0fdd ad3d
000002e0: f30b 023e ae8b 1cbd 86af 8abd 0351 9d3c
000002f0: ae4a 6cbd 3753 303e 9ba6 1ebe f732 bd3d
00000300: 22eb 0abe 0e81 e23d 3873 c53d 9f1d d8bc
00000310: 2f44 ccbc 8e1b 01be b772 563d 74f8 4c3e
00000320: 6fc9 cb3d 2bcd 7cbe 6639 6dbe 2ff2 f43d
00000330: 952d ea3c 812b 44be b301 8dbd b2ef 1fbe
00000340: dfe1 963d d865 21bd b77d 473e 866b 1bbe
00000350: adc3 19bd 2091 f13d c050 633e cb2b 4dbe
00000360: 43f4 d8bc a33a dd3c 8acd fdbd 0512 bd3d
00000370: 28a7 b43d 1ae5 56bd f43a 0d3e 8d76 2a3d
00000380: 8227 9e3c e2e5 a93c 46e8 1d3d 074c c4bd
00000390: bc02 2e3d dde6 053e c8c4 453d 270c f3bd
000003a0: 0896 60be 8c9b 323e 808d 0f3e 00ec 1bbd
000003b0: b4b5 06bd 0230 df3c ccf1 ddbd 4f9c 36bd
000003c0: 1bc0 e83d 0c3f bdbc d2ff afbc d046 30bd
000003d0: 44cf 943d 7a57 b33d cf99 0b3e fb12 0dbe
000003e0: e453 4c3e 7294 1cbe e469 eabb db3e 1abe
000003f0: f6fd de3c 370a b13d 932d b4bd 2b7b 85bd
-0.0044170404 -0.092909485 -0.041313782 0.18873315 -0.15001932 -0.15606232 0.02272123 0.00032909456
0.13583569 0.04183625 -0.11170107 -0.04443342 0.22936092 0.021668136 0.10478289 0.16120562
0.039747246 0.0036711576 -0.14585108 0.0042478675 0.08111616 -0.13163535 0.06338035 0.092432
-0.015792398 0.19141269 0.16667326 0.054378755 -0.16892028 -0.046841584 0.0107576 -0.17252412
0.09188284 0.069488205 0.19830081 0.053928055 -0.07766345 -0.19131307 -0.179369 -0.1115936
-0.18377782 -0.16347413 -0.013642919 -0.11377791 0.12082871 0.17329569 -0.14334333 -0.082821794
-0.16857697 0.05071798 0.100892685 -0.20522983 0.085748754 -0.009305127 -0.2212809 0.12102229
0.029153528 -0.18722986 -0.06007557 -0.019987775 -0.19812931 0.13745122 0.03851926 -0.097535014
-0.18567933 -0.116409585 -0.050400138 -0.13501097 0.12560411 -0.05406166 0.001293905 0.014290575
-0.015281293 -0.11243862 -0.036493167 0.014528592 0.066599265 -0.010259956 -0.031195559 0.13889894
0.25160286 -0.13885558 -0.13337831 0.18666251 -0.10470595 0.13987966 -0.070394024 0.0482677
0.19367333 -0.15334636 0.19192658 -0.07074852 0.06804972 0.14170781 -0.09976459 -0.2427786
-0.11781375 -0.16509461 0.021689111 -0.07561997 0.008207993 0.13161637 -0.09883496 -0.17927323
-0.13978763 -0.08449053 0.05812778 -0.11820997 0.12274619 -0.023168262 -0.0641958 0.16339843
-0.012428756 0.09641086 -0.24599268 0.048787326 0.012111783 -0.110127926 0.13952693 -0.14901505
0.089008436 -0.042560272 0.12644592 -0.08005744 -0.099683695 -0.093764104 -0.017495254 -0.083288565
0.09832958 0.23342599 0.20482787 0.014915912 -0.12483942 0.01878762 0.06796646 0.09253267
0.17531785 0.0011479489 -0.030443411 -0.014401337 -0.029970933 0.011618646 0.008800554 -0.013958816
-0.12124855 0.12272123 0.16389029 -0.006246916 -0.115273505 -0.09770311 -0.011430017 -0.06632588
-0.055618957 0.09907702 0.09588196 -0.1579617 0.03468736 -0.053397134 0.053236168 -0.16081767
0.039724607 -0.020830043 -0.040660966 -0.03488555 -0.16631918 -0.048710052 -0.00445679 0.032597635
0.044692945 -0.15977463 0.11046038 0.1862683 -0.1414267 -0.17803349 -0.11701486 -0.14881042
0.062387835 0.0030660145 -0.10470771 -0.12362597 0.11566672 -0.21441548 -0.044952456 0.08489429
0.12699871 -0.038219146 -0.0677176 0.019203668 -0.057688408 0.17219244 -0.15493242 0.092382364
-0.13566259 0.110597715 0.09641117 -0.026381312 -0.024934856 -0.12608168 0.052355494 0.20016652
0.0995053 -0.2468764 -0.23166427 0.11960255 0.028586188 -0.1915722 -0.0688509 -0.1561878
0.073673 -0.039403766 0.1948155 -0.15177736 -0.037540127 0.117952585 0.22198772 -0.20036237
-0.02648366 0.0270055 -0.12392719 0.092319526 0.08820945 -0.052464582 0.1379202 0.041616965
0.019305948 0.0207395 0.03855159 -0.095848136 0.042483076 0.13076349 0.04828337 -0.11867552
-0.21932232 0.17442149 0.14018822 -0.038066864 -0.03288813 0.027244572 -0.10837135 -0.04458266
0.11364766 -0.023101352 -0.02148429 -0.043036282 0.07266095 0.08756919 0.13632892 -0.13776772
0.19953877 -0.15291002 -0.0071537364 -0.1506304 0.027220707 0.086445265 -0.08797755 -0.06517633

bias f4 [128]
00000000: 30cc a8ba fa22 fd3a bbe8 94ba ce2f 55b9
00000010: 1835 c73a d53c d939 1b77 08bb d052 803a
00000020: 49e7 f6b9 ae7e 3db9 76df 473a 36de 5cba
00000030: 15cd aeba 90d1 40ba 8cf7 803a ae1b 5eba
00000040: 2e11 863a d060 893a abaf ddba 0471 99b8
00000050: ba16 20b8 008f 13ba ee41 d3ba b13a abba
00000060: 3c1b 7938 1dff ecba 9ee8 c039 fb97 2cbb
00000070: 26a9 c3ba 34fd 01bb c732 6eba 3bae a7ba
00000080: 2e16 ed39 c50a 6f38 2d91 b33a 3d1a d0ba
00000090: dc65 a3b9 229c a739 19a8 2a3a b324 1539
000000a0: 3351 ccba 0a41 b5ba a7ae 533a 2a7f 80b9
000000b0: 7587 5f3a eec9 86ba 31ac e339 ac20 dbba
000000c0: d33b 153a d9f2 523a d909 e4ba 616d c83a
000000d0: ad36 b4ba f110 f1b9 776e c1b9 1aa8 17ba
000000e0: f425 c4ba 5cae 5139 35a9 b539 6ef1 8b39
000000f0: ca5a 8fba 3fee da3a e6b5 04bb 615b 50ba
00000100: 9d58 04bb e2b7 c0ba ed09 353b 70fd ef38
00000110: 571e a63a b70b a439 49c9 f2ba 1597 b0b9
00000120: 1dbf 9c3a 3f67 b8ba 7671 bfba 7e1b fe3a
00000130: c9dd 9db9 db64 173a b627 3abb 0764 9138
00000140: 1420 673a c2a7 3bb9 ac1a c039 d5d6 57ba
00000150: b521 d5ba 583b 193b 816f 56ba 97e3 e239
00000160: 4013 41ba e295 38ba 3373 333a 04a1 1cbb
00000170: b670 e2b9 4416 30bb 8f5b f23a 3cb0 a939
00000180: c825 a73a 11cf 4aba d646 163a 88a8 2b3a
00000190: 1c1c d93a ed47 f938 c072 b8ba 3a04 333a
000001a0: 5564 c2b9 f54a f839 11f7 e4b9 1021 f9b7
000001b0: 7e44 2e3a 4e8b 6738 d5da a7ba 57e9 19b9
000001c0: 784b edba ac6b 50ba f48d 3338 1203 7f3a
000001d0: 4be5 20ba f57c 9ab9 c96a 4db9 d4ac 4fba
000001e0: f561 6e39 d1b0 7e3a dccd abba 0278 45ba
000001f0: 8217 5e3a 2499 a4ba d71e 86ba 85fc 103a
-0.0012878235 0.0019312792 -0.0011360863 -0.00020331072 0.0015198318 0.0004143479 -0.0020822946 0.0009790305
-0.00047093097 -0.00018071636 0.0007624546 -0.0008425446 -0.0013336266 -0.0007355446 0.00098394 -0.00084727525
0.0010228509 0.0010481123 -0.0016913315 -7.316659e-05 -3.816814e-05 -0.00056289136 -0.0016117671 -0.0013063756
5.939159e-05 -0.0018081401 0.00036794407 -0.0026335705 -0.001492773 -0.0019834759 -0.0009086546 -0.0012793014
0.00045220688 5.699207e-05 0.0013699882 -0.001587696 -0.00031165674 0.0003196905 0.0006510034 0.00014223419
-0.0015588164 -0.0013828587 0.00080750365 -0.00024508807 0.00085269596 -0.0010283568 0.00043425107 -0.0016718111
0.00056928134 0.00080470514 -0.0017397954 0.0015291387 -0.0013749205 -0.00045979724 -0.0003689413 -0.0005785242
-0.0014964924 0.00019996747 0.0003464908 0.00026692025 -0.0010937091 0.0016703083 -0.0020250021 -0.0007948187
-0.002019442 -0.0014703239 0.0027624324 0.000114436145 0.0012673837 0.00031289246 -0.0018523122 -0.000336819
0.0011958812 -0.0014068856 -0.0014605958 0.0019386855 -0.00030110616 0.00057752215 -0.0028405017 6.93277e-05
0.00088167307 -0.00017896204 0.00036640966 -0.00082336116 -0.0016260656 0.002338132 -0.00081800675 0.00043275647
-0.0007365234 -0.0007041377 0.0006845474 -0.0023899684 -0.00043190055 -0.002686874 0.0018490421 0.00032365497
0.0012752349 -0.0007736544 0.0005732601 0.00065482454 0.0016564163 0.000118866425 -0.0014072284 0.0006828938
-0.00037077317 0.00047358093 -0.00043671628 -2.9698509e-05 0.00066477794 5.520443e-05 -0.0012806306 -0.00014678143
-0.0018104156 -0.00079506147 4.280913e-05 0.00097279355 -0.0006137683 -0.0002946627 -0.00019590104 -0.0007922177
0.0002273394 0.0009715679 -0.0013107616 -0.0007532836 0.0008472131 -0.0012557846 -0.001023258 0.00055307924

weight f4 [263, 128]
00000000: 6a93 99bc d881 023d 0f69 35bd 30a0 3bbd
00000010: 3e89 33bd c774 b73b 73d4 b3bd c6df 8cbc
00000020: 6222 d7bd 72bf 943d 2e1a b2bc 675e a1bd
00000030: 3d12 febc 4cca c23c ec4e 313d 22b0 2a3c
00000040: aad7 c7bb a854 8a3d a84b bbbc 0ecb efbc
00000050: b388 14bd 995f 12bd c9bf 1c3d 8032 f93c
00000060: c099 3c3d 7a7a 1a3d 82a8 e3bb bf7f f4bc
00000070: c116 af3c d829 92bc 8939 4abc 35ac 89bc
00000080: c110 12bd c486 a13c 011b 30bc 591b f63c
00000090: c247 0abd 29e3 94bd 962e 073d fd92 c0bc
000000a0: 27d4 673d f6e6 30bc 3771 21bc 974c 083d
000000b0: 5fff 39bc 7035 95bb 0d00 f6bb c7c4 243d
000000c0: 4de1 fd3c f599 44bd f188 533d 6ea9 05bd
000000d0: 5f27 71bd c32c f53c f698 b7bb 1d56 7c3d
000000e0: e3e9 213d 173a 0b3c 8cfb 02bc 142d 6fbc
000000f0: 43ce d2bc 634b c7bb 4b55 273d 00db 09bc
00000100: 2e4b 91bb aab1 eb3c e9cb b23c 8ec8 7ebc
00000110: a070 1dbd d81c 10bc 5e62 45bd ae49 a33b
00000120: 68e3 4d3d 2199 89bd 9b1d c0bc dbb5 24bd
00000130: 159d 37bc 0c25 5b3d 76bd 063d cc9b 523c
00000140: 135a a73c fb3a 1dbd 90fb 34bd 1134 923d
00000150: 32d6 6ebc 7f0b 233d 7422 a8bd c56e 733d
00000160: 3acb 3d3d b21d c93c 1103 ee3c 45ec 28bd
00000170: 5537 4ebc 6887 1c3d 4cb4 84bc f526 0c3d
00000180: 38b8 bf3d 2369 78bc 40eb fb3c d18a 233d
00000190: 9e2a 5fbb bf30 b5bc 82bc 8abc 5f9a d4bb
000001a0: 25aa 12bd 93b2 d03c 718b dabc 50f0 143d
000001b0: 7b8c 153d 23df 923c 5370 7e3d de88 663b
000001c0: dc76 563c c448 9b3b 0368 1e3d e799 253c
000001d0: d87c ed3b 7cc1 39bc b836 3abd bad4 523c
000001e0: 3d1d 993d 6c50 343d a4da b639 621b e8bc
000001f0: 7a9f d73c b6df e23d 8096 3c3d 3911 873c
00000200: 1d94 b5bc b186 753d 63b0 59bd ff13 26bd
00000210: c264 203c 0c0e 1c3c c2c8 56bc 5b18 12bd
00000220: 5186 0ebc 0fee 503d 35f4 5dbb b7a5 a4bd
00000230: eef7 163c 9917 6e3c 2ce4 993c cfd4 1c3d
00000240: d4a0 4cbd 2fb8 153d eda3 013c 6710 17bd
00000250: 8bcd 28bd 959a 83bc a648 54bc 4a13 443d
00000260: 0636 923d 76dd 4fba 620c 62bd 223f 043c
00000270: b54a 243c abf2 1fbc 7cdb 18bd 8965 48bd
00000280: d8f6 ef3b d0ad c6bc 88ff c2bc 66b2 81bb
00000290: b5f9 6cb9 f033 59bc 0f06 35bc f813 7ebc
000002a0: d8bd 37bc dad1 51bb e2a2 fcba cfa8 3bbc
000002b0: c422 10bc 87ce e2bb 417f 59bb 4979 e1ba
000002c0: bb8b 7b3d d7c3 163d 68f7 493d 2004 5abb
000002d0: c475 8ebd ebaf 163d cf00 793c fc26 603d
000002e0: be0e 663c 1f4c 9c3c a7de 693c 7a88 393b
000002f0: ddab 32bd 8bca 9ebb 477c 7cbc 438e 39bd
00000300: abd3 fc3c eb6e ceba 4fde d13c 2060 edba
00000310: 9544 eb3c e422 7abc 96b1 c5bc 4b9d 55bc
00000320: ab87 173d e1bb 10bb 2f45 71bd 37c8 bcbc
00000330: 2389 ea3c 1946 dbbc edd9 aabc 0ed2 0b3d
00000340: c76d a3b5 fa84 803c 0182 c83c d9d9 223d
00000350: 6cf1 03bd 3ac3 0d3d 8fd4 87bd f608 b33c
00000360: 1384 e63c 23de 303d fdc0 debc 6759 0c3d
00000370: 7b16 5b3d 4067 7e3b 872a e8bc 8a9f f93c
00000380: 80f3 d53c 18af d03c 5099 fd3c 0be5 9bbb
00000390: bdb3 593c 1823 0fbd 61b3 8dbb 2b03 8cb9
000003a0: caa8 2bbd e179 f83c 708c d43c 5440 073d
000003b0: a7b4 1d3d e565 14bc ab64 b73c ca45 12bd
000003c0: ed15 9939 9fb4 8e3b fe30 873d 6cdc 86bc
000003d0: cbab ebbc a57d 9bbb abf4 2fbc d2c6 9b3c
000003e0: 8872 a03c 0b7b bd3d bfaf 1f3d 699b fc3b
000003f0: 25ac ef3c e512 d63c 6bc6 a7bc b2f8 ad3c
-0.01874705 0.03186211 -0.044289645 -0.045807064 -0.043832056 0.0055986377 -0.08780756 -0.017196547
-0.10504605 0.07263078 -0.021741 -0.07879334 -0.031014556 0.023778103 0.043288156 0.01041797
-0.006098707 0.06754428 -0.022863224 -0.029271629 -0.03626318 -0.0357357 0.038268838 0.030419588
0.046045065 0.03771446 -0.006947578 -0.02984607 0.021373155 -0.017842218 -0.012342819 -0.016805748
-0.03566051 0.019717582 -0.010748626 0.030042337 -0.03375984 -0.0726989 0.033003412 -0.02350759
0.05659881 -0.010797253 -0.009853653 0.033276167 -0.011352389 -0.0045534894 -0.0075073303 0.040226724
0.03099122 -0.047998387 0.05164427 -0.032632284 -0.058875438 0.02992857 -0.005602951 0.06160556
0.039529692 0.008497736 -0.007994544 -0.01459815 -0.025733119 -0.006081985 0.040852826 -0.00841403
-0.004434011 0.02877124 0.021825748 -0.015550746 -0.038437486 -0.008795939 -0.048189513 0.0049831485
0.0502657 -0.0671866 -0.023451617 -0.040212493 -0.011206885 0.053502128 0.032895528 0.012854528
0.020428693 -0.038386326 -0.04418522 0.07138837 -0.014577435 0.039805885 -0.082096964 0.05943181
0.04633639 0.024550293 0.029054197 -0.04124095 -0.012586434 0.03821507 -0.016199253 0.03421684
0.09361309 -0.015161785 0.030751824 0.039927308 -0.0034052501 -0.02211797 -0.01693559 -0.006488129
-0.035806794 0.025475776 -0.026677819 0.036361992 0.036510926 0.017928666 0.06211884 0.0035176794
0.013089862 0.004738899 0.038673412 0.010107494 0.0072475486 -0.011337634 -0.04546234 0.012868101
0.0747628 0.04402201 0.00034876645 -0.02833337 0.026321162 0.11077826 0.046041965 0.016487705
-0.022165352 0.059942905 -0.05314673 -0.040546414 0.009789648 0.009524833 -0.013109388 -0.03566776
-0.008699016 0.05100828 -0.0033867483 -0.0803942 0.0092143845 0.014531993 0.018785559 0.038288888
-0.049958065 0.036552604 0.007912618 -0.036880877 -0.041211646 -0.016064921 -0.012956774 0.047869958
0.071392104 -0.00079294236 -0.05518759 0.008071693 0.010027577 -0.009762446 -0.03731869 -0.048924956
0.0073231272 -0.024252802 -0.023803487 -0.0039580343 -0.00022599737 -0.013257012 -0.011048808 -0.015507691
-0.011214696 -0.003201595 -0.0019274617 -0.011453821 -0.008797351 -0.0069215926 -0.0033187422 -0.0017202283
0.061412554 0.03680786 0.04930821 -0.003326662 -0.06956056 0.036788862 0.015197947 0.05472468
0.014041601 0.019079266 0.014274276 0.0028310106 -0.043620933 -0.0048459223 -0.015410489 -0.045301687
0.03086265 -0.0015749609 0.0256187 -0.0018110313 0.028719226 -0.015267108 -0.024132531 -0.01303799
0.036994617 -0.002208464 -0.05890387 -0.023044689 0.028629845 -0.026766824 -0.020855868 0.03413587
-1.2176396e-06 0.015688408 0.024476053 0.039758537 -0.03221266 0.03461001 -0.06632339 0.021854859
0.02813915 0.043180596 -0.027191633 0.03426495 0.053488236 0.0038818866 -0.028340591 0.030471582
0.026117086 0.025474116 0.030956894 -0.0047575287 0.013287482 -0.034945577 -0.004324362 -0.0002670524
-0.041909017 0.030331554 0.025945872 0.033020332 0.03850236 -0.009057497 0.02238687 -0.035711087
0.0002919877 0.004355028 0.066011414 -0.016462527 -0.02876844 -0.0047452026 -0.010739486 0.019015703
0.019585863 0.09251984 0.038985964 0.007708956 0.02925689 0.026132056 -0.020480355 0.021236751
