serology/results_intermediate_encoders_2/models/5fold/decoder_primates_0.pt (torch, 157583 bytes, 7 tensors)

weight f4 [128]
0.9302198 1.0671293 0.8469085 0.8761997 0.9066873 0.8960814 0.88968194 0.9432439
0.88559616 0.98154783 1.0343546 0.96017987 0.9358737 0.9700785 0.9380053 0.9098086
0.89858335 0.8685271 0.93055415 0.93771666 0.9747432 1.0556943 0.9771383 1.0394025
0.99022907 1.1225258 0.8659423 0.8984954 1.036939 0.9529342 1.0362593 0.9683272
1.0415243 0.8948569 0.97281265 0.9553572 0.9145182 0.99588454 0.80504686 0.9614552
0.9694168 0.88464546 0.82456625 0.947116 0.9181844 0.909243 1.0170939 0.9670363
0.82080084 1.023382 0.91604775 0.9605026 1.0711668 0.98694533 0.89208853 0.767363
0.9394939 0.8638886 0.8004057 0.88240993 0.9070164 0.96343726 0.95117784 0.85931987
1.0032885 1.0270793 0.9682056 0.91642916 1.0080811 0.96649015 0.9500078 0.8557006
0.8846976 1.1405541 0.8662002 0.9884133 0.94831437 0.91330695 0.8894522 0.896343
0.85969925 0.97809523 0.90966994 0.7921153 0.87165 0.88384235 0.8832618 0.948539
0.96945274 0.83715713 0.91362834 0.90998054 0.9966803 0.9973123 0.87768406 0.8328052
0.8959137 0.92364234 1.0159122 0.9737083 0.8896864 0.868171 0.89055663 0.87233186
0.9253305 0.89162034 0.8921466 1.0430471 1.0323391 0.90446746 0.97219604 0.91347295
0.8704457 0.96136993 0.95909446 0.8390239 0.91028833 0.9792891 0.97123855 0.92427707
1.0402163 0.88903123 0.9453896 0.94758946 1.0280515 0.8286192 0.8646449 0.8034294
00000000: e322 6e3f b197 883f ffce 583f a04e 603f
00000010: a91c 683f 9765 653f 32c2 633f 6f78 713f
00000020: 6eb6 623f b846 7b3f bb65 843f 59ce 753f
00000030: 6b95 6f3f 1157 783f 1e21 703f 37e9 683f
00000040: 8f09 663f cb57 5e3f cc38 6e3f 330e 703f
00000050: c588 793f fe20 873f bc25 7a3f 240b 853f
00000060: a77f 7d3f edae 8f3f 65ae 5d3f cb03 663f
00000070: 6bba 843f 7ff3 733f 25a4 843f 4be4 773f
00000080: ab50 853f 5815 653f 400a 793f 4a92 743f
00000090: dd1d 6a3f 4af2 7e3f 8d17 4e3f ee21 763f
000000a0: b32b 783f 2078 623f c616 533f 3276 723f
000000b0: 220e 6b3f 26c4 683f 2230 823f b18f 773f
000000c0: 0120 523f 2efe 823f 1b82 6a3f 80e3 753f
000000d0: fe1b 893f 73a8 7c3f ea5f 643f e771 443f
000000e0: ac82 703f ce27 5d3f 63e7 4c3f 9ee5 613f
000000f0: 3a32 683f d3a3 763f 6480 733f 63fc 5b3f
00000100: c26b 803f 5677 833f 52dc 773f 1a9b 6a3f
00000110: cd08 813f e66b 773f b633 733f 320f 5b3f
00000120: 8b7b 623f adfd 913f 4cbf 5d3f a708 7d3f
00000130: bbc4 723f 7cce 693f 24b3 633f bc76 653f
00000140: 4015 5c3f 7364 7a3f 21e0 683f 11c8 4a3f
00000150: 7424 5f3f 7e43 623f 721d 623f 74d3 723f
00000160: 0e2e 783f ee4f 563f 8ce3 693f 7cf4 683f
00000170: 7126 7f3f dc4f 7f3f e7af 603f b932 553f
00000180: 9a5a 653f d373 6c3f 6909 823f f244 793f
00000190: 7dc2 633f 7440 5e3f 85fb 633f 2451 5f3f
000001a0: 76e2 6c3f 3b41 643f b863 643f 9182 853f
000001b0: b023 843f 2e8b 673f d7e1 783f 5dd9 693f
000001c0: 88d5 5e3f 571c 763f 3787 753f 45ca 563f
000001d0: a808 693f b1b2 7a3f 17a3 783f 6c9d 6c3f
000001e0: cf25 853f 8d97 633f 0e05 723f 3995 723f
000001f0: 3197 833f 6320 543f 5e59 5d3f 8dad 4d3f

bias f4 [128]
-0.21814176 -0.2809444 -0.18065071 -0.07759935 -0.15875247 -0.26121438 -0.15025456 -0.16896336
-0.12376131 -0.18271986 -0.19481996 -0.33014476 -0.15575314 -0.25751412 -0.16560668 -0.3041104
-0.23917413 -0.18079615 -0.19545195 -0.16550924 -0.23035522 -0.25185475 -0.17283474 -0.12529492
-0.2369651 -0.30945358 -0.18121737 -0.22889028 -0.23166832 -0.14917037 -0.20159972 -0.23956321
-0.2554683 -0.05571727 -0.28210747 -0.29503545 -0.23096651 -0.19680175 -0.15730321 -0.23953891
-0.22488166 -0.2048968 -0.070756175 -0.16691566 -0.18477364 -0.15719095 -0.21861565 -0.13714412
-0.15711501 -0.3090006 -0.22222261 -0.104571536 -0.25636932 -0.13150056 -0.17198855 -0.021994269
-0.14425029 -0.13803 -0.06907924 -0.065680936 -0.2986141 -0.207113 -0.13732463 -0.040872034
-0.2913342 -0.24968955 -0.21915327 -0.1459764 -0.15492195 -0.32942748 -0.18909384 -0.08726918
-0.12568913 -0.34275544 -0.26188204 -0.35115847 -0.17958453 -0.1187299 -0.16674502 -0.1806494
-0.118289195 -0.2435504 -0.1559964 -0.083193384 -0.2244336 -0.12472605 -0.18550417 -0.19017479
-0.16491522 -0.16469353 -0.16885121 -0.19109595 -0.29442745 -0.22882448 -0.17194262 -0.11895944
-0.070802785 -0.11790887 -0.308014 -0.23993196 -0.16658035 -0.21444467 -0.12764591 -0.19626105
-0.06918943 -0.17555006 -0.08970133 -0.2839563 -0.35419732 -0.13945276 -0.18956324 -0.15344287
-0.15014657 -0.18970795 -0.17510886 -0.23948894 -0.2544864 -0.27438056 -0.34285438 -0.1973979
-0.3122584 -0.14776634 -0.12398493 -0.21838163 -0.31300104 -0.048996024 -0.16407746 -0.2106511
00000000: 8e60 5fbe f2d7 8fbe 80fc 38be 68ec 9ebd
00000010: 0290 22be e4bd 85be 55dc 19be bb04 2dbe
00000020: 9276 fdbd ea1a 3bbe e27e 47be bc08 a9be
00000030: c07d 1fbe e4d8 83be cc94 29be 5cb4 9bbe
00000040: 10ea 74be a022 39be 8e24 48be 417b 29be
00000050: 3de2 6bbe 1bf3 80be 97fb 30be 504d 00be
00000060: fba6 72be b370 9ebe 0c91 39be 3762 6abe
00000070: 763a 6dbe 1ec0 18be 2870 4ebe 0f50 75be
00000080: becc 82be cb37 64bd 6470 90be e30e 97be
00000090: 7c82 6cbe 6686 49be 1814 21be b049 75be
000000a0: 6147 66be 77d0 51be 9de8 90bd f0eb 2abe
000000b0: 4d35 3dbe aaf6 20be c8dc 5fbe 826f 0cbe
000000c0: c2e2 20be 5435 9ebe 538e 63be 9a29 d6bd
000000d0: d742 83be 15a8 06be c41d 30be 532d b4bc
000000e0: 59b6 13be bc57 0dbe 6b79 8dbd ba83 86bd
000000f0: f3e3 98be 6e15 54be d49e 0cbe 6f69 27bd
00000100: c229 95be 9eae 7fbe b769 60be d67a 15be
00000110: dca3 1ebe b8aa a8be d1a1 41be 2fba b2bd
00000120: a7b4 00be a47d afbe 6715 86be 0bcb b3be
00000130: 02e5 37be a928 f3bd 35bf 2abe 28fc 38be
00000140: 9b41 f2bd 4765 79be 85bd 1fbe 4b61 aabd
00000150: ecd1 65be 5f70 ffbd cef4 3dbe 2ebd 42be
00000160: 89df 28be 6ca5 28be 55e7 2cbe a8ae 43be
00000170: 32bf 96be f750 6abe ba11 30be 02a1 f3bd
00000180: 0d01 91bd 357a f1bd 03b4 9dbe b9b0 75be
00000190: 0a94 2abe 6297 5bbe 9cb5 02be a8f8 48be
000001a0: 30b3 8dbd 65c3 33be 55b5 b7bd b862 91be
000001b0: 5a59 b5be b4cc 0ebe de1c 42be 2120 1dbe
000001c0: 06c0 19be cd42 42be bd4f 33be 973c 75be
000001d0: 0b4c 82be 9c7b 8cbe 9c8a afbe ad22 4abe
000001e0: 55e0 9fbe 0f50 17be d0eb fdbd 6f9f 5fbe
000001f0: ac41 a0be 0eb0 48bd ec03 28be ecb4 57be

running_mean f4 [128]
-0.013524981 0.0012037564 0.0024798936 -0.05175697 -0.083810315 -0.0017859493 -0.08368778 0.09451329
0.024510413 -0.06050445 0.07565456 0.028089138 -0.028229157 0.10296032 0.06171435 -0.11364064
-0.1021091 0.035797726 -0.01267849 -0.068269566 -0.0051988373 0.011467286 -0.03194122 -0.11727736
-0.04427375 -0.02508575 -0.05227895 -0.09289461 0.010940362 -0.074898385 -0.0020103848 -0.07989911
-0.020700864 -0.011376054 -0.0025804194 0.05135058 -0.0054712896 -0.043591026 -0.047549453 -0.0011710982
-0.003114282 0.025807079 -0.12929606 -0.09528083 -0.16258568 -0.09434459 -0.062063012 -0.061032467
-0.0875492 0.015571466 -0.0021752135 -0.066269666 0.015023388 -0.04488887 -0.08821453 -0.023260016
-0.021921124 0.006953755 -0.07593557 -0.12084828 -0.019953554 -0.077003114 0.015908245 -0.010990875
-0.14339651 -0.10324339 0.03639482 -0.036046255 0.008815908 0.08183766 -0.12656264 0.06544648
-0.058993917 -0.0720603 0.015047454 0.020076409 -0.091989316 -0.054108802 -0.011125677 -0.03453304
0.037863906 -0.05980071 0.043985162 -0.0642209 -0.014875984 -0.112380676 -0.12905866 0.090242796
-0.12161381 -0.16946957 -0.04440492 -0.020635633 -0.03430734 -0.004294075 0.04196142 -0.12323779
-0.065186836 0.07350285 -0.030455485 -0.030153275 -0.08136093 -0.020696782 0.004925965 -0.15377568
-0.053402755 -0.12379041 -0.028765354 0.045599256 -0.040043056 -0.06376742 -0.07310144 0.038269196
-0.0055038747 -0.114127785 -0.11121585 -0.09618808 -0.12682039 -0.045111805 -0.03177036 -0.05069291
-0.0696999 -0.05809506 -0.04657246 -0.02037163 -0.021406585 -0.04333871 -0.050638888 0.02462206
00000000: e297 5dbc 5dc7 9d3a b685 223b 1eff 53bd
00000010: bea4 abbd 8416 eaba 8064 abbd 2f90 c13d
00000020: 10ca c83c 84d3 77bd c7f0 9a3d 311b e63c
00000030: d540 e7bc dcdc d23d 30c8 7c3d 6dbc e8bd
00000040: 931e d1bd a3a0 123d 71b9 4fbc ead0 8bbd
00000050: 025b aabb 49e1 3b3c ccd4 02bd 1d2f f0bd
00000060: 6458 35bd a180 cdbc 7422 56bd 873f bebd
00000070: 343f 333c 5364 99bd a9c0 03bb 25a2 a3bd
00000080: dc94 a9bc a162 3abc 411c 29bb fc54 523d
00000090: 8148 b3bb 818c 32bd 37c3 42bd 897f 99ba
000000a0: fb18 4cbb 5e69 d33c 3066 04be 9922 c3bd
000000b0: dc7c 26be bd37 c1bd c935 7ebd 2efd 79bd
000000c0: ff4c b3bd 761f 7f3c 078e 0ebb 64b8 87bd
000000d0: a824 763c 64dd 37bd d2a9 b4bd ca8b bebc
000000e0: ee93 b3bc 53dc e33b 1c84 9bbd 4e7f f7bd
000000f0: a375 a3bc cfb3 9dbd 0252 823c 1213 34bc
00000100: 89d6 12be 4571 d3bd bc12 153d 3da5 13bd
00000110: 9970 103c 819a a73d a399 01be ce08 863d
00000120: 9ba3 71bd 5a94 93bd 9989 763c 4877 a43c
00000130: e564 bcbd 31a1 5dbd 7948 36bc 8472 0dbd
00000140: 2f17 1b3d 97f1 74bd c929 343d 3f86 83bd
00000150: 66ba 73bc d727 e6bd f427 04be 37d1 b83d
00000160: a910 f9bd 6e89 2dbe efe1 35bd 0f0c a9bc
00000170: da85 0cbd 50b5 8cbb bddf 2b3d 1864 fcbd
00000180: ad80 85bd aa88 963d c87d f9bc 0004 f7bc
00000190: 8fa0 a6bd 4c8c a9bc fd69 a13b 5f77 1dbe
000001a0: d9bc 5abd d485 fdbd 52a5 ebbc 49c6 3a3d
000001b0: 3004 24bd 7e98 82bd 35b6 95bd 29c0 1c3d
000001c0: d959 b4bb d4bb e9bd 23c5 e3bd 42fe c4bd
000001d0: 34dd 01be 28c7 38bd a321 02bd 5ea3 4fbd
000001e0: d2be 8ebd 16f5 6dbd c4c2 3ebd 68e2 a6bc
000001f0: dd5c afbc ee83 31bd b96a 4fbd 34b4 c93c

running_var f4 [128]
0.3772463 0.6324363 0.89344555 0.35686788 0.68584335 1.5576701 1.1447477 0.7354474
0.4630256 0.61219543 0.6357013 0.44731355 0.39077184 0.79558533 0.64508086 0.71157956
0.49122053 1.0623244 0.8117855 0.7231072 0.58887005 1.0152293 0.5733001 0.61501175
0.660337 0.6751083 0.6407514 0.50821567 0.34999487 0.8876474 0.44045162 0.53796357
0.6153256 0.37644503 0.46071854 0.49104005 0.739146 0.68744063 1.90408 0.46842432
0.5659659 0.58631444 0.5434325 0.49910983 0.97073907 0.54288244 1.0774534 0.9965528
1.0868891 0.5145455 0.3929434 0.54241943 0.7031625 0.22771531 0.9872261 0.5857232
0.40627015 0.78977394 0.5974371 0.9660232 0.53741956 0.41188377 0.794028 0.8982829
0.7146767 0.40484565 0.32726792 0.2853771 0.7367844 0.9019197 0.6023312 0.27142364
1.2820091 0.9735075 0.50795895 0.76852065 1.0200082 0.6696084 0.3411095 0.6593941
0.57644284 0.3120298 0.8282272 1.2708453 0.3864165 0.66677785 0.3773573 0.7239483
0.48540065 1.1210655 0.5332054 0.58780783 0.7888806 0.7461141 0.7537496 0.7335353
0.5630944 0.544027 0.52413666 0.5541548 0.569354 0.7579299 0.98462915 0.64515334
0.42618346 0.56890595 1.2818522 0.4099174 0.46929887 1.0436481 0.56815267 0.37378314
0.7024393 1.5422951 0.85992455 1.1347563 0.6622614 0.49520734 0.67553735 0.53028375
0.5292748 0.77190727 0.5649848 0.6727579 0.20164445 1.1706156 0.9248125 2.108102
00000000: 6d26 c13e 58e7 213f d9b8 643f 63b7 b63e
00000010: 6e93 2f3f bc61 c73f 1887 923f 4846 3c3f
00000020: b111 ed3e d7b8 1c3f 52bd 223f 4806 e53e
00000030: 3f13 c83e 7bab 4b3f 0524 253f 142a 363f
00000040: 4281 fb3e 3ffa 873f 2dd1 4f3f 8e1d 393f
00000050: 30c0 163f 09f3 813f ccc3 123f 6971 1d3f
00000060: d80b 293f e6d3 2c3f 4908 243f 6c1a 023f
00000070: 8732 b33e dc3c 633f e082 e13e fbb7 093f
00000080: fb85 1d3f 67bd c03e 4de3 eb3e 9a69 fb3e
00000090: ac38 3d3f 1cfc 2f3f e5b8 f33f 50d5 ef3e
000000a0: 24e3 103f b418 163f 641e 0b3f 538b ff3e
000000b0: 5b82 783f 58fa 0a3f fee9 893f 161e 7f3f
000000c0: 2f1f 8b3f 41b9 033f e12f c93e 00dc 0a3f
000000d0: 7502 343f 342e 693e daba 7c3f f5f1 153f
000000e0: a402 d03e a02e 4a3f a3f1 183f 4c4d 773f
000000f0: 5494 093f 6ee2 d23e 6b45 4b3f def5 653f
00000100: 0df5 363f ee47 cf3e a98f a73e f21c 923e
00000110: e79d 3c3f 36e4 663f 6132 1a3f 0af8 8a3e
00000120: e018 a43f ca37 793f 9909 023f c5bd 443f
00000130: a18f 823f 756b 2b3f e8a5 ae3e 0dce 283f
00000140: c291 133f 5fc2 9f3e b306 543f 0fab a23f
00000150: 62d8 c53e f4b1 2a3f fa34 c13e ad54 393f
00000160: 6f86 f83e 137f 8f3f 2680 083f 937a 163f
00000170: 14f4 493f 5501 3f3f bcf5 403f f8c8 3b3f
00000180: f426 103f 5a45 0b3f d22d 063f 17dd 0d3f
00000190: 2fc1 113f b207 423f a810 7c3f c528 253f
000001a0: b834 da3e d2a3 113f bc13 a43f b2e0 d13e
000001b0: f147 f03e 4396 853f 7472 113f 8160 bf3e
000001c0: 10d3 333f ed69 c53f 0424 5c3f b23f 913f
000001d0: f789 293f d18b fd3e 04f0 2c3f adc0 073f
000001e0: 8e7e 073f b79b 453f d8a2 103f dd39 2c3f
000001f0: e27b 4e3e bbd6 953f 83c0 6c3f 25eb 0640

weight f4 [128, 32]
-0.23481461 -0.00626467 0.14718302 -0.1493441 -0.061467342 0.13273324 -0.098456316 0.083989106
-0.046231076 -0.047199726 0.053575292 0.11564097 0.09253334 -0.034041062 0.10577746 -0.12914412
0.14528494 -0.052378308 -0.24776739 0.081397176 0.112956755 -0.22704618 0.014598757 0.15341963
-0.05098355 -0.088542454 -0.068401925 0.0141362185 0.007099977 -0.029659906 -0.09663078 0.07070409
-0.10258508 0.0147547135 -0.015570703 0.122558646 -0.046119582 -0.15789723 0.06280002 -0.046739336
0.07250026 -0.02040758 0.1636757 -0.11539559 0.23098873 0.041660886 -0.06558333 -0.054790888
0.08821645 -0.022674296 -0.13212058 0.10454428 0.12146366 -0.019190665 0.026749413 -0.045930233
-0.037339997 0.03485266 0.07275133 0.1922384 0.072778516 0.13688464 -0.13656855 -0.041609403
0.0064631575 0.28293335 -0.046818037 -0.020114316 0.07814401 0.04829101 -0.23769267 0.0030286456
-0.10039593 0.027666941 -0.12132476 0.19931875 -0.09899937 0.04385378 -0.1376424 0.023736624
-0.14804503 -0.059223186 0.09486625 -0.07566588 0.0779846 -0.1708536 -0.023353036 -0.24340458
0.023302874 0.12422309 -0.01525514 -0.052711796 0.08688021 0.07292258 0.07628848 -0.05591803
-0.03493946 9.8567565e-05 -0.09343817 -0.110262945 -0.23242022 0.19477862 -0.1754228 -0.09550498
0.07847467 0.10114445 -0.07224429 -0.17007636 -0.11028363 0.1366 -0.16048796 -0.13239267
0.009542747 0.18720376 0.123990364 0.15615132 0.14600576 0.06987356 0.10429193 0.051354825
0.051116683 -0.07860848 0.02097337 -0.092933595 0.11973638 0.169414 -0.031837363 0.15781279
-0.16771497 -0.07133994 -0.021528536 -0.06004552 0.052057993 0.006054839 -0.16811225 0.07161567
-0.07384141 0.028987123 0.22831619 0.06862151 -0.15210834 -0.11281736 0.11132167 0.10871478
-0.20438041 0.18741491 -0.079349935 -0.041400798 0.090033635 0.0061145346 0.035005867 -0.09922693
0.035423458 0.13452132 0.17652968 0.23336323 0.064128794 -0.1355923 -0.1213065 0.13069794
-0.25597847 0.15408005 0.019541737 0.14937106 -0.020961162 -0.097235076 -0.18602547 -0.10773289
0.066118196 0.042961143 -0.093578234 0.096774824 0.21278504 0.14663553 0.027545027 0.15857169
-0.011819427 0.14978893 -0.090773426 -0.12434277 -0.08647666 -0.100668795 0.16321313 -0.091849156
-0.08199305 -0.06470656 -0.06368326 0.17832571 0.031218795 -0.086164065 -0.082618736 -0.052049838
0.19272034 -0.061312918 0.013095442 -0.27512166 0.058070414 0.21731769 -0.094753936 0.18126467
-0.024794541 0.11853485 -0.13942924 0.041891072 -0.20557956 0.15811251 0.12659062 -0.09736952
0.10660101 0.011750693 -0.08409412 -0.07067156 -0.030548315 0.010139074 -0.0013708994 -0.006417306
0.019949907 0.09335622 0.18300629 0.10830013 0.14086826 0.035645854 -0.10988896 -0.037988216
0.046894785 0.06539492 -0.06033261 -0.051785678 -0.09332218 0.1104743 -0.092992924 0.15293068
-0.019803733 -0.019720651 -0.09350173 0.13470389 0.13663961 0.14358239 0.052181263 0.17086416
0.22247666 0.113048516 0.025233643 0.20869902 -0.20614786 -0.09816512 -0.017680733 0.16956094
0.07216843 0.075757824 -0.24629614 0.08402129 -0.03596859 -0.0831457 -0.030274028 -0.051103055
00000000: 3e73 70be dc47 cdbb 25b7 163e a9ed 18be
00000010: 2ec5 7bbd 39eb 073e 77a3 c9bd 7b02 ac3d
00000020: cc5c 3dbd 8054 41bd c471 5b3d 2cd5 ec3d
00000030: 1f82 bd3d a46e 0bbd daa1 d83d 5b3e 04be
00000040: 93c5 143e a38a 56bd bcb6 7dbe 90b3 a63d
00000050: df55 e73d cb7e 68be a02f 6f3c 091a 1d3e
00000060: 20d4 50bd bf55 b5bd 4f16 8cbd 999b 673c
00000070: eda6 e83b 55f9 f2bc 5ce6 c5bd 4ecd 903d
00000080: 2018 d2bd c1bd 713c 431c 7fbc 0700 fb3d
00000090: e3e7 3cbd d0af 21be 4c9d 803d bf71 3fbd
000000a0: 047b 943d cc2d a7bc 9a9a 273e 8654 ecbd
000000b0: 4f88 6c3e 9ba4 2a3d 8e50 86bd 696c 60bd
000000c0: d3aa b43d 72bf b9bc 9e4a 07be 501b d63d
000000d0: f0c1 f83d be35 9dbc 9621 db3c 5721 3cbd
000000e0: d3f1 18bd aac1 0e3d a6fe 943d 25da 443e
000000f0: e70c 953d 7d2b 0c3e a0d8 0bbe 9f6e 2abd
00000100: e5c8 d33b a4dc 903e 45c4 3fbd c7c6 a4bc
00000110: f709 a03d cbcc 453d b565 73be 3e7c 463b
00000120: 629c cdbd c8a5 e23c 1e79 f8bd 371a 4c3e
00000130: 2fc0 cabd 05a0 333d 21f2 0cbe 4f73 c23c
00000140: 1e99 17be 0394 72bd 3d49 c23d b7f6 9abd
00000150: 64b6 9f3d 3ff4 2ebe de4e bfbc 0d3f 79be
00000160: abe5 be3c ad68 fe3d b2f0 79bc 53e8 57bd
00000170: 40ee b13d 6f58 953d 223d 9c3d 4e0a 65bd
00000180: ae1c 0fbd 0fb6 ce38 835c bfbd 8ad1 e1bd
00000190: 91ff 6dbe 0c74 473e 09a2 33be 1d98 c3bd
000001a0: 54b7 a03d d224 cf3d d0f4 93bd 7f28 2ebe
000001b0: 62dc e1bd dfe0 0b3e f556 24be f291 07be
000001c0: 2f59 1c3c 58b2 3f3e a9ee fd3d 22e6 1f3e
000001d0: 8982 153e de19 8f3d 0297 d53d 7059 523d
000001e0: ba5f 513d 7cfd a0bd 58d0 ab3c f853 bebd
000001f0: 5938 f53d dd7a 2d3e e567 02bd ad99 213e
00000200: 79bd 2bbe ad1a 92bd 9d5c b0bc 4bf2 75bd
00000210: c33a 553d ac67 c63b 9e25 2cbe 3dab 923d
00000220: 2a3a 97bd 6776 ed3c b8cb 693e 6f89 8c3d
00000230: 4ac2 1bbe ca0c e7bd 9efc e33d dba5 de3d
00000240: 1949 51be b2e9 3f3e 3882 a2bd e293 29bd
00000250: 8e63 b83d 6f5c c83b 5062 0f3d 7d37 cbbd
00000260: 3018 113d f5bf 093e 32c4 343e c5f6 6e3e
00000270: f555 833d b5d8 0abe 8b6f f8bd aed5 053e
00000280: 9c0f 83be 29c7 1d3e fe15 a03c baf4 183e
00000290: beb6 abbc 2f23 c7bd 767d 3ebe 10a3 dcbd
000002a0: fa68 873d 06f8 2f3d f2a5 bfbd e131 c63d
000002b0: 52e4 593e a027 163e 1ca6 e13c 9e60 223e
000002c0: 45a6 41bc 4562 193e 6be7 b9bd 6ca7 febd
000002d0: ad1a b1bd 712b cebd 5821 273e 691b bcbd
000002e0: f9eb a7bd df84 84bd 5e6c 82bd 049b 363e
000002f0: 8fbe ff3c c976 b0bd 0334 a9bd 3632 55bd
00000300: 7b58 453e 4123 7bbd 448e 563c bfdc 8cbe
00000310: 3edb 6d3d 8788 5e3e 5a0e c2bd 729d 393e
00000320: ec1d cbbc 66c2 f23d 8ac6 0ebe f995 2b3d
00000330: 7383 52be 3fe8 213e f9a0 013e ac69 c7bd
00000340: a151 da3d fb85 403c 8a39 acbd 40bc 90bd
00000350: 7640 fabc 5c1e 263c c0af b3ba 4448 d2bb
00000360: fd6d a33c 8c31 bf3d 0066 3b3e 75cc dd3d
00000370: c53f 103e 6301 123d 770d e1bd 8899 1bbd
00000380: bf14 403d c6ed 853d 541f 77bd 381d 54bd
00000390: b31f bfbd 5a40 e23d 1373 bebd dc99 1c3e
000003a0: 703b a2bc 348d a1bc d67d bfbd d1ef 093e
000003b0: 41eb 0b3e 4307 133e 05bc 553d 04f7 2e3e
000003c0: ecd0 633e fb85 e73d c9b6 ce3c 32b5 553e
000003d0: 6d18 53be cb0a c9bd 2fd7 90bc 62a1 2d3e
000003e0: 0bcd 933d eb26 9b3d 0e35 7cbe 5b13 ac3d
000003f0: cd53 13bd 4b48 aabd 3d01 f8bc 7051 51bd

bias f4 [128]
0.0019050841 0.0017399447 0.0003856235 -0.00065101625 0.0005847602 -0.00032654934 0.00060886075 0.00024184644
-0.00014467096 0.00033751054 0.00034528555 0.004153983 0.00033109044 0.001490864 5.4219207e-05 0.0006667768
0.003205005 0.0002616665 -0.0017653812 -0.0008542126 0.0009901673 0.000496891 0.0007515312 0.00127841
0.00010379258 0.0014591495 0.0022385733 0.0029637471 0.0016351282 0.0004338524 0.0005696156 -0.00020820284
0.0007852937 0.0016042169 0.0015153205 0.00017032443 -0.0019018543 0.00088808243 0.000587041 0.0029457896
0.0004905649 -0.00010819135 0.0013605392 0.00078290846 0.0020246152 0.0036073332 0.0013721213 -0.0016477668
0.0002496671 0.00027757452 0.00047079413 0.0005496069 0.0019403716 0.0005791818 0.0029619322 0.0022507885
0.0013618126 0.00035347196 -0.00072494836 -0.0006233636 -6.5866676e-05 0.0030432134 0.0029082042 -0.00029863167
0.000130008 0.001407831 -0.00034205764 0.00020980916 0.002390004 -0.0011070808 0.00092225615 0.00084880245
0.000806318 0.00154761 0.0019355033 0.0005804251 -0.0006730844 0.0005453071 -0.00010391484 0.00085720915
0.0016271555 0.000972502 0.0012016579 0.00075489504 0.0016222962 0.0002667706 -0.00080498407 0.00015770039
0.0010298501 0.00015052853 -0.0011268877 0.0021097932 -0.0003346763 0.0015948695 0.0009039859 -0.0004494248
-0.0014895208 0.00060760597 0.00053694233 0.0019384639 -4.9405113e-05 0.0013647514 0.0025225745 0.00014303342
-0.0010128177 0.0022392045 -0.00040970958 0.00048245012 0.0031126037 0.00037805235 -0.00063991896 0.00089828763
-6.621949e-05 0.0013035912 -0.0013746968 0.0007321705 0.0028352346 0.0021221202 0.001690876 0.0008657713
0.0018277265 0.0017545106 8.8651075e-05 0.0020642637 0.0023414046 0.0010511029 0.0018022108 0.0015476524
00000000: 04b4 f93a db0e e43a 832d ca39 f6a8 2aba
00000010: 984a 193a b634 abb9 f49b 1f3a 2998 7d39
00000020: d1b2 17b9 e6f3 b039 7107 b539 231e 883b
00000030: 3596 ad39 1869 c33a 6e69 6338 a2ca 2e3a
00000040: 100b 523b 4830 8939 5d64 e7ba 3ded 5fba
00000050: 80c8 813a ca41 023a 6802 453a 5290 a73a
00000060: 38ab d938 ef40 bf3a 07b5 123b 6d3b 423b
00000070: cc51 d63a af76 e339 4152 153a 0651 5ab9
00000080: 2bdc 4d3a 9644 d23a b89d c63a 1e99 3239
00000090: a447 f9ba 34ce 683a a8e3 193a 260e 413b
000000a0: 4199 003a cae4 e2b8 1f54 b23a 193c 4d3a
000000b0: 68af 043b 0269 6c3b c0d8 b33a e1f9 d7ba
000000c0: c0e5 8239 6c87 9139 ebd4 f639 7f13 103a
000000d0: 1154 fe3a 3cd4 173a fa1c 423b f781 133b
000000e0: d97e b23a 3452 b939 760a 3eba 3969 23ba
000000f0: e721 8ab8 a670 473b 9297 3e3b aa91 9cb9
00000100: c252 0839 f886 b83a 3356 b3b9 3800 5c39
00000110: 9da1 1c3b 781b 91ba 90c3 713a 2b82 5e3a
00000120: 165f 533a 2dd9 ca3a b7b0 fd3a ab27 183a
00000130: ee71 30ba f1f2 0e3a dbec d9b8 55b6 603a
00000140: 4746 d53a 81ef 7e3a f380 9d3a 26e4 453a
00000150: 3aa3 d43a 58dd 8b39 9105 53ba 605c 2539
00000160: 09fc 863a 32d7 1d39 14b4 93ba 7544 0a3b
00000170: 7e77 afb9 f10a d13a 78f9 6c3a c7a0 ebb9
00000180: 063c c3ba bf47 1f3a 97c1 0c3a 0e14 fe3a
00000190: 5638 4fb8 75e1 b23a c751 253b 3efb 1539
000001a0: 86c0 84ba 9ebf 123b 4ace d6b9 5cf1 fc39
000001b0: d3fc 4b3b 5435 c639 3cc0 27ba 107b 6b3a
000001c0: 51df 8ab8 43dd aa3a 2c2f b4ba 21ef 3f3a
000001d0: 58cf 393b 4513 0b3b 62a0 dd3a eef4 623a
000001e0: 5390 ef3a 9bf7 e53a 2fea b938 9948 073b
000001f0: 4072 193b 29c5 893a 2938 ec3a 99da ca3a

weight f4 [263, 128]
-0.027030252 -0.13054644 0.02430995 -0.012208806 -0.013575663 -0.04872839 0.021752587 -0.03417878
0.036494337 -0.032697625 -0.060081594 0.010000672 -0.014842087 -0.00077209674 -0.09347899 -0.025866736
-0.052930366 -0.03580016 -0.023242649 -0.02137654 0.0022572242 0.034914367 -0.004978999 0.02654202
0.06538573 0.037683025 -0.079872526 -0.02012299 -0.059276022 -9.527029e-06 -0.054292683 -0.020912305
-0.016950084 0.00041392678 0.00236411 0.027494945 -0.007838204 0.065347195 -0.008313568 -0.022611393
-0.0012127031 -0.065131195 0.06681733 0.005224384 -0.027414814 -0.06032525 0.075151995 0.08790362
0.009341273 -0.027112339 0.01143098 -0.015559005 -0.04190467 0.009546224 -0.0033097619 0.034410506
-0.04858479 -0.013742087 -0.011382426 0.06298083 0.029940182 -0.06678889 0.021166794 0.010202507
-0.042187095 0.007148115 0.009587909 -0.00033223626 0.032324634 0.026794279 0.015247224 -0.051414326
0.03295843 -0.051247004 0.0119055975 -0.042554304 -0.03476145 0.022363082 0.006285265 -0.026249383
-0.013621274 0.08523213 0.059800815 -0.0060036774 0.018099733 0.052538004 0.004377609 -0.0051516644
0.05557476 -0.058405217 -0.01509544 0.014605077 0.020493643 -0.003688149 -0.0690424 -0.01805806
-0.005794663 -0.004219022 -0.041331585 -0.03879318 0.011353882 -0.040681794 -0.06505135 0.02776378
0.017555533 0.009434999 0.0045594485 -0.017499935 0.051384304 0.0154219605 -0.0085796155 -0.010456903
-0.018983599 0.06392443 -0.0036369865 -0.03972618 0.004765952 0.02003417 0.027481627 0.06329202
0.041097347 -0.018713888 0.01997057 -0.055326596 -0.05307401 0.03997188 -0.05960666 -0.016722953
-0.029958708 0.006187301 0.007822856 0.051607314 0.015443185 -0.018022459 0.028074462 -0.034670416
0.0014774619 0.05115768 0.0021600388 -0.043040045 -0.039534286 -0.030501373 0.006925323 -0.06296328
0.0136671625 -0.026595823 -0.006382822 -0.037855137 0.029431356 -0.034789216 0.014454832 0.014834014
0.018234832 0.028056152 -0.017073054 -0.040872097 -0.042444073 -0.027278518 -0.02416975 0.021023277
-0.042659234 0.025428768 -0.0032413695 0.025496904 -0.08633335 0.057805765 -0.03993897 -0.0025362647
0.07874208 -0.05532919 0.04382021 0.018420514 -0.07951254 -0.08161211 0.06726145 0.016700314
0.011839886 0.032634873 -0.030682003 0.0091446 -0.022315752 0.08367963 -0.04474406 0.010987124
-0.027621992 -0.038797017 -0.04246585 0.017796699 -0.037825193 -0.07865432 0.0460171 0.07844047
-0.019676067 0.078153946 -0.00017868546 0.0040693474 -0.026727872 0.055831704 0.0105251735 0.020563763
-0.008315177 0.023412352 -0.003745055 -0.042955156 -0.0018224946 -0.047716044 -0.0030264414 -0.0036138676
0.019078115 -0.0015691065 0.020417431 -0.014118155 -0.011327539 0.023772787 -0.03662003 -0.012653405
-0.005779161 -0.08024348 -0.04849559 -0.03319986 -0.0050928504 0.005315514 -0.059586026 0.0137829585
0.018004116 -0.027392847 -0.0028154943 0.037352093 0.045339867 -0.03943043 -0.035391144 0.023309436
0.023606045 0.047904532 0.015258011 -0.012949891 0.01597981 0.021421598 0.001090984 0.020499598
-0.007831738 0.066318065 -0.046028502 -0.06187212 -0.009422734 0.041979138 -0.0073359353 0.054855812
0.012492739 -0.1115203 0.020250866 -0.10533574 0.010407158 0.042132195 -0.007656053 -0.06617945
00000000: 8c6e ddbc f7ad 05be a925 c73c 7207 48bc
00000010: 756c 5ebc 6c97 47bd 7b32 b23c 0cff 0bbd
00000020: 167b 153d f2ed 05bd 1e18 76bd dcd9 233c
00000030: 3a2c 73bc 8966 4aba ea71 bfbd 7ae6 d3bc
00000040: 83cd 58bd 30a3 12bd 5e67 bebc db1d afbc
00000050: f0ed 133b 5e02 0f3d df26 a3bb a66e d93c
00000060: f4e8 853d 8459 1a3d 3594 a3bd f8d8 a4bc
00000070: 6acb 72bd 47d6 1fb7 0162 5ebd 4850 abbc
00000080: e7da 8abc 5004 d939 2fef 1a3b 143d e13c
00000090: cf6b 00bc c0d4 853d a235 08bc 873b b9bc
000000a0: 90f3 9eba 8163 85bd 86d7 883d 4f31 ab3b
000000b0: 0895 e0bc 9c17 77bd 4ae9 993d d006 b43d
000000c0: 240c 193c b21a debc 0149 3b3c 32eb 7ebc
000000d0: 3ba4 2bbd c467 1c3c 97e8 58bb 08f2 0c3d
000000e0: d800 47bd 7e26 61bc 5b7d 3abc 18fc 803d
000000f0: 1d45 f53c 9dc8 88bd fc65 ad3c 6a28 273c
00000100: 60cc 2cbd bc3a ea3b 9b16 1d3c ff2f aeb9
00000110: d666 043d ad7f db3c 7ecf 793c d497 52bd
00000120: 6bff 063d 61e8 51bd b20f 433c 6c4d 2ebd
00000130: 0662 0ebd c832 b73c a0f4 cd3b f208 d7bc
00000140: c42b 5fbc 2f8e ae3d b3f1 743d 7fba c4bb
00000150: e445 943c 1732 573d 0c72 8f3b 4bcf a8bb
00000160: 5ca2 633d 4f3a 6fbd dd52 77bc 224a 6f3c
00000170: 49e2 a73c dfb4 71bb 1a66 8dbd 7fee 93bc
00000180: 28e1 bdbb b93f 8abb 4f4b 29bd 99e5 1ebd
00000190: a205 3a3c f4a1 26bd a439 85bd de70 e33c
000001a0: 9fd0 8f3c 4195 1a3c 6d67 953b 065c 8fbc
000001b0: 5978 523d 64ac 7c3c 8491 0cbc 6e53 2bbc
000001c0: 7e83 9bbc d0ea 823d 825a 6ebb ebb7 22bd
000001d0: b42b 9c3b b31e a43c 2621 e13c 3f9f 813d
000001e0: b155 283d de4d 99bc 5299 a33c 249e 62bd
000001f0: 2264 59bd 8eb9 233d 1d26 74bd 93fe 88bc
00000200: f76b f5bc d8be ca3b 702b 003c 3162 533d
00000210: 6a05 7d3c d6a3 93bc 6afc e53c 9102 0ebd
00000220: 65a7 c13a b78a 513d 708f 0d3b c24a 30bd
00000230: b4ee 21bd 04de f9bc d2ed e23b e4f2 80bd
00000240: 3cec 5f3c 7cdf d9bc fe26 d1bb fd0d 1bbd
00000250: 071a f13c 237f 0ebd f6d3 6c3c 5d0a 733c
00000260: 3761 953c 04d6 e53c cadc 8bbc 8069 27bd
00000270: d6d9 2dbd 3377 dfbc a4ff c5bc 0239 ac3c
00000280: 73bb 2ebd fe4f d03c 286d 54bb e2de d03c
00000290: 8acf b0bd bdc5 6c3d 0c97 23bd 7637 26bb
000002a0: 8743 a13d dca0 62bd d27c 333d 9ee6 963c
000002b0: 78d7 a2bd 4024 a7bd 5fc0 893d 19cf 883c
000002c0: 15fc 413c 25ac 053d d358 fbbc 3bd3 153c
000002d0: 86cf b6bc 3a60 ab3d 8c45 37bd 5703 343c
000002e0: 8447 e2bc 9fe9 1ebd acf0 2dbd 62ca 913c
000002f0: 97ee 1abd 8415 a1bd 6d7c 3c3d 66a5 a03d
00000300: b42f a1bc 2d0f a03d 835d 3bb9 2958 853b
00000310: 69f4 dabc c9af 643d c771 2c3c 5675 a83c
00000320: 613c 08bc 43cb bf3c 996f 75bb bff1 2fbd
00000330: c5e0 eeba e671 43bd 4357 46bb a3d6 6cbb
00000340: b549 9c3c 7aaa cdba 7542 a73c d64f 67bc
00000350: 2497 39bc 26bf c23c e2fe 15bd 3a50 4fbc
00000360: 1e5f bdbb b256 a4bd 50a3 46bd 94fc 07bd
00000370: ede1 a6bb c32d ae3b 7a10 74bd ebd1 613c
00000380: 5e7d 933c f766 e0bc 2884 38bb 82fe 183d
00000390: 4cb6 393d cd81 21bd 4ef6 10bd 6ef3 be3c
000003a0: 7761 c13c 8b37 443d bdfc 793c c82b 54bc
000003b0: 17e8 823c 597c af3c 59ff 8e3a c6ee a73c
000003c0: b150 00bc c4d1 873d 6288 3cbd 9f6d 7dbd
000003d0: d061 1abc 51f2 2b3d 4962 f0bb 7db0 603d
000003e0: 58ae 4c3c c164 e4bd 25e5 a53c 44ba d7bd
000003f0: c982 2a3c cf92 2c3d a1df fabb 1789 87bd
