serology/results_intermediate_encoders_2/models/5fold/decoder_human_5.pt (torch, 38799 bytes, 7 tensors)

weight f4 [64]
0	0x3f5a2b44	0.8522227
1	0x3f4cb000	0.79956055
2	0x3f42f4f7	0.76155037
3	0x3f581875	0.8441232
4	0x3f582ed7	0.8444647
5	0x3f40a1b9	0.7524677
6	0x3f553709	0.832871
7	0x3f43bf95	0.76464206
8	0x3f653971	0.89540774
9	0x3f47f307	0.78105205
10	0x3f30a9d0	0.69009113
11	0x3f445d0d	0.76704484
12	0x3f5e56d5	0.86851245
13	0x3f6835bb	0.90706986
14	0x3f60e691	0.87851816
15	0x3f4db1f7	0.8034968
16	0x3f3e4862	0.743292
17	0x3f4e4acd	0.80582887
18	0x3f4bb625	0.79574805
19	0x3f64a546	0.8931469
20	0x3f53ba7b	0.8270642
21	0x3f52cf2c	0.8234737
22	0x3f563209	0.836701
23	0x3f4e6e0f	0.80636686
24	0x3f5b56cc	0.85679317
25	0x3f657d44	0.89644265
26	0x3f51332a	0.81718695
27	0x3f4dfc5a	0.8046318
28	0x3f57b0fd	0.8425444
29	0x3f4297b6	0.7601274
30	0x3f54fa5e	0.8319453
31	0x3f51ce59	0.81955487
32	0x3f68010a	0.90626585
33	0x3f3fedcc	0.74972224
34	0x3f478f1a	0.7795273
35	0x3f475e24	0.7787802
36	0x3f66a4e3	0.9009535
37	0x3f41f726	0.75767744
38	0x3f3f39cc	0.74697566
39	0x3f44a04a	0.7680708
40	0x3f479ed2	0.77976716
41	0x3f49e3a3	0.7886297
42	0x3f5ec06d	0.8701237
43	0x3f508cd7	0.81464905
44	0x3f38757b	0.7205426
45	0x3f481f9d	0.7817324
46	0x3f3fbb76	0.7489542
47	0x3f3f9a5f	0.74844927
48	0x3f34b8b4	0.70594335
49	0x3f5e4ac3	0.8683283
50	0x3f5a6e0f	0.85324186
51	0x3f390b2e	0.72282684
52	0x3f3f329e	0.7468661
53	0x3f39834d	0.72465974
54	0x3f435fd8	0.7631812
55	0x3f5b8545	0.8575023
56	0x3f64c9b0	0.8937025
57	0x3f56be76	0.8388437
58	0x3f4e26a6	0.8052772
59	0x3f404aae	0.7511395
60	0x3f583e02	0.84469616
61	0x3f569f3e	0.83836734
62	0x3f4414d6	0.76594293
63	0x3f5c8af8	0.8614955

bias f4 [64]
0	0xbe383230	-0.17987895
1	0xbe22c781	-0.15896417
2	0xbe10c4d4	-0.14137584
3	0xbe046c09	-0.12931837
4	0xbde08fec	-0.10964951
5	0xbdbde80d	-0.09272776
6	0xbdf77a71	-0.12083901
7	0xbde7c251	-0.1131636
8	0xbe3e9adf	-0.18613766
9	0xbde350e6	-0.110994145
10	0xbdb21281	-0.086949356
11	0xbdd4781f	-0.10374474
12	0xbe31a6ba	-0.17348757
13	0xbe7258f6	-0.23666748
14	0xbe3b1f71	-0.18273713
15	0xbe2a0487	-0.1660329
16	0xbdf50d5b	-0.11965438
17	0xbe17e496	-0.14833292
18	0xbdc1218f	-0.09430229
19	0xbe119c75	-0.1421984
20	0xbe4b4c00	-0.1985321
21	0xbdf4ced9	-0.119535156
22	0xbe15a355	-0.14613087
23	0xbe1344fe	-0.14381787
24	0xbe35a124	-0.17737252
25	0xbe62b3b6	-0.22138867
26	0xbe29f18f	-0.16596054
27	0xbe291ca0	-0.16514826
28	0xbe2d7647	-0.1693965
29	0xbdfa213f	-0.122133724
30	0xbe2096eb	-0.1568257
31	0xbe29296c	-0.16519707
32	0xbe469144	-0.19391352
33	0xbdf39db2	-0.11895312
34	0xbe0ae608	-0.13564312
35	0xbe346cdd	-0.17619653
36	0xbe6105b2	-0.21974829
37	0xbe0a28aa	-0.13492075
38	0xbdfdee6a	-0.123989895
39	0xbde65303	-0.11246302
40	0xbe2329ef	-0.15933965
41	0xbe1fd22a	-0.15607515
42	0xbe39858e	-0.18117353
43	0xbe24b8e2	-0.16086152
44	0xbdb333db	-0.08750125
45	0xbe10d4c2	-0.1414366
46	0xbe0c5ea5	-0.13707979
47	0xbddb34c2	-0.10703422
48	0xbdfafa84	-0.12254813
49	0xbe0678fa	-0.13132086
50	0xbe23f80c	-0.16012591
51	0xbdfab621	-0.122417696
52	0xbdfe66af	-0.12421929
53	0xbe115950	-0.14194226
54	0xbdbef442	-0.09323932
55	0xbe63f6d9	-0.22262134
56	0xbe37e7fd	-0.1795959
57	0xbe308ba2	-0.17240766
58	0xbe1bbdfb	-0.1520919
59	0xbe1bfd76	-0.15233406
60	0xbe23495a	-0.1594595
61	0xbe48c404	-0.19606024
62	0xbe2937c6	-0.16525182
63	0xbe492dd8	-0.19646394

running_mean f4 [64]
0	0x3d4fffbb	0.050780993
1	0xbeac42ad	-0.3364462
2	0xbd9cfd3c	-0.07665488
3	0xbdd51061	-0.10403515
4	0xbe9eea1e	-0.31037992
5	0xbe7561c1	-0.23963071
6	0xbe490e69	-0.19634403
7	0xbdea2d3a	-0.114344075
8	0xbec2005e	-0.37890905
9	0xbebbbb12	-0.3666616
10	0x3d5337c3	0.05156685
11	0x3c2c0260	0.010498613
12	0xbde627ae	-0.11238037
13	0x3ba83e97	0.0051344144
14	0xbd03163e	-0.032003634
15	0xbe84406a	-0.25830394
16	0xbe24b005	-0.16082771
17	0x3c335b94	0.010947127
18	0xbf085313	-0.5325176
19	0xbe6bfe10	-0.23046136
20	0xbd75dcaf	-0.060024913
21	0xbe62ef25	-0.22161539
22	0xbe6dfb26	-0.23240337
23	0xbeaab6ea	-0.33342677
24	0xbd1ef669	-0.038809214
25	0xbc989021	-0.018623414
26	0xbe950308	-0.29103875
27	0xbe4f4486	-0.20240983
28	0x3e64465d	0.22292466
29	0xbcb2ea2c	-0.021840177
30	0xbea00a4b	-0.31257853
31	0xbe052881	-0.13003732
32	0xbd4c2449	-0.04983929
33	0x3cc57714	0.024104632
34	0xbe6e263b	-0.23256771
35	0xbe9c21cf	-0.30494544
36	0xbe5c80fa	-0.21533576
37	0xbbc3f01e	-0.005979552
38	0x3c8793e3	0.01655001
39	0x3dbeb91c	0.093126506
40	0x3e358b9a	0.17729035
41	0xbe88f3bb	-0.26748452
42	0xbe1ca2e4	-0.15296513
43	0xbe9a388a	-0.3012126
44	0xbe235e56	-0.15953955
45	0xbdb72dd3	-0.08944287
46	0xbd94f90b	-0.07274064
47	0x3de47ae9	0.11156256
48	0xbeb6c6cb	-0.35698542
49	0xbc9d77c6	-0.019222151
50	0xbe6cfc22	-0.23143056
51	0xbe5ae03b	-0.213746
52	0xbcdb0a54	-0.026738323
53	0xbea97f57	-0.33104965
54	0xbe2761e3	-0.16345935
55	0xbdc70dd8	-0.09719437
56	0xbe76d769	-0.2410561
57	0xbe8b3765	-0.271907
58	0xbd8eccbf	-0.06972646
59	0xbb3518f9	-0.0027633293
60	0xbda6c57a	-0.081431344
61	0x395ba5e3	0.00020947265
62	0x3da32a4c	0.07967052
63	0x3d26f735	0.0407631

running_var f4 [64]
0	0x3f849e16	1.0360744
1	0x3f3b68d4	0.7320683
2	0x4019ce5b	2.40322
3	0x3f8d7805	1.1052252
4	0x3fc2cadc	1.5218158
5	0x3f5d7928	0.86512995
6	0x3fae7ae7	1.3631257
7	0x3f3eab88	0.74480486
8	0x3fa9fd81	1.3280488
9	0x3f814613	1.009951
10	0x40177ccd	2.3669922
11	0x409ae183	4.8400283
12	0x3f6074e7	0.8767838
13	0x3f49fc5e	0.78900707
14	0x3fb64944	1.4241109
15	0x3f5cdd4e	0.86275184
16	0x3fec4b5c	1.8460498
17	0x409834f3	4.7564635
18	0x3f76f28a	0.96463835
19	0x3ff5aa5e	1.9192617
20	0x3f2b554d	0.66927034
21	0x3f31c668	0.6944337
22	0x3fa4988d	1.2859055
23	0x3f458698	0.771585
24	0x3fb5942d	1.4185845
25	0x3f902878	1.126235
26	0x3f4e8bac	0.8068187
27	0x3fd19226	1.6372726
28	0x3fc92530	1.5714474
29	0x402e7c9d	2.7263558
30	0x3f68d697	0.9095244
31	0x3fc31a43	1.524239
32	0x3f395e31	0.7240935
33	0x40913cc7	4.538669
34	0x3f3422db	0.70365685
35	0x3f70aaab	0.9401042
36	0x3f96d575	1.1783892
37	0x400df862	2.218285
38	0x405785eb	3.3675487
39	0x3eebf687	0.46086523
40	0x3fa94ec6	1.3227165
41	0x3f68ed61	0.9098721
42	0x3fd5549b	1.6666445
43	0x3f3d1f7b	0.7387616
44	0x411c6a9e	9.77603
45	0x40e2aef9	7.083859
46	0x404e3c22	3.2224202
47	0x4104a0f2	8.289293
48	0x3ff0db11	1.8816854
49	0x3f84a04f	1.0361422
50	0x3f32874b	0.6973769
51	0x3fbc3576	1.4703815
52	0x3f6b8a58	0.9200797
53	0x405cb483	3.4485176
54	0x40b5b618	5.6784782
55	0x3f37b236	0.71756303
56	0x3f84c588	1.0372782
57	0x401f9347	2.493364
58	0x3fbf4607	1.4943246
59	0x3ffa5f4c	1.9560332
60	0x3f4ea2d5	0.8071721
61	0x3f546bcc	0.82976985
62	0x3fb372f4	1.4019456
63	0x3f0f5768	0.55992746

weight f4 [64, 32]
0	0x3e0829e8	0.13297236
1	0x3e1bc080	0.15210152
2	0x3e1c8a9d	0.15287252
3	0xbe74a838	-0.23892295
4	0x3e95d8e1	0.29267028
5	0xbd79c3d3	-0.06097777
6	0xbd51106f	-0.051041063
7	0x3e23d5d0	0.15999532
8	0x3e0066de	0.1253924
9	0x3ccf577b	0.025310269
10	0xbc1bf23e	-0.009518204
11	0x3e3ca17b	0.18420975
12	0x3dbdedae	0.092738494
13	0xbd8bbbfd	-0.06822965
14	0x3e8cae77	0.27476856
15	0xbd8983c2	-0.06714584
16	0xbcdb0f3b	-0.02674066
17	0x3db5549d	0.08854029
18	0xbdec7d2a	-0.11547311
19	0x3d1d41ce	0.038392834
20	0xbe5563e2	-0.20838884
21	0x3def458f	0.11683189
22	0x3bc10ca9	0.005891402
23	0xbe44df18	-0.19225729
24	0x3e882521	0.26590827
25	0xbe1ac95a	-0.15115872
26	0xbde2e428	-0.110786736
27	0x3e03aab3	0.12858085
28	0x3e7bf145	0.24603756
29	0xbdada1ce	-0.084781274
30	0x3de433e9	0.111427136
31	0x3e1c35e4	0.15254933
32	0xbde4649a	-0.11152001
33	0x3dc9aad7	0.09847038
34	0xbd9546a7	-0.072888665
35	0x3e0c1509	0.136799
36	0xbca677e2	-0.020320836
37	0x3e783cfa	0.2424201
38	0xbe3a47e0	-0.1819148
39	0xbd0299e0	-0.031885028
40	0x3cec3c80	0.028837442
41	0xbca9effc	-0.020744316
42	0x3e58ec84	0.21183974
43	0xbdedade8	-0.116054356
44	0xbdf8e409	-0.12152869
45	0x3db07823	0.08616664
46	0x3e0584bf	0.1303892
47	0xbca82c21	-0.020528855
48	0x3e168d1e	0.1470227
49	0xbd5300d7	-0.051514473
50	0xbe4bf3e0	-0.1991725
51	0x3ea2801c	0.31738365
52	0xbd81cb13	-0.063375615
53	0x3d8d75f4	0.069072634
54	0xbdff4a51	-0.124653466
55	0xbe0cf5e7	-0.1376568
56	0xbd29f678	-0.041494817
57	0x3e2abdc3	0.16673951
58	0xbdc2a582	-0.09504224
59	0xbd9d8a71	-0.07692421
60	0x3e093a4d	0.13401146
61	0xbe25f1e0	-0.16205549
62	0xbd3bd5b5	-0.045858104
63	0x3e8e3826	0.27777213
64	0x3e7cb587	0.24678622
65	0x3e46e3c4	0.19422823
66	0xbcb8ac6a	-0.022543151
67	0xbe9639e1	-0.29341033
68	0x3e20402f	0.15649484
69	0x3df26f40	0.118376255
70	0xbe64e247	-0.22351943
71	0xbd961a3a	-0.07329221
72	0x3e6c6ca4	0.23088318
73	0x3e53f074	0.20697194
74	0x3e82e0f1	0.25562242
75	0x3e23140f	0.1592562
76	0xbe8b5560	-0.27213573
77	0xbd8ed5cf	-0.069743745
78	0xbe50a50d	-0.20375462
79	0xbdb6fedf	-0.089353316
80	0xbcc8584b	-0.024456164
81	0x3e2e7f27	0.17040692
82	0x3e5cd9d9	0.21567477
83	0xbdff71bd	-0.12472866
84	0x3d9c6438	0.07636303
85	0x3d57a310	0.052645743
86	0xbe207283	-0.15668683
87	0x3e1bdd9d	0.15221258
88	0x3e6196fb	0.2203025
89	0xbbc61028	-0.0060444064
90	0x3e3fb7ea	0.18722501
91	0x3e0e3273	0.13886432
92	0x3e135244	0.1438685
93	0xbe7b3f52	-0.24535874
94	0xbddd2d88	-0.107997
95	0x3e15b996	0.14621577
96	0x3e5d5ccf	0.21617435
97	0x3e628525	0.22121103
98	0x3d9be2b9	0.07611603
99	0xbd9d41c2	-0.07678558
100	0x3e4b021c	0.19825023
101	0xbd8c1bc8	-0.06841236
102	0x3e7e69bf	0.24845026
103	0x3e3f2fd0	0.18670583
104	0x3e0ecb0d	0.13944645
105	0xbbc3fcda	-0.00598107
106	0xbe3f1c8b	-0.18663232
107	0xbc007def	-0.007842525
108	0xbe73a611	-0.23793818
109	0x3e60d03e	0.21954438
110	0x3e7d4e94	0.24737006
111	0xbe481122	-0.19537786
112	0xbde57bc1	-0.11205245
113	0x3e53f4f9	0.20698918
114	0x3cbf476f	0.023349492
115	0x3e92f49c	0.28702247
116	0x3e1cc4be	0.15309426
117	0xb7634819	-1.3547041e-05
118	0xbdc447a4	-0.09583977
119	0xbe3992a9	-0.18122353
120	0xbe15ae13	-0.14617185
121	0x3dda1d07	0.10650068
122	0xbe58b05a	-0.21161023
123	0xbd590b41	-0.05298925
124	0x3d52a4c1	0.051426653
125	0x3dedb0c9	0.11605985
126	0x3e03d38d	0.12873669
127	0x3e1bec00	0.15226746
128	0xbd666739	-0.056250785
129	0x3d632b9a	0.055461504
130	0x3c14e85d	0.009088603
131	0xbd2ed5e5	-0.042684454
132	0xbd2aff90	-0.04174763
133	0xbe07f8dd	-0.13278528
134	0xbd56b48e	-0.052418284
135	0xbdaeaeab	-0.08529409
136	0x3d77c184	0.060487285
137	0x3e0c0517	0.13673817
138	0x3e4f0e45	0.20220287
139	0x3e73a802	0.23794559
140	0x3d990a7c	0.07472703
141	0x3dc07f63	0.09399297
142	0xbd090894	-0.033455446
143	0x3e7cc4a4	0.24684387
144	0x3d99a235	0.07501642
145	0x3e195de4	0.14977223
146	0xbe199f57	-0.1500219
147	0x3e2e52ad	0.17023726
148	0xbe3da485	-0.1851979
149	0xbe53a80b	-0.20669572
150	0xbd956ee2	-0.0729654
151	0x3d7677b5	0.060172755
152	0x3dd0256c	0.10163388
153	0x3e9462fc	0.2898177
154	0x3db7b79d	0.08970568
155	0xbe5e2fb4	-0.21697885
156	0xbcb9a6a8	-0.022662476
157	0xbde712b7	-0.112828664
158	0x3e168099	0.14697494
159	0xbd974db3	-0.07387867
160	0x3e174d77	0.14775644
161	0xbe0b5c69	-0.1360947
162	0xbd8a58ff	-0.06755256
163	0x3d69a2c9	0.05704001
164	0x3b8a6eb3	0.004224622
165	0x3e5256fa	0.20540991
166	0x3db0a8d9	0.08625955
167	0x3e27728c	0.1635229
168	0xbde5af9a	-0.11215134
169	0xbda21503	-0.07914164
170	0x3e95723d	0.2918872
171	0x3d242b50	0.04008037
172	0xbe3461a0	-0.17615366
173	0x3c71af61	0.014751286
174	0xbcda8b8f	-0.026677875
175	0x3cd506a2	0.02600414
176	0x3caf6c8e	0.021414068
177	0x3d7cb548	0.06169632
178	0x3d760d5f	0.060071345
179	0x3ddeb93c	0.108751744
180	0xbb91b138	-0.004446175
181	0x3dba1a3e	0.090870366
182	0x3d838d06	0.064233825
183	0x3e6f10c7	0.23346244
184	0xbe72c718	-0.2370876
185	0xbe336045	-0.17517193
186	0xbd189ca4	-0.03725876
187	0xbe11a09b	-0.14221422
188	0xbe901ce5	-0.28147045
189	0x3cebdcd0	0.028791815
190	0xbdab33a4	-0.08359459
191	0x3dc8f89a	0.09813042
192	0xbe61097c	-0.21976274
193	0xbdc65160	-0.0968349
194	0xbe0dbad4	-0.138408
195	0xbdf55135	-0.1197838
196	0x3de86f6f	0.11349379
197	0x3e0ce2d1	0.13758399
198	0xbe1ad552	-0.15120438
199	0xbddc3073	-0.107514285
200	0xbe96a259	-0.29420736
201	0xbe143354	-0.14472705
202	0xbb554773	-0.0032543808
203	0x3e422fc0	0.18963528
204	0xbe905d0d	-0.28195992
205	0x3dc28c88	0.094994605
206	0x3e33dd73	0.17564945
207	0xbe33e83f	-0.17569064
208	0x3e5fff96	0.21874842
209	0x3e09136d	0.13386317
210	0xbdea534a	-0.114416674
211	0xbe030b0e	-0.12797186
212	0x3d479d39	0.048733924
213	0xbdb7c45d	-0.08973
214	0x3cfa64cd	0.030565644
215	0xbcd81d17	-0.026381059
216	0xbd7a9ca8	-0.061184555
217	0xbe31775a	-0.17330685
218	0xbd5bcfa6	-0.053664826
219	0xbe1fdc77	-0.15611444
220	0xbe6e8286	-0.23291978
221	0xbe312dd7	-0.17302643
222	0xbea35ae3	-0.3190528
223	0xbe5e869b	-0.21731035
224	0x3d4259ae	0.047448806
225	0xbe34f3e5	-0.17671163
226	0x3ccf04ba	0.025270808
227	0xbe0a9175	-0.1353205
228	0xbeab387a	-0.33441526
229	0xbd892c35	-0.06697885
230	0xbdfa3893	-0.12217822
231	0xbcad5d83	-0.021162754
232	0xbe8358f7	-0.25653812
233	0xbca3334a	-0.019921917
234	0xbd6d974b	-0.058005612
235	0x3ea8466f	0.32866237
236	0x3d46c64b	0.04852895
237	0xbdf45813	-0.11930861
238	0x3df5e008	0.12005621
239	0xbddf3016	-0.108978435
240	0x3d997277	0.074925356
241	0xbe3855fc	-0.1800155
242	0x3d0988fa	0.033577897
243	0x3e5746b9	0.21023072
244	0x3dd50e97	0.104031734
245	0xbe38486c	-0.17996377
246	0x3d828f32	0.063749686
247	0x3d6b0075	0.057373483
248	0x3e7d36c7	0.24727927
249	0xbd25a927	-0.04044452
250	0xbcc38125	-0.023865292
251	0xbd6d07ab	-0.05786864
252	0xbe1c2237	-0.15247427
253	0x3e05766f	0.1303346
254	0xbde18c75	-0.11013118
255	0xbdc9d359	-0.098547645

bias f4 [64]
0	0x38cce149	9.769441e-05
1	0x3b027a01	0.0019909146
2	0xba16b179	-0.00057484914
3	0xba9dfb80	-0.0012053102
4	0x39820b48	0.00024803937
5	0x3a63b7bf	0.0008686743
6	0x39879b0c	0.00025864725
7	0xb980444b	-0.00024464945
8	0x3a9fff8f	0.00122069
9	0xb9d63cb4	-0.00040862488
10	0xba0e0570	-0.00054176804
11	0x3908bf6d	0.00013041282
12	0xba2b2fef	-0.0006530275
13	0xb9be476b	-0.00036292835
14	0xba100c77	-0.00054950215
15	0x35dea7de	1.6589145e-06
16	0x3aa89602	0.0012862089
17	0x394f5507	0.00019772734
18	0xb7851c98	-1.586815e-05
19	0xba56da5e	-0.00081959914
20	0x3a26d542	0.00063641754
21	0xbab19cd3	-0.0013550766
22	0x3993b7bf	0.00028174926
23	0x3a123757	0.0005577704
24	0x39e18c10	0.000430197
25	0xb953fa65	-0.00020215807
26	0x3927e5ca	0.00016011964
27	0xb8f3845f	-0.00011611799
28	0x3a56b0c1	0.00081897905
29	0x391efafc	0.00015161553
30	0x38112a83	3.4610286e-05
31	0x3a83547b	0.0010019684
32	0xb9e21ffb	-0.00043129906
33	0xb9844f7c	-0.00025236222
34	0x3a7bbcd2	0.00096030266
35	0xba99b4d5	-0.0011726866
36	0xb9d7b3c7	-0.0004114194
37	0xba26109f	-0.0006334874
38	0xb82b9a6d	-4.0913397e-05
39	0xba2c01c7	-0.0006561544
40	0x3a0cdbf0	0.00053733494
41	0xba47a710	-0.0007616142
42	0xb9a9d661	-0.00032393917
43	0x3a0409c2	0.00050368544
44	0x3a28dcb9	0.00064415816
45	0xb83dbe14	-4.5238135e-05
46	0xb8fb48a2	-0.000119821416
47	0xb91f1a43	-0.00015173205
48	0xb90b3666	-0.00013276338
49	0x3945c120	0.00018859329
50	0x39652909	0.00021854429
51	0xb82dee2d	-4.1468233e-05
52	0x3a10f1f3	0.00055292173
53	0x388892dd	6.512341e-05
54	0x388017b2	6.107929e-05
55	0x395e7e8b	0.00021218711
56	0x3a297ec9	0.0006465731
57	0xba80206b	-0.0009775286
58	0x39d808b1	0.00041205206
59	0xba1df6d8	-0.00060258573
60	0x3a950f01	0.0011372269
61	0xb9b94c72	-0.00035342906
62	0xb78d6fa2	-1.6860493e-05
63	0x3a1b0c70	0.0005914634

weight f4 [99, 64]
0	0x3c81ea9d	0.015858943
1	0x3c8db900	0.017300129
2	0x3dc6cdbf	0.09707212
3	0xbd518f6d	-0.051162172
4	0x3e15b4ce	0.14619753
5	0xbbb6c4a9	-0.005577643
6	0x3cb76807	0.022388471
7	0xbbded1cd	-0.0067999125
8	0xbcc68f90	-0.024238378
9	0xbd120207	-0.035646465
10	0x3bfe4827	0.007760066
11	0xbc638766	-0.013887262
12	0x3e49fca6	0.19725284
13	0xbd5df1de	-0.05418574
14	0x3e1b03c5	0.15138157
15	0xbd71bbfa	-0.05901716
16	0x3d5c15bb	0.05373166
17	0xbc717e8d	-0.014739645
18	0xbcd5540e	-0.026041057
19	0x3e11314f	0.14178966
20	0xbbdfa1ba	-0.006824699
21	0x3c3e73ef	0.01162432
22	0x3d10f385	0.03538849
23	0xbdb5b2d6	-0.08872001
24	0x3e0afe88	0.13573658
25	0xbd0384ae	-0.032108955
26	0x3d8b3bcd	0.067985155
27	0xbdaafbcf	-0.0834881
28	0xbd8bf872	-0.068344966
29	0xbb6c92fb	-0.003609835
30	0xbd1fb993	-0.038995337
31	0xbd88777a	-0.06663413
32	0x3de021d5	0.10943953
33	0xbc098523	-0.008393559
34	0xbd1db14b	-0.038499158
35	0xbcbfb83c	-0.02340328
36	0xbd7c4679	-0.061590645
37	0x3d624acc	0.055247113
38	0x3a78b7f7	0.0009487862
39	0xbd5aa45d	-0.053379405
40	0x3d384ef4	0.04499717
41	0xbc703966	-0.014662122
42	0x3e596075	0.21228202
43	0x3dceeec5	0.101041354
44	0xbc5f1336	-0.01361542
45	0xbca37b2d	-0.019956196
46	0x3ca46ccd	0.020071412
47	0xbba49e3d	-0.0050237463
48	0xbd2656bc	-0.04061006
49	0x3dc08a28	0.09401351
50	0xbcba295b	-0.022724798
51	0x3c4ac823	0.012376818
52	0x3cb26694	0.021777429
53	0xbcb0a058	-0.021560833
54	0xbb97fc0c	-0.0046382006
55	0x3d6f40de	0.05841147
56	0x3d94c6c8	0.07264477
57	0xbd589994	-0.05288084
58	0x3d26df06	0.040740035
59	0x3d817a49	0.06322152
60	0x3d113267	0.035448458
61	0x3d6ba065	0.05752601
62	0xbb5f7dba	-0.0034102038
63	0x3ceb3063	0.028709596
64	0x3d8ac297	0.06775396
65	0xbd7cb184	-0.06169273
66	0x3b42a337	0.0029699334
67	0xbd06408b	-0.032776397
68	0x3caf3654	0.02138821
69	0x3b83f70e	0.004027254
70	0x3c9c1dbf	0.019057153
71	0x3d161c1b	0.036647897
72	0xbe099258	-0.13434732
73	0x3daff0f5	0.08590881
74	0x3c5f2cec	0.01362155
75	0x3ae11d8d	0.0017174945
76	0xbca40319	-0.020021008
77	0xbd3ad499	-0.045612905
78	0x3cf346a2	0.029696766
79	0xbb91a875	-0.0044451305
80	0x3cbddec4	0.023177512
81	0xbc5ccb4e	-0.013476206
82	0x3b5c9659	0.003365895
83	0x3c42145b	0.011845673
84	0xbcd8326c	-0.02639123
85	0xbcbc8455	-0.02301232
86	0x3dd0994a	0.101854876
87	0x3ca93f07	0.020659937
88	0x3e0c60a6	0.13708743
89	0xbd0c24fb	-0.034214955
90	0x3d17bb15	0.03704365
91	0xbc297b53	-0.010344344
92	0x3dd9b973	0.10631075
93	0xbcce8ae9	-0.025212722
94	0x3d913976	0.07091038
95	0xbcfc4a37	-0.030797107
96	0x3dfbe3f9	0.12299342
97	0xbcae0fe3	-0.02124781
98	0x3d62523a	0.0552542
99	0x3cc92a4f	0.024556307
100	0xbc2386cc	-0.009980869
101	0x3cf05def	0.029341666
102	0x3c04b25f	0.008099168
103	0x3dd928db	0.10603496
104	0x3dc83d28	0.0977729
105	0xbc2846d6	-0.010270795
106	0xbd03dc05	-0.03219225
107	0xbca722f0	-0.020402402
108	0xbc049b9a	-0.008093739
109	0xbca61520	-0.020273745
110	0xbd12d623	-0.035848748
111	0xbce62d47	-0.028097762
112	0xbd3691f3	-0.04457278
113	0x3ab3f7e8	0.0013730498
114	0xbb13c219	-0.002254611
115	0xbabd2fe2	-0.0014433826
116	0x3c7affc4	0.015319768
117	0x3c5ecbd6	0.013598403
118	0xbc896c04	-0.016775139
119	0xbd963486	-0.07334237
120	0x3c20d17a	0.009815568
121	0x3d416a09	0.047220264
122	0x3d6085d1	0.054815117
123	0x3de05a6c	0.109547466
124	0xbd1b608a	-0.037933864
125	0xbcdba28e	-0.02681091
126	0x3dbd9e77	0.092587404
127	0xbd2c9591	-0.042134825
128	0x3d544b79	0.05182979
129	0xbcfc60c8	-0.030807868
130	0xbc6a0232	-0.01428275
131	0x3a41d535	0.0007394136
132	0x3ca228bf	0.01979482
133	0xbd08743f	-0.033313986
134	0xbc745adb	-0.01491424
135	0x3ce71d71	0.028212281
136	0xbd7f79ec	-0.062372133
137	0x3d13270c	0.03592591
138	0xbb88c265	-0.0041735643
139	0xbca68970	-0.020329207
140	0x3cb193a6	0.02167685
141	0xbd440794	-0.04785879
142	0x3dd0bdf7	0.10192483
143	0xbcbd819e	-0.023133095
144	0x3d8efaea	0.06981452
145	0xbcc7a7d0	-0.024372011
146	0xbceaf6a9	-0.02868207
147	0x3d896858	0.06709355
148	0xbd57dd1e	-0.05270111
149	0x3c22fcdd	0.009947983
150	0x3e106cd2	0.14104012
151	0x3d9da447	0.07697349
152	0x3e094e8b	0.13408868
153	0xbd7c3322	-0.0615722
154	0x3d1b598b	0.03792719
155	0x3d0da24c	0.034578606
156	0x3d279982	0.04091788
157	0xbc7542c5	-0.014969532
158	0x3d322281	0.043489937
159	0xbab9343a	-0.0014129945
160	0x3dfef894	0.12449756
161	0xbcaa9d5c	-0.020826988
162	0x3c5f4590	0.013627425
163	0x3dca0557	0.098643
164	0x3d3184ae	0.043339424
165	0x3a586096	0.00082541385
166	0x3b06c76a	0.0020565637
167	0x3dc5dbb1	0.096610434
168	0xbca3a175	-0.01997445
169	0xbd4335e0	-0.0476588
170	0xbc3d6087	-0.011558658
171	0x3c9f01a2	0.019409958
172	0xbcb22162	-0.021744434
173	0xbc7b4c23	-0.015337977
174	0xbc83aebf	-0.016074536
175	0xbcdb5086	-0.026771795
176	0xbce400a7	-0.027832342
177	0x3d1810ed	0.037125517
178	0xbd1a1d81	-0.037625793
179	0xbd1afa3f	-0.03783631
180	0xbce3cbfb	-0.027807226
181	0x3d3c61a4	0.045991555
182	0xbd134c11	-0.035961214
183	0xbddfe8e9	-0.10933096
184	0x3daac5b2	0.08338489
185	0x3da01814	0.078170925
186	0x3d6dbc26	0.05804076
187	0x3de4c3bb	0.11170145
188	0xbc092e90	-0.008372918
189	0xbb089dc0	-0.002084598
190	0x3ddb8522	0.107187524
191	0x3c192678	0.009347551
192	0x3db5e83b	0.08882185
193	0xbd615a86	-0.05501797
194	0x3cd6768a	0.02617957
195	0x3e19ec21	0.15031482
196	0x3d882a5c	0.066487044
197	0xbc30e23f	-0.010796129
198	0xbc9f3408	-0.01943399
199	0xbae492f6	-0.0017438817
200	0xbca15f84	-0.019698866
201	0xba1841be	-0.0005808136
202	0xbb640fcc	-0.0034799455
203	0xbaa5b7b8	-0.0012643253
204	0x3b04ba72	0.0020252732
205	0xbc5f7bb0	-0.013640329
206	0x3cfac605	0.030612001
207	0xbdc9738e	-0.098364934
208	0x3cf3c0e5	0.029755065
209	0xba82443e	-0.0009938551
210	0xbd25ce4f	-0.040479954
211	0x3db70b09	0.08937652
212	0xbcceb0cd	-0.02523079
213	0xbbfc7785	-0.0077046775
214	0x3d4f60cc	0.050629422
215	0x3c096ad7	0.008387289
216	0x3dadba79	0.084828325
217	0xbd377f2f	-0.044799026
218	0xbc830bb4	-0.015996791
219	0x3dc269f3	0.094928645
220	0x3d8764c3	0.06611016
221	0xbc85db64	-0.016339965
222	0x3dd7d350	0.105383515
223	0x3dede021	0.11615015
224	0xbab0a68e	-0.0013477372
225	0x3bbb01d9	0.0057070074
226	0xbcf5312f	-0.02993068
227	0xbcef8f3f	-0.02924311
228	0xbd8d6301	-0.06903649
229	0xbc6e2778	-0.014535777
230	0x3c181337	0.009281925
231	0x3d39ed64	0.04539241
232	0xbce25813	-0.027629888
233	0xbd8b50c4	-0.06802514
234	0xbcce8f2f	-0.02521476
235	0xbdc22bf1	-0.094810374
236	0xbc056021	-0.008140595
237	0xbaf394ac	-0.0018583736
238	0xbc785efd	-0.015159366
239	0xbb950dbc	-0.0045487564
240	0xbc25ab6b	-0.01011167
241	0x3ded8ffe	0.1159973
242	0x3c7715ee	0.015080912
243	0xbc7c7c33	-0.015410471
244	0xbb8163f1	-0.0039486815
245	0x3daefdb7	0.08544486
246	0xbc71aaee	-0.0147502255
247	0xbcc83168	-0.024437621
248	0xbc21c179	-0.009872788
249	0x3d4a818a	0.049439944
250	0x3e3274f4	0.17427427
251	0x3d96b147	0.07358032
252	0xbdad420e	-0.084598646
253	0x3dc23209	0.094822
254	0x3d6dc87c	0.058052525
255	0x3de2e956	0.110796615
