serology/results_intermediate_encoders_2/models/5fold/encoder_primates_1.pt (torch, 80975 bytes, 7 tensors)

weight f4 [64]
00000000: 652c 5e3f d25c 6a3f cd5b 853f 5add 873f
00000010: af61 513f 7337 5f3f a794 543f fbaf 873f
00000020: f9b0 5a3f ce3c 893f 0415 563f eb16 673f
00000030: 5c13 673f 05e0 5a3f 76e6 6a3f f1b0 5e3f
00000040: 5155 863f e47f 8a3f c0c9 7e3f 5509 873f
00000050: d08e 863f e8ba 5e3f db44 613f 7396 773f
00000060: 95a0 833f 110c 733f cbf2 683f fe61 7b3f
00000070: 64e8 683f cb35 793f a35e 7e3f 1768 783f
00000080: 80f5 793f f5d4 6e3f 2306 763f df2b 823f
00000090: 76b6 663f f381 823f 9c39 7b3f c947 753f
000000a0: a045 643f 8e54 7d3f bafe 953f 2164 5e3f
000000b0: 654f 663f 6b50 713f d1bd 823f e057 7a3f
000000c0: 80f7 623f 7079 7d3f 9675 763f a5e4 6f3f
000000d0: 8b16 613f 436e 703f 36ec 693f b791 643f
000000e0: 756e 833f 3b57 733f f8ec 643f 3d60 5c3f
000000f0: 8250 873f 5370 8a3f 33c5 673f c432 6f3f
0.8678649 0.9154788 1.041864 1.0614426 0.8178968 0.87193984 0.83039325 1.060058
0.8542629 1.0721681 0.8362582 0.90269345 0.90263915 0.85498077 0.91757905 0.8698874
1.0494787 1.0820279 0.99526596 1.0549723 1.0512333 0.87003946 0.8799569 0.9671394
1.0283381 0.94940287 0.9099547 0.981964 0.909796 0.97347707 0.99363154 0.9703383
0.9764023 0.93293697 0.96103114 1.0169638 0.90122163 1.0195907 0.9813478 0.9581266
0.8916874 0.98957145 1.1718361 0.86871535 0.89964896 0.94263333 1.0214177 0.97790337
0.88658905 0.99013424 0.9627317 0.9370826 0.8792502 0.93918246 0.91376054 0.89284843
1.0268084 0.9505498 0.89424086 0.8608435 1.0571444 1.0815529 0.9053528 0.9343684

bias f4 [64]
00000000: e6d0 57be 7e54 e7bd 07eb a33e 5592 ca3e
00000010: 5950 64be d441 08be fe3a 4abe 4db0 6f3e
00000020: cc44 a0be e9e6 a03e 9a7b b9be 8c61 98bd
00000030: a600 2f3e 8c96 acbd c40e 68be d019 26be
00000040: 7264 b23e 9721 f5bd 9c47 56bc 15db 083b
00000050: 77a3 ab3e c6ec 523d 12e3 07be a125 61be
00000060: d107 1a3e 8642 2bbe e0b0 6a3e 1ce4 343e
00000070: c0f5 2ebc 8dc9 cfbe f338 bebd 26a8 8a3d
00000080: 5074 bbbd bcde 453e c969 183e 590e b73d
00000090: 4c0c e3bd ab1d b43e d692 153e 0057 aabd
000000a0: 4b49 483d 486d 343d 185b c13e a0e1 313d
000000b0: e470 73be 5cf8 8ebd bc92 993e fa4e 193e
000000c0: f0e5 24bd 414f da3b ea58 c6be 86f0 a13d
000000d0: ca97 893c 3877 acbe 7b7f 23be b287 6d3e
000000e0: 5e22 0f3e 9b4b 76be 5252 a03d df9c 6fbe
000000f0: 0e2c 823e 6da5 db3b 2b81 aebd 691a 5dbd
-0.21075782 -0.112954125 0.3201525 0.39564767 -0.22296275 -0.13306361 -0.19749066 0.23407097
-0.31302488 0.3142617 -0.36227113 -0.074404806 0.17090091 -0.08427152 -0.22661883 -0.16220784
0.3484226 -0.119692974 -0.013078596 0.0020882536 0.3352315 0.051495336 -0.13270214 -0.2198701
0.15042044 -0.16724595 0.22919035 0.17665142 -0.010678709 -0.4058346 -0.09288206 0.06770353
-0.09153044 0.19323248 0.14884104 0.089382835 -0.1108633 0.35178885 0.14606795 -0.08317375
0.048898023 0.04404953 0.37764812 0.043428063 -0.23773533 -0.069809645 0.29994762 0.14971533
-0.040258348 0.00666228 -0.3873971 0.07907204 0.016796011 -0.33684707 -0.15966599 0.23196295
0.13977954 -0.24052279 0.07828201 -0.23399685 0.25424236 0.00670307 -0.085207306 -0.053980265

running_mean f4 [64]
00000000: 95d3 d63c 1884 83be d8fd 493f 8d2d 843f
00000010: 4f3d 9cbf 2241 90bd 55c3 90bf 33d1 ddbd
00000020: 14f2 1cbf 1f80 c83e 9d39 ecbe b21e efbe
00000030: 88e7 9e3e 950f 6fbf 3f0d 1ebf ead5 22bf
00000040: ab8c 213f cc2c d7be 72bf 5cbf 2463 033f
00000050: 1cc4 00bf 0309 d23e 7fc4 2abf 682a 97bf
00000060: 2749 b33d 76a1 e2bd 9d90 f1be 0cd1 f23e
00000070: 0751 b3be a564 1dbf 209c 1a3f 49ca ba3d
00000080: 030c 2fbf c1a7 433f 125c a93f 370b d53e
00000090: 6250 263e e233 f4bd a34b c53e 2114 bd3d
000000a0: 7212 243f 26b9 cd3d c78d 933e 3be9 f5be
000000b0: b6db 47bf 540e 0f3f b3e3 7cbe 6a0c de3d
000000c0: b76b 10be c082 43bd f1a9 f9be 67a2 2abf
000000d0: a6b3 a83f c764 11bf b7e9 4a3d 22df 31be
000000e0: 8efa eabd 645f 82bf 83b2 2abf 1cb8 4bbf
000000f0: f4e5 bd3e ce00 8b3d 95d9 2dbe b944 863e
0.026223937 -0.25686717 0.7890296 1.0326401 -1.220621 -0.07043673 -1.1309611 -0.10830917
-0.6130688 0.3916025 -0.46137705 -0.46703106 0.3103602 -0.9338315 -0.6173896 -0.63607657
0.6310527 -0.42026365 -0.8622962 0.5132315 -0.5029924 0.410225 -0.6670608 -1.1809816
0.08754187 -0.110659525 -0.47180644 0.47425115 -0.35022756 -0.61481696 0.6039448 0.09120614
-0.68377703 0.7642785 1.3231223 0.4161012 0.16241601 -0.11923958 0.3853427 0.09232355
0.64090645 0.1004508 0.28819105 -0.48029503 -0.7806963 0.5588124 -0.24696235 0.108422115
-0.1410359 -0.047732115 -0.48762468 -0.66654056 1.3179824 -0.567944 0.049539294 -0.17370275
-0.11473571 -1.0185361 -0.6667864 -0.79577804 0.37089503 0.06787263 -0.16977532 0.26224306

running_var f4 [64]
00000000: 3674 7041 f139 2f41 68d3 4041 333f 2741
00000010: 167f 7d41 5a87 a140 d600 e940 ca94 0d41
00000020: 0f2f 4441 624e 3f41 7a2d c640 333d 8b41
00000030: f89b 1541 b033 2f41 5ea4 5541 0f11 6f41
00000040: ab76 0741 8c69 bb40 d7c6 a540 5102 3441
00000050: c712 e940 78b7 0e41 8591 d240 222f a541
00000060: 913d 0441 4be7 ad40 4952 5c41 5ff8 d840
00000070: 8133 f240 53c1 2941 6580 0941 17ae 3741
00000080: 7928 2741 0863 3141 56a3 7841 b77b ff40
00000090: 1b83 4841 5999 3541 f185 af40 f37f 1b41
000000a0: d84e 1641 06d2 2141 6bac 0541 8a27 1041
000000b0: c236 3541 7d06 6341 b65a 0541 0cae 3641
000000c0: 4f6d c940 460a df40 a22e 2341 b48d 1741
000000d0: 01b9 a741 ccff 4f41 770d 5741 73fb e640
000000e0: cafb f440 3327 7641 f17e f240 6c2f dc40
000000f0: 84b9 0641 b698 ed40 b893 be40 adf6 1541
15.028372 10.951646 12.051613 10.4529295 15.843527 5.0477724 7.281352 8.848825
12.261489 11.956636 6.1930513 17.404882 9.350578 10.950119 13.352629 14.941665
8.466472 5.856634 5.1805224 11.250566 7.283542 8.919792 6.5802636 20.648014
8.265031 5.434484 13.770089 6.7803187 7.568787 10.609698 8.593846 11.480002
10.447381 11.086678 15.539877 7.983852 12.532008 11.349938 5.4851003 9.718738
9.394249 10.113775 8.354594 9.009653 11.325869 14.189084 8.334646 11.417492
6.2945933 6.970004 10.198885 9.4720955 20.965334 12.99995 13.440787 7.2181945
7.655736 15.38457 7.577996 6.880789 8.420292 7.4248915 5.955532 9.372724

weight f4 [64, 263]
00000000: ccc0 db3c 311a 8fbd 63eb 46bd 3fe5 eb3d
00000010: 4ae9 953d a1b8 303d 90ed 713c 2e20 abbd
00000020: 7783 68bd 5c1c 40bc d3ba 4dbe a4a5 963b
00000030: 9f16 46bc 199e ea3d 413d a9bc f317 343d
00000040: 8e2b a23a 319b c33c 6832 8c3c 4c13 5b3b
00000050: 5d20 d8bd 058a 44be d6be f33d b292 d8bd
00000060: b7e7 b3bd 75c1 363e 015c debd 2c70 e43b
00000070: 832f 14bd 5b47 88bd d5f7 663c 19b8 5bbc
00000080: fc30 803c d857 d03b e648 6abd 2537 313c
00000090: 3077 f3bc 03a6 2fbd 61a9 3d3d 5281 afbd
000000a0: ec59 f13d de95 1c3c b5d0 8e3c d00c 51bd
000000b0: 3f94 723c 0e28 453b 3df2 84bd a9cd 893c
000000c0: 9734 d2bd 703f 4dbd c2fe 85bc aa41 233d
000000d0: c665 fdbd 1a32 27bc 7f7d 0b3c ea3b cdbd
000000e0: 8e7a 8abb c95a a33c bd9c 993b 0b3f 05bd
000000f0: b882 d63b e035 45be 4ee9 823c c234 193d
00000100: 6b60 c93d d280 e33b 0590 e23d a81e bb3d
00000110: 0844 413d 5871 d4bc e8f7 f43c a219 3bbb
00000120: b812 ccbd 3656 ec3c b32e 18be 7fb3 36bc
00000130: a5d1 77bc 0ca1 453d 928d 493c f3bf a5bc
00000140: 173b 26bd 6e52 1a3e 4017 cebd f305 d1bd
00000150: a209 4a3e f792 133d 3da0 c3bd 72bc bd3a
00000160: 3e27 57bd 5cf3 07be 2a1e c2bc cd28 ebbd
00000170: 0ad5 7f3d f0a6 8cbb 16bf 003d 2d63 8e3d
00000180: 8bf2 bdbd 3005 ecbc b49d b13d 984a aabd
00000190: bf6f 20bd 2a25 8d3d aefa 6e3d c94d 4f3d
000001a0: 0216 263d 20cc 22bd 9e9a 093e eb60 7bbc
000001b0: d228 cbbd 288f d3bc 42de d3bd 254f 1b3d
000001c0: ac57 31bd dff6 8dbd 3142 c7bd 3dfe 993d
000001d0: 0dea a1bd e962 5c3d 9bbf 04bd f40f febd
000001e0: 6755 f13c 4f21 b1bb 390c 9d3c 2e94 9fbd
000001f0: 213c 97bd edad 0f3d 743a 09bd a959 00be
00000200: 2456 aa3d 9264 78bd 414e e4bd 7d16 fabd
00000210: dec4 5c3d ea16 413d 02fb 21bd 094f fdbc
00000220: 0522 d3bb 8e40 f73b 03ce c33d 7de6 c0bd
00000230: 29ad a73d ad3a 1abe 940b 92bd e19d 6abd
00000240: 5e54 cabd 37d4 10be 0c85 82bc f0c6 863d
00000250: 778f 62bd 8076 243d 6027 ea3a b0c1 02be
00000260: b468 95bc 9d44 d037 17b5 fc3d e126 e0bd
00000270: 3d75 723d 3095 473e 1d6b bd3d ab52 ef3d
00000280: c2ff 913c b8e6 b83d 571f 4abe cc2d 253d
00000290: 40f3 fdbd fd77 ae3d 7898 c93d c5db af3c
000002a0: 746b 5b3e 7bf8 26bb e219 fb3d 5cef 8c3c
000002b0: 8322 0d3e 016f 34bc 3782 e2bd 6ff9 f2bd
000002c0: b893 9dbd 6d23 383d be80 2a3d 7b75 323d
000002d0: 3110 673c 9fd3 f4bd a50a ca3d 6dcd 88bd
000002e0: 2ad2 13be ac7d 503d 2ed5 cbbd f6f8 0f3d
000002f0: d2fc dc3b b786 6c3d d7db 0e3e 8b9a 49bb
00000300: 900f 5a3d af0d b03d 7b21 143d 80b9 bbbd
00000310: c4ec bc3b 0507 06be e839 113b 4032 7dbc
00000320: 2de2 dcbd b3cc 073e 01e3 ddbd d2db e53d
00000330: 7b46 533d d8fa edbd 4817 3fbe ddeb 73bd
00000340: f3e2 d5bc 7bf4 72bd 0b72 6a3d 6214 50be
00000350: 9ad7 ea3d 6d43 693d d9c0 94bd 9a37 b9bd
00000360: 9967 1f3c f460 0e3d f924 9cbd 13eb 7f3d
00000370: cc46 2a3d 013d 54bc b397 ecbd 9ec3 7cbe
00000380: b587 9c3d c2f6 a3bd a21f a8bd 69c8 f2bb
00000390: 7d82 eabd 0e6f 8cbd 63d2 1dbc 6ab7 f8bc
000003a0: 029c c13c a5c4 e4bb f36a 51bd 8cd0 683d
000003b0: 73b4 8d3d 2963 8abc 094f 3e3c 0816 c0bd
000003c0: 5ab9 aabd e013 403c 3a9c d3bd 78ea d43c
000003d0: 38a7 f33c 0f2d d0bc a551 ab3c ca47 583d
000003e0: 021f b9bd bb72 273d c5d3 97bd 1899 6b3d
000003f0: cb69 923c 36c0 6cbc 8202 b0bd b7c3 e83d
0.026825331 -0.069874175 -0.048564326 0.115183346 0.07319887 0.043144826 0.014766112 -0.08355747
-0.056766 -0.011725511 -0.20090799 0.0045973826 -0.012090354 0.11455936 -0.020659091 0.043968152
0.00123726 0.023877712 0.01711388 0.003342825 -0.10553048 -0.19193275 0.119016334 -0.10574855
-0.087844305 0.17847236 -0.10857392 0.0069713797 -0.036178123 -0.06654235 0.014097174 -0.0134105915
0.015648358 0.006358128 -0.057198428 0.01081637 -0.029719919 -0.04288293 0.04630411 -0.08569588
0.11784729 0.0095572155 0.017433504 -0.05103761 0.014805852 0.003008369 -0.06491516 0.0168217
-0.10263937 -0.050109327 -0.01635683 0.039857544 -0.12372927 -0.010204816 0.008513807 -0.10021193
-0.0042260354 0.01994075 0.004687874 -0.032530826 0.0065463446 -0.19258833 0.015980389 0.03740383
0.098328434 0.006942847 0.11062626 0.091367066 0.04718402 -0.025932953 0.029903367 -0.0028549214
-0.09964508 0.028849702 -0.14861564 -0.011151194 -0.015125667 0.04824929 0.012301819 -0.02023313
-0.040583696 0.15070507 -0.10063028 -0.10206213 0.19730237 0.03602883 -0.095520474 0.0014475717
-0.05252766 -0.13276428 -0.023696024 -0.114823915 0.06245903 -0.0042923614 0.031432234 0.0695251
-0.09274777 -0.028811067 0.086726576 -0.08315009 -0.03916907 0.06891854 0.058344536 0.05061129
0.040548332 -0.03974545 0.13437888 -0.015342931 -0.09919895 -0.025825098 -0.10345127 0.037917275
-0.0432965 -0.069318525 -0.09729422 0.07519195 -0.0790597 0.053805266 -0.03240929 -0.124053866
0.029459668 -0.005405582 0.019170867 -0.07791935 -0.073845156 0.035077978 -0.03350301 -0.12534203
0.08317211 -0.060642786 -0.11147738 -0.122113205 0.053898685 0.047140993 -0.03954602 -0.030921476
-0.0064432644 0.0075455373 0.09560778 -0.09418962 0.081873246 -0.15061446 -0.071311146 -0.05727947
-0.09879373 -0.14143454 -0.015932582 0.06580913 -0.0553126 0.040152073 0.0017864518 -0.12769198
-0.018238403 2.4827483e-05 0.12339228 -0.109449156 0.05919384 0.19490504 0.09248946 0.116856895
0.01782215 0.09028381 -0.19738518 0.04032688 -0.12399912 0.0851898 0.09843534 0.021467099
0.21427709 -0.0025477696 0.12260796 0.01720398 0.13782696 -0.0110127935 -0.11059993 -0.11863982
-0.07694191 0.04495566 0.041626684 0.04356907 0.014102981 -0.11954426 0.098653115 -0.06679807
-0.1443564 0.0509011 -0.0995277 0.035149537 0.0067440057 0.05774566 0.1395105 -0.003076228
0.053237498 0.0859636 0.036164742 -0.09166241 0.0057655293 -0.13088615 0.002215976 -0.015453875
-0.10785327 0.1326168 -0.10834313 0.11223568 0.051580887 -0.1162011 -0.18661225 -0.05955111
-0.026109194 -0.059315186 0.057237666 -0.20320275 0.11466904 0.056949068 -0.07263345 -0.09043808
0.009729289 0.03476043 -0.076242395 0.062480044 0.041571423 -0.012953998 -0.11552372 -0.24683997
0.076430716 -0.0800605 -0.082091585 -0.0074091447 -0.1145067 -0.068571195 -0.00963268 -0.030360896
0.02363396 -0.0069814497 -0.051127385 0.05683951 0.069191836 -0.016892986 0.011615523 -0.09379202
-0.08336134 0.011723489 -0.10332532 0.02599071 0.029742822 -0.02541211 0.020912955 0.05280284
-0.090391174 0.0408809 -0.07413439 0.05751905 0.017872712 -0.0144501235 -0.08594228 0.11365455

bias f4 [64]
00000000: c1d9 26b9 ad56 a539 0feb 8f39 7691 ac39
00000010: 5e2e 8338 9cf3 95b9 8d4b 2bb8 2c9e ae39
00000020: fa00 c838 dc05 4c38 de9a 553a e7e3 c939
00000030: 8705 02b9 f2c2 4c3a ae55 2139 7e57 87b9
00000040: 3dfd 2839 a2f6 6739 b866 45b8 5961 8039
00000050: 5006 f739 dc61 883a f186 5f39 a59f c339
00000060: 3319 74b8 734b 253a 9160 4a3a 9ef3 22ba
00000070: fe83 143a c21f 9eb8 48ec af39 20d2 50ba
00000080: bee3 c639 ffff 0c38 b5f8 d4b7 9482 223a
00000090: 7045 fbb9 3e9c f3b9 ca79 84b8 240b 4f39
000000a0: 43d9 82b9 2025 7639 4890 64ba 21c0 f6b8
000000b0: d0ae 8cb9 5c16 0839 4f59 08ba bc8d 1b3a
000000c0: edc1 7cb9 9ce2 f239 8f5d bb39 6500 84b9
000000d0: c1e7 8c35 d6db 2e3a 2462 b8b7 e802 dc38
000000e0: e44f a3b9 2f35 4039 01ae b4b7 f3c0 1fb9
000000f0: 0d0d 2cba 0e38 9e39 eb76 42ba 25f3 953a
-0.00015912113 0.0003153583 0.00027450218 0.00032914773 6.255203e-05 -0.00028600998 -4.083994e-05 0.00033305713
9.536925e-05 4.8642847e-05 0.0008148382 0.00038507508 -0.00012399825 0.00078110315 0.00015386075 -0.00025814393
0.00016116067 0.00022121755 -4.7064124e-05 0.00024486592 0.00047116214 0.0010405141 0.00021317207 0.00037312243
-5.8197602e-05 0.00063054933 0.0007720078 -0.00062161114 0.00056654203 -7.5399425e-05 0.00033554644 -0.00079658814
0.00037935184 3.3617016e-05 -2.5388183e-05 0.0006199267 -0.00047926186 -0.0004646498 -6.3169355e-05 0.00019745209
-0.00024957405 0.00023474218 -0.00087190093 -0.00011765981 -0.00026833126 0.000129783 -0.00052012963 0.0005933901
-0.00024104836 0.00046326674 0.00035737126 -0.00025177296 1.0498262e-06 0.00066703313 -2.198021e-05 0.00010490959
-0.00031149306 0.0001833036 -2.1538699e-05 -0.00015235301 -0.0006563224 0.00030177872 -0.0007418233 0.001144026

weight f4 [32, 64]
00000000: 6c10 243e 5aa6 863e fe90 84bd 725c 353d
00000010: 4cf7 45bd 0e26 58be 0c00 e7bc c632 4fbe
00000020: b710 33bd f5e0 673e f04d 82be 2d5d 643d
00000030: 1ad7 373e 37b0 7e3d 0ba0 ea3d 3b2f 623e
00000040: 15e2 f03d 515f 673d 7956 4b3e 6d19 aebd
00000050: 68a8 efbc b2e4 703e 389f 29be 5046 db3d
00000060: 461e 373c 2eb8 523e 0a3e 0dbd b050 d9bd
00000070: 6b67 abbd 0700 e1bd 6f4f 8e3c 0fc7 38be
00000080: 43b5 9f3d ca27 8a3d e5a9 acbc 06a8 cebd
00000090: 2111 3d3e cb2d f3bd 6e85 94bd 6634 53bd
000000a0: cffb edbd 1271 fbbb f2ce 9b3d dc96 d6bd
000000b0: 3b3c f93c 6a9f 52bd a370 e3bd 0040 223d
000000c0: 48df 053e 6c89 043e 4379 853e b336 3d3b
000000d0: ec5a 153e 4477 d2bd da97 fc3d f422 703d
000000e0: 7e7b 413d efb6 0dbe 1d6f 6ebe fe29 3ebd
000000f0: 8e2a 423d 93b9 193e e85a 6bbe ac3e 103d
00000100: 9f44 3cbe 4139 f53c 4a99 5fbe 5571 91bd
00000110: 7de2 88bd c345 523d 64e7 683e fb3a 3b3e
00000120: 1031 1d3d e7d8 293e 1cc4 58be faad 5bbe
00000130: 773e 57be e797 ed3c 05a3 283e 3e40 833b
00000140: 7881 12bd f0e8 7cbe 0945 9bbd 3643 78be
00000150: e389 9fbc 5896 a4bd 771d 663d 62c8 563d
00000160: 21c3 a5bc 94c3 a1bc ec0b 03bd da86 b8bd
00000170: 27bf e3bd c538 9fbd c245 603d 0cda 823d
00000180: 84fd de3d ffb2 9b3d c608 393d 0b78 59bd
00000190: c470 64be b3e8 ccbb 64ec 4abe 5fa7 303e
000001a0: c059 3bbe a158 8bbc dbba 243b 55c2 953d
000001b0: 901b 443d 151f 26be 2158 cf3c bed2 0ebd
000001c0: 21fc 3ebe e06c 02be 2394 65be 4aa4 41be
000001d0: 55f9 03be e428 36be 4e5d a1bd 92c9 8abd
000001e0: 1e06 213e 25c2 1fbe c25e 0ebe d7a8 2c3e
000001f0: e3e2 0e3c 419f 8cbc 5a42 17be 4393 bb3d
00000200: 0d71 b63d a727 38be f8ec 353e 1940 29bd
00000210: 043f 3c3e 18f6 1f3e 8e2c f8bd 36f3 ea3b
00000220: 6b8f 0f3e 497e 0ebe 780c 51bd 4d7f 943d
00000230: 8d65 0e3d 2ecc 563d 0ea0 a1bd fe9b 753c
00000240: a8b9 443d 79d0 89be f6ac 483e 13c2 20be
00000250: b637 1ebe bde2 4fbd 536b 063e cef5 3ebd
00000260: c47d b5bb 3ef3 d6bd 2d17 ca3d 4aa5 253e
00000270: 9822 7d3d 1aca d03d eccf 233e 410c 83bc
00000280: 505b f6bd d871 f5bd c0c1 bc3d 210f a1bd
00000290: f2de 79be 614d a0bd 0bd7 503e 178e a83d
000002a0: 8175 293e 97b7 343e 9d62 67bd 93ca 613e
000002b0: 4e8a 2bbd ce9d 223d 7b8d bcbb b7aa 05be
000002c0: de71 b73d 7595 bebd f21b 4bbe 1d4b 19bd
000002d0: 159a 41be 4b6d d3bd 8f18 dbbd 51a9 343d
000002e0: 6926 163e cc1b 2a3e 8206 423e 25c6 2cbe
000002f0: cebe b43d ab4a b6bd 76af e63c 7f11 033e
00000300: b010 11bd 8b30 503d 6b8a 0f3e bf33 8dbb
00000310: 2eb3 33be fe8c 443d 4c1a f7bd 8ae4 24be
00000320: a28c 09be 22f3 4bbd 6bfb 1bbe ea84 8e3d
00000330: 9cee d4bd 7ebf 92be 3b79 c73d 1560 2ebe
00000340: f143 dbbd fec9 7c3e 01b4 bb3d 76a6 d53c
00000350: 6f59 163e d672 c73d 6c0a 07be 3515 debd
00000360: cd8d 2abe 1a09 c9bd 024a 0abe bcca 90bd
00000370: 19f5 e63d 10ba 6dbe a124 263e c2d3 8f3e
00000380: 5a8d 5e3e 8638 563e e0f4 ac3d 4d77 b1bb
00000390: 2fa4 803d e9ee bf3d 60f9 23be b451 09be
000003a0: 24a9 593d daf4 a93c 7367 5dbe d816 d1bd
000003b0: 953f 163e 952a 013e acc0 63bd 2643 09be
000003c0: 1398 2abe 681a a93b a442 5abd d708 3bbe
000003d0: 3044 703e f942 d83d 75e1 67be d71f f33d
000003e0: 3046 853d 54ea 90bd 9d89 76bc 6048 ffbd
000003f0: 3233 2c3e 9983 003e 90ac 2cbe 41eb e83d
0.1602189 0.2629879 -0.064729676 0.044277616 -0.048331544 -0.21108267 -0.028198265 -0.20234212
-0.043717112 0.22644408 -0.25450087 0.05575292 0.17953148 0.06217977 0.11456307 0.2208833
0.11761872 0.056487385 0.19857205 -0.08500943 -0.029255107 0.2352474 -0.16564643 0.107067704
0.011176651 0.20578071 -0.034482993 -0.10611093 -0.08369335 -0.10986333 0.017371861 -0.18044685
0.07798245 0.067458704 -0.021077106 -0.10090642 0.18463565 -0.11873969 -0.07252012 -0.051563643
-0.11620294 -0.007673391 0.07607831 -0.10477993 0.030424228 -0.05142156 -0.11105468 0.039611816
0.13073456 0.12943047 0.26069078 0.0028871715 0.14585465 -0.10276654 0.12333651 0.058627084
0.047236912 -0.13839315 -0.23284574 -0.046426766 0.047403865 0.15012197 -0.22983897 0.03521602
-0.18385552 0.029934527 -0.21835819 -0.071016945 -0.06683824 0.05133606 0.22744519 0.18284218
0.038376868 0.16586648 -0.2116856 -0.21453086 -0.21019922 0.029003097 0.16468437 0.004005461
-0.035768002 -0.24698234 -0.07581527 -0.24244389 -0.01947493 -0.08036488 0.056180444 0.052437194
-0.020234646 -0.01974658 -0.03199379 -0.09010096 -0.11120444 -0.077745 0.054754026 0.063892454
0.10888198 0.076025 0.045174383 -0.053092998 -0.22308642 -0.006253326 -0.19816738 0.17251347
-0.18295956 -0.017010035 0.0025135789 0.073124565 0.04787785 -0.16222794 0.025310578 -0.03486895
-0.18650867 -0.12736845 -0.22419791 -0.18910328 -0.12888081 -0.17789036 -0.078791246 -0.06776728
0.1572499 -0.15601404 -0.13903335 0.16861282 0.008721086 -0.017165782 -0.14771405 0.09158947
0.089082815 -0.17983876 0.17766178 -0.041320894 0.18383414 0.15621221 -0.12117873 0.0071701063
0.14019553 -0.13915361 -0.05103728 0.07250843 0.034764815 0.052440815 -0.07891856 0.014990805
0.048028618 -0.26916865 0.1959723 -0.15699033 -0.1545094 -0.050753344 0.13126878 -0.046621136
-0.005538674 -0.104956135 0.09867702 0.16176334 0.06180057 0.10194798 0.15997285 -0.015997054
-0.12029135 -0.119846046 0.092166424 -0.07864214 -0.24401453 -0.07827259 0.20394532 0.082302265
0.1654873 0.17648159 -0.05649053 0.22049932 -0.041879945 0.039701276 -0.0057541705 -0.13053404
0.08957265 -0.093058504 -0.19834879 -0.03742515 -0.18906434 -0.1032358 -0.106980436 0.044106785
0.1466309 0.16612166 0.18947795 -0.16872461 0.088254556 -0.089009605 0.028159838 0.12799643
-0.035416305 0.050827544 0.14017646 -0.004309147 -0.1754882 0.047986023 -0.120655626 -0.16102806
-0.13432553 -0.049792416 -0.15232627 0.06958945 -0.103970736 -0.28661722 0.0973992 -0.1702884
-0.10706318 0.24686429 0.091651924 0.026080351 0.14682554 0.097387 -0.1318757 -0.10843889
-0.16655655 -0.09816189 -0.13504794 -0.070699185 0.112772174 -0.23215508 0.1622491 0.28091246
0.21733609 0.2092 0.08445144 -0.005415833 0.062813155 0.0937174 -0.16013098 -0.13410074
0.05313982 0.020746637 -0.21621494 -0.10209435 0.14672692 0.126139 -0.055603668 -0.13404521
-0.16659574 0.0051606186 -0.05328621 -0.18265091 0.23463511 0.10559649 -0.22644599 0.11871307
0.06507528 -0.070759445 -0.015047458 -0.12464976 0.16816404 0.125502 -0.16862702 0.11372996
