serology/results_intermediate_encoders_2/models/5fold/encoder_human_8.pt (torch, 38927 bytes, 7 tensors)

weight f4 [64]
00000000: 34eb 5d3f 34fd 3f3f 31c6 7f3f 1c6e 8e3f
00000010: c159 423f 0b2f 7f3f a0af 593f e4ed 5d3f
00000020: 6b34 2e3f 0fe4 5e3f db8a 493f 6dbf 633f
00000030: cbe9 463f ec37 5e3f b950 7b3f 1357 643f
00000040: 7b87 503f 801e 633f 7e83 8b3f 7645 663f
00000050: 9412 363f 02e8 603f 8767 5e3f 302f 703f
00000060: c8d1 813f 3114 433f 6879 6f3f 3ce3 723f
00000070: 0e47 663f 9584 6d3f 8c2f 463f f1b1 813f
00000080: f4e1 6a3f 24fb 563f 5f5b 533f 4326 6a3f
00000090: d784 5a3f 2ae1 973f 774d 393f d6f4 473f
000000a0: bb40 653f 31be 3e3f bab3 4b3f 91f9 843f
000000b0: 3109 593f ba8c 6b3f ee24 623f 2590 833f
000000c0: c6cb 683f 223b 4f3f 4b6b 5a3f 7970 4b3f
000000d0: 9578 5d3f d871 543f 78e5 9c3f 652d 5c3f
000000e0: 0954 793f 48b4 403f 266a 4a3f 425c 683f
000000f0: 0860 6f3f 6ec6 673f 3ae1 653f 05a1 4f3f
0.86687016 0.7499573 0.9991179 1.1127353 0.75918204 0.99681157 0.8503361 0.8669112
0.68048733 0.8706674 0.787275 0.8896397 0.7770049 0.8680408 0.9817005 0.89195365
0.81456727 0.88718414 1.0899503 0.8994974 0.711221 0.87854016 0.8687672 0.93822
1.0142145 0.76202685 0.93544626 0.9487798 0.8995217 0.9278043 0.774163 1.0132428
0.9175103 0.8397696 0.82561296 0.9146463 0.8535895 1.186559 0.72383827 0.78107965
0.89551896 0.7450896 0.79571116 1.0388662 0.8477965 0.92011607 0.883376 1.0278364
0.90935934 0.80949605 0.85319966 0.79468495 0.8651212 0.8298621 1.2257528 0.86006767
0.9739385 0.7527509 0.7906822 0.90765774 0.9350591 0.90537155 0.89796793 0.8110507

bias f4 [64]
00000000: 77a8 dbbd ae2b 9dbe 2dea f93d c155 0a3f
00000010: 017a a0bd 3935 263e 300a c4be 6ef3 7e3e
00000020: 6ef0 d9be a956 013e c57c 7e3d abc7 a2be
00000030: 2b79 6bbd 1b48 eabd 63c4 113e ceea 7bbd
00000040: 22d7 b2bc 7977 5a3e 6d90 ab3e 20c2 dd3e
00000050: 525f d8bd 1180 82be ce4b b83e 05e9 f03e
00000060: 9d76 d3be 15e5 d6bd 3d82 7b3b 1f83 73bd
00000070: 401d 1c3e 0764 653d 059b 55be 382b c33d
00000080: 648a 62be 1516 1ebf afa5 883e ff9f 6bbe
00000090: ac4e 9ebe cb59 143f 18d1 92be 1913 d7bd
000000a0: 0dda 8f3e 1759 f6be 12bd 953d 14e8 8e3e
000000b0: 2486 b13d 1c47 6d3e a75b d3bd 6237 ec3e
000000c0: 2ef4 0e3d 9fae 133c d679 eb3e a958 bb3e
000000d0: 8ee8 763e dee5 a93e b9e3 143f df3c 923e
000000e0: 0b41 bfbd 08c8 67bc a78a 1c3e dd5e 68be
000000f0: b0d3 78be cf05 783e 1cda b1be f91b 263e
-0.107254915 -0.30697387 0.122028686 0.540371 -0.078357704 0.1623124 -0.38289022 0.24897549
-0.42566246 0.12630714 0.06213071 -0.3179296 -0.0574886 -0.11439534 0.14235072 -0.061503224
-0.021831099 0.21334638 0.33508626 0.43312168 -0.10565056 -0.25488332 0.35995334 0.4705278
-0.41301432 -0.10492913 0.0038377189 -0.05945122 0.15245533 0.056003597 -0.20859917 0.09529728
-0.22123104 -0.61752445 0.26688907 -0.23010252 -0.30919397 0.57949513 -0.2867515 -0.105016895
0.28096047 -0.48114845 0.07311453 0.27911437 0.086681634 0.23171657 -0.10320216 0.46136004
0.034900837 0.009013801 0.4599139 0.3659108 0.2411215 0.33183187 0.5815998 0.28562066
-0.09338578 -0.014146812 0.15287267 -0.22692437 -0.24299502 0.24220966 -0.34736717 0.16221608

running_mean f4 [64]
00000000: 66c7 343f f942 00be 3410 8ebd 60de 603f
00000010: 9e1e 8b3e baa7 d83e b9ec a93e 3550 64be
00000020: 12c1 3fbf c6c1 f8be ef4e 9abe 9f94 a33e
00000030: fb6e aa3e eae8 a6be 0b3c 933e f5e7 95bd
00000040: 06df f6bd b584 2b3f a082 9abe 3f43 2f3f
00000050: 4e2a 1f3f 72c1 be3e 1544 b3be ee6c 32be
00000060: 749c 023e c0f5 0bbb 01be 1e3e ddbe 763c
00000070: 83eb e0bd 085e 053f 2b84 4ebf 3c48 96be
00000080: f514 be3e 24cc c03e 11b4 5bbf 969e 4e3e
00000090: 4137 aa3e a880 0f3f 8454 b93e 95f6 643e
000000a0: 3b67 0bbd 038f 393f 9719 f5bd e11e 2a3f
000000b0: 8fb8 98be 2b71 03bf 710b 03be 7c6d ae3e
000000c0: 59be 0e3f 4d4f 0ebf f9a1 2dbe 433e 29bf
000000d0: 38bc 4e3e 7c15 5a3e 7c5f aa3e ce50 0a3f
000000e0: 86db 033f 7291 0b3f f7d6 a6be 79a0 5e3e
000000f0: 5b93 b93e 7e31 d23d 821f 533e a2f3 07bf
0.7061676 -0.12525548 -0.06936684 0.8783932 0.27171797 0.42315465 0.33188418 -0.22296222
-0.74903977 -0.48585337 -0.30138347 0.31949326 0.33287796 -0.32599574 0.28756747 -0.07319633
-0.12054257 0.6699937 -0.30177784 0.68461984 0.62173927 0.37256962 -0.3501288 -0.17424366
0.12754995 -0.0021356195 0.15502168 0.015060154 -0.1098242 0.52096605 -0.8067042 -0.29351985
0.37125364 0.37655747 -0.85821635 0.20177683 0.3324528 0.5605569 0.36197293 0.22359689
-0.034033995 0.72483844 -0.119677715 0.6645337 -0.29828307 -0.51344556 -0.12797333 0.34067905
0.557592 -0.55589753 -0.16956319 -0.6611063 0.20188987 0.21297258 0.33275974 0.5402955
0.5150684 0.54518807 -0.3258588 0.21740903 0.36245236 0.10263346 0.20617488 -0.5310613

running_var f4 [64]
00000000: 8445 8e41 4af1 2640 bd8d 9940 0afe 8041
00000010: 794c 7e40 cb67 2a41 38d8 2f41 90c3 9c40
00000020: f141 0c41 8614 e840 d38d 1341 c86f 0741
00000030: a9c5 8f40 d9cf c540 9138 c440 fe49 6d40
00000040: ca07 7f40 7ea4 1d41 8eac 2541 7020 9b40
00000050: d1aa f940 18ae 3641 3b4e 1141 6822 8540
00000060: 7ecb 1a41 7aa2 8340 2fc1 8540 5fb7 e040
00000070: a7a8 e540 1c35 3341 3b79 5b41 32d8 3a40
00000080: 0039 2041 907e 5441 361d 7541 2cc6 1741
00000090: a0f6 2a41 24c8 1041 6938 6c41 7976 9140
000000a0: 2cf5 ce40 65ce 7a41 3032 c540 c8af d840
000000b0: cecf a540 6dcd d340 fe28 2641 7f48 7d40
000000c0: 79ce 1941 0456 8541 16df bd40 12e0 a540
000000d0: 9631 1841 9923 5d40 2674 f340 1b3a f740
000000e0: ca8d 4741 d612 3341 20eb a040 cc33 2541
000000f0: d28b 1541 670e 5040 9a5d 5a41 ac15 d440
17.783943 2.608477 4.798552 16.124043 3.9734175 10.65034 10.990288 4.8988724
8.766099 7.2525053 9.222125 8.46479 4.4928784 6.181622 6.131905 3.7076411
3.9848504 9.852659 10.354628 4.8477097 7.8021016 11.417503 9.081599 4.16045
9.674681 4.1135836 4.179832 7.022384 7.1768374 11.200466 13.717097 2.9194455
10.013916 13.280899 15.319632 9.485882 10.685211 9.048862 14.763772 4.545712
6.467428 15.675389 6.1623764 6.7714577 5.181617 6.6188264 10.385008 3.9575498
9.612908 16.667 5.933482 5.1836023 9.512106 3.4552977 7.6079283 7.725843
12.472116 11.192099 5.028702 10.325146 9.346636 3.250879 13.647852 6.6276455

weight f4 [64, 99]
00000000: 4db8 90bd d13c be3d 4219 673e 07ea ba3c
00000010: 64ab 70be d68b 993d 22c6 cdbd a08c 01be
00000020: 11fb 053e 3fe2 773d ca8a eabd 1c76 43be
00000030: 83e2 1d3d 9a09 adbd 7ab3 63be 95e0 42bd
00000040: d02d d7bd 2e80 e83c 8528 32bc b313 02be
00000050: 2e41 c93d d494 e1bd 17fd a6bc fbf2 70be
00000060: 7d81 60bd 014e 4e3d a28c c53d e0df 323d
00000070: 21d3 083d d631 11be 5d33 70bd 2d29 b43d
00000080: 6291 cdbd 7805 1bbe 9588 37be 2795 463d
00000090: dde7 19bd ed5f 023e 661c 873c 9658 b63d
000000a0: 64ca 55be 0881 afbd baeb 1fbe 7469 29bd
000000b0: 2146 28be 18d8 fabd 411b e4bc 1f78 bf3d
000000c0: a097 d23d 1037 27bd 86ee 2bbe 579d 0e3d
000000d0: 5f49 c33d 8004 493e df38 96bd a89b 53be
000000e0: e778 363d 9a22 e83d 5088 323e 770b 413d
000000f0: e856 12be 3dfb a93d a792 13be 1017 c53c
00000100: 49c4 8cbd 78b9 113d 6e37 fdbd f4d0 19be
00000110: aa63 babd fd3a da3b 7389 cebd 5d01 4cbe
00000120: d1e6 68be 4ff9 17be 32c7 3ebc 6459 69bb
00000130: 8cbf 33be ee05 88bc 7405 57bd 4bf6 d23d
00000140: 376b 44be fc4d 0fbd 3bea 023d ae56 57be
00000150: 5a29 bf3c 1de6 e3bd b511 a9bd fe82 92bd
00000160: 082d 5cbd c29a 26be c16b bfbc abfe efbd
00000170: e353 8a3d 5382 0fbe bf47 c0bd bacb 0cbe
00000180: 57f1 d63d a83d 87bc 2267 bdbc f4ed 38bd
00000190: e261 5bbe c4d6 d4bd a809 113d 8536 babd
000001a0: 60be 71be aa96 13be 8a37 60b8 593d 5dbd
000001b0: 80b4 38bc 1e44 463e a98a 38be f4d6 4b3e
000001c0: 6beb 433d c2e0 e8bd b68a 6fbd d2d7 f1bc
000001d0: 85ca 173d f79d 0d3e 5bf4 523e 1125 aa3d
000001e0: 2447 eb3d c29b 93bd 1249 ddbd 789a 583d
000001f0: 9639 c6bc 248e 043e 4349 36be 3bf1 67bd
00000200: cb89 64bd e8a6 0e3e e99d 0fbc f56c 62be
00000210: 61cf 2bbd 3835 0cbe f7b9 32be d3ed 9bbc
00000220: 742f 30be a65d f93b cef2 abbc d953 753e
00000230: 32b3 1ebd b3d5 2f3e d164 64bc 5bce e9bd
00000240: 7c9d 4d3a 2ef9 91bd 9b1f 4dbd fdc2 f93d
00000250: 01a8 483e 6c66 5fbd 0a7a 1b3d b3ca 403e
00000260: ad5c 2ebd aba9 39be bbc7 e7bc 6b08 44bd
00000270: b200 19be 4280 77be ec69 79be 77f6 03be
00000280: c4b8 90ba 3e17 09bd 10c7 473e 8e5f 353b
00000290: ca8e cebc 8a8a 0c3e 1142 5dbc 8819 223d
000002a0: 8ada 6e3d 271f 313e 7655 9fbd 2e52 093e
000002b0: 8fa0 a2bd f186 6b3c 1643 063e aabf d1bd
000002c0: 779c b93d 2e39 59bd 6a1c ee3c 89fc 153d
000002d0: eead 923d 4a8e 0d3c 688a e63d ae6f a33d
000002e0: 23b7 1ebc 569d 083e cdc3 c4bc fc45 973c
000002f0: be6b 9f3c 30da a63d b8e2 a33d 24b0 503e
00000300: 07dc 913c 28a9 163d 108d 42b9 06c0 253e
00000310: 1fd9 333e 5180 abbc a28a f73d bdb6 a33e
00000320: f406 603d 0a53 613d 27f3 76bd ab71 053e
00000330: 8357 593e 1e74 123d 1a4f 133e 9bf2 1e3e
00000340: f952 203e 9d19 a13d 6cac a4bb e511 80be
00000350: 6bfb 6ebc 1a31 c9bd ea73 65be c703 17be
00000360: 9014 763d d49b 70bb cc57 83be d9e9 833c
00000370: 6613 273d 0320 71ba 4117 3dbd a345 cdbd
00000380: e4a9 d4bc 2651 663d 3083 0a3e 0d0b 3d3e
00000390: d920 343e 68e3 2ebd 4923 b3bd 9ca8 3d3e
000003a0: c61f 8f3d 0aac 5cbd d31a 41bd fe45 e9bd
000003b0: c668 3e3e 1c75 a4bc 90a9 ab3d 898c da3c
000003c0: 0476 45bb d04a c83d e511 d93d 5097 8abc
000003d0: e91e 6e3e ce4b 90bc 04a8 b5bd 132a ecbd
000003e0: 324b f0bd 3c34 2abe fc1b 00be a849 263e
000003f0: 910f d53d eeca a03d f477 203e 6bea 103e
-0.070664026 0.092889436 0.22568229 0.022816671 -0.2350288 0.07497375 -0.100475565 -0.126513
0.13084055 0.0605185 -0.11452253 -0.19088024 0.038546097 -0.08449097 -0.22236434 -0.04757746
-0.10506785 0.028381433 -0.010873918 -0.12702827 0.09826885 -0.11014715 -0.020384355 -0.2353019
-0.05481099 0.05036736 0.09645964 0.043670535 0.033404473 -0.14179167 -0.058642734 0.08796916
-0.10037495 -0.15138805 -0.17923196 0.048482087 -0.037574638 0.12731905 0.016493034 0.08903615
-0.20877987 -0.08569533 -0.15617266 -0.041360334 -0.16433002 -0.12248248 -0.027845027 0.09349083
0.102828264 -0.040823996 -0.16790208 0.03481802 0.09535479 0.19630623 -0.07335066 -0.20664847
0.044548895 0.11334725 0.17434812 0.047130074 -0.14290965 0.08299873 -0.14411412 0.024058849
-0.06873376 0.035577267 -0.12364088 -0.15021116 -0.09101041 0.006659864 -0.1008481 -0.19922395
-0.227443 -0.14841197 -0.011644172 -0.003560626 -0.17553538 -0.01660439 -0.052495435 0.10300883
-0.19181524 -0.03498648 0.03196166 -0.2102916 0.023335148 -0.11127875 -0.082553305 -0.07153891
-0.053753883 -0.16269973 -0.02336681 -0.11718496 0.06754281 -0.14014558 -0.093886845 -0.1374959
0.10495251 -0.016508892 -0.023120467 -0.045148805 -0.21424058 -0.10392526 0.0354096 -0.0909243
-0.23607779 -0.14412943 -5.3457487e-05 -0.054013584 -0.011273503 0.19361922 -0.18021645 0.19906217
0.047831934 -0.11370994 -0.058481894 -0.029521856 0.037058372 0.1382979 0.20601027 0.08307851
0.11488178 -0.07207443 -0.10804953 0.052881688 -0.024197381 0.12944847 -0.17801385 -0.05662654
-0.055795472 0.13930857 -0.008765676 -0.22111876 -0.04194582 -0.13692176 -0.17453752 -0.019034302
-0.17205602 0.0076100407 -0.020989802 0.23957767 -0.038745113 0.17171364 -0.013940052 -0.11416312
0.00078435964 -0.071276054 -0.05007897 0.12195394 0.19595338 -0.054541036 0.037958182 0.18827324
-0.04256885 -0.1813113 -0.028293481 -0.04785959 -0.14941671 -0.2417002 -0.24356812 -0.12886988
-0.0011041393 -0.03346943 0.1950953 0.0027675363 -0.025214572 0.13724723 -0.013504521 0.03957513
0.058313884 0.1729704 -0.07779972 0.13410255 -0.0794078 0.014375434 0.13111529 -0.10241635
0.090630464 -0.053033046 0.029066283 0.03661779 0.07162081 0.008639881 0.11256868 0.079802856
-0.009687218 0.13341269 -0.024019146 0.018465988 0.019460555 0.08147085 0.080022275 0.20379692
0.017805113 0.036782414 -0.00018553832 0.16186532 0.17563294 -0.02093521 0.12086989 0.31975356
0.05469413 0.055010833 -0.060290482 0.13031642 0.2122479 0.03575527 0.14385644 0.15522234
0.15656652 0.078662135 -0.005025437 -0.25013652 -0.01458631 -0.098238185 -0.22407499 -0.14747535
0.060078204 -0.0036713975 -0.2565292 0.016102718 0.040789984 -0.00091981905 -0.046164755 -0.10023048
-0.025959916 0.056229733 0.13526607 0.18461247 0.17590655 -0.04269734 -0.087469645 0.1852135
0.06988482 -0.053875007 -0.047144722 -0.11390303 0.18594655 -0.020075373 0.08381951 0.02667834
-0.0030130157 0.09779894 0.10599116 -0.016917855 0.23253979 -0.017614271 -0.08869937 -0.115314625
-0.11733092 -0.16621488 -0.12510675 0.16239035 0.1040336 0.07851206 0.15670758 0.14151923

bias f4 [64]
00000000: 1538 f939 e41a 5a39 3ddb 46b8 db9b 78ba
00000010: 0475 633a 2476 4639 ef3d 5ab9 5b79 20ba
00000020: 7cf7 5d39 a265 0c3a 750d 8dba 7907 cb39
00000030: 97d3 3aba b75f 053a ef6c 3aba 5cd4 8b39
00000040: 36b1 a43a 2adf b7b9 601f c339 1dbe b539
00000050: 6289 c5b9 2caa 8039 b06e de39 a7dd 43ba
00000060: b8c8 96b8 593c 603a 77c6 373a fec4 5b38
00000070: 6e5e 8bba f6f3 2838 d1e8 23ba 5c52 f4b9
00000080: cbc5 02ba f1d4 2f39 981d e739 4441 f537
00000090: 706b 4239 7290 5039 c8d2 e7b8 e747 7dba
000000a0: 713d 3eb9 b285 b539 02dd 39b9 5710 ce39
000000b0: 5463 7fba f69f 27ba 2974 103a 65fd 023a
000000c0: 4432 5d3a 511c 15b9 f2f0 e0b8 432f 48ba
000000d0: 19fb e039 e846 56ba 0c1c f238 3334 883a
000000e0: 4b05 b439 1dd9 fbb8 4cb8 e1b9 3e0a 9c39
000000f0: ce6a 17ba e34f 0738 008b 8439 98d9 bb39
0.00047534765 0.00020800118 -4.741106e-05 -0.00094836735 0.00086767995 0.00018926762 -0.00020813172 -0.0006121599
0.00021168398 0.00053557206 -0.0010761457 0.00038724745 -0.0007126866 0.000508781 -0.0007111569 0.00026670366
0.001256502 -0.0003507075 0.00037216675 0.00034664656 -0.00037677126 0.0002454085 0.00042425608 -0.00074716884
-7.189944e-05 0.00085539144 0.00070104696 5.2397132e-05 -0.0010633001 4.0281528e-05 -0.0006252649 -0.0004660067
-0.000498858 0.00016768627 0.00044081802 2.9236668e-05 0.00018541305 0.00019890236 -0.000110541994 -0.00096618984
-0.000181427 0.0003462262 -0.00017725307 0.00039303556 -0.0009742279 -0.00063943805 0.0005510473 0.0004996865
0.0008437971 -0.00014220296 -0.00010726032 -0.0007636437 0.00042911692 -0.0008174018 0.000115446834 0.0010391533
0.0003433622 -0.00012009053 -0.00043052656 0.0002976227 -0.0005776108 3.226091e-05 0.00025280565 0.0003582954

weight f4 [32, 64]
00000000: 72fa 15be 6c30 583e b2ea c4bd b982 05bd
00000010: f09a c73d 27a5 67be d536 0bbe c687 f7bb
00000020: 981f 6c3d a98b 57be b7c0 313e 9e58 043e
00000030: de05 b2bd f044 793d 9bf9 f4bd 8ae7 7ebc
00000040: 9798 1bbd 8bca 88be 8266 2e3d 4567 0cbe
00000050: 1cde a43d 5c33 94bd 3fc5 8ebd cdfa bd3d
00000060: cc57 59be 6324 77bd c145 78bb bb16 78be
00000070: 0b29 30be a494 67be df94 8ebb f366 b93c
00000080: 8b6c fc3d 3e3e 83bd a0a3 0e3e dcc2 45be
00000090: 8f42 16be edde 21be 04c3 2bbe afb1 3bbe
000000a0: 3d2a e7bd a799 153d 8c05 13be 54b0 7bbe
000000b0: 07fc 303e 955e 483d ddfc c4bd f7ee b63b
000000c0: edb7 073d da73 5ebe d2d5 bd3c 8e8c 80bd
000000d0: 8ae2 ae3d 1ab5 03be 6e11 03bd 2716 f8bd
000000e0: b46b 45be e890 c83d 873f 093e 0e58 2fbe
000000f0: a3a6 3b3e e4c2 633d 5d5a 33be af94 123d
00000100: e37e 2c3e b3f5 29be d7ee 293e 09d2 8cbe
00000110: 1433 46bd e3d4 a73d 08d9 d43d e89e 8bbd
00000120: 693e 413d 9818 843d ccbf 743e 939f 303e
00000130: fb31 453e 8294 39be 8551 bebd f06a 1c3e
00000140: 0136 76bc fde2 34be 2765 d5bd cea0 b33c
00000150: 9c09 0e3e 00fe 34be 4b6d 5c3c 1ce9 0ebe
00000160: a9d5 45bc bacd 473d 9477 1e3e 79c9 633e
00000170: 0b0e 4fbe 8033 a9bd 5343 ad3d 2c17 d43d
00000180: a448 113d 21bd fbbd ccd7 5ebe 7357 04be
00000190: 8c6f 1dbd 2402 f2bd 6cdf 493c c37b 123d
000001a0: c240 6ebd 9797 ff3d e592 563c 3d88 a1bd
000001b0: 0681 b2bd 6da6 503e d356 803e 88f6 e83d
000001c0: ee82 8b3d 289e e43d 33cf 003e 48fe 383e
000001d0: bcfa 25be 4726 09be ca15 95bc c9ee 7abd
000001e0: d781 c9bd d324 523d d5ff e83d 6196 4f3d
000001f0: 975e ddbc b9e9 89be 3f38 b43b 5fdb 6a3d
00000200: 6986 1e3e 0f00 5e3d f622 aabd b395 183d
00000210: d2b1 b73d 8d7e 133e 1421 d3bd 5532 dfbd
00000220: 2300 15be 44b9 cdbd 0d3a e2bb d36a d53d
00000230: 9cab a23c 4688 35bd 9ffd 88bd a4a6 20bd
00000240: 9f89 1abe ea20 133e 3865 1b3e a9a2 283e
00000250: c780 09be d874 3bbd 0b43 a4bd 2ae3 99bd
00000260: 6633 5c3d 32cd 483e e970 183e fdb0 5dbc
00000270: 344f 0bbd 8cce 223e c2f4 35be e8a6 2d3e
00000280: cd36 efbd 2141 b43d a94c 3d3e b0a7 90bc
00000290: 17b7 ce3d 0993 4dbd 2ffa 023e bca7 e13a
000002a0: bc6a 443d ed65 6cbe f89d 1c3e ed2c 18be
000002b0: d72e 40bd 8100 c6bb 58f2 063e c3e5 503e
000002c0: c21e 583e 080e b23b 68bc 243e 8424 ae3d
000002d0: 0b65 ac3d 646d 853c 5578 ac3d b35e 723e
000002e0: f773 1c3e 6064 45be a841 c93d 7608 3abd
000002f0: 99d6 063e dc91 51be 76a1 00be 8d75 3ebe
00000300: 9f95 52bc 4afd 4bbe 75ae 333e f8d9 7abd
00000310: db14 a23c df1a e0bd 2ba7 5bbb b3dc f9bd
00000320: 31d7 153e cbf0 113e f35e 81bc a97b 80bd
00000330: e30b dbbc 51c2 5d3e 1f2b 45be 2c34 b33d
00000340: 86cf 433e dcac 2abc 5f18 bcbd ec6f 45be
00000350: 61e3 2dbe 103c c0bd fd0d ebbd 51bc 91bd
00000360: b708 843c 0174 0abd c3c8 453e 34d2 15be
00000370: 1ef9 8bbd fd03 c13c 9dd6 463d fac2 6cbd
00000380: 675c 27be 4ba4 663d 26e2 223e 83fd 23bd
00000390: c308 993d 11d5 033e 3f20 84bd 2fd3 61bd
000003a0: 5016 c83c 5538 18be 9d0e c33d 4340 4c3e
000003b0: cb39 613d 1a39 f6bd fd60 8c3e 6412 56bc
000003c0: 76f2 983d 6452 c3bd 92b8 a33d 9f08 24be
000003d0: 5492 2fbe 855f c4bd a8aa 77bd 45fc f2bc
000003e0: adaf 28be 5c74 a03d 4c51 2abe 64d4 72bd
000003f0: c710 a6bd 8286 7abd 22e6 1e3e f2da a83d
-0.14646319 0.21112221 -0.09615077 -0.03259537 0.09746349 -0.22621594 -0.13595136 -0.0075540273
0.057647318 -0.2104937 0.17358671 0.1292443 -0.08692525 0.06085676 -0.11961671 -0.015558133
-0.037987318 -0.26717028 0.042578228 -0.13711269 0.080501765 -0.072363585 -0.069712155 0.09276352
-0.21224898 -0.060337435 -0.0037883373 -0.24227421 -0.17203157 -0.22615296 -0.004351243 0.022632098
0.123253904 -0.06408356 0.13929605 -0.19312614 -0.14673828 -0.15807696 -0.16773611 -0.183295
-0.11287353 0.036523487 -0.14357585 -0.24578983 0.17283641 0.048918325 -0.09618542 0.005582686
0.03313439 -0.21723881 0.023173247 -0.06276809 0.08539303 -0.12862054 -0.031999044 -0.121136
-0.19279367 0.09793264 0.1340314 -0.17123434 0.18325286 0.055605784 -0.1751494 0.035786327
0.16845278 -0.16597633 0.16595016 -0.27503994 -0.048388556 0.08194902 0.10392958 -0.06817418
0.04717866 0.064500034 0.2390129 0.17248373 0.19257347 -0.18123057 -0.09292892 0.15275168
-0.015027524 -0.17664714 -0.10419684 0.021927264 0.13870853 -0.17675018 0.013453792 -0.13956112
-0.012074866 0.04878018 0.15475303 0.22244824 -0.202202 -0.08261776 0.08460107 0.10355982
0.035469666 -0.12291933 -0.21762007 -0.12923984 -0.038436458 -0.118168145 0.012321334 0.03576256
-0.058167227 0.12480085 0.013096546 -0.078873135 -0.087160155 0.20375986 0.25066242 0.11375147
0.06812082 0.111629784 0.1257904 0.1806575 -0.16208929 -0.13393508 -0.018198866 -0.06126288
-0.09839218 0.05130465 0.11376921 0.050680522 -0.027022643 -0.2693613 0.005499869 0.057338115
0.15480961 0.054199275 -0.083074495 0.03725214 0.089694634 0.14403744 -0.103090435 -0.10898272
-0.14550833 -0.10045102 -0.006903893 0.10420766 0.01985722 -0.044319414 -0.066889994 -0.03922142
-0.15091561 0.14368024 0.1517533 0.164683 -0.13428031 -0.045765728 -0.080206 -0.07514031
0.053759955 0.19609526 0.14886822 -0.013530967 -0.03401108 0.15899104 -0.17769149 0.16958201
-0.11680374 0.08801485 0.18486275 -0.017658085 0.10093515 -0.05018905 0.1279075 0.0017216126
0.047953352 -0.23085757 0.15294635 -0.14860888 -0.04691967 -0.0060425405 0.13178384 0.20400147
0.21105483 0.0054338016 0.16087496 0.085030586 0.0841771 0.016287513 0.08421389 0.23668937
0.15278612 -0.19276571 0.09826976 -0.045418225 0.131678 -0.20465797 -0.12561592 -0.1859953
-0.012853055 -0.19920841 0.17547019 -0.061243027 0.019785335 -0.10942625 -0.0033516388 -0.12200298
0.1463287 0.14252011 -0.015792346 -0.06273586 -0.026739066 0.21656157 -0.1925473 0.08750185
0.19122133 -0.010417189 -0.09184336 -0.19280976 -0.1698127 -0.09386456 -0.114772774 -0.07115997
0.016117437 -0.033802036 0.19314866 -0.14630967 -0.06834625 0.023561472 0.048544515 -0.05780313
-0.16343842 0.056309026 0.15906581 -0.04003669 0.07472374 0.12874247 -0.06451463 -0.05513304
0.024424702 -0.14865239 0.09524272 0.19946389 0.054986756 -0.1202261 0.27417746 -0.013065908
0.07468121 -0.09537199 0.07994188 -0.16018914 -0.17145663 -0.095885314 -0.060465485 -0.029661307
-0.16473265 0.07834694 -0.16632575 -0.059284583 -0.08108669 -0.061163433 0.15517476 0.082448855
