serology/results_intermediate_encoders_2/models/5fold/encoder_intermediate_primates_1.pt (torch, 12943 bytes, 7 tensors)

weight f4 [32]
1.1050289 1.1283228 1.0063388 1.1258069 1.0133884 1.1613417 1.0925461 1.0855988
0.9641302 1.021712 1.024308 1.0597446 1.0722206 0.9756235 1.2488511 1.064024
1.071182 0.93144834 1.0184283 0.94527984 1.0770952 0.96066016 1.1205213 1.0443434
0.9910068 0.9701913 1.1450564 1.0693245 1.040271 1.1029669 1.1125711 1.1437979
00000000: 9671 8d3f e26c 903f b6cf 803f 711a 903f
00000010: b6b6 813f d8a6 943f 8dd8 8b3f e7f4 8a3f
00000020: 3dd1 763f 75c7 823f 861c 833f b6a5 873f
00000030: 863e 893f 76c2 793f 5ada 9f3f f031 883f
00000040: 7e1c 893f 6673 6e3f dc5b 823f dcfd 713f
00000050: 41de 893f d3ed 753f 3e6d 8f3f 0bad 853f
00000060: 9fb2 7d3f 755e 783f 3591 923f a0df 883f
00000070: 9a27 853f 052e 8d3f bb68 8e3f f867 923f

bias f4 [32]
-0.15228601 -0.2074514 -0.17870729 -0.17840303 -0.14292936 -0.19384332 -0.22201455 -0.16177215
0.035283584 -0.17104039 -0.14171346 -0.16222814 -0.2380597 -0.00928053 -0.20808728 -0.15243937
-0.2296002 -0.023956979 -0.096789524 -0.009726806 -0.19682904 -0.14242889 -0.16015063 -0.0956936
-0.09767357 -0.18748869 -0.22845846 -0.2178159 -0.065504596 -0.07607031 -0.120070316 -0.20863704
00000000: ddf0 1bbe 246e 54be 0bff 36be 49af 36be
00000010: 135c 12be dd7e 46be c857 63be 99a7 25be
00000020: 8585 103d 3625 2fbe 551d 11be 221f 26be
00000030: ecc5 73be 5d0d 18bc d514 55be 1119 1cbe
00000040: 511c 6bbe 6d41 c4bc 9639 c6bd 2e5d 1fbc
00000050: 8d8d 49be e1d8 11be 87fe 23be 02fb c3bd
00000060: 1509 c8bd 09fd 3fbe 04f1 69be 220b 5fbe
00000070: 4627 86bd c0ca 9bbd 6de7 f5bd f3a4 55be

running_mean f4 [32]
0.38620174 -1.846606 0.13724798 0.47763664 0.0071748295 0.65861607 0.26834428 0.37264267
-0.1922999 -0.08111209 -0.11183886 -0.66997993 -0.35025376 0.4981254 0.003894547 -0.11968702
0.42146972 0.15249932 0.08914514 -0.023760078 -0.37483865 -0.03396339 -0.13670152 -0.26872352
0.0450409 0.7483961 -0.07037858 -1.8672798 0.1411713 -0.12010085 -0.6007243 0.096443295
00000000: 3cbc c53e 965d ecbf bc8a 0c3e ca8c f43e
00000010: d51a eb3b 109b 283f 6c64 893e 05cb be3e
00000020: 44ea 44be 181e a6bd c60b e5bd ce83 2bbf
00000030: 7654 b3be 4b0a ff3e a83b 7f3b 781e f5bd
00000040: e1ca d73e c828 1c3e ba91 b63d 7fa4 c2bc
00000050: daea bfbe 321d 0bbd 7cfb 0bbe 2196 89be
00000060: cf7c 383d e396 3f3f a522 90bd 0603 efbf
00000070: 368f 103e 6ff7 f5bd 11c9 19bf 1084 c53d

running_var f4 [32]
4.2038083 11.435884 5.67753 2.9021401 2.5619323 3.1416717 3.468406 3.8815937
4.016287 4.6765933 6.522613 3.6600673 2.096784 3.034207 2.5825787 4.926677
1.6445199 1.4851508 2.0022519 4.456067 3.848961 2.9454548 1.9949629 2.7887216
3.8916712 4.2380013 4.03462 11.729043 5.7284827 6.365421 12.415024 2.2677126
00000000: 9985 8640 62f9 3641 53ae b540 aabc 3940
00000010: b3f6 2340 2611 4940 5dfa 5d40 086c 7840
00000020: 6c85 8040 a7a6 9540 3fb9 d040 8b3e 6a40
00000030: b631 0640 7330 4240 f848 2540 57a7 9d40
00000040: a17f d23f 6c19 be3f e524 0040 1a98 8e40
00000050: 6155 7640 5582 3c40 f25a ff3f 6a7a 3240
00000060: 2411 7940 b59d 8740 9b1b 8140 29aa 3b41
00000070: bb4f b740 87b1 cb40 f0a3 4641 3422 1140

weight f4 [32, 32]
-0.05720982 0.36512527 -0.010363357 0.24660286 -0.042503323 0.004198941 -0.11425844 0.20384541
-0.14900593 0.1690724 -0.21922675 0.09282604 0.014485771 0.28775832 0.2016645 0.0043821023
0.20173784 0.13370444 -0.15520987 -0.036502197 -0.15480727 -0.23609558 0.15639766 0.010925109
0.19852145 0.30810097 -0.29191265 -0.021389699 0.11455559 0.2858679 0.34670526 0.098674275
0.091682084 -0.12281691 0.074134216 0.21179798 0.30872914 0.114611 -0.21770881 0.067684
-0.27904257 -0.21601829 -0.20357157 -0.023307582 0.04546591 0.33130118 0.05301311 0.27816138
-0.09045529 -0.014926815 0.113703094 -0.24745677 0.23420204 -0.105606504 -0.4354317 0.25539374
-0.015930422 0.06445955 -0.28086224 -0.16919884 -0.16142328 -0.32484028 -0.004378648 -0.2269352
0.108342186 -0.01747762 0.2829824 0.37044862 0.0346994 -0.05157283 0.09267521 -0.076100945
0.028382778 -0.23883502 0.030635778 -0.112045765 -0.2609078 -0.024845399 0.17180197 -0.15166953
-0.05344625 0.06480543 -0.20749986 0.23093814 -0.3670886 -0.19813634 -0.064354345 -0.035598833
-0.026776768 0.17780665 -0.080427766 0.36361715 0.31634536 -0.29031727 0.20570698 0.052165747
0.1933772 0.062719084 0.10264914 -0.18903069 -0.22606649 0.028631229 -0.30069292 -0.10600864
0.08142151 0.21712536 0.16454637 -0.032061398 0.18282838 0.07264309 -0.14760931 0.16888946
0.310158 0.3855418 -0.014837118 -0.08233258 -0.19325632 0.10356124 -0.11604444 -0.09734144
-0.28457668 -0.29049498 0.199554 -0.039809283 -0.11852309 0.31949446 -0.011639094 0.16099961
0.12217502 0.25735 -0.11204608 0.23320496 0.02497076 0.033422034 -0.21550612 0.12985522
0.027759459 -0.2505387 0.24649669 0.042877663 0.18602653 -0.15822503 0.091412865 0.13211307
0.02438703 -0.15660684 -0.092213005 -0.20976757 -0.051992074 -0.03944354 0.19642426 -0.084067225
0.056929823 -0.12358325 0.22704378 0.33738652 -0.054995153 0.06544771 0.1925012 -0.019764539
-0.074788325 -0.21237223 0.32302454 0.27280265 -0.12212846 0.018377913 0.23982008 -0.08533328
-0.06475069 -0.0033121759 0.05322564 0.06084369 -0.008330867 -0.25387195 0.10559627 -0.108179964
0.083550006 -0.25212446 -0.11187063 0.009628345 0.09993509 -0.21670893 0.091023676 -0.099232964
-0.23864694 0.13629578 -0.29215232 0.023168443 -0.39515698 0.10265122 0.45771793 0.048206244
0.018829059 -0.25851315 0.30873477 0.060787357 0.15931518 -0.068170875 -0.13577192 -0.22303756
0.02158379 0.244146 0.0687428 0.06979228 -0.056823142 -0.1900312 -0.4361701 0.0036836383
0.33393574 -0.009245074 0.2646489 0.2415579 -0.13153814 -0.13587067 0.23923002 0.13658996
0.10394435 0.31093812 0.1574741 -0.12556206 -0.18993518 0.18758802 0.2741954 0.25644886
0.21273033 0.19037123 -0.016747288 0.01649421 -0.20236357 -0.07039525 0.10021853 0.18727233
0.14125489 0.0798718 0.21932614 0.081538685 0.0477859 -0.014430099 -0.04995936 -0.41123596
-0.41013163 0.059322916 -0.43202078 -0.09244464 0.096026696 0.10772465 -0.04053747 0.07429568
0.028769957 -0.23381962 -0.17529762 0.0371553 -0.104088955 0.47217476 0.1285244 -0.12706278
00000000: d854 6abd b3f1 ba3e 12cb 29bc 7685 7c3e
00000010: f717 2ebd 4597 893b 5400 eabd dabc 503e
00000020: 0395 18be 5121 2d3e fa7c 60be 941b be3d
00000030: ba55 6d3c 0f55 933e 2481 4e3e bd97 8f3b
00000040: 5d94 4e3e d1e9 083e 56ef 1ebe 5483 15bd
00000050: cc85 1ebe 0ac3 71be b526 203e 3aff 323c
00000060: 3549 4b3e 69bf 9d3e 9375 95be 7339 afbc
00000070: 1f9c ea3d 475d 923e 5a83 b13e bd15 ca3d
00000080: d1c3 bb3d 6f87 fbbd aed3 973d 92e1 583e
00000090: bf11 9e3e 2cb9 ea3d 0fef 5ebe e99d 8a3d
000000a0: abde 8ebe e633 5dbe 1175 50be 8bef bebc
000000b0: 763a 3a3d 4fa0 a93e 4624 593d 2b6b 8e3e
000000c0: a040 b9bd 9a8f 74bc 2bdd e83d 4f65 7dbe
000000d0: a9d2 6f3e 3948 d8bd e7f0 debe f8c2 823e
000000e0: 8480 82bc 5e03 843d 2dcd 8fbe 7642 2dbe
000000f0: 254c 25be 7751 a6be c37a 8fbb b361 68be
00000100: 82e2 dd3d 3a2d 8fbc 12e3 903e 71ab bd3e
00000110: f520 0e3d 083e 53bd 80cc bd3d d0da 9bbd
00000120: 0083 e83c 2b91 74be e2f7 fa3c 4078 e5bd
00000130: b595 85be 9488 cbbc dbec 2f3e 424f 1bbe
00000140: 74ea 5abd b6b8 843d d87a 54be 0c7b 6c3e
00000150: 09f3 bbbe 41e4 4abe 36cc 83bd 15d0 11bd
00000160: f45a dbbc f212 363e 50b7 a4bd 072c ba3e
00000170: 05f8 a13e 77a4 94be daa4 523e c0ab 553d
00000180: ac04 463e dd72 803d b639 d23d 4391 41be
00000190: f97d 67be 0a8c ea3c 6cf4 99be 0f1b d9bd
000001a0: 52c0 a63d 1c56 5e3e d87e 283e d052 03bd
000001b0: 5d37 3b3e e6c5 943d e526 17be 5cf1 2c3e
000001c0: 08cd 9e3e bc65 c53e 6217 73bc fc9d a8bd
000001d0: fce4 45be ea17 d43d b5a8 edbd f35a c7bd
000001e0: 09b4 91be c2bb 94be e257 4c3e 0f0f 23bd
000001f0: 3cbc f2bd c794 a33e e6b1 3ebc 15dd 243e
00000200: e636 fa3d 61c3 833e 6a78 e5bd 48cd 6e3e
00000210: 7b8f cc3c 8be5 083d a3ad 5cbe c4f8 043e
00000220: ce67 e33c 9c46 80be a169 7c3e 7da0 2f3d
00000230: bd7d 3e3e be05 22be ab36 bb3d a648 073e
00000240: 4fc7 c73c 8b5d 20be 2cda bcbd 4fcd 56be
00000250: a4f5 54bd 8d8f 21bd 7123 493e 702b acbd
00000260: 3f2f 693d 3719 fdbd 2a7e 683e edbd ac3e
00000270: 9942 61bd 7309 863d 091f 453e 3ee9 a1bc
00000280: 9f2a 99bd 1b78 59be 7963 a53e caac 8b3e
00000290: 7c1e fabd 478d 963c 6593 753e 37c3 aebd
000002a0: 029c 84bd 1711 59bb 2103 5a3d 3c37 793d
000002b0: 307e 08bc 81fb 81be db42 d83d 758d ddbd
000002c0: 441c ab3d 7516 81be 6e1c e5bd 35c0 1d3c
000002d0: c5aa cc3d f2e8 5dbe 9f6a ba3d a73a cbbd
000002e0: dd5f 74be 1f91 0b3e fd94 95be bfcb bd3c
000002f0: 0452 cabe ce3a d23d 015a ea3e e973 453d
00000300: 663f 9a3c d65b 84be 7c12 9e3e 2afc 783d
00000310: 8523 233e 2c9d 8bbd cb07 0bbe f563 64be
00000320: 7dd0 b03c 6901 7a3e 06c9 8c3d 41ef 8e3d
00000330: 62bf 68bd 8a97 42be b051 dfbe 3269 713b
00000340: a0f9 aa3e a778 17bc 1080 873e f45a 773e
00000350: efb1 06be ae21 0bbe b7f8 743e 3dde 0b3e
00000360: c6e0 d43d 4833 9f3e e440 213e 5793 00be
00000370: 5e7e 42be 1317 403e 5763 8c3e 444d 833e
00000380: fbd5 593e adf0 423e 9c31 89bc de1e 873c
00000390: 6538 4fbe 632b 90bd 5f3f cd3d 51c4 3f3e
000003a0: 1fa5 103e d493 a33d 0897 603e c1fd a63d
000003b0: 26bb 433d 396c 6cbc 30a2 4cbd 858d d2be
000003c0: c6fc d1be 96fc 723d d431 ddbe 9e53 bdbd
000003d0: a5a9 c43d be9e dc3d 9e0a 26bd 5528 983d
000003e0: f9ae eb3c 696e 6fbe 3881 33be 2830 183d
000003f0: 972c d5bd e4c0 f13e e69b 033e bf1c 02be

bias f4 [32]
0.00078597525 0.00013650367 0.00020364519 0.00023844211 0.00040031626 -0.0005151092 9.589739e-06 -0.0004105798
-0.000111018264 0.000425471 -0.00020147153 1.3978451e-05 0.00017807428 -4.1329313e-05 0.00015633313 0.00048703878
-0.00039815265 -0.00015781206 0.00035536286 0.00016724775 0.00020836575 -0.00011301856 -3.7531958e-05 0.0003962154
0.00017305957 9.539394e-05 -0.0006049276 -0.00017264254 7.774972e-05 -7.568055e-05 0.00013655653 0.00053977035
00000000: e809 4e3a 6d22 0f39 9789 5539 5106 7a39
00000010: 8ae1 d139 6508 07ba 9ee3 2037 1743 d7b9
00000020: 7ad2 e8b8 c011 df39 1a42 53b9 fd84 6a37
00000030: 73b9 3a39 0359 2db8 5bed 2339 3d59 ff39
00000040: 25bf d0b9 5a7a 25b9 ff4f ba39 3a5f 2f39
00000050: c17c 5a39 6104 edb8 a26b 1db8 21bb cf39
00000060: 5377 3539 3b0e c838 0194 1eba 6107 35b9
00000070: 900d a338 b0b6 9eb8 9d30 0f39 607f 0d3a

weight f4 [32, 32]
0.2501278 -0.019234452 0.07195262 0.033232287 -0.10686294 0.33418477 0.21013373 -0.048599266
-0.23846039 -0.25214723 0.1554922 0.006584696 0.28637698 0.11684464 0.19305705 0.09473706
-0.19645806 -0.1359716 0.17234913 0.19377436 -0.19027726 -0.047442004 0.18135653 -0.124112934
0.056533735 -0.1256355 0.018932236 -0.12054602 0.26038125 -0.15080042 0.008777491 -0.22838391
-0.22068258 -0.11903281 -0.24410807 0.2815378 -0.2039433 0.09044288 0.05255661 -0.020147353
-0.15271004 -0.20604987 0.13119292 0.10201918 0.037052866 0.2975786 0.24267387 -0.121764354
-0.0012271282 -0.20698367 0.1790863 -0.19416669 -0.25265977 -0.18142979 0.06724914 -0.07745809
0.120294936 -0.09299239 -0.24087678 0.07516896 -0.16046302 0.12698594 -0.23786409 0.19042683
0.27804324 -0.10280568 0.26260608 0.21135075 -0.21435517 -0.23327067 0.3209464 -0.10446778
-0.14596859 -0.3130455 -0.023437863 0.057102878 -0.08537262 0.27233198 -0.0141247865 0.14980598
0.097548135 -0.096648596 -0.34617206 -0.19887137 -0.04686043 -0.19759332 0.1502562 -0.0679505
-0.2612515 0.057231646 0.28854245 0.21023147 -0.07597405 0.21385019 0.06757552 -0.20573139
-0.091033146 0.062059548 0.06884733 -0.26675576 0.11469282 0.13680883 -0.105266 -0.21410745
-0.24905041 -0.11331382 -0.25087819 -0.30041677 0.122065164 -0.33847752 -0.26336783 -0.15501872
-0.0095392205 -0.11321918 -0.3926915 -0.12379723 -0.24788576 -0.25167874 -0.3176322 -0.049840473
0.0830903 -0.006652662 0.24463803 -0.08050208 -0.20654294 -0.18067993 -0.22312026 -0.0028870082
-0.010717199 -0.13727276 -0.22774583 -0.30250722 0.18296331 -0.1079208 -0.12524709 -0.32222024
-0.21668987 -0.11581061 0.2664704 0.12520503 -0.1032986 -0.19440971 0.14480764 -0.09309868
-0.23602737 0.018971087 -0.19057178 0.07300952 0.41876566 -0.22307833 -0.044701718 0.024285408
0.01912051 -0.1274135 -0.1336749 -0.123563886 0.23719591 0.006190867 0.002771383 0.31193712
0.009751063 -0.043316375 -0.20965126 -0.022531908 0.12809674 -0.07316735 -0.29839587 0.009079013
0.15138921 0.32821986 -0.11385647 -0.1212444 0.0443851 0.07169393 -0.1267499 -0.25517932
0.23143183 0.30245772 0.06803632 0.17601976 -0.19063234 0.059575897 -0.20141667 0.16941676
-0.16328378 -0.17298058 0.0032123323 0.25853524 -0.114920236 0.13513304 0.21891922 -0.1490926
-0.24134378 -0.24614058 -0.09697255 -0.21579307 0.07403909 -0.20544598 0.10341016 -0.00027657548
-0.2458054 0.0025804904 -0.2547464 0.29886395 -0.11980333 0.036000933 0.31252995 0.30864263
0.024209017 0.19191676 -0.20013362 0.087041244 -0.20466661 -0.16658476 0.1944025 0.05336878
0.0437305 -0.21492091 -0.19678946 -0.062366914 0.123106234 -0.17734776 -0.18561226 0.030639214
-0.13677487 -0.033802625 -0.10542953 0.040221307 -0.078747496 -0.20116676 -0.12210172 -0.0108334925
-0.19121063 0.21320096 0.052682254 0.12049461 0.30060226 -0.27193105 0.044114742 -0.044693872
0.27193734 -0.15574846 -0.15367286 -0.04527858 -0.113863766 0.21467891 -0.23272677 -0.039181042
-0.31765836 0.18770768 0.113103226 0.036533345 -0.047020737 0.25803813 -0.24750093 -0.21451624
00000000: c010 803e 9291 9dbc e55b 933d 941e 083d
00000010: f5da dabd 441a ab3e 4c2d 573e 0610 47bd
00000020: f62e 74be 7119 81be 5939 1f3e 6fc4 d73b
00000030: 01a0 923e 3e4c ef3d bfb0 453e 8105 c23d
00000040: 4d2c 49be 243c 0bbe 4a7c 303e c96c 463e
00000050: 0bd8 42be 8c52 42bd 87b5 393e ec2e febd
00000060: eb8f 673d 98a6 00be c717 9b3c d5e0 f6bd
00000070: b150 853e 6d6b 1abe 77cf 0f3c 79dd 69be
00000080: 9dfa 61be 79c7 f3bd 77f7 79be b925 903e
00000090: 83d6 50be 1e3a b93d 9a45 573d 100c a5bc
000000a0: 0560 1cbe bdfe 52be 7057 063e 6fef d03d
000000b0: bfc4 173d 395c 983e 807f 783e 975f f9bd
000000c0: 97d7 a0ba 87f3 53be 6662 373e a2d3 46be
000000d0: 9f5c 81be bbc8 39be ebb9 893d 59a2 9ebd
000000e0: 315d f63d cb72 bebd 67a8 76be 2ff2 993d
000000f0: 6b50 24be 9a08 023e a592 73be 40ff 423e
00000100: af5b 8e3e c98b d2bd 4e74 863e 556c 583e
00000110: ec7f 5bbe 82de 6ebe 1653 a43e 34f3 d5bd
00000120: ca78 15be 8047 a0be c300 c0bc b5e4 693d
00000130: d7d7 aebd 196f 8b3e a66b 67bc bd66 193e
00000140: 51c7 c73d b3ef c5bd 773d b1be f0a4 4bbe
00000150: b9f0 3fbd e755 4abe c3dc 193e a229 8bbd
00000160: c2c2 85be bb6b 6a3d d6bb 933e eb46 573e
00000170: 4898 9bbd 8bfb 5a3e 0965 8a3d 40ab 52be
00000180: 966f babd 2732 7e3d d4ff 8c3d 3694 88be
00000190: 12e4 ea3d 9d17 0c3e b395 d7bd fc3e 5bbe
000001a0: 1207 7fbe 1311 e8bd 1b73 80be 3ad0 99be
000001b0: 4dfd f93d ed4c adbe 26d8 86be 3abd 1ebe
000001c0: 644a 1cbc 75df e7bd dc0e c9be 6789 fdbd
000001d0: c4d5 7dbe 09dc 80be b0a0 a2be 8625 4cbd
000001e0: 3f2b aa3d 93fe d9bb 6482 7a3e 46de a4bd
000001f0: fe7f 53be 2904 39be a379 64be f633 3dbb
00000200: 3197 2fbc 3b91 0cbe 3436 69be 3ae2 9abe
00000210: bc5a 3b3e 9505 ddbd c640 00be 0dfa a4be
00000220: f3e3 5dbe 1d2e edbd cf6e 883e bf35 003e
00000230: 378e d3bd 5713 47be 7448 143e 85aa bebd
00000240: 29b1 71be 4169 9b3c 4025 43be 0486 953d
00000250: 7468 d63e a56e 64be 2619 37bd 31f2 c63c
00000260: 9ea2 9c3c af78 02be 13e2 08be 100f fdbd
00000270: 7ce3 723e c2dc ca3b 17a0 353b 39b6 9f3e
00000280: ecc2 1f3c 836c 31bd d2ae 56be d694 b8bc
00000290: cb2b 033e c3d8 95bd 58c7 98be 24c0 143c
000002a0: c605 1b3e 6f0c a83e 952d e9bd fc4e f8bd
000002b0: 27cd 353d 44d4 923d baca 01be dda6 82be
000002c0: 77fc 6c3e bddb 9a3e a056 8b3d 863e 343e
000002d0: 2035 43be db05 743d 2c40 4ebe 967b 2d3e
000002e0: dd33 27be d221 31be fe85 523b bb5e 843e
000002f0: 4d5b ebbd 5160 0a3e 5c2c 603e bbab 18be
00000300: d322 77be 470c 7cbe 8b99 c6bd dcf8 5cbe
00000310: cea1 973d 6e60 52be b5c8 d33d 5501 91b9
00000320: 69b4 7bbe 721d 293b 1f6e 82be b204 993e
00000330: 735b f5bd b775 133d ed03 a03e 6806 9e3e
00000340: fd51 c63c d485 443e d4ef 4cbe ae42 b23d
00000350: 2094 51be 3295 2abe 7311 473e 3999 5a3d
00000360: c11e 333d 3a14 5cbe 2d83 49be 7374 7fbd
00000370: 1f1f fc3d a79a 35be 2411 3ebe 17ff fa3c
00000380: b60e 0cbe 9f74 0abd 70eb d7bd 19bf 243d
00000390: 5e46 a1bd a9fe 4dbe 7710 fabd f67e 31bc
000003a0: b8cc 43be 5a51 5a3e 59c9 573d e1c5 f63d
000003b0: 8ae8 993e 8c3a 8bbe a9b1 343d ec10 37bd
000003c0: 5f3b 8b3e 867c 1fbe 6b5c 1dbe 0876 39bd
000003d0: 6831 e9bd cad4 5b3e ed4f 6ebe 4d7c 20bd
000003e0: 1ea4 a2be 7136 403e aaa2 e73d fda3 153d
000003f0: d198 40bd 931d 843e e270 7dbe 25aa 5bbe
