serology/results_intermediate_encoders_2/models/5fold/encoder_intermediate_primates_4.pt (torch, 12943 bytes, 7 tensors)

weight f4 [32]
0	0x3f91b7a4	1.1384168
1	0x3f8ebd94	1.1151605
2	0x3f7489df	0.95522875
3	0x3f84f21f	1.038639
4	0x3f81fe98	1.0155821
5	0x3f7d5606	0.98959386
6	0x3f808520	1.0040627
7	0x3f906b18	1.1282682
8	0x3f799368	0.9749055
9	0x3f846f20	1.0346413
10	0x3f7a6a57	0.9781851
11	0x3f7e49d1	0.99331385
12	0x3f8b9340	1.0904312
13	0x3f7c43c1	0.98540884
14	0x3f836e1d	1.0267979
15	0x3f9043fe	1.127075
16	0x3f883600	1.064148
17	0x3f857c6e	1.0428598
18	0x3f6bf4bd	0.92170316
19	0x3f8943d8	1.0723829
20	0x3f8447b3	1.0334381
21	0x3f7f4070	0.997077
22	0x3f7e1603	0.9925234
23	0x3f8f03d0	1.1173038
24	0x3f867419	1.050418
25	0x3f8418f7	1.0320119
26	0x3f91c1f7	1.1387318
27	0x3f8cfea5	1.1015211
28	0x3f8854f5	1.0650927
29	0x3f89259e	1.0714605
30	0x3f8f9228	1.1216478
31	0x3f91e9b2	1.1399443

bias f4 [32]
0	0xbe3126e2	-0.17299989
1	0xbd8018dc	-0.062547415
2	0x3c0109d7	0.007875881
3	0xbe8adafa	-0.2712019
4	0xbde16a12	-0.110065594
5	0xbd1f670b	-0.03891663
6	0xbc8df055	-0.017326513
7	0xbe441460	-0.19148397
8	0x3d323ff6	0.04351803
9	0xbe9184f3	-0.28421745
10	0xbd865bb4	-0.0656046
11	0xbd50b862	-0.05095709
12	0xbe046824	-0.12930351
13	0xbba45785	-0.005015316
14	0xbe29eb1b	-0.16593592
15	0xbe28ac25	-0.16471918
16	0xbdc3b43c	-0.09555861
17	0xbe95d68a	-0.29265243
18	0xbc519887	-0.012792713
19	0xbd784c93	-0.060619902
20	0xbe2f73a0	-0.17133951
21	0xbe34185f	-0.17587422
22	0xbdecb18b	-0.11557301
23	0xbe9e8ba7	-0.3096592
24	0xbe85208a	-0.26001388
25	0xbe1eb6be	-0.15499398
26	0xbe4f8c9e	-0.20268485
27	0xbe226f0b	-0.15862672
28	0xbe02e200	-0.12781525
29	0xbe101e96	-0.14074168
30	0xbe0abdde	-0.13548991
31	0xbe7b56a7	-0.24544774

running_mean f4 [32]
0	0x3f1ebf3b	0.62010545
1	0xbd91f5d4	-0.07126966
2	0xbc0a7fef	-0.008453353
3	0x3e8ebd4e	0.27878803
4	0xbd0e9ecf	-0.03481942
5	0xbdbb3c3b	-0.091423474
6	0xbec4a229	-0.38404968
7	0x3e780b83	0.24223141
8	0x3e21078a	0.15725532
9	0x3bdfc297	0.006828617
10	0xbae572eb	-0.0017505562
11	0x3de4c522	0.111704126
12	0xbe429303	-0.19001393
13	0xbd5e0e88	-0.054213077
14	0x3e060f59	0.13091792
15	0x3f1cdbfc	0.6127317
16	0xbbba7c84	-0.005691113
17	0xbf2fca67	-0.68668216
18	0x3e05cf0f	0.13067268
19	0xbf72fbf3	-0.94915694
20	0x3df27b2d	0.118399
21	0x3ec1a0b2	0.37817913
22	0xbe7c8fab	-0.2466418
23	0x3e778918	0.24173391
24	0xbe60cbf2	-0.21952799
25	0x3d8108f1	0.063005336
26	0xbbef32f4	-0.0072997753
27	0x3d20ad79	0.039227936
28	0x3e673bc1	0.22581388
29	0xc015aaaa	-2.3385415
30	0xbd813232	-0.06308402
31	0xbf731fc7	-0.94970363

running_var f4 [32]
0	0x406aae80	3.6669006
1	0x406787e9	3.6176703
2	0x40396367	2.896692
3	0x40129ce0	2.290825
4	0x40541c07	3.3142107
5	0x3fd868be	1.6906965
6	0x403967d9	2.8969634
7	0x400af9fd	2.171508
8	0x4087585a	4.229535
9	0x3fa52317	1.2901334
10	0x400e58b9	2.2241652
11	0x4023c930	2.5591545
12	0x3ffad06d	1.9594857
13	0x4028fff8	2.640623
14	0x40637beb	3.5544384
15	0x4077224e	3.8614688
16	0x4082462e	4.071067
17	0x403f80b1	2.9922297
18	0x4023ce94	2.5594835
19	0x41bf06bf	23.878294
20	0x4070dc41	3.7634432
21	0x4053a22d	3.3067734
22	0x40009d0b	2.0095851
23	0x408e289d	4.4424577
24	0x401f765f	2.4915998
25	0x402fbbf5	2.745847
26	0x3f957b08	1.1678171
27	0x3ff08324	1.8790021
28	0x4026a4f4	2.603818
29	0x4233fc8f	44.99664
30	0x41094312	8.578875
31	0x4195f10b	18.742697

weight f4 [32, 32]
0	0x3e6ba037	0.23010336
1	0x3ccd4ab4	0.025060035
2	0xbdde8797	-0.108657055
3	0xbe10b263	-0.14130549
4	0xbd3e6696	-0.046484552
5	0x3dde91f2	0.108676806
6	0x3e9a8966	0.30182952
7	0xbed62bc9	-0.4183028
8	0x3dc082f5	0.09399978
9	0xbe97906a	-0.29602367
10	0xbe83d9a9	-0.25752
11	0x3e577702	0.21041492
12	0xbdc5a86a	-0.09651263
13	0x3e83f37c	0.257717
14	0x3de8103f	0.11331224
15	0xbd834592	-0.06409754
16	0x3e11e162	0.14246133
17	0x3dbb9478	0.091591775
18	0xbdd82faa	-0.10555966
19	0xbde0b28f	-0.10971557
20	0xbdb1864b	-0.086681925
21	0xbe5ff3c3	-0.21870331
22	0x3ec22058	0.379153
23	0x3eada636	0.3391587
24	0x3d2469d3	0.040139984
25	0x3e25deed	0.1619832
26	0x3c6b5c94	0.014365334
27	0xbe81c116	-0.25342625
28	0x3e3265f8	0.1742171
29	0x3d3654fe	0.04451465
30	0xbd2f745d	-0.042835582
31	0x3e7642a1	0.24048854
32	0x3da01e7a	0.07818313
33	0x3cfbfc89	0.030760067
34	0x3e5770c2	0.21039107
35	0xbe4a9474	-0.19783193
36	0x3df9f352	0.12204613
37	0x3ec6e46b	0.38846144
38	0x3ea498e7	0.32147905
39	0x3e78ae3d	0.24285217
40	0x3e148b97	0.14506374
41	0xbe59939c	-0.21247715
42	0x3d136af1	0.03599066
43	0xbe55dde6	-0.20885429
44	0xbe8c6934	-0.27424014
45	0x3e94500f	0.2896733
46	0x3ef05e03	0.46946725
47	0xbd9f97e6	-0.07792644
48	0xbe234985	-0.15946014
49	0xbe13d01b	-0.14434855
50	0xbbd0424e	-0.0063555604
51	0xbc0a135e	-0.008427469
52	0x3e119531	0.14217068
53	0xbbfbf9b4	-0.007689679
54	0x3e001988	0.1250974
55	0x3e3b790c	0.18307894
56	0xbdb1e895	-0.086869396
57	0xbe92edd0	-0.28697062
58	0xbeb278b4	-0.34857714
59	0xbe124809	-0.14285292
60	0xbe1c8f6c	-0.15289086
61	0x3e0bb241	0.13642217
62	0xbd621cd1	-0.055203263
63	0x3e74027b	0.23829071
64	0xbdfb5f40	-0.12274027
65	0x3cbaafdf	0.02278894
66	0x3e49e735	0.19717105
67	0x3ea2bc41	0.3178425
68	0xbef8c2c4	-0.48586094
69	0x3df89b2c	0.12138972
70	0xbebbe854	-0.3670069
71	0xbdff2afe	-0.12459372
72	0x3cf9c665	0.03049011
73	0xbc39a4b2	-0.01133077
74	0x3e87b1f9	0.2650297
75	0x3e08f177	0.13373362
76	0xbe4cd29b	-0.20002215
77	0x3e5384c6	0.20656118
78	0xbd92d918	-0.071703136
79	0x3dd0ecef	0.102014415
80	0xbc6cd3ed	-0.014454824
81	0x3d87b288	0.06625849
82	0xbe995c4b	-0.29953226
83	0x3ebce8f2	0.36896473
84	0x3e8add44	0.27121937
85	0xbe5eb78b	-0.21749704
86	0xbe5d5f21	-0.2161832
87	0xbe45833d	-0.19288345
88	0xbd00d51f	-0.031453248
89	0xbeba2b66	-0.36361235
90	0xbe7e8dad	-0.24858733
91	0x3dc7c3fb	0.09754177
92	0x3dc943e5	0.09827403
93	0x3d29f8be	0.041496985
94	0x3e4bc158	0.19897974
95	0x3e2655dd	0.16243692
96	0xbd4eb8be	-0.050469153
97	0x3c26a085	0.010170107
98	0xbda7affa	-0.08187862
99	0x3e0d608e	0.13806364
100	0x3deea324	0.1165221
101	0x3e72a6c3	0.23696427
102	0x3c2d129e	0.010563521
103	0x3ee7c79f	0.45269486
104	0xbe7b3a93	-0.24534063
105	0x3e169ca5	0.14708193
106	0x3e10d933	0.14145355
107	0xbe83c6a2	-0.25737482
108	0x3e80db44	0.25167286
109	0xbdc12e58	-0.094326675
110	0x3e47e2e2	0.19520143
111	0x3d0d1c75	0.034450967
112	0xbee5a7fa	-0.44854718
113	0x3d9c18ff	0.07621955
114	0xbdad2ff4	-0.08456412
115	0x3e0b5783	0.13607602
116	0x3ddd5336	0.10806887
117	0x3e534c9d	0.20634694
118	0xbc4a5277	-0.012348763
119	0xbd953526	-0.07285528
120	0x3b8d27fb	0.0043077446
121	0x3ddee9cd	0.10884438
122	0xbdab104e	-0.08352719
123	0x3da9576d	0.08268628
124	0xbb82a1d1	-0.003986575
125	0xbd95b6b6	-0.0731024
126	0xbe6ca352	-0.23109177
127	0x3e407c31	0.18797375
128	0x3e75c3db	0.24000494
129	0xbc851f83	-0.016250378
130	0xbe4c87fa	-0.19973746
131	0xbe941ed7	-0.2892978
132	0x3cbc0cc0	0.022955298
133	0xbede982a	-0.43475467
134	0x3e54ec4d	0.20793267
135	0xbe1e2df0	-0.15447211
136	0x3e4724b3	0.19447593
137	0x3e181ec3	0.14855485
138	0x3e50e8db	0.20401327
139	0xbdd6fb97	-0.10497206
140	0xbe535ebf	-0.20641612
141	0x3e4af48c	0.1981985
142	0x3e53adac	0.2067172
143	0x3dbafb0a	0.09129913
144	0x3ef52326	0.4787838
145	0xbd5e9709	-0.054343257
146	0x3d04a5de	0.032384746
147	0x3d9e6d83	0.077357315
148	0xbe2b50ef	-0.16730092
149	0xbee057a3	-0.43816862
150	0xbd9c4109	-0.07629592
151	0xbebcbd48	-0.3686316
152	0x3d8dffeb	0.06933578
153	0x3da81d11	0.08208669
154	0x3bd6319d	0.006536676
155	0x3e3f2975	0.18668158
156	0x3e45af04	0.19305044
157	0xbd91f22e	-0.0712627
158	0x3dcecfbc	0.10098216
159	0xbebd2e42	-0.36949354
160	0x3dc40827	0.095718674
161	0xbd237b48	-0.039912492
162	0xbedd8570	-0.43265867
163	0x3c872e6d	0.01650163
164	0x3ea9fd27	0.33200952
165	0x3e253951	0.16135146
166	0xbe007ce7	-0.12547646
167	0x3e49df96	0.19714198
168	0x3ea2b123	0.3177577
169	0x3def8641	0.11695529
170	0x3e104702	0.14089587
171	0x3e001771	0.12508942
172	0x3d5daa79	0.054117654
173	0xbe997d9c	-0.29978645
174	0x3d35ab8a	0.044353046
175	0x3e0aefca	0.13568035
176	0x3df6f3e8	0.1205824
177	0xbc211639	-0.009831958
178	0xbd7dcb79	-0.061961625
179	0x3e7a3830	0.24435496
180	0xbe90764c	-0.28215253
181	0x3d3395b7	0.04384395
182	0xbe1ce001	-0.15319826
183	0x3d45d385	0.048297424
184	0xbc3d4391	-0.011551754
185	0x3ec3f63f	0.38273808
186	0x3e993499	0.2992294
187	0xbe323c5f	-0.17405842
188	0xbdf8a02a	-0.12139924
189	0x3de7f154	0.113253266
190	0x3cde89ea	0.027165372
191	0x3c724cc7	0.014788813
192	0xbe5eb5fc	-0.21749109
193	0xbc43b51b	-0.011945034
194	0x3e647964	0.22311932
195	0x3d2dfb73	0.04247613
196	0x3dec09dc	0.11525318
197	0x3e34accf	0.17644046
198	0xbd147fee	-0.036254816
199	0xbe55c143	-0.20874505
200	0x3e21c847	0.15799056
201	0xbe7c8b1f	-0.24662445
202	0xbe3cdecd	-0.18444367
203	0x3e1c0e70	0.15239882
204	0x3de2071a	0.11036511
205	0xbde27dfc	-0.11059186
206	0xbd881433	-0.06644478
207	0xbdc3eaff	-0.09566306
208	0x3eaba452	0.33523804
209	0xbc84185a	-0.016124893
210	0xbda87a7d	-0.08226488
211	0x3eb4a23c	0.35280025
212	0x3d818da4	0.06325844
213	0x3d8a142c	0.06742129
214	0xbe96db04	-0.2946397
215	0xbe754272	-0.23951128
216	0x3d56c260	0.052431464
217	0xbdf8fd77	-0.121577196
218	0xbeac2efd	-0.336296
219	0xbe80c4d6	-0.25150174
220	0x3db22a79	0.08699507
221	0xbdc714ab	-0.09720739
222	0x3e85c3df	0.26126
223	0x3e231e13	0.15929441
224	0x3e10f43a	0.14155665
225	0xbc66d8a3	-0.014089736
226	0x3e1dbead	0.15404768
227	0x3bd6ac3e	0.0065512946
228	0xbeab6322	-0.3347407
229	0x3e719175	0.23590644
230	0xbdbe46a7	-0.092908196
231	0x3cc9a36b	0.024614057
232	0xbe6f3807	-0.23361216
233	0xbca65381	-0.02030349
234	0xbe176a3e	-0.14786622
235	0xbe368307	-0.1782342
236	0x3d8445e9	0.06458647
237	0x3ed9e3c4	0.42556584
238	0x3e65527b	0.22394745
239	0xbcd3659f	-0.025805293
240	0xbdf8bac5	-0.121449985
241	0x3d56c7ed	0.052436758
242	0xbdd4152b	-0.103556
243	0x3eb52a06	0.35383624
244	0x3e951d71	0.29124025
245	0x3cc7abe0	0.024373949
246	0x3e756025	0.23962457
247	0x3d9ef7b2	0.07762088
248	0x3dc160a6	0.09442262
249	0xbedcbb05	-0.43111435
250	0xbd950ecc	-0.07278213
251	0xbe267b0f	-0.1625788
252	0x3c13dff5	0.0090255635
253	0xbda199ce	-0.07890664
254	0xbe0c4abe	-0.13700387
255	0xbe7823c5	-0.24232395

bias f4 [32]
0	0xb81e7b54	-3.7784994e-05
1	0xb9957442	-0.00028506113
2	0x388e0078	6.771175e-05
3	0xba05b555	-0.0005100568
4	0xb9e0686f	-0.00042802418
5	0xb7fa45ca	-2.983482e-05
6	0x389413c5	7.060872e-05
7	0x392bf359	0.00016398485
8	0x3a05d2ed	0.0005104978
9	0x38730bd6	5.7946738e-05
10	0x3a01aa88	0.00049463706
11	0xb9700e39	-0.00022893482
12	0xb7d7490c	-2.5664012e-05
13	0x3a31e678	0.00067863567
14	0x395fa7c7	0.00021329439
15	0xb96f7d74	-0.00022839551
16	0xb9dba435	-0.0004189328
17	0xb97c0ea2	-0.00024038044
18	0xb919354a	-0.00014611069
19	0xb952a8b9	-0.00020090015
20	0xb8c9745b	-9.6061e-05
21	0x395caa11	0.0002104419
22	0xb948fbb6	-0.00019167256
23	0x3a16881c	0.0005742328
24	0xb91eea6b	-0.00015155382
25	0xb8f30b14	-0.000115892064
26	0x399fc2fe	0.00030472124
27	0x37a0c501	1.9165223e-05
28	0xb8c39dd6	-9.327724e-05
29	0x384c4552	4.870195e-05
30	0x394d909a	0.00019604192
31	0x399172cf	0.00027742094

weight f4 [32, 32]
0	0xbe6896c6	-0.22713766
1	0xbe6f3b83	-0.23362546
2	0x3e186fbc	0.14886373
3	0x3e15ef1d	0.14641996
4	0x3cea31c4	0.028588183
5	0xbce0a263	-0.027421182
6	0xbe203ad4	-0.15647441
7	0xbe24f776	-0.16110024
8	0xbe819af5	-0.25313535
9	0xbec28011	-0.37988332
10	0x3c203efd	0.009780643
11	0x3e2d6b10	0.16935372
12	0xbe5dde46	-0.21666822
13	0x3dd10e36	0.10207789
14	0xbe35a132	-0.17737272
15	0xbdc1ad76	-0.09456913
16	0x3e4105d4	0.1884988
17	0xbe41fee9	-0.18944897
18	0x3da87b03	0.082265876
19	0x3e327ff3	0.17431621
20	0x3eaea511	0.3411031
21	0xbe50134e	-0.20319864
22	0x3e159ecd	0.14611359
23	0xbd6e2d26	-0.058148526
24	0xbe7ba371	-0.24574067
25	0xbe2f4fdb	-0.17120306
26	0x3e6307df	0.22170971
27	0x3e434891	0.1907065
28	0x3dbf83c4	0.09351304
29	0xbd04d124	-0.032426015
30	0xb985d380	-0.00025525317
31	0x3dbb7abf	0.09154271
32	0x3cdc544a	0.02689566
33	0xbe921f0a	-0.28539306
34	0xbe920a3d	-0.28523436
35	0xbd7466ae	-0.059668235
36	0xbe831077	-0.255985
37	0x3de73d5a	0.11290999
38	0x3e0673d9	0.1313013
39	0xbe853c59	-0.26022604
40	0xbd2b4e9c	-0.041823015
41	0x3e10c847	0.141389
42	0x3e2b031c	0.16700405
43	0x3d91be6f	0.071164005
44	0xbc52074c	-0.0128191225
45	0x3d2294d6	0.039692722
46	0x3e57bf59	0.21069087
47	0xbdd47e19	-0.10375614
48	0xbdbfcdb0	-0.09365404
49	0x3e8665eb	0.26249632
50	0xbe8020e4	-0.25025094
51	0xbe2ffa11	-0.17185237
52	0xbe0eb7a2	-0.13937238
53	0xbd9d41ec	-0.07678589
54	0xbe2e7945	-0.17038448
55	0xbd24352c	-0.04008977
56	0x3e129885	0.14315994
57	0x3dce670b	0.10078248
58	0xbcb9b5fb	-0.022669783
59	0x3e0a3b7d	0.13499255
60	0xbd9990de	-0.07498334
61	0xbe2ad89a	-0.1668419
62	0xbd5b1825	-0.053489823
63	0x3d865031	0.06558264
64	0x3eaedda2	0.34153467
65	0x3e94876e	0.29009575
66	0xbeaf9ce6	-0.34299392
67	0x3dcc3bca	0.09972341
68	0xbe7954f5	-0.24348815
69	0xbdd2678a	-0.10273655
70	0x3e36dcb2	0.17857626
71	0x3d50b111	0.050950114
72	0x3e2035ee	0.15645573
73	0x3e13eaa1	0.14444973
74	0xbcf57e09	-0.029967325
75	0xbe6bac9e	-0.23015067
76	0xbd7b0afc	-0.061289772
77	0xbe8f22a9	-0.2795613
78	0x3e1b2aeb	0.1515309
79	0xbd9bd933	-0.07609787
80	0xbc9c1a34	-0.019055463
81	0x3cd3a558	0.025835678
82	0x3e3ace67	0.18242799
83	0x3d80884b	0.06275996
84	0x3e972a20	0.29524326
85	0xbdd2e7df	-0.10298132
86	0xbe65ec67	-0.22453462
87	0x3df9e9df	0.122028105
88	0xbc257e1b	-0.010100867
89	0x3e9dfd3b	0.30857262
90	0x3bc865ea	0.0061156647
91	0x3e175a1f	0.14780472
92	0x3d388bdb	0.04505525
93	0x3d8503bd	0.06494854
94	0x3d4c5804	0.049888626
95	0xbdd8def4	-0.105894
96	0xbe43937d	-0.19099231
97	0xbe615182	-0.22003749
98	0x3d6d18d2	0.057885
99	0x3e91b5de	0.28459066
100	0x3db65e18	0.08904666
101	0x3d224b87	0.03962281
102	0xbc924c2b	-0.017858585
103	0xbccb1364	-0.02478952
104	0xbe1c91ad	-0.15289946
105	0xbe3f8c79	-0.1870593
106	0x3bcc7bc4	0.00624034
107	0x3b9450d7	0.0045262384
108	0xbe130feb	-0.14361541
109	0x3e73020b	0.23731248
110	0x3e4e97ff	0.2017517
111	0x3e98037e	0.29690164
112	0x3e08afc9	0.13348307
113	0x3e5f62b6	0.21814999
114	0xbe70077d	-0.23440357
115	0x3e000f7f	0.12505911
116	0x3c2947cb	0.010332058
117	0x3cba1480	0.022714853
118	0xbd3887d5	-0.045051415
119	0x3d3c51cc	0.045976445
120	0xbe0039ec	-0.12522095
121	0xbe5b0864	-0.2138992
122	0x3e1ef3d3	0.15522699
123	0x3d208741	0.03919149
124	0x3d9465e0	0.072459936
125	0x3dbaf154	0.09128061
126	0x3e6d7404	0.23188788
127	0x3df7453f	0.120737545
128	0xbcaf008e	-0.02136257
129	0xbdf5206d	-0.11969075
130	0x3d92f3c2	0.07175399
131	0xbd434bcf	-0.04767972
132	0x3e993b99	0.29928282
133	0x3db9d7f2	0.090743914
134	0x3d91e8e1	0.07124496
135	0xbe2407f4	-0.16018659
136	0xbe821be1	-0.25411895
137	0x3e4da9bb	0.20084278
138	0x3e974021	0.29541114
139	0xbe50e35e	-0.20399234
140	0x3eb5b906	0.35492724
141	0x3d527b7d	0.0513873
142	0x3dfde6dd	0.12397549
143	0x3e911e8f	0.28343627
144	0x3b185331	0.0023242945
145	0xbd332bbc	-0.04374288
146	0xbe23deb0	-0.16002917
147	0xbe3250b9	-0.17413606
148	0x3dff26bf	0.12458562
149	0xbcb92aaf	-0.022603361
150	0x3ea5ad15	0.32358614
151	0x3ec4790b	0.38373598
152	0xbe52a4ad	-0.20570631
153	0xbe3d71d7	-0.18500458
154	0x3e290d34	0.16508943
155	0xbe4b5e6c	-0.19860238
156	0x3d3f1b02	0.046656616
157	0x3d86d5e1	0.06583763
158	0x3e491f6f	0.19640897
159	0x3e6ea063	0.2330337
160	0x3e848433	0.2588211
161	0x3b7d6d3e	0.003866985
162	0xbde4236a	-0.11139567
163	0x3e852d77	0.2601125
164	0x3c91a323	0.017777985
165	0x3e60fcae	0.2197139
166	0xbe830709	-0.25591305
167	0xbdfcdb46	-0.123465106
168	0x3e7f040d	0.24903889
169	0x3d9352f1	0.07193554
170	0x3c8cb561	0.017176332
171	0x3e0abb52	0.1354802
172	0x3c7ac154	0.015304882
173	0xbc8b226b	-0.016984185
174	0x3b4df6db	0.0031427655
175	0x3eaaec6a	0.33383495
176	0x3e027134	0.12738496
177	0x3de74503	0.1129246
178	0x3e20bd70	0.15697265
179	0x3e612d29	0.21989883
180	0x3d6a5485	0.05720951
181	0x3e594ac5	0.21219929
182	0xbe3c7776	-0.18404946
183	0x3e9e651c	0.30936515
184	0x3dbdcc18	0.092674434
185	0xbe1495ca	-0.14510265
186	0x3eaa42ed	0.33254185
187	0x3e845abb	0.25850472
188	0xbd553c85	-0.05205967
189	0xbca9ce6f	-0.020728318
190	0x3e4523e2	0.1925197
191	0x3e25a06b	0.16174476
192	0x3e8ae5c4	0.27128422
193	0x3eb33ff3	0.35009727
194	0xbddf5a88	-0.10905939
195	0x3ea75c2a	0.32687503
196	0xbe2a35b6	-0.16622052
197	0xbe720d18	-0.23637807
198	0x3df099d3	0.1174809
199	0x3ea2308c	0.31677663
200	0xbc8b0c68	-0.01697369
201	0xbe8a4195	-0.2700316
202	0xbe1504ff	-0.14552687
203	0x3e0a9ace	0.13535616
204	0x3de172d9	0.110082336
205	0x3da70898	0.08155936
206	0x3e4322a0	0.19056177
207	0x3e50024b	0.20313375
208	0xbd483566	-0.04887905
209	0x3c97d26f	0.01853296
210	0xbd07ea6e	-0.033182554
211	0xbd97b5a2	-0.074076906
212	0x3ebc311a	0.36756212
213	0xbd80b332	-0.06284179
214	0x3e8c3aa5	0.27388492
215	0xbe3ba0b7	-0.18323027
216	0x3eaf5c68	0.34250188
217	0xbe41abee	-0.18913242
218	0x3e975ae6	0.29561538
219	0x3ea2d34e	0.31801838
220	0xbda742b4	-0.081670195
221	0xbd9c3c77	-0.0762872
222	0xbde3ec59	-0.11129064
223	0xbd97fef3	-0.074216746
224	0xbe5d215e	-0.2159476
225	0xbc24687b	-0.010034676
226	0x3e2b3c2a	0.1672217
227	0xbe87278f	-0.26397368
228	0xbdcbc328	-0.099493325
229	0xbe9b2ba5	-0.30306736
230	0x3cc6efc8	0.024284258
231	0xbe42272c	-0.18960255
232	0xbe01277a	-0.12612715
233	0x3d2ba7eb	0.041908186
234	0xbe7783a1	-0.24171306
235	0xbe275001	-0.16339113
236	0x3d83dc43	0.06438496
237	0x3d740446	0.059574388
238	0x3da4279a	0.08015366
239	0x3e7c56cb	0.24642484
240	0xbe57437e	-0.2102184
241	0x3e272c72	0.16325548
242	0xbe18daec	-0.14927262
243	0xbe56b730	-0.20968318
244	0xbe6d5a9f	-0.231791
245	0xbe7ffbb0	-0.24998355
246	0xbe2edead	-0.17077132
247	0x3d18f27b	0.037340622
248	0xbdc29cf6	-0.09502594
249	0xbeaf8bf5	-0.34286466
250	0x3e8502ed	0.25978795
251	0x3e0adc73	0.13560657
252	0xbe808019	-0.2509773
253	0x3b7c3a86	0.003848703
254	0xbe18af41	-0.14910604
255	0x3cc3ae2f	0.023886768
