serology/results_intermediate_encoders_2/models/5fold/encoder_primates_7.pt (torch, 80975 bytes, 7 tensors)

weight f4 [64]
0.7736868 0.8303437 0.9771614 1.0299455 0.7904177 1.1989044 0.938375 0.782748
0.81708306 0.8577162 0.9458847 0.92209786 0.82546985 0.89022523 0.84441465 0.8527295
0.9062743 1.0010536 0.8982592 0.81641316 0.8365104 0.97911644 0.8858835 0.9082535
0.9195734 0.86287373 0.9104712 0.7860705 0.93452287 0.8332922 0.7786054 0.95502335
0.8854905 0.92904633 0.91610736 0.9455726 1.0248104 1.0248767 0.89372826 0.9644749
0.7361073 1.0322331 0.89631194 1.142369 0.77377826 1.0606718 0.92957413 0.9318229
0.9345486 0.78291774 1.0383815 0.8925099 0.9499579 0.8570515 0.96345377 0.9684924
0.9295351 1.0317338 0.9084742 0.74383515 0.9869055 0.8654055 0.9181118 1.1370335
00000000: 5710 463f 6891 543f 4027 7a3f 41d5 833f
00000010: d058 4a3f b375 993f 5839 703f 2c62 483f
00000020: 5b2c 513f 4a93 5b3f 8025 723f 9b0e 6c3f
00000030: fe51 533f cde5 633f 8f2b 583f 7b4c 5a3f
00000040: 9801 683f 8622 803f 51f4 653f 7400 513f
00000050: 8c25 563f 60a7 7a3f 43c9 623f 4d83 683f
00000060: 2a69 6b3f 4be5 5c3f a414 693f eb3b 493f
00000070: e43c 6f3f a352 553f af52 473f 697c 743f
00000080: 81af 623f fbd5 6d3f 0386 6a3f 0c11 723f
00000090: fd2c 833f 292f 833f 60cb 643f d4e7 763f
000000a0: 8771 3c3f 3720 843f b374 653f 2639 923f
000000b0: 5516 463f 18c4 873f 92f8 6d3f f28b 6e3f
000000c0: 943e 6f3f 4c6d 483f afe9 843f 877b 643f
000000d0: 7130 733f ba67 5b3f e8a4 763f 1eef 773f
000000e0: 03f6 6d3f da0f 843f c491 683f fb6b 3e3f
000000f0: d7a5 7c3f 378b 5d3f 6009 6b3f 508a 913f

bias f4 [64]
-0.1575326 -0.06811037 -0.105296604 0.25001404 -0.31759784 0.32168007 0.06081313 -0.07213531
-0.14893255 -0.19613636 0.08056612 -0.24600817 -0.10721546 -0.41565448 -0.22011924 -0.421832
-0.37318012 -0.0063328044 0.07933919 -0.33604366 -0.33495766 0.24652374 0.079879746 -0.070323475
0.087628864 -0.027084911 -0.078028865 -0.26486441 0.050940096 -0.16232076 -0.26870683 0.08076362
-0.15886015 -0.27712587 0.11897598 0.047297575 0.26736638 0.24809739 -0.21333668 0.14511684
-0.17901513 0.21723326 -0.083500884 0.30504587 -0.2589898 0.33379558 0.13736823 -0.24986868
-0.24682736 -0.5077314 0.13561052 0.13058846 0.0008116204 -0.18358555 -0.0083668 0.23544253
-0.16466534 0.3161727 -0.3858444 -0.23959431 0.27673426 0.010623911 0.25401726 0.37549433
00000000: 3a50 21be 737d 8bbd bfa5 d7bd d701 803e
00000010: 2f9c a2be 40b3 a43e 3017 793d adbb 93bd
00000020: c681 18be f8d7 48be daff a43d 91e9 7bbe
00000030: c793 dbbd aad0 d4be f066 61be 5dfa d7be
00000040: 7711 bfbe 6a83 cfbb 967c a23d ea0d acbe
00000050: 927f abbe b870 7c3e fe97 a33d c105 90bd
00000060: c376 b33d 2de1 ddbc 99cd 9fbd 4f9c 87be
00000070: 90a6 503d 6a37 26be f193 89be 6667 a53d
00000080: 3cac 22be 71e3 8dbe aea9 f33d 1abb 413d
00000090: 3fe4 883e 3e0d 7e3e ee74 5abe 8299 143e
000000a0: be4f 37be 6572 5e3e 8302 abbd f92e 9c3e
000000b0: 509a 84be 41e7 aa3e 42aa 0c3e 93dd 7fbe
000000c0: 50c0 7cbe affa 01bf 7cdd 0a3e fbb8 053e
000000d0: ecc2 543a dafd 3bbe e714 09bc d917 713e
000000e0: 089e 28be 63e1 a13e 668d c5be 3658 75be
000000f0: 1db0 8d3e ea0f 2e3c 8d0e 823e cb40 c03e

running_mean f4 [64]
0.36465958 -0.5373354 0.3257652 -0.12020178 -0.14092715 -0.12343551 -0.060274743 -0.05083321
-0.24934699 -0.1427943 -0.20996921 0.06279361 0.8881839 -0.5078089 -0.34259042 -0.5661637
0.003466601 -0.25843605 0.36217222 0.40862858 -0.15015772 0.3331347 0.42769048 0.9722548
-1.0584447 0.0738053 0.45858765 0.24961992 -0.20246175 -0.46430287 0.16758566 0.12984172
0.4391133 0.01748802 0.117565006 -0.55289316 -0.41770715 0.289944 -0.27592674 -0.41007245
0.18519744 0.17074849 0.04923746 -0.2683895 0.297384 -0.32820845 -0.14760269 0.067508
0.2700586 -0.40673897 0.24564166 0.23421541 0.4215737 -0.073543034 -0.2572732 -0.22454365
0.53854346 0.55262506 -0.13136524 -0.38073143 0.027471678 0.36335695 0.5684547 -0.023487397
00000000: a9b4 ba3e d08e 09bf b2ca a63e 5a2c f6bd
00000010: 354f 10be c2cb fcbd a6e2 76bd 7c36 50bd
00000020: d154 7fbe ab38 12be 2b02 57be f099 803d
00000030: 0560 633f c4ff 01bf 0368 afbe 1bf0 10bf
00000040: ea2f 633b bb51 84be a36e b93e c437 d13e
00000050: f2c2 19be a290 aa3e 3ffa da3e b1e5 783f
00000060: 1e7b 87bf 3c27 973d 00cc ea3e 5d9c 7f3e
00000070: 2252 4fbe 1bb9 edbe 939b 2b3e 3af5 043e
00000080: 75d3 e03e 0943 8f3c ecc5 f03d 688a 0dbf
00000090: b6dd d5be 8a73 943e 4546 8dbe 04f5 d1be
000000a0: 66a4 3d3e b1d8 2e3e 38ad 493d 596a 89be
000000b0: b742 983e f00a a8be 2925 17be a241 8a3d
000000c0: 1f45 8a3e 1740 d0be 7d89 7b3e 2ad6 6f3e
000000d0: 82d8 d73e bb9d 96bd 50b9 83be c5ee 65be
000000e0: fcdd 093f d678 0d3f 9c84 06be 3bef c2be
000000f0: 490c e13c ec09 ba3e 3f86 113f a468 c0bc

running_var f4 [64]
9.170922 8.129084 10.747969 9.848822 12.716122 10.137146 13.95157 21.44119
9.745303 10.058437 12.101402 12.130069 7.983602 9.017343 12.5209465 10.555632
9.626262 6.1993814 19.568476 19.33764 19.476326 15.014808 11.816342 20.982393
11.697965 31.93078 9.352215 8.715552 23.789667 20.453539 9.1304245 7.1025133
14.678008 14.549458 8.670224 10.397979 8.553487 17.91075 9.9222145 7.913755
10.074708 8.574208 29.34759 11.535518 18.80462 17.45705 19.144537 24.840103
8.626876 9.541916 14.618502 9.339001 13.536553 10.006575 9.826626 16.542805
14.757002 15.734111 7.780132 21.833677 20.022573 18.438774 8.443003 17.458504
00000000: 19bc 1241 ba10 0241 aef7 2b41 c694 1d41
00000010: 3c75 4b41 c031 2241 a139 5f41 8f87 ab41
00000020: c3ec 1b41 5cef 2041 589f 4141 c314 4241
00000030: ab79 ff40 0947 1041 cc55 4841 dee3 2841
00000040: 2b05 1a41 5561 c640 3d8c 9c41 7db3 9a41
00000050: 84cf 9b41 a73c 7041 bd0f 3d41 f1db a741
00000060: dd2a 3b41 3d72 ff41 aca2 1541 e772 0b41
00000070: 3d51 be41 d9a0 a341 3816 1241 ca47 e340
00000080: 1fd9 6a41 94ca 6841 3db9 0a41 1f5e 2641
00000090: 15db 0841 3749 8f41 64c1 1e41 7b3d fd40
000000a0: 0132 2141 f52f 0941 ddc7 ea41 7b91 3841
000000b0: dd6f 9641 0aa8 8b41 0328 9941 88b8 c641
000000c0: af07 0a41 b0ab 1841 62e5 6941 8c6c 1541
000000d0: b995 5841 ee1a 2041 dc39 1d41 aa57 8441
000000e0: ae1c 6c41 ebbe 7b41 d7f6 f840 5fab ae41
000000f0: 3b2e a041 9c82 9341 8a16 0741 04ab 8b41

weight f4 [64, 263]
-0.08466981 0.068399504 -0.013520852 0.06490492 -0.06348149 0.056534093 -0.009035445 -0.06978169
-0.0052807285 -0.036509007 0.10778529 -0.007110089 -0.14107136 -0.08142282 -0.019318456 0.07586691
-0.029156405 0.04091423 -0.034726173 0.045251884 -0.057466246 0.13094412 -0.014660768 -0.054322947
-0.031967737 0.019354125 -0.09171912 -0.1014671 -0.026956324 -0.054118123 0.121124186 0.0017638134
0.04635046 0.1572133 -0.21562016 0.013261039 0.004948901 -0.09343287 0.06843827 -0.024829006
-0.14378224 -0.007346469 0.052733324 -0.07097686 0.102222234 -0.0007644246 -0.04077221 0.081787795
0.05154854 0.15430306 -0.017907348 0.09555722 0.031815376 0.038322143 -0.022388961 0.05499357
-0.16953786 0.06092268 -0.071515426 0.08645954 0.015523526 0.016107885 -0.013391209 0.20107076
-0.12230649 0.0075465357 -0.08438541 0.00993634 -0.022954557 -0.1488914 -0.020900806 -0.14530686
0.06902376 0.029973853 0.02275288 0.0030932187 0.025689904 0.04245449 -0.23805726 -0.01535164
0.017894467 -0.04374448 -0.025178064 0.053092573 0.017229429 0.13119425 0.1137789 -0.1491361
0.017124778 0.11329841 -0.056248646 0.038121186 -0.11972215 0.22362216 0.036694992 -0.025628826
0.056674354 -0.008331932 -0.052788552 -0.08978009 -0.0897896 0.0020206547 0.015975226 -0.007189652
-0.02559817 0.044323243 -0.1720415 0.042867094 -0.0040230243 -0.06606038 0.019471424 0.112988435
-0.028217938 -0.03547954 0.018871576 0.030062433 0.09940137 -0.045126405 0.017980216 0.11930665
0.048371427 0.04504526 -0.11210291 0.04972964 -0.0017648434 0.07150749 -0.0029396315 -0.009458509
0.12551942 0.15284124 0.02218779 0.090828694 0.024255197 -0.16909489 -0.076963104 -0.036822267
0.003212433 0.07240049 -0.12035083 -0.11839578 0.11754842 -0.035822973 -0.15888458 0.00058977294
-0.08886019 0.00038046003 -0.006490332 -0.09123085 -0.07995789 0.07580108 -0.1240421 0.04976155
-0.11306926 -0.19466518 0.08260301 0.11074528 0.03541561 -0.015240347 0.08258901 -0.036274347
-0.031179246 -0.04451334 0.016555691 0.11089083 0.13979602 0.0827847 -0.08462351 -0.08864668
-0.0015327797 0.012771041 0.09481223 0.05367209 -0.088819295 0.018628635 0.03269236 -0.0010781175
-0.050878145 0.058365483 -0.026921177 -0.12359269 0.00034470734 0.03180172 -0.025519636 -0.06201411
-0.032810785 -0.037032105 -0.049425595 0.10513046 -0.08334389 0.06147604 -0.07472855 0.10435339
0.07767494 -0.14444284 -0.025139447 0.19512062 -0.048348747 -0.10862017 0.03711471 0.044934575
0.10396832 -0.12002675 -0.03466031 0.14860855 0.072508104 -0.018793225 -0.0007902558 -0.037311997
-0.08621137 -0.053635105 -0.18341957 0.086852714 0.04579967 -0.006226558 0.094560534 0.17584483
-0.09391924 0.14701493 -0.004576419 -0.15889794 -0.011478127 0.11312998 -0.1311446 0.10273986
-0.065102816 4.699791e-05 -0.021533875 -0.09755164 -0.067112625 0.080986574 0.049813554 0.0010082892
0.07271951 0.0004693979 0.14615013 0.07551798 0.09751563 -0.1091513 -0.16757621 -0.05173942
-0.01076786 -0.11515239 -0.12001947 -0.042537197 -0.037841972 0.051998284 -0.0999172 -0.03906403
-0.13720219 -0.23217273 -0.16023844 -0.100603 -0.030682674 -0.12796867 0.103800565 -0.13425693
00000000: 5e67 adbd 0a15 8c3d 9086 5dbc dfec 843d
00000010: 9502 82bd 4b90 673d 6709 14bc b4e9 8ebd
00000020: f609 adbb 788a 15bd 89be dc3d c0fb e8bb
00000030: 0375 10be 02c1 a6bd bd41 9ebc 1c60 9b3d
00000040: 6ad9 eebc ae95 273d 083d 0ebd 0a5a 393d
00000050: ba61 6bbd 3716 063e b833 70bc bd81 5ebd
00000060: 9af0 02bd 8b8c 9e3c 3cd7 bbbd fccd cfbd
00000070: 82d3 dcbc f7aa 5dbd f50f f83d c22f e73a
00000080: fbd9 3d3d 86fc 203e 88cb 5cbe d444 593c
00000090: 642a a23b bc59 bfbd 5d29 8c3d 3366 cbbc
000000a0: a73b 13be a6ba f0bb e6fe 573d 515c 91bd
000000b0: e459 d13d ab63 48ba c300 27bd 5c80 a73d
000000c0: 9024 533d 9f01 1e3e 6eb2 92bc 81b3 c33d
000000d0: d750 023d aef7 1c3d 0e69 b7bc f040 613d
000000e0: 559b 2dbe 0f8a 793d ae76 92bd b311 b13d
000000f0: 6356 7e3c aff4 833c cd66 5bbc 7ee5 4d3e
00000100: d37b fabd ee48 f73b 42d2 acbd 08cc 223c
00000110: 320b bcbc fd76 18be 2b38 abbc 52cb 14be
00000120: 545c 8d3d ba8b f53c 3f64 ba3c 99b7 4a3b
00000130: a273 d23c c2e4 2d3d 48c5 73be 7285 7bbc
00000140: 6b97 923c 692d 33bd 3a42 cebc 9977 593d
00000150: bb24 8d3c c957 063e e904 e93d 22b7 18be
00000160: 4349 8c3c ff08 e83d fb64 66bd f624 1c3d
00000170: e330 f5bd 35fd 643e 7d4d 163d 8bf3 d1bc
00000180: 5e23 683d a882 08bc cf38 58bd a0de b7bd
00000190: 9ce3 b7bd f66c 043b 7ade 823c 2c97 ebbb
000001a0: 41b3 d1bc 4a8c 353d a62b 30be 6895 2f3d
000001b0: 93d3 83bb aa4a 87bd 8982 9f3c 7b66 e73d
000001c0: 4e29 e7bc fe52 11bd 9098 9a3c 7e45 f63c
000001d0: f292 cb3d 77d6 38bd 3f4b 933c 0b57 f43d
000001e0: 1e21 463d 6181 383d 3696 e5bd 4fb1 4b3d
000001f0: 5152 e7ba 8572 923d d5a6 40bb ddf7 1abc
00000200: 2a88 003e 6a82 1c3e 2bc3 b53c 6504 ba3d
00000210: d6b2 c63c 3627 2dbe d59e 9dbd f2d2 16bd
00000220: af87 523b b546 943d 7f7a f6bd 7d79 f2bd
00000230: 3abd f03d 1cbb 12bd a4b2 22be fe9a 1a3a
00000240: 55fc b5bd 7b78 c739 daac d4bb 3dd7 babd
00000250: f6c0 a3bd 993d 9b3d c909 febd c4d2 4b3d
00000260: db90 e7bd 4f56 47be c42b a93d 6cce e23d
00000270: f50f 113d a6b2 79bc 6d24 a93d 6994 14bd
00000280: 9e6b ffbc 9f53 36bd cd9f 873c bb1a e33d
00000290: b026 0f3e 068b a93d 174f adbd 648c b5bd
000002a0: 8de7 c8ba a13d 513c ea2c c23d 44d7 5b3d
000002b0: e4e6 b5bd 149b 983c 6de8 053d 9f4f 8dba
000002c0: 9a65 50bd a510 6f3d cd89 dcbc 2a1e fdbd
000002d0: d6b9 b439 8542 023d 8e0e d1bc 8202 7ebd
000002e0: 9a64 06bd faae 17bd 7e72 4abd a34e d73d
000002f0: 34b0 aabd 4dce 7b3d 480b 99bd 3bb7 d53d
00000300: 0a14 9f3d d3e8 13be 3ef1 cdbc b3cd 473e
00000310: 5609 46bd 4074 debd 9805 183d 510d 383d
00000320: 58ed d43d 96d0 f5bd f8f7 0dbd d72c 183e
00000330: 217f 943d 40f4 99bc 2b29 4fba 77d4 18bd
00000340: 968f b0bd 7cb0 5bbd 57d2 3bbe d6df b13d
00000350: 6f98 3b3d 2708 ccbb f4a8 c13d ab10 343e
00000360: bb58 c0bd 158b 163e c9f5 95bb 24b6 22be
00000370: c10e 3cbc b1b0 e73d c54a 06be 4769 d23d
00000380: a054 85bd 9f1f 4538 cf67 b0bc 27c9 c7bd
00000390: 5872 89bd 4adc a53d 4c09 4c3d 9228 843a
000003a0: f7ed 943d 8519 f639 61a8 153e 2ca9 9a3d
000003b0: 46b6 c73d b78a dfbd 1999 2bbe b7ec 53bd
000003c0: ae6b 30bc 04d5 ebbd c5cc f5bd 7c3b 2ebd
000003d0: 2f00 1bbd 27fc 543d 64a1 ccbd 9b01 20bd
000003e0: bb7e 0cbe b0be 6dbe 8c15 24be f208 cebd
000003f0: 3b5a fbbc 380a 03be 6495 d43d a67a 09be

bias f4 [64]
0.0008600735 0.0004207229 -6.886239e-05 0.00024136486 0.00054179726 -0.00041956425 -0.00041506978 -9.6007745e-05
0.0012609321 -0.0007890323 -4.801326e-05 0.00032112893 -0.00056683284 -0.0005395464 0.00010256196 0.0005218783
-0.00039981728 -0.0002175836 0.00012811838 0.0004978287 -0.00025361884 0.0002365875 -9.230075e-05 0.00026062634
5.279835e-05 0.0007350926 0.0007123681 0.0001891305 -0.0001767024 -0.00027500224 -0.0005646187 -0.00038465808
0.00010310342 0.0002154706 0.00018484426 0.0003106952 0.00018400156 -0.00017878147 0.0002085858 -0.00047634932
-7.123052e-05 0.00035846737 -0.0010528247 -0.00055779354 -3.559311e-05 -0.00047202327 -0.00087810465 -9.165925e-05
0.00029398242 0.00017555598 -0.00015220701 -0.00025085203 0.0003867611 -0.0010579423 -0.00021130621 0.0003273212
-0.00018695672 -0.0007152924 -8.747257e-05 -0.00018348024 -0.00013580649 0.00038558588 0.00037668273 -0.00013016189
00000000: 8e76 613a 7994 dc39 376a 90b8 e316 7d39
00000010: 6607 0e3a f6f8 dbb9 b99d d9b9 c457 c9b8
00000020: dc45 a53a 10d7 4eba d861 49b8 325d a839
00000030: 8297 14ba 5970 0dba 8816 d738 a9ce 083a
00000040: 919e d1b9 2727 64b9 8457 0639 b880 023a
00000050: 25f8 84b9 7914 7839 9691 c1b8 ada4 8839
00000060: cc73 5d38 3bb3 403a 37be 3a3a 5551 4639
00000070: 3049 39b9 2d2e 90b9 eb02 14ba efab c9b9
00000080: 3a39 d838 f3ef 6139 c1d2 4139 cee4 a239
00000090: 8bf0 4039 4977 3bb9 d3b7 5a39 86be f9b9
000000a0: 9861 95b8 adf0 bb39 effe 89ba e438 12ba
000000b0: d049 15b8 e479 f7b9 9b30 66ba 2f39 c0b8
000000c0: a721 9a39 7315 3839 c299 1fb9 ca84 83b9
000000d0: 32c6 ca39 a7aa 8aba 1492 5db9 4f9c ab39
000000e0: d009 44b9 7682 3bba 7a71 b7b8 9a64 40b9
000000f0: 4767 0eb9 7628 ca39 807d c539 117c 08b9

weight f4 [32, 64]
0.1928008 -0.07544436 -0.0011425639 0.055103272 -0.07613182 0.14942582 0.11610569 -0.0674415
0.17631847 -0.12531672 0.124320306 -0.16429852 -0.07129572 0.13411766 0.11425516 0.15225604
0.25220758 0.023503015 -0.052416265 -0.0856883 0.027241059 0.06347995 0.06250655 0.1942198
-0.21136698 0.09561697 -0.079260096 -0.05114959 -0.09631137 -0.07784499 0.10622222 0.044912647
-0.049820174 -0.017936926 0.14431639 -0.07370139 -0.17966434 -0.14335465 0.07477448 -0.09182594
0.17564322 0.013177864 0.076537676 -0.032073356 0.12176026 -0.0013200425 -0.10452234 0.041329786
0.0036888516 0.0083050085 -0.01756441 0.10501345 0.049019746 0.029348103 0.25563192 0.14986312
-0.013495807 0.10733419 -0.11541459 -0.20372906 -0.02537026 0.050498985 -0.032497272 -0.14346766
-0.040987916 0.10844138 -0.10505619 -0.13479915 0.10685953 -0.13058122 -0.087406136 0.012231406
-0.016357334 -0.075628705 0.20079984 -0.005126219 -0.045048166 0.13703129 -0.14657265 0.12197049
-0.06502572 0.12618949 -0.048225686 -0.24121769 0.10469304 -0.0022627856 0.10029631 -0.22778435
-0.17089047 -0.18671745 0.023262542 -0.18487756 0.21037903 -0.033935856 -0.039751172 0.050020512
-0.0999006 -0.08350307 0.026218865 0.07824349 0.106791876 0.15537615 -0.21076241 0.07707529
0.07345476 0.06328739 0.04324467 0.123358935 0.10039545 0.0035862601 0.010107688 -0.094110616
0.059151053 -0.11727917 0.10916759 0.13233133 0.076667204 0.009512439 -0.24520364 -0.10002434
-0.24050803 0.09225637 0.103345156 0.09038017 -0.056513034 -0.006110656 -0.056812953 0.048469365
0.044615865 -0.12656806 -0.09712813 0.09096839 0.1025637 -0.07511801 0.058476705 -0.15415746
0.2560616 0.046669014 -0.22233422 -0.07925311 0.19563584 -0.12003771 -0.0257365 -0.056565598
-0.16871531 0.20654733 0.14161403 -0.14742881 0.065819584 -0.2662045 -0.105863765 -0.14488524
0.004496713 -0.10569823 -0.15490998 0.08170991 0.16450416 0.062035516 -0.008533093 0.049354333
-0.03003972 0.016463716 0.11015211 0.057141647 0.019339437 -0.13481303 0.062068146 -0.038551364
0.16618042 0.056291863 -0.19173026 -0.19162486 0.09812973 0.014587544 -0.10191084 0.0388159
0.016179286 0.11758393 -0.12084926 -0.18941632 0.13224751 0.2027009 -0.022341486 0.028304012
-0.17288576 0.04979643 -0.15954438 0.21362577 -0.24419786 0.1252918 0.09087204 0.15366252
0.12697834 0.13767037 0.1769398 -0.64279664 0.30635554 -0.9034959 -0.5371187 0.19432351
-0.105357215 0.30064583 -0.5714429 0.39041677 -0.05073483 0.65411574 0.39302644 0.5632179
0.4148265 -0.5710939 -0.44486964 0.5964026 0.6609074 -0.672473 -0.4603565 -0.30905485
-0.29789954 -0.39256334 0.06511594 0.43601054 -0.5889623 0.30191377 0.37504914 -0.4418686
0.10928945 0.54320157 -0.3979221 -0.4004439 -0.7728059 -0.81980115 0.35771048 -0.36387545
0.08518715 -0.6553119 -0.27424392 -0.7912701 0.11294636 -0.8700264 -0.5199595 0.56612116
0.219706 0.6641411 -0.5727197 -0.24699554 -0.18363133 0.16696918 -0.20235142 -0.79780203
-0.060037997 -0.9221985 0.26614997 0.45277455 -0.63858604 -0.2507076 -0.6392886 -0.91209584
00000000: 936d 453e 9382 9abd 15c2 95ba f8b3 613d
00000010: 00eb 9bbd 1503 193e d2c8 ed3d c51e 8abd
00000020: d48c 343e 0753 00be a59b fe3d df3d 28be
00000030: 7e03 92bd 2456 093e 9cfe e93d 02e9 1b3e
00000040: 5a21 813e 6589 c03c 70b2 56bd 597d afbd
00000050: a428 df3c c701 823d 6f03 803d 8ee1 463e
00000060: 9670 58be d4d2 c33d 1e53 a2bd 3c82 51bd
00000070: e53e c5bd 326d 9fbd 098b d93d 53f6 373d
00000080: 3d10 4cbd 76f0 92bc adc7 133e c1f0 96bd
00000090: eef9 37be 90cb 12be 5d23 993d 3d0f bcbd
000000a0: d1db 333e f8e7 573c c9bf 9c3d 5a5f 03bd
000000b0: 715d f93d 4705 adba cf0f d6bd 6c49 293d
000000c0: a9c0 713b bb11 083c 3de3 8fbc 4b11 d73d
000000d0: eec8 483d 6f6b f03c 30e2 823e b875 193e
000000e0: 841d 5dbc 07d2 db3d 7c5e ecbd 5a9e 50be
000000f0: 4bd5 cfbc 06d8 4e3d dc1b 05bd 30e9 12be
00000100: f2e2 27bd 8416 de3d b327 d7bd ca08 0abe
00000110: 2bd9 da3d 15b7 05be fd01 b3bd 3c66 483c
00000120: d1ff 85bc 39e3 9abd 799e 4d3e d7f9 a7bb
00000130: 6d84 38bd ee51 0c3e 2417 16be aacb f93d
00000140: 342c 85bd d137 013e 4c88 45bd c501 77be
00000150: 4e69 d63d 3e4b 14bb 2768 cd3d 4d40 69be
00000160: e9fd 2ebe dc32 3fbe 1691 be3c 8b50 3dbe
00000170: 9a6d 573e 5300 0bbd 20d2 22bd 4fe2 4c3d
00000180: b098 ccbd a803 abbd f2c8 d63c 1f3e a03d
00000190: b3b5 da3d ed1a 1f3e 1ad2 57be a6d9 9d3d
000001a0: 736f 963d d29c 813d 5321 313d 9ca3 fc3d
000001b0: 219c cd3d 7607 6b3b b79a 253c 11bd c0bd
000001c0: 6048 723d 1030 f0bd 4293 df3d dd81 073e
000001d0: b203 9d3d 10da 1b3c aa16 7bbe 90d9 ccbd
000001e0: bd47 76be e8f0 bc3d a0a6 d33d 3d19 b93d
000001f0: 367a 67bd e63b c8bb b3b4 68bd d087 463d
00000200: 20bf 363d 0f9b 01be 1deb c6bd a34d ba3d
00000210: eb0c d23d 79d7 99bd 4585 6f3d 74db 1dbe
00000220: 821a 833e 0228 3f3d 95ab 63be 744f a2bd
00000230: c354 483e 55d6 f5bd 5ad5 d2bc 54b1 67bd
00000240: b5c3 2cbe 2581 533e 4503 113e 94f7 16be
00000250: 6bcc 863d f54b 88be 1acf d8bd cc5c 14be
00000260: 2a59 933b 5078 d8bd b9a0 1ebe 8657 a73d
00000270: c773 283e f418 7e3d 63ce 0bbc c527 4a3d
00000280: dc15 f6bc eade 863c 6e97 e13d 5c0d 6a3d
00000290: bd6d 9e3c 6d0c 0abe 2b3b 7e3d 09e8 1dbd
000002a0: 332b 2a3e 4c92 663d f054 44be 4f39 44be
000002b0: 3df8 c83d 9800 6f3c a1b6 d0bd 6cfd 1e3d
000002c0: 6c8a 843c d8cf f03d d17f f7bd 5af6 41be
000002d0: e46b 073e d390 4f3e 7e05 b7bc d1dd e73c
000002e0: f708 31be 57f7 4b3d 9a5f 23be b7c0 5a3e
000002f0: 010f 7abe 7e4c 003e 1f1b ba3d b559 1d3e
00000300: 9c06 023e 76f9 0c3e b52f 353e 528e 24bf
00000310: a2da 9c3e 824b 67bf 9c80 09bf befc 463e
00000320: 86c5 d7bd 40ee 993e 154a 12bf b5e4 c73e
00000330: 53cf 4fbd 2174 273f c33a c93e 0c2f 103f
00000340: 2464 d43e 3633 12bf f4c5 e3be d7ad 183f
00000350: 3a31 293f 3127 2cbf d9b3 ebbe 703c 9ebe
00000360: 4a86 98be 10fe c8be 825b 853d c63c df3e
00000370: 3cc6 16bf 7194 9a3e 7106 c03e 9a3c e2be
00000380: 26d3 df3d 420f 0b3f 72bc cbbe fc06 cdbe
00000390: 9cd6 45bf 7dde 51bf d425 b73e e24d babe
000003a0: 9a76 ae3d 85c2 27bf b369 8cbe ad90 4abf
000003b0: 6c50 e73d 0dba 5ebf 111c 05bf 51ed 103f
000003c0: 9cfa 603e 2705 2a3f c29d 12bf 66ec 7cbe
000003d0: da09 3cbe f8f9 2a3e 3635 4fbe c13c 4cbf
000003e0: 67ea 75bd 3315 6cbf cf44 883e 11d2 e73e
000003f0: 607a 23bf bf5c 80be 6ba8 23bf 1d7f 69bf
