serology/results_intermediate_encoders_2/models/5fold/encoder_intermediate_human_3.pt (torch, 12943 bytes, 7 tensors)

weight f4 [32]
1.1088743 1.1116309 1.1327416 1.0971745 1.0198832 0.9331854 1.0543756 1.0064272
1.1074923 1.1336179 0.8628093 0.8668554 1.1733575 1.1533628 1.1364633 0.9911635
1.0181074 0.738446 1.2357622 0.92654043 1.0292528 1.0788168 0.9573848 1.0043354
1.0688412 0.90163136 1.0848213 1.1230508 0.90856636 1.111914 1.2009201 1.0224111
00000000: 98ef 8d3f ec49 8e3f adfd 903f 3770 8c3f
00000010: 888b 823f 3de5 6e3f c8f5 863f 9bd2 803f
00000020: 4fc2 8d3f 641a 913f 12e1 5c3f 3cea 5d3f
00000030: 9430 963f 64a1 933f a177 913f e4bc 7d3f
00000040: 5851 823f cc0a 3d3f 752d 9e3f c131 6d3f
00000050: 8ebe 833f ab16 8a3f 2c17 753f 108e 803f
00000060: cacf 883f 50d1 663f 6ddb 8a3f 21c0 8f3f
00000070: ce97 683f 3353 8e3f c0b7 993f 5ede 823f

bias f4 [32]
0.057741873 0.1357161 -0.20411791 0.013911378 -0.16507047 0.05462354 -0.26830283 -0.01804337
-0.20621675 -0.11405144 0.2814394 0.06538562 -0.20500907 -0.16083133 -0.05562605 0.027332658
-0.071147494 0.057840683 -0.16356152 -0.03509525 -0.08793852 -0.22575879 -0.3474482 -0.06983275
-0.13484336 0.109961174 -0.38353866 -0.21949078 -0.006059734 -0.011031233 -0.3372621 -0.16361687
00000000: be82 6c3d 29f9 0a3e 4904 51be 8cec 633c
00000010: 3c08 29be efbc 5f3d fd5e 89be b1cf 93bc
00000020: 7c2a 53be cd93 e9bd d318 903e e5e8 853d
00000030: e6ed 51be f8b0 24be 24d8 63bd bde8 df3c
00000040: c7b5 91bd 5aea 6c3d ac7c 27be 09c0 0fbd
00000050: 1c19 b4bd 502d 67be bbe4 b1be 7904 8fbd
00000060: 6114 0abe 5333 e13d 2e5f c4be 31c2 60be
00000070: bc90 c6bb 58bc 34bc 9ead acbe 2e8b 27be

running_mean f4 [32]
0.6068342 0.7445113 0.41668087 0.1375249 1.5433017 0.6652402 -0.31577498 1.6616011
-1.0888414 0.7601088 0.618156 -0.1534315 -0.58774215 0.5916918 -1.0116345 0.29904738
0.8289944 -1.2095507 -0.2769623 -0.20719258 0.03566183 0.19352719 -1.4050859 -0.25395015
1.0045145 1.7797762 -1.3119428 -0.59200454 0.13460468 1.2843848 -1.7058262 -0.5496677
00000000: 7c59 1b3f 4b98 3e3f 3257 d53e 54d3 0c3e
00000010: e98a c53f 2f4d 2a3f 42ad a1be 58af d43f
00000020: 285f 8bbf 7e96 423f 793f 1e3f 261d 1dbe
00000030: 4576 16bf 1d79 173f 3d7d 81bf bd1c 993e
00000040: fa38 543f 8fd2 9abf 01ce 8dbe 4b2a 54be
00000050: 2412 123d fe2b 463e dbd9 b3bf c105 82be
00000060: ee93 803f b5cf e33f beed a7bf 9c8d 17bf
00000070: cfd5 093e b966 a43f 8358 dabf 06b7 0cbf

running_var f4 [32]
15.766165 3.5712934 1.3746144 3.9597971 2.002864 9.684112 5.3211765 1.5057791
12.773594 2.3523786 3.8505936 4.7243114 3.4421055 3.3304694 6.432072 1.1621623
2.180504 2.8465014 4.858861 1.6166266 7.036485 4.529628 4.284216 0.8538362
1.7963444 4.2199125 7.1550956 7.5692053 1.944722 2.4572854 13.14225 5.645079
00000000: 3642 7c41 1290 6440 5df3 af3f 516d 7d40
00000010: ec2e 0040 1ff2 1a41 1447 aa40 5fbd c03f
00000020: a460 4c41 5f8d 1640 2070 7640 8f2d 9740
00000030: 754b 5c40 6926 5540 89d3 cd40 bcc1 943f
00000040: 618d 0b40 142d 3640 ca7b 9b40 9fed ce3f
00000050: e32a e140 b6f2 9040 4c18 8940 0295 5a3f
00000060: 9dee e53f 8609 8740 8bf6 e440 ee36 f240
00000070: a7ec f83f 2a44 1d40 a846 5241 7da4 b440

weight f4 [32, 32]
-0.053828396 -0.25951794 -0.024282306 -0.22061409 0.1147903 -0.21085872 0.058554687 -0.2212929
0.16643457 0.16117477 0.12670168 0.057287764 -0.14376886 0.068866044 0.11129138 0.33619502
0.18572496 -0.28322127 -0.093277365 0.15775162 0.007984401 0.25272712 -0.30330265 -0.022211231
-0.051110826 -0.21155943 -0.10227355 -0.33652195 0.12517771 0.2967901 0.075237826 0.43819663
0.11359935 -0.044753674 -0.10296059 -0.0052276566 -0.07997573 -0.19035752 0.09026827 -0.19078383
-0.33188024 -0.036628116 0.09593482 0.33494788 0.29542312 0.10085914 -0.10713763 -0.2621728
0.12845948 0.13980407 0.1695855 0.13111383 -0.04021628 -0.17091984 -0.15262465 0.0049604713
-0.4578186 -0.100323364 -0.031154124 -0.3196809 0.0860435 -0.24919817 -0.020252952 -0.3792165
-0.014271329 0.111820124 -0.2065814 -0.08308227 -0.1823215 -0.10374867 -0.051605735 0.29116282
0.29081622 0.02585599 -0.108048506 -0.21796508 -0.12813118 -0.0329246 -0.037734326 -0.069718234
0.16496933 -0.064956136 0.19653967 0.03947316 -3.852462e-05 -0.13205303 0.10694846 0.34797248
-0.113749586 0.2801922 0.015647069 -0.3597878 -0.21909934 -0.2278969 0.13549222 0.18231413
0.082301565 -0.22656149 -0.44020215 -0.016420156 0.09884431 0.26675883 0.06460554 -0.32811517
0.18834049 0.08897852 0.18939821 0.27184328 0.14180847 -0.15973194 0.06276646 -0.092490375
0.07956843 0.1354815 -0.13100642 -0.30338845 -0.06751876 0.29768458 0.09299813 -0.038651206
0.2882886 0.25980723 -0.102205195 -0.55335283 0.016020576 0.1291967 0.09063285 0.08394487
0.06825021 0.074463695 0.13076411 -0.027844647 -0.24341333 -0.28420356 0.030308926 0.24324648
0.1945951 0.1435423 0.13124816 0.023324855 -0.05902523 0.0067595625 0.09795223 -0.28180066
0.124681085 -0.15705277 0.031064672 0.021599723 -0.026112732 0.22157617 0.024499707 -0.0021451507
0.24189337 0.084253795 -0.053545576 0.09878388 -0.073799334 0.18192418 0.35349828 -0.11524421
-0.15838645 0.112081304 -0.35001677 0.018367779 0.044449 0.33174238 0.15781201 -0.3066847
-0.27695936 -0.14475457 -0.15060465 0.0008143517 0.033227686 0.056348473 0.03671969 0.06957247
0.059880145 -0.0142863 -0.080207504 -0.33131835 -0.10140257 -0.15832636 -0.24473587 -0.390443
-0.12965441 -0.104838386 -0.2075291 0.007133226 0.18044174 0.10082079 -0.41206545 0.16370624
0.0011969403 -0.16254671 0.04761046 -0.11973062 0.010772121 0.08109545 0.07982672 -0.24987525
0.106208056 -0.09465672 -0.122090034 0.22100493 -0.40835565 0.099418186 -0.06921805 -0.16947074
-0.064949624 -0.28990448 -0.18461196 0.11630551 -0.015749782 0.2856437 0.07111171 -0.19975094
0.42158735 0.27320367 -0.20167759 -0.24910653 0.16529535 0.08793632 0.056844737 0.17009544
-0.015769353 0.1969411 -0.051015787 -0.07650535 -0.29783612 0.21323025 0.047543775 0.12644957
0.20077707 0.027203467 0.0123911435 -0.079158746 -0.21100768 0.1299103 0.0009887778 -0.06405565
0.08436178 0.09659933 0.28377756 -0.027293023 -0.013973455 0.20492296 -0.39313495 -0.12506248
-0.14647843 -0.49027565 -0.0416895 0.3129947 -0.10227636 -0.110905476 -0.062177774 -0.13176629
00000000: 2a7b 5cbd 89df 84be b0eb c6bc a9e8 61be
00000010: 2d17 eb3d 59eb 57be 0ad7 6f3d 9b9a 62be
00000020: d36d 2a3e 000b 253e 16be 013e 93a6 6a3d
00000030: 2538 13be a409 8d3d bcec e33d c121 ac3e
00000040: af2e 3e3e 6102 91be 3408 bfbd a489 213e
00000050: 01d1 023c 7365 813e 7c4a 9bbe 54f4 b5bc
00000060: 9659 51bd 09a3 58be cc74 d1bd 9b4c acbe
00000070: 962e 003e dff4 973e 4a16 9a3d 4f5b e03e
00000080: c7a6 e83d a14f 37bd 00dd d2bd c34c abbb
00000090: 51ca a3bd 15ed 42be 92de b83d d65c 43be
000000a0: 35ec a9be 5d07 16bd 7a79 c43d 4a7e ab3e
000000b0: b341 973e 3d8f ce3d f96a dbbd 833b 86be
000000c0: e28a 033e cc28 0f3e d2a7 2d3e b442 063e
000000d0: d3b9 24bd 9c05 2fbe a349 1cbe 738b a23b
000000e0: 3367 eabe 5676 cdbd ef36 ffbc 37ad a3be
000000f0: 9337 b03d ce2d 7fbe 85e9 a5bc aa28 c2be
00000100: 4bd2 69bc f301 e53d 138a 53be 0a27 aabd
00000110: 7db2 3abe 2f7a d4bd 8960 53bd 4b13 953e
00000120: dde5 943e f1cf d33c 8948 ddbd 3d32 5fbe
00000130: d234 03be f2db 06bd 4f8f 1abd 6fc8 8ebd
00000140: b8ed 283e b907 85bd b241 493e 9cae 213d
00000150: 7f95 21b8 e938 07be cb07 db3d 7329 b23e
00000160: 8bf5 e8bd 5a75 8f3e 482e 803c 1b36 b8be
00000170: 945b 60be ce5d 69be 79be 0a3e 8eb0 3a3e
00000180: b98d a83d bcff 67be 2d62 e1be 9083 86bc
00000190: e36e ca3d 9d94 883e e94f 843d b6fe a7be
000001a0: 54dc 403e 5f3a b63d 9bf1 413e 0b2f 8b3e
000001b0: 3d36 113e c590 23be b48b 803d 986b bdbd
000001c0: c6f4 a23d aabb 0a3e 8c26 06be bb55 9bbe
000001d0: 4747 8abd 1d6a 983e ce75 be3d ba50 1ebd
000001e0: 909a 933e 7405 853e f550 d1bd 88a8 0dbf
000001f0: 953d 833c 244c 043e b79d b93d 4aeb ab3d
00000200: c4c6 8b3d 6c80 983d 07e7 053e 751a e4bc
00000210: 5841 79be 2183 91be 6d4a f83c 9b15 793e
00000220: f043 473e c1fc 123e eb65 063e c413 bf3c
00000230: 71c4 71bd 527f dd3b 2e9b c83d 2d48 90be
00000240: cc58 ff3d 71d2 20be 577b fe3c e7f1 b03c
00000250: 5eea d5bc dde4 623e 9cb3 c83c a895 0cbb
00000260: e5b2 773e 418d ac3d 9b52 5bbd 344f ca3d
00000270: 1b24 97bd 554a 3a3e bafd b43e 2805 ecbd
00000280: 0f30 22be e28a e53d 6635 b3be 0678 963c
00000290: 2810 363d 23da a93e 7999 213e c705 9dbe
000002a0: 9ecd 8dbe 8b3a 14be 1b38 1abe 387a 553a
000002b0: c119 083d a8cd 663d 6367 163d 037c 8e3d
000002c0: e244 753d 1611 6abc d543 a4bd 8fa2 a9be
000002d0: 27ac cfbd 4e20 22be 0a9c 7abe 25e8 c7be
000002e0: 20c4 04be 82b5 d6bd 8282 54be d6bd e93b
000002f0: b8c5 383e 217b ce3d 3efa d2be 9ca2 273e
00000300: a7e2 9c3a a572 26be 3003 433d 5435 f5bd
00000310: 8d7d 303c 5f15 a63d 317c a33d 4cdf 7fbe
00000320: 9c83 d93d 62db c1bd 570a fabd 1e4f 623e
00000330: fe13 d1be c39b cb3d 31c2 8dbd bd89 2dbe
00000340: 4f04 85bd 5c6e 94be eb0a 3dbe 9531 ee3d
00000350: b005 81bc e43f 923e 04a3 913d 838b 4cbe
00000360: 4cda d73e 5ae1 8b3e 9284 4ebe c815 7fbe
00000370: 2f43 293e f517 b43d 07d6 683d 802d 2e3e
00000380: bb2e 81bc edaa 493e eef5 50bd d6ae 9cbd
00000390: fa7d 98be 0859 5a3e 43bd 423d ff7b 013e
000003a0: 8198 4d3e ced9 de3c 3904 4b3c fb1d a2bd
000003b0: 6612 58be 3507 053e e199 813a 9c2f 83bd
000003c0: dec5 ac3d dfd5 c53d 4b4b 913e 9e95 dfbc
000003d0: ebf0 64bc 53d7 513e fc48 c9be 6110 00be
000003e0: 71fe 15be 6905 fbbe 9cc2 2abd d740 a03e
000003f0: 4576 d1bd 6922 e3bd 1fae 7ebd beed 06be

bias f4 [32]
-0.00012288861 0.0001989613 -0.00037985758 7.365502e-05 0.00034408583 6.969473e-05 0.00012061747 -0.00021175285
0.00015243592 -0.00012046815 -3.0504314e-05 -7.433963e-05 -9.409452e-05 -7.22438e-05 0.00018028657 -3.340688e-05
1.5393489e-05 -0.00013311148 -6.500645e-05 0.00012200828 3.6191732e-06 -1.52473685e-05 -3.7132231e-06 -0.0002426136
-5.223048e-05 -7.072803e-05 0.00014619708 0.00010526612 5.0246734e-05 -0.00012005742 0.00014492626 7.601595e-05
00000000: a9db 00b9 44a0 5039 9f27 c7b9 3d77 9a38
00000010: 6b66 b439 1329 9238 03f4 fc38 f909 5eb9
00000020: 35d7 1f39 d8a3 fcb8 84e3 ffb7 c9e6 9bb8
00000030: 9c54 c5b8 9881 97b8 4f0b 3d39 5d1e 0cb8
00000040: 4421 8137 d793 0bb9 1254 88b8 b2de ff38
00000050: ece0 7236 f3ce 7fb7 b030 79b6 1866 7eb9
00000060: 0d12 5bb8 d253 94b8 7b4c 1939 51c2 dc38
00000070: 05c0 5238 56c7 fbb8 59f7 1739 c16a 9f38

weight f4 [32, 32]
0.026123922 -0.41853577 0.36412516 -0.15821053 0.18496299 0.31619024 0.31904653 0.081496276
0.060427833 0.15462059 0.021028224 -0.09245988 0.13405165 0.07127666 0.14915541 -0.09734881
-0.023191689 0.071673095 0.2191426 -0.1927835 0.042625632 0.26990244 0.26481846 -0.17422925
-0.2275558 -0.034858096 0.046868667 0.3429756 0.15779236 -0.057019275 0.1682637 0.12908965
0.09262675 0.25238305 0.2958033 -0.11552715 0.18397263 -0.081485756 0.046038326 0.21763894
-0.1957458 0.26226687 0.047878906 -0.13677703 -0.15781336 0.29387864 -0.11548419 0.1780137
0.17995812 0.24027847 -0.050714564 0.05412071 0.120453954 -0.23463266 -0.15707546 -0.31426662
0.43049222 -0.11835325 -0.2037278 0.042944822 -0.2924097 -0.046083916 0.003809695 -0.028522825
0.15898493 0.24219288 -0.17082268 -0.043846726 0.13433762 -0.12017701 0.1455811 0.4037895
-0.17300852 0.049897753 0.08515477 0.008417605 0.12454313 -0.17843196 0.12924193 -0.012784564
0.022047387 -0.23607716 -0.18302721 0.2141669 0.2087081 -0.23825802 -0.109102845 -0.041798055
0.42403477 0.18915924 -0.0783147 0.0054982333 0.20065865 -0.07855777 0.09661733 -0.123793766
-0.027172536 -0.16588086 -0.0030363165 -0.20388143 0.26493588 -0.2296893 -0.2304064 0.22679125
-0.3143587 0.24649432 -0.2692787 -0.181445 0.014570287 -0.11451145 -0.2992759 -0.16175567
0.21204257 0.023241369 0.037785 -0.3479479 -0.17692623 -0.15640624 -0.04259114 0.12795933
-0.07294229 0.13682152 -0.18675423 -0.21402426 0.054445658 0.115589485 -0.20046888 -0.086700074
-0.2247096 0.13378726 -0.2111382 0.2519035 0.113847464 0.0743758 -0.017497072 -0.20879191
0.1980003 0.15406264 -0.27877647 0.07121567 -0.012564029 0.09358852 -0.24751855 -0.00010297781
-0.15096773 0.2632064 -0.28349528 0.083396435 -0.034813996 -0.12762004 -0.15239908 0.033821236
0.03873252 0.13576399 0.21169312 -0.23467883 0.04823586 0.27865806 0.043111216 -0.28636536
-0.12726885 0.012337511 0.33143872 -0.05492426 0.27361408 -0.22828981 0.15780912 -0.09847277
0.147058 0.22750041 -0.23790261 -0.1754253 -0.12503876 0.08911666 -0.3258489 -0.02442934
-0.3370371 -0.0012715181 -0.046361864 0.05832 -0.07403835 0.09748629 0.081077754 -0.10118688
-0.0024816813 0.05326811 -0.092925236 -0.08806567 0.0007994368 -0.21862027 0.111699656 0.1075097
-0.370666 0.08695679 -0.05836245 -0.2700229 -0.14775184 0.119923666 0.1253069 -0.17648391
0.092179395 0.014477346 -0.19514091 -0.18193942 0.20908582 0.23878062 0.2169596 -0.17853807
0.08432821 0.0682431 -0.17842092 -0.1857564 0.09029185 -0.26699322 -0.016405838 -0.25424156
-0.031013604 -0.12633699 0.13853344 -0.2443814 0.17114514 -0.24929127 0.039540417 -0.15474994
-0.052025687 -0.1504769 -0.4608001 -0.016944023 0.31561455 0.08885031 0.27287593 -0.07015094
-0.06699027 -0.14042775 -0.2420741 0.13122593 -0.007861402 0.029798292 -0.21136682 0.19092993
0.09303847 -0.0754424 -0.17753771 0.11339329 0.17246102 -0.08111495 -0.022752425 -0.088569574
0.2192366 -0.28228435 0.13577507 0.16967203 0.15561758 -0.14918049 0.1830585 -0.0019934794
00000000: d601 d63c 524a d6be 9d6e ba3e f101 22be
00000010: f066 3d3e b0e3 a13e 115a a33e 85e7 a63d
00000020: 2d83 773d dc54 1e3e 6243 ac3c 9b5b bdbd
00000030: d644 093e 7ff9 913d 32bc 183e d05e c7bd
00000040: 7ffc bdbc 58c9 923d eb66 603e 0a69 45be
00000050: 3798 2e3d a730 8a3e 4996 873e 2769 32be
00000060: 6304 69be 5dc7 0ebd 5cf9 3f3d 7f9a af3e
00000070: 5294 213e 0b8d 69bd 524d 2c3e 1430 043e
00000080: 18b3 bd3d 5a38 813e 8873 973e 8099 ecbd
00000090: 5263 3c3e 01e2 a6bd af92 3c3d bedc 5e3e
000000a0: 9671 48be d847 863e ac1c 443d 470f 0cbe
000000b0: d399 21be 4377 963e fa82 ecbd 3949 363e
000000c0: f146 383e 8f0b 763e 13ba 4fbd adad 5d3d
000000d0: 90b0 f63d 8b43 70be 64d8 20be 8ee7 a0be
000000e0: 7a69 dc3e 3063 f2bd 059e 50be e9e6 2f3d
000000f0: b9b6 95be 7dc2 3cbd 13ac 793b b3a8 e9bc
00000100: f2cc 223e 6901 783e 24ec 2ebe a098 33bd
00000110: cd8f 093e 5d1f f6bd 3613 153e 7fbd ce3e
00000120: 2529 31be 9661 4c3d a065 ae3d ffe9 093c
00000130: 7810 ff3d deb6 36be ff57 043e 5976 51bc
00000140: b99c b43c 36be 71be 7c6b 3bbe 914e 5b3e
00000150: 93b7 553e e9f9 73be 5071 dfbd 7034 2bbd
00000160: 161b d93e f6b2 413e 7563 a0bd 862a b43b
00000170: 7679 4d3e e5e2 a0bd 4fdf c53d 9687 fdbd
00000180: f098 debc acdc 29be f0fc 46bb 4bc6 50be
00000190: ada5 873e ac33 6bbe a8ef 6bbe f73b 683e
000001a0: a0f3 a0be 0269 7c3e e6de 89be b8cc 39be
000001b0: 37b8 6e3c fb84 eabd b13a 99be 47a3 25be
000001c0: b021 593e af64 be3c 72c4 1a3d 3a26 b2be
000001d0: 262c 35be f528 20be 0c74 2ebd c507 033e
000001e0: c462 95bd f11a 0c3e 803c 3fbe 2d29 5bbe
000001f0: 6902 5f3d 2eba ec3d b747 4dbe cf8f b1bd
00000200: 461a 66be 87ff 083e 9d34 58be 7ff9 803e
00000210: dc28 e93d 5752 983d 0556 8fbc 8ccd 55be
00000220: 97c0 4a3e 99c2 1d3e cabb 8ebe 85d9 913d
00000230: 5bd9 4dbc 57ab bf3d 8175 7dbe caf5 d7b8
00000240: 4997 1abe fdc2 863e 4b26 91be c0cb aa3d
00000250: 1f99 0ebd d4ae 02be 810e 1cbe 2388 0a3d
00000260: fea5 1e3d b705 0b3e 15c6 583e a64f 70be
00000270: f792 453d 45ac 8e3e 6395 303d 7b9e 92be
00000280: c452 02be 4623 4a3c 56b2 a93e 43f8 60bd
00000290: 2517 8c3e cec4 69be b798 213e 17ac c9bd
000002a0: 5f96 163e def5 683e be9c 73be b1a2 33be
000002b0: 290a 00be cc82 b63d abd5 a6be 0a20 c8bc
000002c0: 2090 acbe 11a9 a6ba f0e5 3dbd f4e0 6e3d
000002d0: 6ba1 97bd e4a6 c73d 180c a63d 113b cfbd
000002e0: b4a3 22bb a92f 5a3d 964f bebd c65b b4bd
000002f0: 4c91 513a fedd 5fbe cac2 e43d 0c2e dc3d
00000300: efc7 bdbe 6716 b23d 770d 6fbd 7140 8abe
00000310: 424c 17be 8a9a f53d 7450 003e 33b8 34be
00000320: 8dc8 bc3d 6432 6d3c 05d3 47be 544e 3abe
00000330: 981a 563e e882 743e a82a 5e3e afd2 36be
00000340: 45b4 ac3d 0ac3 8b3d f9b3 36be ed36 3ebe
00000350: efea b83d 56b3 88be 8965 86bc f32b 82be
00000360: 3e10 febc 7c5e 01be b6db 0d3e 1e3f 7abe
00000370: ac40 2f3e 3646 7fbe 22f5 213d c576 1ebe
00000380: e318 55bd 9e16 1abe feed ebbe 31ce 8abc
00000390: 3b98 a13e 27f7 b53d 65b6 8b3e 4cab 8fbd
000003a0: 3232 89bd 4bcc 0fbe 46e2 77be 1760 063e
000003b0: 1ccd 00bc 8c1b f43c 8b70 58be 2383 433e
000003c0: f48a be3d 8c81 9abd 72cc 35be be3a e83d
000003d0: 9f99 303e 981f a6bd 4b63 babc f763 b5bd
000003e0: 8f7f 603e 9387 90be 9f08 0b3e 81be 2d3e
000003f0: 375a 1f3e c5c2 18be b073 3b3e 09a5 02bb
