serology/results_intermediate_encoders_2/models/5fold/encoder_human_1.pt (torch, 38927 bytes, 7 tensors)

weight f4 [64]
0.9829629 0.81689817 0.78418064 0.8776175 0.865366 0.887469 0.99713486 0.878308
0.826889 0.81042063 0.7920565 0.84350735 0.91186327 0.96750754 0.9326921 1.0476152
1.0103585 0.90356374 0.796366 0.91109645 1.019472 0.8137583 0.8422961 0.79953325
0.64142436 0.9970527 0.9835234 0.8152369 0.96218044 0.95443267 0.78813237 0.7916289
0.85263 0.9001333 0.747984 0.909931 0.8087128 0.63195515 0.9067873 0.8013765
0.8488236 1.0428597 0.9171266 0.9697223 0.9247706 0.75783825 0.9679361 0.8371645
0.8450347 0.7815674 0.9953133 0.66688395 0.74001616 0.7939797 0.79741496 0.92421705
0.87471163 1.064908 0.774837 0.7643653 0.8011962 0.9101911 0.8345506 0.90664965
00000000: 75a3 7b3f 3d20 513f 10c0 483f 8aab 603f
00000010: a088 5d3f 2b31 633f 3b44 7f3f cbd8 603f
00000020: ffae 533f ba77 4f3f 37c4 4a3f 19f0 573f
00000030: df6f 693f 93ae 773f e9c4 6e3f 4118 863f
00000040: 6d53 813f f44f 673f a4de 4b3f 9e3d 693f
00000050: 0f7e 823f 7752 503f b8a0 573f 36ae 4c3f
00000060: 6334 243f d93e 7f3f 31c8 7b3f 5eb3 503f
00000070: 7551 763f b355 743f 0bc3 493f 31a8 4a3f
00000080: f645 5a3f 236f 663f e17b 3f3f 3df1 683f
00000090: cd07 4f3f d0c7 213f 3623 683f 0327 4d3f
000000a0: 814c 593f 6d7c 853f cfc8 6a3f b83f 783f
000000b0: c4bd 6c3f b001 423f a9ca 773f 6a50 563f
000000c0: 3254 583f cd14 483f dacc 7e3f e8b8 2a3f
000000d0: b371 3d3f 4142 4b3f 6323 4c3f 7d99 6c3f
000000e0: 1aed 5f3f e84e 883f b85b 463f 72ad 433f
000000f0: 321b 4d3f 4902 693f 1ca5 553f 311a 683f

bias f4 [64]
0.51818997 -0.10576457 -0.3265788 -0.0795212 0.2909643 0.15702347 0.443025 -0.21753936
0.0588795 0.0678403 -0.2210527 -0.120354705 -0.5317434 -0.29179066 0.24289797 0.60427827
0.29976 0.18119304 -0.06149398 0.11019581 0.15002573 -0.45096684 0.5409348 -0.012340594
-0.49501422 0.23869033 -0.12506752 -0.14115404 0.3159829 0.14045022 -0.115540005 -0.08882078
0.07441885 0.51779133 0.14982444 0.32635525 -0.06369412 -0.699177 -0.14071634 -0.15168087
0.32631516 0.31895015 0.56612134 -0.17239285 0.06286812 0.33141392 0.018584372 0.079308204
0.08697968 -0.17584737 0.38100597 -0.7000653 -0.3651635 0.08020212 -0.11138865 0.20665102
0.012669947 0.5399372 -0.27107173 -0.15072422 -0.33837765 0.14708555 0.050070565 0.37415403
00000000: 19a8 043f 189b d8bd 5635 a7be 03dc a2bd
00000010: 46f9 943e c3ca 203e 2cd4 e23e a3c2 5ebe
00000020: a12b 713d dbef 8a3d a45b 62be 877c f6bd
00000030: 5620 08bf 9665 95be 3fba 783e fbb1 1a3f
00000040: 257a 993e ab8a 393e 1de1 7bbd 57ae e13d
00000050: 58a0 193e 20e5 e6be b47a 0a3f 3430 4abc
00000060: 8172 fdbe 3d6b 743e b311 00be af8a 10be
00000070: 83c8 a13e 2fd2 0f3e 3da0 ecbd abe7 b5bd
00000080: e968 983d f98d 043f 946b 193e 0918 a73e
00000090: 1072 82bd 44fd 32bf f217 10be 3b52 1bbe
000000a0: c812 a73e 6f4d a33e 54ed 103f c087 30be
000000b0: 00c1 803d 16af a93e 413e 983c 576c a23d
000000c0: 6722 b23d 5511 34be 3713 c33e 7b37 33bf
000000d0: b6f6 babe 0241 a43d bc1f e4bd 539c 533e
000000e0: 9c95 4f3c 5339 0a3f eac9 8abe 7357 1abe
000000f0: d63f adbe 989d 163e cb16 4d3d 1e91 bf3e

running_mean f4 [64]
0.5144871 0.16022377 -0.38439712 -0.1345329 -0.14237605 0.27865168 -0.08974194 -0.3820826
0.10182504 -0.20367765 -0.029572336 -0.40192455 -0.4368402 -0.18874909 -0.29280743 -0.20249696
0.17342147 0.3779957 -0.039292302 0.05072949 -0.32906443 -0.24545945 -0.22681366 0.089966446
-0.22589506 0.41177145 -0.31079873 -0.12081702 0.22493267 -0.15193048 0.3788043 0.16201517
0.14472854 0.010264152 0.20299387 -0.14348882 -0.2917519 -0.20061478 -0.507973 -0.36081326
0.06808391 -0.40291455 0.34626338 -0.433466 -0.31134263 0.2640365 -0.3540867 -0.45444617
0.22659308 -0.40405804 -0.3997247 -0.27384314 0.33764422 0.1293962 0.0030065286 0.35487553
-0.5242598 -0.46737134 -0.24438745 -0.54455864 -0.10811768 -0.28399843 0.52040553 0.47883642
00000000: 6db5 033f b311 243e b3cf c4be fec2 09be
00000010: 07cb 11be 6fab 8e3e 9fca b7bd 55a0 c3be
00000020: a689 d03d e090 50be af41 f2bc 0ec9 cdbe
00000030: 85a9 dfbe 7147 41be dbea 95be 5d5b 4fbe
00000040: 6695 313e a788 c13e f7f0 20bd bac9 4f3d
00000050: 227b a8be b959 7bbe d741 68be 5440 b83d
00000060: 0951 67be b5d3 d23e 0321 9fbe ea6e f7bd
00000070: c054 663e aa93 1bbe a3f2 c13e 4ee7 253e
00000080: b833 143e f92a 283c a0dd 4f3e bcee 12be
00000090: 8160 95be f66d 4dbe 850a 02bf 84bc b8be
000000a0: 946f 8b3d d14a cebe 6f49 b13e 41ef ddbe
000000b0: 4d68 9fbe cb2f 873e da4a b5be 2bad e8be
000000c0: 0408 683e b2e0 cebe b7a8 ccbe 2b35 8cbe
000000d0: b4df ac3e 7080 043e 2e09 453b 3fb2 b53e
000000e0: e435 06bf 4c4b efbe b440 7abe 3268 0bbf
000000f0: cd6c ddbd 3e68 91be 4c39 053f 0c2a f53e

running_var f4 [64]
3.57163 5.785481 5.1942635 9.150206 2.147779 10.07016 6.23281 4.46134
4.4939146 3.5592284 4.160404 6.5652385 10.947832 5.341482 2.8461363 15.231833
4.6803865 7.9600525 5.652312 4.193638 5.998641 5.3771043 2.228454 7.5181894
9.714052 4.9564714 5.653175 3.6509318 3.2118688 3.4313576 3.8199148 4.2039294
4.249587 2.5053706 4.393194 3.740881 4.7006025 2.6065817 8.133147 8.821825
2.6641402 9.956644 4.8084016 7.51392 10.192503 2.6601748 6.0723295 3.7280803
8.715695 13.141488 12.28236 5.2714767 7.635395 6.548873 3.991167 4.8981414
5.5743566 13.651069 4.7629175 8.095125 8.173004 9.994651 4.044722 3.2132711
00000000: 9695 6440 a922 b940 6837 a640 3e67 1241
00000010: 3675 0940 601f 2141 2e73 c740 4cc3 8e40
00000020: 26ce 8f40 66ca 6340 0822 8540 6f16 d240
00000030: 522a 2f41 6ced aa40 1927 3640 97b5 7341
00000040: bac5 9540 c0b8 fe40 bddf b440 4832 8640
00000050: def4 bf40 3d11 ac40 fe9e 0e40 0295 f040
00000060: c26c 1b41 6a9b 9e40 cfe6 b440 dea8 6940
00000070: 428f 4d40 5d9b 5b40 7c79 7440 9786 8640
00000080: 9efc 8740 fe57 2040 0c95 8c40 986a 6f40
00000090: 566b 9640 3cd2 2640 5f21 0241 3226 0d41
000000a0: 4681 2a40 6a4e 1f41 6dde 9940 0872 f040
000000b0: 7e14 2341 4e40 2a40 8650 c240 de98 6e40
000000c0: 7d73 0b41 8943 5241 8c84 4441 f0af a840
000000d0: 2855 f440 5e90 d140 486f 7f40 93bd 9c40
000000e0: 2161 b240 c76a 5a41 d269 9840 a285 0141
000000f0: a0c4 0241 17ea 1f41 5d6e 8140 3ca6 4d40

weight f4 [64, 99]
0.12360543 -0.10279602 0.004275702 0.14015417 0.18018445 -0.061488267 -0.009302689 -0.1255062
0.12506543 -0.060193054 0.13159238 -0.06719218 -0.027843837 -0.13097562 -0.117893726 -0.09928174
-0.040707104 0.014823186 0.1289089 -0.12735437 0.11824088 -0.11746949 -0.08275142 0.08017658
-0.17895895 0.2193868 0.13566181 -0.022615809 0.053955507 -0.16897011 0.03625419 0.12459685
-0.1026979 -0.13189468 -0.11229753 -0.0026640196 0.08035695 -0.010227535 -0.049459487 -0.011117472
0.29529157 0.14012577 0.24747376 0.011945901 -0.059271235 0.035643134 -0.0024668796 0.044469852
-0.015463174 -0.017303986 -0.09869102 0.09435168 0.056541298 -0.13151039 -0.23564939 -0.15082541
-0.09522249 0.09596894 0.10007646 0.022036444 -0.02456798 0.02069655 0.06170421 -0.042021677
0.1922978 0.2937057 0.20108053 0.07597662 0.17678212 0.008151121 0.073699504 0.052135825
0.055794775 0.022495795 0.08937806 0.021864321 -0.097347885 0.01299189 0.1660964 0.02934765
-0.15121377 0.12495297 0.008702037 0.1195095 0.03230986 -0.007054142 -0.013028713 0.100418374
0.19385958 -0.09069278 -0.026693543 0.08825766 0.00043503084 0.18033928 0.0806162 -0.037117843
-0.14021024 0.050571065 0.12594563 0.17554137 0.15020533 0.074533 0.0212681 0.17818467
-0.0025493982 0.22679834 0.10760673 0.0106136035 0.13193862 0.16000801 0.10986487 -0.044833377
0.122363135 0.010350434 0.2505721 0.15391508 -0.05129566 0.016804973 -0.028478943 -0.043020856
0.12504402 0.09090817 -0.02468393 0.20944615 0.052324887 0.05114268 -0.20439827 0.04706149
0.07327455 0.09320074 -0.13466613 0.078374885 0.064749494 0.010508806 0.16699901 -0.15956904
0.20447165 0.105128825 0.052855007 -0.044996455 -0.009727517 0.0660084 -0.025949625 0.08572816
0.12731698 0.19870636 0.029545614 -0.21489556 -0.066709295 -0.02296624 -0.040976346 -0.11310121
0.081092045 0.2300979 0.057232358 -0.02448455 0.14107147 -0.09154536 0.14366226 -0.0500322
-0.011134205 -0.09596064 0.0036734813 -0.029871186 -0.17277406 0.095295526 0.026955534 0.0058680093
0.04608365 -0.110625446 -0.014971359 -0.066322386 -0.09268447 0.025595993 0.043226518 0.020753086
-0.024649182 0.00090082694 0.023982277 -0.0633966 -0.17026131 0.026144575 0.01067081 -0.11586286
-0.054840263 -0.13223416 -0.1396552 -0.07068426 0.03437507 0.044164408 0.057351157 0.14715602
0.008794974 0.111659 0.019565225 -0.018612258 -0.124529384 0.08965587 0.12570372 -0.18820167
0.124026224 0.091956444 -0.07664402 0.19053398 -0.12134003 0.15429956 0.0054824403 -0.087590955
0.0005792823 0.05704442 0.02139519 -0.13430846 0.09735326 0.05464014 0.06774307 -0.11681383
0.039260194 0.06230517 0.09490201 -0.109466635 0.08596788 -0.16211556 0.043778952 0.05318462
0.06331072 -0.1766332 0.05594249 -0.17427677 -0.051173057 -0.037118465 -0.04585867 -0.113719866
-0.050251268 -0.19805706 -0.24956155 0.17372315 -0.07555874 0.09167564 0.0680808 0.124992445
-0.18134543 -0.07259863 0.11659406 -0.2275029 0.09839568 0.067104705 -0.081669815 -0.10397209
-0.22630623 -0.008139509 0.10975692 0.07904164 -0.120041706 -0.122873366 -0.0068336064 0.092952974
00000000: d824 fd3d b886 d2bd 301b 8c3b 9384 0f3e
00000010: 4682 383e 1fdb 7bbd 4e6a 18bc b384 00be
00000020: 2711 003e fe8c 76bd 27c0 063e 0e9c 89bd
00000030: c218 e4bc 791e 06be 4472 f1bd 3a54 cbbd
00000040: 7ebc 26bd f3dc 723c b200 043e 2f69 02be
00000050: 4628 f23d d893 f0bd 9479 a9bd 9e33 a43d
00000060: 0441 37be efa6 603e eeea 0a3e ca44 b9bc
00000070: 7300 5d3d 8006 2dbe 467f 143d a22c ff3d
00000080: 4753 d2bd 660f 07be 3ffc e5bd d596 2ebb
00000090: 2f92 a43d 6491 27bc 0896 4abd 0f26 36bc
000000a0: 7530 973e 217d 0f3e c369 7d3e beb8 433c
000000b0: 65c6 72bd 89fe 113d 5fab 21bb 0526 363d
000000c0: 4159 7dbc 17c1 8dbc 841e cabd 743b c13d
000000d0: d997 673d a9aa 06be 134e 71be fa71 1abe
000000e0: 0204 c3bd 5d8b c43d e3f4 cc3d c685 b43c
000000f0: ca42 c9bc d08b a93c 8ebd 7c3d ec1e 2cbd
00000100: b7e9 443e 9860 963e 0ee8 4d3e a199 9b3d
00000110: 5f06 353e 488c 053c c4ef 963d 608c 553d
00000120: 1089 643d 1a49 b83c d80b b73d ce1c b33c
00000130: 545e c7bd f0db 543c 2d15 2a3e 7c6a f03c
00000140: c8d7 1abe 58e7 ff3d fd92 0e3c 66c1 f43d
00000150: 5857 043d 6f26 e7bb 6276 55bc 26a8 cd3d
00000160: 2083 463e 23bd b9bd 6bac dabc 6fc0 b43d
00000170: da14 e439 dcaa 383e 1b1a a53d e108 18bd
00000180: 4693 0fbe 9b23 4f3d e4f7 003e 1ec1 333e
00000190: 6dcf 193e c2a4 983d 703a ae3c 0b76 363e
000001a0: ce13 27bb d33d 683e eb60 dc3d aee4 2d3c
000001b0: eb1a 073e 24d9 233e d500 e13d 34a3 37bd
000001c0: 8699 fa3d de94 293c fc4a 803e ea9b 1d3e
000001d0: 661b 52bd 95aa 893c ac4c e9bc a336 30bd
000001e0: 8a0b 003e 102e ba3d f435 cabc 0d79 563e
000001f0: 9f52 563d fd7a 513d c84d 51be 8dc3 403d
00000200: f810 963d 08e0 be3d ebe5 09be 0383 a03d
00000210: 629b 843d 212d 2c3c ca01 2b3e 1166 23be
00000220: 0461 513e c84d d73d 7e7e 583d 344e 38bd
00000230: 2a60 1fbc 692f 873d 4f94 d4bc 3f92 af3d
00000240: 625f 023e ae79 4b3e a509 f23c 950d 5cbe
00000250: e29e 88bd b223 bcbc d0d6 27bd 9ba1 e7bd
00000260: 9613 a63d c99e 6b3e 7a6c 6a3d d393 c8bc
00000270: 0a75 103e 227c bbbd 331c 133e 90ee 4cbd
00000280: 3e6c 36bc 0387 c4bd cabe 703b 6bb4 f4bc
00000290: afeb 30be 4d2a c33d dad1 dc3c 6e48 c03b
000002a0: 36c2 3c3d 988f e2bd 6e4a 75bc 08d4 87bd
000002b0: 5bd1 bdbd b0ae d13c 4a0e 313d 6002 aa3c
000002c0: 15ed c9bc 7925 6c3a 7b76 c43c 14d6 81bd
000002d0: fb58 2ebe 262d d63c 9fd4 2e3c 8249 edbd
000002e0: 2fa0 60bd 6468 07be c601 0fbe e9c2 90bd
000002f0: e0cc 0c3d bde5 343d 0ce9 6a3d 11b0 163e
00000300: cb18 103c 79ad e43d 4047 a03c bc78 98bc
00000310: 4309 ffbd 7f9d b73d 7ab8 003e f0b7 40be
00000320: 7601 fe3d a953 bc3d 8af7 9cbd 571b 433e
00000330: 1f81 f8bd b400 1e3e 0ba6 b33b e362 b3bd
00000340: fada 173a 69a7 693d f744 af3c 2888 09be
00000350: 2561 c73d 57ce 5f3d e1bc 8a3d 173c efbd
00000360: 4ccf 203d b533 7f3d fc5b c23d 0b30 e0bd
00000370: ee0f b03d 9f01 26be 8f51 333d 1ed8 593d
00000380: 0da9 813d 55df 34be f423 653d 9c75 32be
00000390: d79a 51bd 8809 18bd 4dd6 3bbd f6e5 e8bd
000003a0: 46d4 4dbd 78cf 4abe 108d 7fbe 7be4 313e
000003b0: 8abe 9abd 70c0 bb3d f26d 8b3d 0afc ff3d
000003c0: 9eb2 39be 97ae 94bd dec8 ee3d 85f6 68be
000003d0: ad83 c93d 316e 893d 8142 a7bd 52ef d4bd
000003e0: d2bc 67be 935b 05bc 3cc8 e03d 95e0 a13d
000003f0: 6dd8 f5bd 08a5 fbbd 72ec dfbb 215e be3d

bias f4 [64]
-0.00061408145 -0.00015119441 0.00016897715 -2.6914757e-05 -0.0011350595 0.0004977546 0.00031372986 -0.00024696434
-0.000139493 9.968765e-05 0.0004190536 -0.00029619114 -0.00011724458 -0.00017567395 -0.00038777682 -1.5419526e-05
-0.00031319744 -0.000100574565 -0.00049040467 0.00010245113 -0.0005301997 -0.000119867385 -3.63634e-06 1.6230242e-05
1.4730165e-05 0.00025659453 -0.0005701372 -0.0003900802 0.00028109018 -0.00074726774 -0.00015252714 -0.0009916351
-0.00020050812 -0.0006510368 -0.00012892179 -0.0012433856 -0.00045145652 0.0001026646 -0.00021982308 -0.0001124991
-5.8309834e-05 -0.00065294164 0.000106909356 0.00019361818 -0.00030456876 -0.00037975793 -0.0004981163 -0.00029358704
-0.0004909449 0.0001637729 0.00015658923 -0.00037011862 0.00024915894 -0.0004953265 -0.00034475973 0.0002476821
1.4670788e-05 -0.0009397432 0.00046745953 0.00028398744 5.1854357e-05 0.00039726988 0.00016551783 0.00094326463
00000000: 4ffa 20ba f189 1eb9 752f 3139 00c7 e1b7
00000010: 47c6 94ba bf7b 023a 1c7c a439 fe7a 81b9
00000020: de44 12b9 660f d138 6cb4 db39 1a4a 9bb9
00000030: 34e1 f5b8 1e35 38b9 864e cbb9 2e59 81b7
00000040: a634 a4b9 8feb d2b8 808e 00ba 08db d638
00000050: 19fd 0aba 5061 fbb8 d807 74b6 2e26 8837
00000060: 9421 7737 8987 8639 4375 15ba ae83 ccb9
00000070: 495f 9339 4ae4 43ba b1ef 1fb9 c1f9 81ba
00000080: 7d3f 52b9 57aa 2aba 2e2f 07b9 19f9 a2ba
00000090: 78b1 ecb9 a34d d738 4f80 66b9 7fed ebb8
000000a0: b591 74b8 2c2a 2bba 8634 e038 fc05 4b39
000000b0: 87ae 9fb9 3f1a c7b9 0594 02ba 96ec 99b9
000000c0: c1b2 00ba 74ba 2b39 1a32 2439 7b0c c2b9
000000d0: 8ca1 8239 ccd8 01ba dec0 b4b9 54db 8139
000000e0: 8e22 7637 1959 76ba 5b15 f539 26e4 9439
000000f0: 317e 5938 a948 d039 db8e 2d39 6b45 773a

weight f4 [32, 64]
0.15103766 -0.19708315 -0.10101313 -0.057965945 -0.06325582 0.027051305 0.18679671 -0.18951826
0.007140058 -0.066435106 -0.1049223 0.16727857 -0.22459076 0.1392693 -0.027861658 0.08111072
-0.07897842 0.0078252405 0.01713815 0.13373716 0.031481992 -0.017984468 -0.17021286 -0.035234965
0.12408679 0.041479986 -0.10221514 -0.010726089 0.21053647 -0.18717222 -0.0077147596 0.111386925
-0.121081725 0.041617952 0.111709654 0.14504531 0.00042342482 -0.17740978 0.1367 -0.07197578
-0.08027194 -0.018991873 0.048785828 -0.1814432 0.027324723 0.07075877 -0.012997932 -0.12437848
-0.038423177 0.115865916 0.04193796 0.13096948 0.0557741 -0.031098513 0.033688117 0.06365724
-0.056501873 -0.120749556 -0.15541948 0.05778442 0.15526171 0.29300782 -0.1266954 -0.124392875
-0.065868214 0.03597951 -0.051708896 -0.11674271 0.062538065 0.09205672 0.12455723 0.12659341
-0.12587377 -0.0700255 -0.1589087 0.15472783 0.046115678 0.20204458 0.01852203 -0.1472732
0.088701 -0.16056989 0.011051519 0.022262324 -0.040692747 -0.27554694 -0.12948565 -0.14052676
0.023370435 -0.113408625 0.15973449 -0.037729036 0.12718341 0.2595485 -0.017673742 0.16170584
-0.07907095 -0.018352667 -0.10362888 -0.01538537 0.17680748 0.022917211 0.10622396 -0.096760295
0.075487286 0.072493315 0.050604884 -0.038040407 -0.18873948 -0.108388186 0.0035512026 0.13029689
0.005960894 -0.040159274 0.03628932 -0.19908558 -0.116610505 0.15231858 -0.00545315 0.08761043
0.16165541 -0.08741201 -0.277138 0.09466654 -0.06368159 -0.15475042 0.23258094 0.13086253
-0.0009913594 -0.059322026 -0.051304232 -0.1936308 -0.03906413 0.13670188 -0.027312033 0.23107485
-0.050275438 0.003383772 0.19179882 0.15976489 0.033241633 0.04162847 -0.017808314 -0.023666421
0.017619774 -0.16085488 0.21779063 0.07439909 0.002278456 -0.06623203 -0.029379763 -0.2073497
0.041207366 0.043130845 0.1329408 0.1354649 0.13136713 0.123017706 -0.10798207 0.12804957
-0.13705577 0.22427563 -0.021632686 0.08647742 -0.007568059 -0.1371692 0.16385658 -0.051308505
0.015182624 0.16561796 0.07261618 0.13629243 0.010531296 0.058299076 -0.016634438 0.046967477
0.10006768 -0.064406715 0.05605633 0.1316114 0.17435282 -0.16139704 -0.0429817 0.022544963
-0.040045846 -0.050930467 -0.09304928 0.2050431 -0.116685815 0.036361072 0.079567745 -0.06288921
0.002768984 -0.10839798 0.106125 -0.18288939 -0.08760201 -0.042450536 0.05357799 0.022323541
-0.0466474 0.12558168 0.010152267 -0.08557507 -0.15705651 -0.24243507 0.035592306 0.12911916
-0.11192813 0.022747707 0.14731163 0.033329077 -0.1173167 0.04554562 -0.073819675 -0.034929905
0.18104978 0.0017661237 -0.0008013617 -0.015203155 -0.019670095 -0.012013903 0.059386317 -0.089879975
-0.106693715 -0.0477404 -0.09638873 -0.08153346 0.13592349 -0.105582334 -0.1299924 0.14289498
-0.07966295 -0.047041748 -0.03280132 0.03771304 0.0849432 0.04582655 0.06161278 0.12108316
-0.109009564 0.0355103 -0.1358665 0.14114723 -0.14721484 -0.016758129 0.075056225 0.099409364
-0.032159235 0.15008208 0.028567502 0.00020337824 -0.08152805 0.039713796 -0.17426227 0.052983996
00000000: 9ea9 1a3e 2ad0 49be f9df cebd b36d 6dbd
00000010: 448c 81bd b39a dd3c a347 3f3e 1311 42be
00000020: 26f7 e93b 210f 88bd 81e1 d6bd 134b 2b3e
00000030: 1ffb 65be 9d9c 0e3e 223e e4bc 611d a63d
00000040: 70bf a1bd 7035 003c 4e65 8c3c 65f2 083e
00000050: 43f3 003d 2a54 93bc 484c 2ebe 8a52 10bd
00000060: 3721 fe3d ebe6 293d 2c56 d1bd 7abc 2fbc
00000070: df96 573e 13aa 3fbe 18cc fcbb d41e e43d
00000080: b2f9 f7bd 9677 2a3d 08c8 e43d c286 143e
00000090: 1eff dd39 e9aa 35be 16fb 0b3e 0a68 93bd
000000a0: 9d65 a4bd d894 9bbc a6d3 473d 3fcc 39be
000000b0: 19d8 df3c f9e9 903d 47f5 54bc 25ba febd
000000c0: 9f61 1dbd 1c4b ed3d 23c7 2b3d dd1c 063e
000000d0: 6273 643d 4fc2 febc 8dfc 093d ba5e 823d
000000e0: 826e 67bd 8b4b f7bd 4926 1fbe 5baf 6c3d
000000f0: edfc 1e3e 1f05 963e 70bc 01be b1c1 febd
00000100: eae5 86bd 405f 133d b5cc 53bd cd16 efbd
00000110: f513 803d 3c88 bc3d dc17 ff3d b4a1 013e
00000120: 0ee5 00be 8869 8fbd f6b8 22be f970 1e3e
00000130: cbe3 3c3d c6e4 4e3e 83bb 973c c9ce 16be
00000140: dfa8 b53d 6f6c 24be 6e11 353c 7a5f b63c
00000150: 70ad 26bd 7d14 8dbe e397 04be 3fe6 0fbe
00000160: 5b73 bf3c c842 e8bd 7091 233e c389 1abd
00000170: 5e3c 023e 8ae3 843e 86c8 90bc 3796 253e
00000180: f3ef a1bd 5558 96bc 613b d4bd eb12 7cbc
00000190: 050d 353e e0bc bb3c f38b d93d 432a c6bd
000001a0: 1499 9a3d 6077 943d 1147 4f3d 42d0 1bbd
000001b0: ec44 41be a0fa ddbd 4bbb 683b 8c6c 053e
000001c0: 9a53 c33b 0d7e 24bd 1ca4 143d 17dd 4bbe
000001d0: 7dd1 eebd 67f9 1b3e 56b0 b2bb 196d b33d
000001e0: ff88 253e 1105 b3bd 08e5 8dbe 88e0 c13d
000001f0: 7e6b 82bd e576 1ebe b329 6e3e d400 063e
00000200: 80f0 81ba a7fb 72bd 6324 52bd 2747 46be
00000210: b601 20bd 94fb 0b3e 7cbd dfbc e39e 6c3e
00000220: 9eed 4dbd 46c2 5d3b e966 443e 6899 233e
00000230: 6128 083d 9d82 2a3d bee2 91bc 15e0 c1bc
00000240: 5857 903c 24b7 24be 8204 5f3e 8d5e 983d
00000250: 2652 153b a9a4 87bd d4ad f0bc 7b53 54be
00000260: 0ec9 283d f8a9 303d a221 083e 50b7 0a3e
00000270: 1b85 063e b5f0 fb3d b425 ddbd 6d1f 033e
00000280: 5958 0cbe 83a8 653e 0837 b1bc 131b b13d
00000290: 7bfd f7bb 1576 0cbe 05ca 273e de28 52bd
000002a0: 8ac0 783c c197 293e cbb7 943d 3e90 0b3e
000002b0: 758b 2c3c 03cb 6e3d f244 88bc f860 403d
000002c0: 49f0 cc3d abe7 83bd 539b 653d 24c5 063e
000002d0: 8c89 323e 4445 25be 940d 30bd 37b0 b83c
000002e0: 1d07 24bd 779c 50bd 9f90 bebd d2f6 513e
000002f0: f9f8 eebd 59ef 143d 6af4 a23d 0fcc 80bd
00000300: d877 353b c3ff ddbd 1058 d93d 5b47 3bbe
00000310: af68 b3bd 9de0 2dbd 9874 5b3d dcdf b63c
00000320: 5811 3fbd 7c98 003e b255 263c fb41 afbd
00000330: 6cd3 20be e640 78be 3dc9 113d d037 043e
00000340: 933a e5bd 6659 ba3c dcd8 163e 1284 083d
00000350: bd43 f0bd 0b8e 3a3d c52e 97bd a912 0fbd
00000360: 1d65 393e 477d e73a 7912 52ba a716 79bc
00000370: 2e23 a1bc f6d5 44bc 113f 733d fe12 b8bd
00000380: 3c82 dabd 708b 43bd 7467 c5bd 04fb a6bd
00000390: 872f 0b3e 8d3b d8bd ba1c 05be 1053 123e
000003a0: 5426 a3bd d9ae 40bd ad5a 06bd fd78 1a3d
000003b0: b3f6 ad3d 9fb4 3b3d af5d 7c3d 73fa f73d
000003c0: 6840 dfbd 4073 113d 9620 0bbe e688 103e
000003d0: 7dbf 16be 5848 89bc 14b7 993d 2397 cb3d
000003e0: 67b9 03bd 1eaf 193e 6506 ea3c ee41 5539
000003f0: 2ef8 a6bd efaa 223d cf71 32be bf05 593d
