serology/results_intermediate_encoders_2/models/5fold/encoder_intermediate_human_7.pt (torch, 12943 bytes, 7 tensors)

weight f4 [32]
1.0971712 1.2357628 0.9802995 0.93904155 0.91918045 1.1587203 1.1254927 1.2439437
1.0121326 1.0949097 1.2537922 1.1902776 1.1857977 1.1032654 1.1869658 1.0628616
1.0085918 1.0875939 1.1993805 1.0054958 0.9126016 0.857215 0.9606008 1.0201755
0.9052931 0.9070131 0.8871482 1.2915821 1.0350571 1.1843511 1.1361797 1.0497162
00000000: 1b70 8c3f 7a2d 9e3f e8f4 7a3f 0765 703f
00000010: 694f 6b3f f250 943f 2510 903f 8c39 9f3f
00000020: 908d 813f 0026 8c3f 437c a03f 045b 983f
00000030: 38c8 973f cd37 8d3f 7fee 973f d90b 883f
00000040: 8919 813f 4736 8b3f 4d85 993f 16b4 803f
00000050: 42a0 693f 7172 5b3f efe9 753f 1c95 823f
00000060: 4ac1 673f 0332 683f 251c 633f 9052 a53f
00000070: c07c 843f d198 973f 566e 913f 1a5d 863f

bias f4 [32]
-0.17853613 -0.000160094 -0.17033073 0.07348745 0.1009357 -0.26122153 0.031349022 0.07441913
0.020817155 -0.26515627 -0.27183485 -0.22736664 -0.069439776 -0.047836456 0.11357302 0.07416351
0.101548165 -0.16230026 -0.35932747 -0.05753698 0.01722917 -0.061383445 -0.23917079 0.04985047
-0.24420133 0.08338197 -0.03950978 -0.35528392 0.14118534 -0.030348642 -0.19303633 -0.23155876
00000000: 2dd2 36be e8de 27b9 2e6b 2ebe 9780 963d
00000010: 60b7 ce3d d4be 85be d567 003d 0f69 983d
00000020: bd88 aa3c 90c2 87be f02d 8bbe cdd2 68be
00000030: 7136 8ebd 29f0 43bd f998 e83d 0ae3 973d
00000040: 7cf8 cf3d 0a32 26be c5f9 b7be e5ab 6bbd
00000050: 3024 8d3c 356d 7bbd 30e9 74be 0230 4c3d
00000060: ea0f 7abe 2bc4 aa3d 02d5 21bd c6e7 b5be
00000070: e492 103e b79d f8bc 51ab 45be bd1d 6dbe

running_mean f4 [32]
-0.32780272 -0.045528404 0.5356355 -0.09783466 0.7756576 -0.43833056 -0.5251301 -0.26237375
-0.3466795 1.2182411 -0.63152725 -0.45955244 0.42420584 0.18032856 0.28083786 0.16002005
0.12279492 0.37403268 -1.2074738 -0.16162437 0.21513444 -0.283156 -0.10861882 -0.5674135
-1.0276517 -0.7987714 -0.39113605 -0.10903432 0.86137164 -0.58628523 0.23244774 -0.7331901
00000000: c2d5 a7be fe7b 3abd 681f 093f 8a5d c8bd
00000010: 7f91 463f dd6c e0be ed6e 06bf da55 86be
00000020: fa7f b1be 53ef 9b3f c5ab 21bf 754a ebbe
00000030: 8231 d93e 0da8 383e fbc9 8f3e 4cdc 233e
00000040: e77b fb3d 3681 bf3e 808e 9abf dc80 25be
00000050: 344c 5c3e d3f9 90be 8b73 debd 0342 11bf
00000060: 178a 83bf 487c 4cbf fc42 c8be 634d dfbd
00000070: da82 5c3f ca16 16bf c806 6e3e 59b2 3bbf

running_var f4 [32]
9.191991 3.2897773 2.1446145 3.255419 1.6637447 7.027818 3.0203938 2.9186206
3.8687458 5.317388 6.905745 5.2006917 3.9936304 2.8896222 4.6514277 2.4796395
3.731676 3.563429 11.803179 2.9301596 1.5162017 2.2078602 1.9895844 2.9329362
3.4120646 2.1790733 1.6954372 6.4354105 2.0559251 3.191854 4.852513 8.322272
00000000: 6512 1341 b68b 5240 5d41 0940 c958 5040
00000010: 96f5 d43f e3e3 e040 224e 4140 aeca 3a40
00000020: 8899 7740 0b28 aa40 ddfb dc40 116c a640
00000030: a497 7f40 92ef 3840 7fd8 9440 6ab2 1e40
00000040: c8d3 6e40 390f 6440 d2d9 3c41 bc87 3b40
00000050: e612 c23f 954d 0d40 b4aa fe3f 3ab5 3b40
00000060: 445f 5a40 f075 0b40 1604 d93f e2ee cd40
00000070: 4794 0340 5647 4c40 c947 9b40 0728 0541

weight f4 [32, 32]
-0.24398881 -0.34657806 0.094157055 0.08246403 -0.17638704 -0.06482619 -0.10656866 -0.06444135
-0.17781714 -0.043735355 0.16043822 -0.2032555 0.12084144 -0.08402806 -0.031836312 0.31650752
-0.112806536 0.0598099 -0.0010115373 0.3926677 -0.010195074 0.048538312 0.25258204 0.08186796
-0.09143575 0.36818197 -0.16548255 0.026055226 0.29865837 -0.16832143 0.0026168658 0.28152302
0.30471787 0.1196053 -0.19850945 0.0029210786 0.07576883 -0.39192495 0.21437374 -0.0995706
-0.301889 -0.43892464 -0.03475011 -0.019578842 0.06420888 -0.2860227 -0.056906234 -0.0061132656
-0.01637961 -0.2868077 0.059878778 -0.06421287 -0.14597699 -0.09708341 0.06054256 0.19750413
-0.10716592 -0.32983595 0.14112023 0.028622087 -0.2966732 0.06449056 0.26310956 -0.04592614
0.14511761 -0.24631421 -0.32011098 0.019469189 0.020916034 -0.26115346 -0.122765474 -0.08398494
0.1862333 -0.15697159 -0.107655615 -0.06640085 0.022078307 0.0123745315 -0.13423128 -0.17150086
0.339123 0.19213082 -0.22928451 0.13763206 -0.28592384 -0.31755063 -0.08816739 -0.355128
0.2515289 0.05507224 0.20391205 -0.12759337 -0.067050725 -0.3457313 0.119806394 -0.25942558
0.052124195 0.031515494 -0.26118106 0.015957866 -0.13215537 0.12532794 0.001332434 0.008268462
-0.19028789 0.09272563 0.15166272 -0.4474655 -0.060906444 0.04182038 -0.22263968 -0.033612587
0.13029002 0.17604712 -0.34091362 -0.3953562 -0.10013322 -0.21183568 0.04079079 0.21030693
0.21894518 -0.34685484 -0.27768156 0.05418792 -0.34637374 -0.16891786 -0.0065562613 -0.17083351
0.22590336 0.055312335 0.0152200945 -0.055460602 -0.13603403 -0.21517451 -0.13501862 0.46526283
0.11376634 0.105998605 -0.0545715 -0.4377598 -0.018782435 0.196769 0.13430502 0.16062158
7.608805e-05 0.07890752 -0.035843816 -0.10637556 -0.2282095 -0.20074452 -0.08417672 -0.2138672
0.10785701 0.0622882 -0.2008472 0.10798619 -0.10851008 -0.31018487 0.061739333 0.20766503
0.18679272 -0.07817315 -0.073292024 0.039701954 -0.2940967 -0.029806372 -0.13379581 0.37613747
-0.05077925 -0.17307036 0.07279612 -0.16129637 -0.071497396 0.30306444 0.23856206 -0.056709893
-0.015985023 -0.09968217 0.19224669 -0.19672759 -0.21372673 -0.19027136 0.30632508 0.19502594
0.19599786 -0.01313144 0.07555429 0.12862018 -0.1183348 -0.31569126 -0.15398164 0.31694534
-0.22007692 0.29066825 0.026766874 0.010180992 0.353726 -0.079245165 0.07435683 -0.39236003
0.23290938 0.073371924 -0.3905173 -0.10335484 -0.032714352 0.00816369 -0.17854367 -0.07321999
0.055882055 -0.11015577 -0.047940694 -0.07227831 0.25024685 0.13999484 -0.17347525 -0.13110799
-0.2200336 -0.14867397 -0.09706891 -0.20076214 -0.1621533 0.2949494 -0.05000458 -0.36367002
0.35348672 0.2438286 0.010988981 0.012407236 0.015253367 -0.06365631 -0.014170983 0.133406
0.058811806 0.07435407 -0.16928661 -0.11635037 -0.026210986 0.1449547 -0.1033888 0.0007875052
-0.4669899 0.008236442 -0.039547667 -0.13650481 0.43745166 0.25870112 -0.19310078 0.2581349
0.2008809 0.014622842 -0.1412061 -0.10690023 0.17962186 0.18820743 0.17311549 0.08564474
00000000: 34d8 79be ae72 b1be 6ad5 c03d e7e2 a83d
00000010: ce9e 34be 98c3 84bd ab40 dabd d4f9 83bd
00000020: b215 36be d823 33bd eb49 243e 3622 50be
00000030: b87b f73d e716 acbd cb66 02bd 460d a23e
00000040: 1d07 e7bd 3afb 743d 8f95 84ba be0b c93e
00000050: 3d09 27bc 1cd0 463d 6f52 813e 64aa a73d
00000060: ab42 bbbd 5982 bc3e 4274 29be c571 d53c
00000070: c0e9 983e 745c 2cbe b97f 2b3b c923 903e
00000080: fb03 9c3e a0f3 f43d 1046 4bbe 916f 3f3b
00000090: b02c 9b3d 63aa c8be ca84 5b3e aceb cbbd
000000a0: 3291 9abe bbba e0be 2256 0ebd cf63 a0bc
000000b0: f27f 833d 9171 92be 8316 69bd ca51 c8bb
000000c0: 882e 86bc 75d8 92be 7343 753d 0a82 83bd
000000d0: fe7a 15be abd3 c6bd 7afb 773d 863e 4a3e
000000e0: ce79 dbbd 42e0 a8be d281 103e de78 ea3c
000000f0: 8de5 97be a013 843d 4cb6 863e 0c1d 3cbd
00000100: b699 143e cb39 7cbe 96e5 a3be d97d 9f3c
00000110: 1a58 ab3c e8b5 85be 776c fbbd 4c00 acbd
00000120: f1b3 3e3e 29bd 20be 8c7a dcbd 2bfd 87bd
00000130: 91dd b43c 8cbe 4a3c ed73 09be ec9d 2fbe
00000140: 88a1 ad3e f1bd 443e 8fc9 6abe 6bef 0c3e
00000150: 9c64 92be ff95 a2be 1b91 b4bd 56d3 b5be
00000160: 65c8 803e 6e93 613d 52ce 503e d6a7 02be
00000170: e451 89bd b103 b1be 0e5d f53d 6ed3 84be
00000180: 2e80 553d 6416 013d 86b9 85be 12ba 823c
00000190: bd53 07be f855 003e 11a5 ae3a 7178 073c
000001a0: d4da 42be efe6 bd3d 794d 1b3e 331a e5be
000001b0: 0979 79bd d94b 2b3d a8fb 63be 5aad 09bd
000001c0: bf6a 053e b245 343e 3b8c aebe 216c cabe
000001d0: a512 cdbd 74eb 58be 3e14 273d b35a 573e
000001e0: 2a33 603e f596 b1be 472c 8ebe 27f4 5d3d
000001f0: e657 b1be cef8 2cbe e8d5 d6bb fbee 2ebe
00000200: 3653 673e 308f 623d b45d 793c a82a 63bd
00000210: 814c 0bbe b556 5cbe 5242 0abe ee36 ee3e
00000220: 54fe e83d cc15 d93d 5d86 5fbd 0d22 e0be
00000230: 9fdd 99bc d07d 493e 4187 093e fc79 243e
00000240: 7691 9f38 449a a13d f7d0 12bd 6edb d9bd
00000250: c0af 69be f98f 4dbe d864 acbd 0100 5bbe
00000260: 23e4 dc3d e921 7f3d e3aa 4dbe dd27 dd3d
00000270: 883a debd 8dd0 9ebe 62e2 7c3d 24a6 543e
00000280: 9746 3f3e 3f19 a0bd 211a 96bd 849e 223d
00000290: d893 96be 7e2c f4bc c501 09be 1795 c03e
000002a0: e7fd 4fbd 5b39 31be 2216 953d e02a 25be
000002b0: 3a6d 92bd 432b 9b3e 9d49 743e a248 68bd
000002c0: 06f3 82bc 2a26 ccbd 51dc 443e f572 49be
000002d0: 2edb 5abe 7fd6 42be a4d6 9c3e e1b4 473e
000002e0: aab3 483e 4025 57bc 35bc 9a3d 02b5 033e
000002f0: 8459 f2bd 49a2 a1be 5dad 1dbe a946 a23e
00000300: d85b 61be 78d2 943e 3446 db3c 2dce 263c
00000310: 931b b53e 4a4b a2bd 6548 983d 6ae3 c8be
00000320: cc7f 6e3e 0544 963d e2f1 c7be b4ab d3bd
00000330: 7cff 05bd ffc0 053c 27d4 36be 5df4 95bd
00000340: 95e4 643d 5999 e1bd 765d 44bd a706 94bd
00000350: 5b20 803e cf5a 0f3e 7fa3 31be 2c41 06be
00000360: 7d50 61be fd3d 18be 11cc c6bd 9794 4dbe
00000370: 840b 26be 9c03 973e 9ad1 4cbd f532 babe
00000380: 36fc b43e 34ae 793e 210b 343c b847 4b3c
00000390: 42e9 793c 3d5e 82bd 692d 68bc 959b 083e
000003a0: a6e4 703d f246 983d 7859 2dbe 1a49 eebd
000003b0: 6cb8 d6bc 016f 143e 82bd d3bd 9470 4e3a
000003c0: 4d19 efbe 24f2 063c bcfc 21bd ebc7 0bbe
000003d0: aaf9 df3e 7974 843e 36bc 45be 422a 843e
000003e0: b9b3 4d3e a594 6f3c 5598 10be 82ee dabd
000003f0: cbee 373e 73b9 403e 3045 313e 8266 af3d

bias f4 [32]
-8.0075886e-05 -0.00022883143 -0.00017188855 -7.93815e-05 0.00016429895 3.8921958e-06 -0.00012110998 2.605447e-05
3.395641e-05 0.0002558755 -0.00010488492 3.419503e-05 0.000122855 0.00011465883 0.0001755149 0.00017521209
-7.0636297e-06 -0.00012511716 -5.8150563e-05 0.00017864365 -5.3215157e-05 -5.8085105e-05 -0.00013537098 -0.0001901222
-5.7624998e-06 6.149899e-05 -0.00010814499 -2.9672361e-05 0.0001389203 0.00014474658 4.327457e-06 1.1018045e-06
00000000: 6aee a7b8 78f2 6fb9 fb3c 34b9 9e79 a6b8
00000010: aa47 2c39 b599 8236 6dfc fdb8 8c8f da37
00000020: 6b6c 0e38 0727 8639 aaf5 dbb8 a26c 0f38
00000030: a3d2 0039 fe74 f038 6c0a 3839 23b9 3739
00000040: 1e04 edb6 e231 03b9 b1e6 73b8 4a52 3b39
00000050: 5733 5fb8 68a0 73b8 5ff2 0db9 8a5b 47b9
00000060: 7f5b c1b6 05f9 8038 e6cb e2b8 e9e8 f8b7
00000070: 22ab 1139 1dc7 1739 9334 9136 b7e1 9335

weight f4 [32, 32]
-0.0034982013 0.021738151 0.35483626 -0.091701135 0.17694537 -0.15028393 -0.089777954 -0.3260133
0.05323665 -0.23302422 0.09145091 0.073765144 -0.155721 -0.09941279 -0.041427553 -0.029711531
0.15410317 -0.06903482 -0.17503378 -0.053442802 0.040497288 -0.22625352 0.11065599 -0.28611946
0.23499799 0.243635 0.19155528 -0.011312081 0.27609313 -0.20887756 0.24486357 0.14165716
-0.12899311 0.08373449 0.30323306 -0.24401098 -0.14094645 -0.08887164 -0.13985686 -0.091046184
-0.25529596 0.077543825 -0.3453216 -0.22615409 0.027777629 -0.26064372 -0.17788808 -0.09631423
-0.2871228 -0.18132557 0.10207567 0.023749877 0.06957743 0.0039358027 0.30963504 0.13323101
-0.09356205 0.05675587 0.3048313 -0.20795682 0.057512566 0.11715761 -0.2879216 -0.18305826
0.2610484 -0.35023153 0.10434388 -0.23306295 0.0021217552 -0.08189992 0.032048423 0.013859617
0.31614015 -0.13538574 0.3162117 0.3627838 0.20960015 -0.08056629 -0.29053608 0.24767105
-0.15548272 0.31416807 0.37815788 0.2776689 0.2810606 0.3048347 0.15797672 0.28013128
0.06314747 0.14217964 -0.122943595 0.17261627 -0.33047214 -0.27272913 0.34738746 0.26049483
-0.041970916 0.34726498 -0.08823758 -0.09527511 -0.20198682 0.22236761 -0.02307492 -0.19568482
0.022938153 -0.14148125 -0.26094094 -0.112960674 0.1443645 0.0323666 -0.15900567 -0.079893716
-0.2710068 -0.23579682 -0.088641286 0.0800424 0.16445766 0.110132806 0.23648357 -0.052341476
-0.036647256 0.04549329 -0.2672571 0.19507262 0.19214565 0.13153724 -0.16956067 -0.28399488
-0.069302514 -0.24964099 0.12564942 -0.32519263 -0.031376075 0.05937453 -0.25969583 -0.18148094
0.09763157 -0.2275221 -0.08258772 0.16953892 -0.3877847 0.18631484 -0.38067445 0.35776466
0.09311416 -0.16539176 0.19878589 -0.20965585 -0.15128334 -0.1772326 -0.28654647 0.10704595
0.24233967 -0.0006383606 0.15171549 -0.31688982 0.07865587 -0.37399438 -0.12011602 -0.11961755
0.18668734 -0.030800264 0.004982752 -0.13612364 -0.06263219 -0.3454733 0.2672654 0.33150274
-0.050676536 0.06560958 -0.12170699 -0.40723333 0.0054122265 -0.20871931 0.352733 0.17774759
-0.2777354 0.13405165 -0.4054175 -0.33560592 0.1533547 0.2038645 -0.28356457 -0.29696214
-0.15585247 -0.2959601 -0.16463277 -0.24173221 0.124586284 0.14878045 0.007706652 -0.057623003
0.028809978 0.0024307978 -0.18911989 -0.039737977 0.10919981 -0.06963176 0.3379922 0.18170452
-0.28079844 0.009448266 -0.22728749 -0.116218686 0.0986707 0.12161571 -0.15669855 -0.07597835
-0.24402598 0.12041445 -0.25191486 -0.33235735 0.096713714 0.2682401 0.15823643 0.11544833
-0.19573677 0.22058852 -0.14981742 -0.10100598 0.027513621 0.14479901 -0.23298052 0.19396622
0.06541603 0.20530899 -0.10627039 -0.27099907 0.07753922 -0.24362074 -0.043709338 0.19211446
-0.30804703 -0.09041223 0.1161792 -0.25479373 0.22268486 0.017240245 0.23484696 0.21136367
0.09215826 -0.21140186 -0.25231683 -0.23250522 -0.20218502 0.011464723 -0.15075812 0.2950956
0.0038776707 -0.15180153 -0.050139185 0.32923034 -0.16251114 -0.10185179 0.05127599 -0.22717819
00000000: 1442 65bb 3514 b23c 19ad b53e cecd bbbd
00000010: 2b31 353e 08e4 19be 81dd b7bd 37eb a6be
00000020: ac0e 5a3d e79d 6ebe 9d4a bb3d 2e12 973d
00000030: 5375 1fbe ef98 cbbd f0af 29bd 9965 f3bc
00000040: 39cd 1d3e 2162 8dbd 0e3c 33be d7e6 5abd
00000050: 7ce0 253d 01af 67be 9c9f e23d 407e 92be
00000060: 50a3 703e 747b 793e 1127 443e 4e56 39bc
00000070: 145c 8d3e 00e4 55be 84bd 7a3e 930e 113e
00000080: c516 04be fd7c ab3d 5d41 9b3e 04de 79be
00000090: 4454 10be 5602 b6bd a336 0fbe 6c76 babd
000000a0: 27b6 82be 4ccf 9e3d fecd b0be f094 67be
000000b0: e98d e33c 1873 85be 4b28 36be 6540 c5bd
000000c0: c201 93be 69ad 39be 0d0d d13d 1a8f c23c
000000d0: 9d7e 8e3d e8f7 803b 7c88 9e3e b66d 083e
000000e0: 769d bfbd d878 683d d912 9c3e a2f2 54be
000000f0: 4c92 6b3d 54f0 ef3d 766a 93be a073 3bbe
00000100: 23a8 853e 8c51 b3be 3fb2 d53d 0ea8 6ebe
00000110: 250d 0b3b 25bb a7bd 3545 033d 7213 633c
00000120: 1fdd a13e 8fa2 0abe 80e6 a13e ccbe b93e
00000130: 6ca1 563e f0ff a4bd 25c1 94be 7b9d 7d3e
00000140: dd36 1fbe a3da a03e e99d c13e 9e2a 8e3e
00000150: 2de7 8f3e 4b13 9c3e a6c4 213e 5e6d 8f3e
00000160: 7653 813d 8a97 113e dac9 fbbd 52c2 303e
00000170: a533 a9be 27a3 8bbe c5dc b13e 945f 853e
00000180: b2e9 2bbd b7cc b13e e8b5 b4bd 991f c3bd
00000190: a2d5 4ebe 56b4 633e 9d07 bdbc 9a61 48be
000001a0: cbe8 bb3c 76e0 10be 0d9a 85be ed57 e7bd
000001b0: 4ad4 133e d792 043d 62d2 22be 519f a3bd
000001c0: 67c1 8abe b974 71be 9089 b5bd 45ed a33d
000001d0: 9767 283e 4f8d e13d c028 723e 0464 56bd
000001e0: 6f1b 16bd 2c57 3a3d ecd5 88be 1ec1 473e
000001f0: d4c1 443e b3b1 063e 50a1 2dbe c767 91be
00000200: 7aee 8dbd e3a1 7fbe 3eaa 003e a67f a6be
00000210: 3384 00bd b532 733d daf6 84be 24d6 39be
00000220: 10f3 c73d 8efb 68be c023 a9bd 9c9b 2d3e
00000230: b78b c6be 51c9 3e3e c3e7 c2be ee2c b73e
00000240: a3b2 be3d 755c 29be 878e 4b3e 06b0 56be
00000250: 05ea 1abe 767c 35be 38b6 92be e83a db3d
00000260: e427 783e a857 27ba 4e5b 1b3e 623f a2be
00000270: 5416 a13d 317c bfbe 63ff f5bd 0cfa f4bd
00000280: f72a 3f3e d650 fcbc 5a46 a33b ff63 0bbe
00000290: 4e45 80bd e0e1 b0be 03d7 883e baba a93e
000002a0: 3392 4fbd 515e 863d 8441 f9bd e380 d0be
000002b0: 0c59 b13b 84ba 55be 6b99 b43e 7703 363e
000002c0: 5633 8ebe d644 093e e292 cfbe 8ad4 abbe
000002d0: 0409 1d3e dbc1 503e 602f 91be 6c0b 98be
000002e0: ca97 1fbe 1588 97be 7e95 28be a688 77be
000002f0: 1827 ff3d e759 183e 1588 fc3b 1906 6cbd
00000300: e702 ec3c 054e 1f3b a5a8 41be 4ac4 22bd
00000310: 26a4 df3d 199b 8ebd 500d ad3e c010 3a3e
00000320: d0c4 8fbe e6cc 1a3c 0dbe 68be 1004 eebd
00000330: dd13 ca3d a811 f93d 9675 20be 8a9a 9bbd
00000340: f2e1 79be da9b f63d fcfa 80be be2a aabe
00000350: d711 c63d c456 893e bb08 223e 2d70 ec3d
00000360: 386f 48be f5e1 613e bd69 19be 39dc cebd
00000370: 3f64 e13c 3146 143e 7292 6ebe 159f 463e
00000380: d7f8 853d 853c 523e 4aa4 d9bd 64c0 8abe
00000390: e2cc 9e3d b777 79be 9008 33bd a7b9 443e
000003a0: 57b8 9dbe 0c2a b9bd 5cef ed3d 5374 82be
000003b0: 8007 643e 6a3b 8d3c b97b 703e b86f 583e
000003c0: 78bd bc3d bb79 58be ac2f 81be d915 6ebe
000003d0: 9709 4fbe 89d6 3b3c 5660 1abe c516 973e
000003e0: 8520 7e3b dc71 1bbe bf5e 4dbd e190 a83e
000003f0: 5269 26be ac97 d0bd c606 523d 66a1 68be
