serology/results_intermediate_encoders_2/models/5fold/localDiscr_9.pt (torch, 20623 bytes, 8 tensors)

weight f4 [32, 32]
000000 69 e5 ef 3d d4 71 02 3e dc 89 5d be dc ff ab 3d
       0.117136784 0.12738734 -0.2163462 0.08398411
000010 58 8b 14 be 24 44 e2 3d 24 00 63 3e aa a9 c9 3c
       -0.1450628 0.11048153 0.22168022 0.024617035
000020 1a c4 a2 3d 0f 26 50 be 1d 87 a3 ba 9e c7 61 3e
       0.0794756 -0.20327018 -0.001247618 0.22048804
000030 b2 84 4c be 7d 51 e3 3d 0a 36 02 bd 9a 92 50 be
       -0.19972494 0.11099527 -0.031789817 -0.20368424
000040 ba b7 1c bd 48 40 85 bd 18 07 21 be cc 44 0c be
       -0.038261153 -0.06506401 -0.15725362 -0.13698119
000050 15 53 db bd 9d d1 0f be 66 67 7e 3d 7b 3c c0 bd
       -0.10709206 -0.14044805 0.062110327 -0.09386536
000060 cb b3 86 3e 0c 6d 0a be 71 6c 12 3b 1d 8a 26 3e
       0.26309046 -0.1351816 0.0022342468 0.16263624
000070 d8 55 d4 3d 84 94 63 3e d9 5c dc 3b 66 0a 06 bd
       0.10367936 0.22224623 0.0067249355 -0.03272476
000080 21 13 0c be a8 b9 a7 3d 0d 99 32 bd 9b 36 94 bd
       -0.13679172 0.08189708 -0.04360299 -0.07236978
000090 99 c9 4d 3e 3b b9 1b 3e 07 ed 8e 3d a5 9b 86 be
       0.20096435 0.15207379 0.06978803 -0.26290622
0000a0 d7 47 0c 3d ce f9 8f bd 82 a7 df 3d d2 59 ac bd
       0.0342482 -0.07030068 0.109206215 -0.08415569
0000b0 4c ff b5 bd f0 3d 35 be c0 28 e4 3d 86 c9 f4 bd
       -0.08886585 -0.17699409 0.11140585 -0.119525
0000c0 72 66 63 be d0 cc 91 3d 57 19 34 bd 69 c8 3c 3b
       -0.22207049 0.07119143 -0.04396948 0.0028805977
0000d0 8d 19 8a bd f3 18 e8 3d 2f 35 69 3c d5 87 e9 3c
       -0.06743155 0.11332884 0.014233871 0.028507153
0000e0 00 e2 0a be e9 47 fe bc 86 0d 26 3e a5 79 23 bd
       -0.13562775 -0.031040149 0.16216096 -0.03991093
0000f0 10 b8 7a be 5e 12 5b 3e 1e f6 02 be df db b6 3d
       -0.24484277 0.21393725 -0.12789199 0.08928656
000100 26 f4 41 3b eb 79 ba 3d cd ed a4 bd fb 78 a5 3b
       0.0029594987 0.09105285 -0.080531694 0.0050498224
000110 5b 3d 69 3d 49 f2 b6 bd b1 59 62 3b 66 95 8c 3e
       0.05694328 -0.08932931 0.0034538324 0.27457732
000120 64 09 50 be 8b 88 51 bd 70 99 bd bd 7f f8 20 3e
       -0.20316082 -0.05115561 -0.092577815 0.15719794
000130 39 48 fe bd b4 da 82 3c be 88 c3 bc e6 e3 58 be
       -0.12416119 0.015973426 -0.023868915 -0.21180686
000140 8b f7 12 3e 9f 6d 59 3e 82 d5 0c bc 6c 3e 52 bd
       0.14352243 0.21233223 -0.008595826 -0.05132906
000150 79 4a c5 3a 13 f7 96 bd 1d 15 fe 3d df b4 3e 3d
       0.0015052102 -0.073713444 0.12406371 0.04655921
000160 14 c4 26 3c 50 d3 1f bd 3f 03 bc bd 9c 65 00 3e
       0.010178585 -0.039019883 -0.09180307 0.12538761
000170 67 c6 34 3e 12 63 8e 3e 58 5d 54 bd fd 21 0a be
       0.1765381 0.2780996 -0.051846832 -0.13489528
000180 b4 d2 73 be 90 b2 b5 bd e3 e9 39 be 90 6c 86 3e
       -0.23810846 -0.08871949 -0.18155627 0.26254702
000190 d5 60 23 3e b9 82 e4 3c 1f cd f5 bd 50 78 37 be
       0.15954907 0.027894365 -0.12002014 -0.1791699
0001a0 aa 01 a2 3d 2b fe d2 bd 19 06 2b bd 96 34 30 bd
       0.07910474 -0.10302385 -0.041753862 -0.0430189
0001b0 1c b2 63 be 4f 18 62 bd 49 6e 9b 3d 13 dc 40 be
       -0.22235912 -0.055198964 0.075893946 -0.18833952
0001c0 99 e0 af 3d ee a2 87 be c9 2b aa bd 43 8b c8 bd
       0.085877605 -0.26491493 -0.083091326 -0.09792187
0001d0 41 0f 4e be 94 46 6a 3e 2c bc e1 3b 4a cd c7 3b
       -0.20123006 0.22878486 0.006888887 0.0060974704
0001e0 fe f3 55 3c f5 c0 ab 3d 57 8c f6 3d c6 05 2d bd
       0.013058661 0.08386413 0.120384865 -0.042241834
0001f0 b4 7b f9 3d 46 83 90 3d 3c 9f 39 3d 7b 30 70 3d
       0.121817976 0.070562884 0.045317873 0.058639985
000200 d9 ad a4 bc cc 62 4b 3e 01 45 5e 3d b3 c2 81 bd
       -0.020102428 0.19861907 0.054265026 -0.06335964
000210 6c 63 8d be 8a e7 a0 bd 63 1b 99 bd 80 1c 9c bd
       -0.27614915 -0.078566626 -0.07475927 -0.076226234
000220 6e 41 10 3e 3d f7 c5 bc 81 e3 58 3d 16 99 06 be
       0.1408746 -0.024165744 0.05295134 -0.13144335
000230 d5 b2 92 3c cd f1 c1 3d f5 cc 31 be 6c 59 b5 3d
       0.01790754 0.09469948 -0.17363341 0.088549465
000240 93 5c 7c be b4 21 5a b9 53 1b 5b 3e ad ee 36 3e
       -0.2464469 -0.00020802655 0.21397142 0.17864485
000250 7c cf 8c be ad a8 3b 3e 3a 98 70 3d b9 8a 02 bc
       -0.27502048 0.18326063 0.058738925 -0.007967644
000260 ab d1 54 be 6e 2a 75 3e 7f 7d 8c bd f8 66 88 3e
       -0.20783107 0.23941967 -0.06859874 0.2664106
000270 61 a1 16 3d 1b 07 82 bd aa d7 e5 bd 9d 98 d4 3d
       0.036774997 -0.063490115 -0.11222775 0.10380671
000280 0e 1d c4 3e 5f 8f d8 3d 39 58 5d 3e 7f 8b c6 3c
       0.38303417 0.10574221 0.21615686 0.024236439
000290 24 06 20 be 02 cb f3 bd 5e e5 5c be 8c b2 33 3d
       -0.15627342 -0.11903955 -0.21571872 0.043871447
0002a0 cf 5b 3d be 05 46 6d be 39 9f 16 3e 25 27 df 3c
       -0.18492053 -0.23171242 0.14709176 0.027240345
0002b0 e8 8d ce 3d ce 15 99 3e 66 be 0c be 8a 12 62 be
       0.1008566 0.29899448 -0.13744506 -0.22077385
0002c0 18 39 ab 3c df a1 20 3d f2 a1 3c be 9a 96 fa 3c
       0.020901248 0.039216872 -0.18421152 0.03058939
0002d0 5b 0c 8b 3d 11 2f 68 bd 62 a3 11 3e 92 da 18 3e
       0.06789466 -0.05668551 0.14222482 0.14927128
0002e0 44 14 4f 3c b7 9e 19 be a8 cf 95 bd 52 eb b7 bb
       0.012639109 -0.15001951 -0.07314998 -0.005612769
0002f0 38 fb e9 bd 50 15 bb 3d 92 a7 19 3e 2a fc 39 be
       -0.11424869 0.091349244 0.15005329 -0.18162599
000300 87 74 07 3e b2 de 35 be 33 34 61 3d 4b cc d8 3d
       0.13228045 -0.17760733 0.05498142 0.10585841
000310 e7 91 84 be eb c4 cc 3c 7a 43 17 be 86 a6 ae bd
       -0.25892565 0.024996242 -0.14771834 -0.085278556
000320 f3 e8 8a bd 23 c1 fb bd e7 34 6b bd 2b 42 79 3e
       -0.06782713 -0.12292697 -0.0574235 0.24341647
000330 c4 de df 3d e4 35 fd 3d 43 82 52 be 07 03 9b bc
       0.10931161 0.123637944 -0.20557503 -0.018922342
000340 97 c4 4c bd 16 e6 2f bd 33 c7 a9 3d e4 2f b0 bd
       -0.04999217 -0.042944036 0.08289947 -0.086028844
000350 a0 4b f0 bd 19 bd 7d 3d 43 59 d1 bd 8d 6f 3d be
       -0.11733174 0.061947916 -0.102221034 -0.18499584
000360 a7 2e fd bc 2e a2 93 3d d0 bb 8f bd 17 cd 9e bd
       -0.030906035 0.07208668 -0.07018244 -0.077539615
000370 6f 11 ae 3d f7 58 fa 3c d8 14 65 be e3 32 92 3d
       0.08499419 0.03056 -0.22371233 0.07138612
000380 30 0a 18 be d4 c1 39 bd cf 31 07 be be 9b b9 bd
       -0.14847636 -0.045350865 -0.13202594 -0.090629086
000390 cb 1e 19 3c d0 51 1c be 73 8c e9 bd 95 d3 5a bc
       0.0093457205 -0.15265584 -0.11403742 -0.013356109
0003a0 3d 08 45 be ca 1f 43 3d a7 71 50 3d 89 31 01 be
       -0.19241424 0.04763774 0.050889637 -0.12616552
0003b0 11 69 d2 bd 43 e4 fa bd a8 42 14 bd 84 96 22 bd
       -0.10273946 -0.12250569 -0.03619638 -0.039694324
0003c0 7a c5 18 be fb 8e 72 be d0 af 00 3e 22 92 0b 3d
       -0.14919081 -0.23687355 0.12567067 0.03407491
0003d0 c0 79 5f 3e 9d c1 3f bd 5d 3b 01 be c0 53 c4 3d
       0.21823788 -0.046815503 -0.12620302 0.095862865
0003e0 24 c7 37 3e 1a ec cd bd 38 a7 fa bc bb 8b 9b 3c
       0.1794706 -0.100547984 -0.030597314 0.018987527
0003f0 52 f9 ec 3d 03 42 1d 3e dc e3 fd bc 2d a8 43 3e
       0.115709916 0.15357213 -0.03099244 0.19107123

bias f4 [32]
000000 91 bb 54 3d f0 dd 4a 3b 1a af 4c 3e 06 bf bb bd
       0.05193669 0.003095504 0.19988671 -0.09167294
000010 91 56 3b bd 3b c1 cb 3d 8f f0 1e be b9 b2 22 be
       -0.045736853 0.09948965 -0.15521453 -0.1588849
000020 a4 e3 07 be 7d 2f b6 3d 55 61 b4 3e 20 40 f1 bd
       -0.13270432 0.088957764 0.35230508 -0.11779809
000030 ef 7f c0 3d 45 a7 aa bc 85 fe 36 3e 3d 6c 87 3e
       0.093994014 -0.020831713 0.17870529 0.26449767
000040 46 50 a8 3d d2 9f 68 3c 20 79 eb 3d ad 03 1d be
       0.08218436 0.01419826 0.11497712 -0.15333433
000050 31 71 81 bc 83 b9 49 3e 59 ac 24 3d 61 9b 0e be
       -0.015801044 0.19699673 0.040203426 -0.1392646
000060 e4 4e 96 3e 34 ed 51 3d 05 02 d5 3c 1f 3a bd bd
       0.29357064 0.051251605 0.02600194 -0.09239601
000070 ff 9c ef 3d 7d 99 19 bd b2 65 59 be 55 53 81 be
       0.116998665 -0.037499893 -0.212302 -0.2525889

weight f4 [32, 32]
000000 d8 2d ad bc a7 52 25 3e 25 d2 85 bd eb dd 57 3e
       -0.021140024 0.1614481 -0.065342225 0.21080749
000010 30 23 15 be e5 dd 7e be 32 61 dd bb 9a 21 d4 3d
       -0.14564204 -0.24889334 -0.0067559713 0.103579715
000020 73 72 9c 3d 13 6b 1b 3c 51 c3 f1 bd 0e d1 21 3e
       0.07639017 0.009485978 -0.11804832 0.15802404
000030 95 c1 a7 bd 0d 5f 5f bd 92 4c 59 bb b0 6a 10 be
       -0.0819122 -0.054534007 -0.0033157212 -0.14103198
000040 0c 84 23 be e9 f3 70 3b 7f 52 b8 bc b0 73 e9 bc
       -0.1596834 0.0036766476 -0.022500275 -0.028497547
000050 88 24 c0 3d b4 0c 28 be e3 d4 75 3d de 07 0f 3e
       0.09381968 -0.16411096 0.060017478 0.13967845
000060 c2 c1 8d bd b6 ff 7c bd 0a ab 06 3e c3 4b b5 3d
       -0.06921722 -0.061767302 0.13151184 0.08852341
000070 b6 e8 b3 3c 07 92 83 3d 7b fb 12 3d 06 93 68 3e
       0.021961551 0.06424337 0.03588436 0.22712335
000080 d9 2d 3c 3d 07 28 9a 3d 14 6a 17 bd 5c c9 af 3d
       0.04594216 0.07527166 -0.0369664 0.08583328
000090 f7 1c 84 3c eb 2e 74 3e 7d 0a 7c be 89 6d cb bd
       0.016127093 0.23846023 -0.24613376 -0.099330015
0000a0 11 c3 ea bd 8b 13 64 3e 48 19 91 be 63 37 0b be
       -0.11462987 0.2227308 -0.283396 -0.13595347
0000b0 83 f5 2a 3c 8c e4 bd be c1 52 3c bd 83 1d 65 3d
       0.010434511 -0.3708843 -0.045977358 0.055936348
0000c0 d0 58 9f 3d d7 5c ab 3d 07 40 a8 bd 23 eb 9f be
       0.077806115 0.08367317 -0.08215337 -0.31234083
0000d0 5a 07 b0 3d bc 0c f7 bd 2d 3a 81 3e 72 05 bc 3d
       0.08595152 -0.12062976 0.25239697 0.09180726
0000e0 15 16 98 3e 09 27 aa bd 91 7d a7 bd 65 d5 57 3e
       0.29704347 -0.083082266 -0.08178247 0.21077497
0000f0 d9 91 bd be b2 96 f5 bd 9f a5 0f bc 35 79 c0 bd
       -0.37025335 -0.119916335 -0.0087675145 -0.093981184
000100 3b ff 83 3e 02 ad f1 bb b0 ce 25 be db 81 35 bd
       0.25780663 -0.0073753605 -0.16192126 -0.044313293
000110 47 29 dc 3d bd bf 05 3d 30 94 01 bd a5 03 94 3d
       0.107500605 0.03265356 -0.031635463 0.07227258
000120 63 34 9c 3d db 22 80 bb 53 0c 07 3e 33 eb 09 3e
       0.076271795 -0.003910405 0.13188295 0.13468628
000130 c3 7e 73 bd 9b 67 91 3e dd 29 2f 3d 51 00 5d 3d
       -0.05944706 0.28399357 0.042764533 0.05395538
000140 0f a6 9a 3d 33 ad 58 3e a6 f1 5d be 5d 24 3a bd
       0.075512044 0.2115982 -0.21674213 -0.045444835
000150 3a 05 c4 bd 13 ff 6a 3e 7f d7 33 bd 3f fa 50 bd
       -0.095713094 0.22948866 -0.043906685 -0.051019903
000160 74 26 01 bd 44 02 12 3d 4d c0 3d bd 97 aa 45 3e
       -0.031530812 0.035646692 -0.04632597 0.19303356
000170 a1 96 59 be b3 82 12 be 5c 31 b8 bd 61 f1 98 be
       -0.21248867 -0.1430767 -0.089937896 -0.29871657
000180 76 2c d8 bd 2b 5e 48 bd 6c 1e 88 3e a4 f3 97 bd
       -0.10555355 -0.04891793 0.2658571 -0.07419518
000190 be 7d 70 be b3 bc 77 3d 0a 46 39 3d 5a d8 c8 3d
       -0.23485467 0.060482692 0.04523281 0.09806891
0001a0 0b f4 10 3e 85 98 b9 bd 64 d7 9b 3e 87 b3 81 3c
       0.14155595 -0.09062294 0.30437768 0.015832676
0001b0 2f 11 aa 3d b2 27 c5 3d ef ad 2d 3e 71 c0 01 3d
       0.08304059 0.09626712 0.16960882 0.031677667
0001c0 fe c9 32 3e 33 dd 80 be a6 2a d3 bc ed a8 2a 3e
       0.17459866 -0.25168762 -0.025777172 0.16666003
0001d0 b2 21 7a 3d 0f 4f 43 3c c5 e8 8c be b2 6a 18 be
       0.06106729 0.0119207045 -0.2752134 -0.14884451
0001e0 05 c3 83 bd a0 59 98 be 15 f0 53 be 99 29 8e 3b
       -0.064336814 -0.29755878 -0.20697053 0.004338455
0001f0 27 74 16 3e dc c1 23 3e c4 3b fe bd f9 63 4b 3e
       0.14692746 0.1599192 -0.12413743 0.19862355
000200 d3 f2 e2 3d 9f 28 3f 3e 3e 41 02 be d1 8a b1 bd
       0.11081471 0.1866784 -0.127202 -0.08669055
000210 d1 97 d9 3d 3c 90 38 3d b5 e5 f7 3d b0 13 61 3d
       0.1062466 0.045059428 0.1210436 0.054950416
000220 05 6e a2 3d 12 68 90 3e e0 99 2a be 1d 56 30 3e
       0.07931141 0.282044 -0.16660261 0.1722035
000230 4c bd e7 3d 88 32 00 bd 61 ad 29 bd 00 e1 c9 3d
       0.113154024 -0.03129819 -0.041425113 0.098573685
000240 21 e4 ae 3d 7e 4d 2f be df 71 a7 bb 64 97 12 be
       0.08539606 -0.17119405 -0.00511001 -0.14315563
000250 f6 eb 3f 3c ff f9 a9 bd f2 0e 8d 3e 92 ce a7 3c
       0.011713972 -0.08299636 0.27550465 0.020484243
000260 c3 2f 5c 3d 5a 73 b5 3b 23 9c 0a be c8 7e 51 bd
       0.053756487 0.0055374326 -0.13536124 -0.0511463
000270 23 9b 68 be 0a 6f 87 bc 7e 46 3d 3e 2f ce f7 bd
       -0.2271543 -0.01653244 0.18483922 -0.12099873
000280 9c 20 b0 3e 04 07 ec bd d9 9f 63 3d 15 fd cb 3d
       0.3439988 -0.115247756 0.055572364 0.09960381
000290 c1 f3 23 3e 2c 3d ae bd 0e 1f 23 3e f0 ef 0f 3e
       0.16010953 -0.08507761 0.15929815 0.14056373
0002a0 d8 5f 89 be 2e 05 64 bd 39 fa 92 be 2a 8f 1e 3e
       -0.26830935 -0.055669002 -0.2870653 0.154843
0002b0 16 5a e8 bb b0 99 45 be 97 eb f3 3d 86 74 8f 3e
       -0.007090817 -0.19296908 0.119101696 0.28018588
0002c0 48 92 48 3c 25 6e 54 be c6 46 9c 3d c4 74 db bc
       0.012241907 -0.20745142 0.076306865 -0.026789077
0002d0 51 38 e4 bc 86 20 c9 bd 05 cf 94 bd 52 ee 1e 3e
       -0.027858885 -0.098206565 -0.07266048 0.155206
0002e0 bf bd 0a 3e 99 08 d5 3c 21 ad 1d bd 29 7d 0b be
       0.13548945 0.026005076 -0.038495187 -0.13621964
0002f0 8c 37 3b be 7c 74 29 be 7e 00 ad bd 7e b1 70 be
       -0.18282908 -0.16548342 -0.084473595 -0.23505208
000300 82 ce 8f be af d1 54 3d ea de 0d bd 9f b6 e2 3d
       -0.2808724 0.051957782 -0.034636416 0.110699885
000310 b9 dd 41 bd 3d 9a 85 be 2e d5 86 bd 05 d8 26 3e
       -0.04733059 -0.26094237 -0.065836295 0.16293342
000320 00 ee 51 3e d6 b0 df 3c 57 69 11 be 33 43 9a 3d
       0.20500946 0.027306002 -0.1420034 0.075323485
000330 3e 7f 08 be cb ae 56 bd 31 bb ad 3d 75 d3 1f be
       -0.13329789 -0.05241279 0.084829696 -0.15608008
000340 d9 65 b7 3d 65 d5 74 3d 1f 31 f6 3d 7e 76 2e 3e
       0.08954973 0.05977382 0.12021088 0.17037389
000350 5f 9e 68 3d ca 69 60 be 6e 8d 98 bc db cf 97 3e
       0.05679166 -0.21915355 -0.018622126 0.2965077
000360 05 a6 4a be 34 ab cf 3d 8b 61 90 3e eb 23 d8 3c
       -0.19789894 0.10140076 0.2819942 0.026384315
000370 30 3d 82 3d b5 ed 46 3e c9 05 06 3d ce 58 86 3e
       0.06359327 0.19426616 0.03272036 0.26239628
000380 1d 69 0e be 09 65 d7 bc 8d 40 ad bd 03 de 61 3c
       -0.13907285 -0.026293295 -0.08459578 0.013785842
000390 3e 25 dc bd df 20 dc 3d e1 8b 4c 3e 2f 55 bf bd
       -0.10749291 0.10748457 0.19975235 -0.09342419
0003a0 1d 78 23 3d 20 9d 6f 3d c1 d0 8a 3e 30 5e 6c 3d
       0.03990947 0.058499455 0.27112392 0.05770701
0003b0 ba 31 9f bd 23 d4 23 3c 56 bc f0 bd 47 44 db bd
       -0.077731565 0.009999308 -0.11754672 -0.10706382
0003c0 02 44 92 3d f8 d3 8a 3d f8 92 f4 3d e9 81 51 bd
       0.07141878 0.06778711 0.119420946 -0.051149283
0003d0 11 5d 76 3d 91 c4 0b 3e 65 cb 50 bd a4 07 37 3e
       0.06014735 0.13649203 -0.050975222 0.17874008
0003e0 f5 58 01 3e a6 56 71 be 46 b7 f0 bd e6 e9 e1 bd
       0.1263159 -0.2356821 -0.11753707 -0.11030941
0003f0 4c 7e 34 3e ab c8 42 3e 2a 4f d4 bd 84 cf e7 bd
       0.17626303 0.19021861 -0.10366662 -0.11318877

bias f4 [32]
000000 71 c4 ab bd 51 51 88 3e 88 00 17 3e f5 18 ba bd
       -0.083870776 0.2662454 0.14746296 -0.090867914
000010 80 cf 85 bd 5e 20 3d 3e 80 ff 85 3c f4 1f 10 3e
       -0.06533718 0.18469378 0.016357183 0.14074689
000020 cc da fa bd f4 37 1e 3e 30 2d d8 bd 5c fa 61 bb
       -0.122487634 0.15451032 -0.10555494 -0.0034481501
000030 54 ad 29 3e 2d f1 95 3c 6a a2 00 be 26 21 6e 3d
       0.16570026 0.018303478 -0.12561956 0.05813708
000040 7e d5 bb bd 79 3c d8 3d bf 95 4d 3e f2 03 89 bd
       -0.0917158 0.10558409 0.20076655 -0.06690206
000050 5f 48 48 3e c2 19 5a 3e fa 73 c1 bc e0 69 33 bd
       0.19558857 0.21298888 -0.023614872 -0.043802142
000060 a1 62 2b 3d 28 45 11 3e 67 85 72 bd f4 56 2d 3e
       0.041842107 0.14186537 -0.059209254 0.16927701
000070 7a 94 74 3e cd 95 02 be cd e6 8a 3c 8e ac 1a 3e
       0.23884764 -0.12752457 0.016955758 0.15104887

weight f4 [32, 32]
000000 1e 6f a1 bb bc 2a 0f be 8d 52 00 be 90 f9 86 be
       -0.0049265763 -0.13981146 -0.1253149 -0.26362276
000010 b1 f6 12 3e 60 65 2b 3c 68 4b 37 3e 0a 43 8e be
       0.14351918 0.010461181 0.17899859 -0.27785522
000020 20 4d 55 3e 0f 4e 6f be f5 09 ea bd e5 b8 a8 3c
       0.20830202 -0.2336962 -0.114276804 0.020595977
000030 4f 6c 9c be 82 0b 74 3e f5 b5 03 be 54 94 af 3e
       -0.30551383 0.23832515 -0.1286238 0.34292853
000040 2e e5 87 3e 65 ed ed 3e 36 d2 d0 3e d1 ed cb 3c
       0.26542038 0.4647018 0.40785378 0.024893673
000050 9d d1 1b be d3 e6 3b 3e 08 6e 15 3e 0b 2a 7a 3e
       -0.1521668 0.18349771 0.14592755 0.244301
000060 a4 8d 67 bd c6 45 8e 3e a6 e9 c4 3d ca e6 10 bc
       -0.056531563 0.27787608 0.096148774 -0.008844087
000070 db 66 5c 3d 87 40 d6 bd cc ce 0e 3e 48 2f 9a be
       0.053809028 -0.10461526 0.13946074 -0.30114198
000080 a1 20 8e bd 05 4d d1 3d a2 df 4e bd fd 44 90 3d
       -0.06939817 0.102197684 -0.05050624 0.070444085
000090 61 d2 c3 bd 56 b6 0f be 38 f5 51 be 5e 3e aa 3d
       -0.09561611 -0.140344 -0.205037 0.08312677
0000a0 98 ab ec 3c 40 fb 08 3d 44 c2 47 be 1f 57 36 3e
       0.028890416 0.033442736 -0.195077 0.17806672
0000b0 79 57 47 3e 26 41 13 3e 32 db 1f be 76 2e ae 3d
       0.19466962 0.14380321 -0.1561096 0.085049555
0000c0 1a 81 66 bd 26 43 ec bc 45 52 bd bb e9 33 17 3e
       -0.056275465 -0.028840613 -0.0057776296 0.14765896
0000d0 44 ce c5 bd 0a f0 f8 bd c0 58 00 be 0a 2f 0f 3e
       -0.09658483 -0.12155159 -0.12533855 0.13982788
0000e0 e4 d5 8b 3d 5b 41 9b bd c2 12 10 bd 2b 82 f5 bd
       0.06827906 -0.07580825 -0.03517414 -0.11987718
0000f0 bd 45 3d be bd c2 4c bc 7d 12 d7 bd e1 06 a2 3d
       -0.18483634 -0.012497601 -0.10501573 0.07911468
000100 c9 75 8d bb 37 f2 44 be 41 e4 0a 3e 9c d5 8b be
       -0.0043170196 -0.19233023 0.13563634 -0.2731141
000110 fe 9c fd 3c 4d 2f 25 be f8 40 3c 3e d0 3b 2a be
       0.030958649 -0.16131325 0.18384159 -0.16624379
000120 a1 b3 ad 3e e4 d8 5a be e3 19 20 3e 3f 66 ae 3b
       0.33926108 -0.213718 0.15634875 0.0053222473
000130 96 94 4b be e5 09 b0 bc 6a fb 0d 3e 0a 27 ab 3e
       -0.198809 -0.021489093 0.13865438 0.33428222
000140 96 a9 f8 3e c0 f0 b3 3e 8c 92 06 3f 23 b8 13 3e
       0.48566884 0.35144615 0.5256736 0.14425711
000150 f0 90 9e be c3 5d 88 3c f7 e5 8f 3e 56 22 05 3e
       -0.30969954 0.016646272 0.28105137 0.1300138
000160 db 8f 29 be 89 a8 01 3f 6a 35 ae 3e a5 32 21 3e
       -0.16558783 0.5064779 0.34025127 0.15741976
000170 a5 76 f4 bc 13 0a 4f be 71 e9 b3 bb 9e 66 d6 bd
       -0.02984173 -0.20218687 -0.005490475 -0.104687914
000180 95 b5 41 be 75 80 33 3e b7 b2 64 3e 9f 40 fc 3d
       -0.18916924 0.17529471 0.223338 0.12317013
000190 6a 4f 28 3e b4 2e 84 3e a6 0d 97 bd 38 a7 9a be
       0.16436544 0.25816882 -0.0737565 -0.30205703
0001a0 db b3 32 be a3 33 3a 3e 53 73 df bd 32 a0 46 bd
       -0.17451422 0.1818376 -0.10910668 -0.048492618
0001b0 0d 1d d3 3d d1 c5 31 be 46 c2 fc 3c 4e 3c 7e be
       0.10308275 -0.17360617 0.030854356 -0.24827692
0001c0 28 6e b2 be 08 36 ad be 39 bb a4 be e8 cb 90 bd
       -0.34849668 -0.33830285 -0.3217409 -0.07070142
0001d0 bc e2 83 3e 28 dc 43 be 1b 2f 28 3d d9 21 a9 be
       0.25758922 -0.19126952 0.04106055 -0.33033636
0001e0 ec d8 6e 3e 50 7e cb be 36 b9 0f be 4f 48 fb bd
       0.23324937 -0.39744806 -0.14035496 -0.12269651
0001f0 e8 aa 86 3e 9c bf 4b 3e 95 65 cc 3d a2 c0 09 be
       0.26302266 0.19897312 0.09980313 -0.1345239
000200 d3 6d 33 be 60 5d 0d 3e 92 80 f2 bb e8 54 e5 bd
       -0.17522363 0.13805151 -0.0074005807 -0.11197835
000210 0d 93 27 bc ca ee 8a 3e ec 3b fe bc 40 f7 15 be
       -0.010227931 0.27135307 -0.031034432 -0.146451
000220 1c a9 90 bd 37 d0 1b 3c 2d 31 08 be 15 17 fc 3d
       -0.07063505 0.0095100915 -0.13300009 0.1230909
000230 50 c3 81 3e 8e af 24 be 25 8b ea bd 9f 27 8a be
       0.25344324 -0.16082594 -0.11452321 -0.26983353
000240 06 9b f1 be dd 92 a2 be 6f 37 ff bd 23 ef 23 3d
       -0.47188586 -0.31752673 -0.12461745 0.04002298
000250 b3 d1 7f 3e a4 60 3d be 03 78 fb 3c af ac cb bd
       0.24982338 -0.18493897 0.030696874 -0.09945046
000260 c7 f6 14 3e 0d 52 17 be a3 c0 b0 be 50 51 2d 3d
       0.14547263 -0.14777394 -0.3452197 0.042313874
000270 a8 98 81 3e b9 de c0 3d 18 29 ba 3c 61 d1 60 be
       0.2531178 0.09417481 0.022724673 -0.21954872
000280 e9 10 3a be 12 31 35 3e 3f fe 3f 3e 0d 9d 39 3e
       -0.18170513 0.176945 0.18749331 0.18126316
000290 0f 8b a4 3d 4e 68 7a 3e 18 05 98 be 9b af 35 bd
       0.08034336 0.24453852 -0.29691386 -0.044356924
0002a0 57 29 05 be 83 94 68 3e b1 4d f7 bc 9b 3f 33 be
       -0.13004051 0.22712903 -0.030188413 -0.17504732
0002b0 2d 45 14 3e 2c 9f d0 3b 7f 4f d2 3d 08 50 0e be
       0.14479513 0.006366631 0.10269069 -0.13897717
0002c0 88 8a b4 be 3d 11 ab bd 32 24 e9 be 1f c8 dd 3d
       -0.3526194 -0.08352897 -0.45535427 0.10829186
0002d0 81 50 75 3e ed 8b 51 be f4 c9 00 be be 14 0f be
       0.23956491 -0.20463534 -0.12577039 -0.13972756
0002e0 21 f2 ab 3c d9 2d 88 bd 75 41 19 be ed 10 ee 3d
       0.02098948 -0.0664937 -0.14966376 0.11624322
0002f0 7c af 85 3c 9f 93 46 bc 97 28 18 3e 3a b2 1c be
       0.016319029 -0.012120157 0.14859234 -0.15302363
000300 66 ad b9 3d 7c 9c 07 3e 41 59 22 bc 3f e2 79 bd
       0.09066276 0.13243288 -0.009908975 -0.06100678
000310 2c 30 29 be d8 29 3f bd 34 d8 f6 3d 9e 98 21 3d
       -0.16522282 -0.046670765 0.12052956 0.039452188
000320 f1 d6 d4 bd c9 f4 ad 3d e8 7f 18 be d8 d9 01 bc
       -0.10392559 0.08493955 -0.14892542 -0.007925473
000330 f4 84 f7 3d 1d 47 1b 3e c4 59 99 bd 35 33 93 3d
       0.12085906 0.15163846 -0.074878246 0.07187501
000340 40 66 c2 3c e8 4e 35 3d ac 30 ee bd f7 41 9f bd
       0.023730397 0.044264704 -0.11630377 -0.07776254
000350 bd 03 b3 bd 6e 66 5d bc 10 20 c1 bd 13 4b c1 3d
       -0.087409474 -0.013513191 -0.094299436 0.094381474
000360 3d 3c f3 3d e0 a3 0f be 21 a7 33 be 1e 51 fc bd
       0.11876724 -0.14027357 -0.17544223 -0.123201594
000370 03 4a 85 bc 91 6f 99 bd 99 76 a3 bd 24 25 06 be
       -0.016270643 -0.07491983 -0.07981605 -0.13100106
000380 06 82 19 be 8c d7 68 3e 3b 8e 4a 3e 98 3b 96 bc
       -0.14991006 0.22738475 0.19780819 -0.018338963
000390 e3 af 8f 3d 74 9f 92 3d 29 2e 4b be 7f 79 2c be
       0.070159696 0.071593195 -0.19841827 -0.16843222
0003a0 f9 fc 07 be cc dd 2e 3e 8a 12 25 bd 99 3f b0 bd
       -0.13280095 0.17076796 -0.040300883 -0.0860588
0003b0 63 1b 3b 3e 9c 45 1d be a6 16 86 bc d8 8f 26 be
       0.18272166 -0.15358585 -0.016368221 -0.1626581
0003c0 32 63 1f 3c d0 8d 80 be eb c0 26 be af f8 84 bd
       0.00972824 -0.25108194 -0.1628453 -0.06492745
0003d0 e4 16 5d 3c 5b 3c 33 be 84 bc 2f be cc cb 84 bc
       0.013494227 -0.17503493 -0.17161757 -0.01621046
0003e0 b2 20 47 3e 60 16 e7 be c2 b8 33 be fd cd b7 bd
       0.19446066 -0.45134258 -0.17550948 -0.08974836
0003f0 69 60 67 3e 23 b1 62 bc 35 eb 04 be af 79 c1 bc
       0.22595371 -0.013836178 -0.1298035 -0.023617594

bias f4 [32]
000000 30 5d 5e 3d ef e7 e5 3d 43 ff ad 3d c1 59 e0 3d
       0.05428809 0.112258784 0.08495953 0.10954619
000010 1d 06 59 3e 28 35 a3 bd 98 fa 54 bd 3c 68 5a 3e
       0.21193738 -0.07969123 -0.051996797 0.21328825
000020 6e 24 7b bc 22 18 e8 bd e9 03 79 3d 69 55 a5 3c
       -0.01532851 -0.11332728 0.060794745 0.020182328
000030 22 23 3b 3e b2 95 4d 3e e6 1e ce 3c 9d 4d e7 3d
       0.18275121 0.20076635 0.025161218 0.112941004
000040 66 62 fd bd f4 eb 7b 3e 32 9f 8b bc 73 0f 6b bd
       -0.12372284 0.24601728 -0.017043684 -0.05738778
000050 31 c6 a3 3c 2a c5 db bd 86 79 8c 3d 2e d6 78 3e
       0.019991966 -0.107309654 0.06859116 0.24300453
000060 8b 63 8d 3d d3 c7 de bd de 26 6b 3d e4 03 12 3e
       0.06903752 -0.10877957 0.057410114 0.14259297
000070 74 f4 38 bc c7 2d 30 3e 1c 98 2b 3e c6 4e bf bd
       -0.011288751 0.17204963 0.16757244 -0.09341197

weight f4 [32, 32]
000000 47 82 8c bd 35 78 8b 3c bd 71 43 bd 04 0f 9f 3d
       -0.06860786 0.017025093 -0.04771589 0.07766536
000010 d8 2a a8 3d 44 fa 80 3d e2 cd b7 bc ed 69 03 3d
       0.08211297 0.062977344 -0.02243704 0.03208344
000020 ac 85 22 bc db a8 99 3c e7 8a 70 bc 60 cd 39 bd
       -0.009919565 0.018757274 -0.014681554 -0.045361876
000030 f5 f0 bb bc 74 b4 8f bb 54 c5 80 3d 8d 3d c4 3b
       -0.022942046 -0.0043855254 0.06287637 0.0059887827
000040 95 49 5f bd 0f 76 79 bc 83 77 e9 3c 62 a2 3b bd
       -0.054513533 -0.015225901 0.02849937 -0.045809157
000050 34 b2 10 bd 59 41 c3 bd 2d b0 e7 bb b4 46 58 bc
       -0.035326198 -0.095339485 -0.0070705623 -0.013200451
000060 88 89 91 3d 26 60 34 3d bd a9 a4 bd 74 ed f4 bc
       0.0710631 0.044037007 -0.080401875 -0.029898383
000070 e6 0c b3 bc ba 1f c9 bd c4 f5 93 bd 4c 6b ba bd
       -0.021856736 -0.098205045 -0.072246104 -0.091024965
000080 8f d7 58 bd 7a d6 e2 3c 28 ca fd 3c f0 8e 59 3d
       -0.052939948 0.027690161 0.030980185 0.05311483
000090 60 66 45 bc 40 b1 75 bd d5 8a b5 3d 5d 22 d7 3d
       -0.012048334 -0.059983492 0.08864371 0.10504601
0000a0 6c 9f 68 3d 48 c2 52 3c 16 75 24 bd 44 62 c7 3c
       0.05679266 0.012863703 -0.040150724 0.024338849
0000b0 bc 6a 44 bc 26 33 e7 3c f3 59 33 bd 81 8b 53 bc
       -0.011988338 0.028222632 -0.043786954 -0.012911678
0000c0 ac ca 82 3d 6a 13 39 3d 33 1d d3 3c 0c 51 5b bd
       0.06386313 0.04518453 0.02577076 -0.05354409
0000d0 f3 8d 84 bd 9b 2e b9 bd 17 21 99 bc 0c 8e 09 bd
       -0.06472387 -0.090420924 -0.018692536 -0.033582732
0000e0 bc 73 ae bc b6 8e fc bb c5 c4 9d 3b 5e 6c ce bd
       -0.02129542 -0.007707442 0.0048147165 -0.10079263
0000f0 92 cf cb bd b1 89 b5 3b 4f 5f 15 3d c4 96 ac 3d
       -0.099517 0.0055400957 0.036467846 0.08427194
000100 48 2c 52 3d 4a cd 05 3d 03 88 46 bd 9e 9b c5 bd
       0.05131176 0.032666482 -0.048469555 -0.09648822
000110 39 9b 31 3d ba 6d 80 bd 39 ec 77 3c ae d4 95 bd
       0.043360922 -0.06270929 0.015132003 -0.07315956
000120 d9 4d c6 3c 0f 03 af bd 90 37 36 3d 60 be 00 3d
       0.024207043 -0.08545505 0.044486582 0.031431556
000130 77 c4 1d 3d bd e0 36 3d 3d 35 01 bd f5 f0 18 bd
       0.03851744 0.04464792 -0.031544913 -0.03733917
000140 3f b7 82 3d b7 92 18 3d 5c 3d e0 bc f3 1a f6 3d
       0.06382608 0.037249293 -0.027373008 0.12016859
000150 74 a2 27 bd 49 ca 72 bd 1c 7d ec bd 88 ac f1 bc
       -0.04092641 -0.059274945 -0.115473 -0.029501215
000160 a2 df 06 be 0f 83 bb bd 36 6d 7d 3d 11 a0 64 bc
       -0.13171247 -0.09155857 0.06187173 -0.013954178
000170 7c 8b e1 bc e9 8b f3 bd fd e3 23 3d 58 d0 54 3b
       -0.027532332 -0.1189192 0.04001235 0.0032472815
000180 c5 5f a5 3c 38 d6 c6 bc 24 66 7a 3d 00 51 e0 bc
       0.020187268 -0.02427207 0.061132565 -0.027382374
000190 15 e9 34 3d a2 06 00 bd ad 0e 72 3d 44 22 11 3e
       0.044167597 -0.031256326 0.059096027 0.14173228
0001a0 c7 10 c1 bc 0a c5 e0 bc 7e 03 87 3d da 56 5a bd
       -0.02356757 -0.027437706 0.06592463 -0.053305484
0001b0 f7 a1 a9 bb 04 cc 30 bd 94 4a 7e 3c 68 db ab 3c
       -0.0051767784 -0.043163314 0.0155207105 0.020978644
0001c0 e0 09 3a bd 25 64 11 3d 53 97 b5 bd 81 c0 cb 3d
       -0.045419574 0.035495896 -0.088667534 0.099488266
0001d0 ce 38 4e bc eb b2 ac bd 4b bf 05 3d a5 9d c5 bc
       -0.0125867855 -0.084325634 0.032653134 -0.024123022
0001e0 5a 68 bc bc 6c ad 19 bd af b4 68 3d af 2d 39 bd
       -0.022998977 -0.037518904 0.05681294 -0.045209583
0001f0 5e 00 5f 3d 2c 9b 2e 3d 41 5d cc 3d b6 79 23 bd
       0.05444371 0.042628452 0.09978724 -0.039910994
000200 50 e6 ff 3c d5 26 2f bd a9 fb 8f bd 0f d4 4c bd
       0.031237751 -0.042761642 -0.07030422 -0.050006922
000210 ee ac 29 bd 27 db f6 3d 85 c6 e3 3c 28 92 89 bc
       -0.041424684 0.12053519 0.027804622 -0.016793326
000220 b2 08 b8 3c 7a 85 47 bd d0 b0 c6 3d 94 10 1c 3c
       0.022465084 -0.048711278 0.09701693 0.009525437
000230 1a 6c 1c bd 0f a8 6b bd ae 39 2b bd 3e b1 ba bc
       -0.03818903 -0.05753332 -0.041803055 -0.022789594
000240 ca 96 b9 3d 57 53 52 3c 62 1c f0 3b 18 8c 3c 3e
       0.09061964 0.012837253 0.0073276022 0.18412817
000250 0d 30 54 3d d9 69 15 3d 2d 16 61 3d 87 58 8f bd
       0.051803637 0.036477897 0.05495279 -0.06999307
000260 66 e5 8a bd c6 0d 53 3d dc 09 64 3d d5 80 72 3d
       -0.067820355 0.051526807 0.055673465 0.059204895
000270 62 e5 5a 3d bb de 09 bc 05 c3 fe bc 76 53 05 3d
       0.053441413 -0.0084149195 -0.031098852 0.032550298
000280 46 f3 83 3c c0 b6 71 3c 4d fa 21 bb 68 fd c4 bd
       0.016107213 0.014753044 -0.0024715841 -0.09618646
000290 54 99 a5 3d ad a3 f7 bc b3 78 4d 3b 38 71 c3 bd
       0.08085886 -0.030229414 0.003135246 -0.09543079
0002a0 e2 fa 89 3d 45 c6 41 bd 7d 99 38 3d 88 80 80 3c
       0.06737305 -0.047308225 0.045068253 0.015686288
0002b0 8c 52 21 3d 2d 9d 48 3d b6 72 a8 3c 11 f8 7e 3d
       0.039385363 0.04897802 0.020562511 0.062248293
0002c0 e2 85 95 bd f9 72 2e 3d 64 7e 9b bd a2 6b b8 bb
       -0.07300927 0.042590115 -0.075924665 -0.005628065
0002d0 34 2e e4 3b 1a 18 ad 3d 70 c0 44 bd 98 db 95 bd
       0.0069635157 0.08451863 -0.048035085 -0.07317275
0002e0 44 c0 60 bc 8b 76 a7 bd 4e ed 5c bc f1 ca e4 3c
       -0.013717715 -0.08176907 -0.013484312 0.027928801
0002f0 a0 a6 15 3c e6 b7 fe bc a4 9c c6 bc 74 6c b0 3d
       0.009133965 -0.031093549 -0.024244614 0.08614436
000300 20 7f c9 3b 1d 6e 0a 3c 10 30 c1 3d af 73 4c bd
       0.0061491877 0.008449105 0.09432995 -0.049915012
000310 2c c1 f5 bc c3 72 50 3d 88 e4 5e bd b8 20 8a 3d
       -0.029999338 0.050890695 -0.054417163 0.06744522
000320 fc ee 9e bd 9d 6b 51 bd 92 d2 c7 3d 59 f8 0b bc
       -0.077604264 -0.05112802 0.0975696 -0.008543097
000330 93 7f 11 3d 9f fc 3d bd 62 2b bd 3d 1a 52 61 3d
       0.035522055 -0.046383496 0.0923679 0.05500994
000340 4a 5b 8f bd c7 d8 cc 39 dc 07 e3 bd 74 71 f9 3d
       -0.06999834 0.00039071424 -0.110854834 0.121798426
000350 d1 7d fa 3c 6c 40 3e bd ef e5 04 bd b2 60 00 bb
       0.030577572 -0.046448156 -0.032445844 -0.0019588885
000360 00 4a fe 3c 8c 08 aa bd 2e 53 f3 3c 13 21 a9 3d
       0.031041145 -0.083024114 0.02970275 0.082582615
000370 63 cb 38 3d ea 1e 25 3b 48 eb 16 3d 7f b5 af 3d
       0.04511584 0.0025195428 0.036845475 0.085795395
000380 24 48 e8 bc f8 ad 8e bd d6 f4 a7 bd 71 72 29 bc
       -0.028354712 -0.06966776 -0.082009956 -0.010342226
000390 64 ce 91 3d 9a 99 eb bc 77 aa 69 bb cb 13 f9 bd
       0.07119444 -0.028759766 -0.0035654583 -0.12161978
0003a0 ae 14 8e 3c da 3a 14 bd 13 69 28 3d 75 5d 8f bd
       0.017343845 -0.036188938 0.04111583 -0.070002474
0003b0 04 64 9a 3c 5d b8 97 3d 1e 43 58 bd 8d 5a 67 bd
       0.01884652 0.074082114 -0.052798383 -0.05648284
0003c0 95 74 af 3d 9d 73 9d bb cf 5e 84 bd cf 5e a4 bd
       0.08567158 -0.004805042 -0.06463396 -0.08025896
0003d0 cb 29 6d bd 4d 38 93 3d b8 9f 1d 3d ed 62 97 3b
       -0.057901185 0.07188473 0.038482398 0.004619947
0003e0 5a 0a b2 bc 28 89 57 bc ab 3e 86 bc cd 2a 10 bd
       -0.021733452 -0.013155259 -0.016387304 -0.035197068
0003f0 05 27 31 3c 96 6a 07 bd e1 75 d6 3c 97 a3 e4 3d
       0.010812526 -0.033060633 0.026179256 0.11164015

bias f4 [32]
000000 ae ec 66 be 7d dd f9 bd 9b f2 87 be 4a 33 6c be
       -0.22551224 -0.12200449 -0.2655228 -0.2306644
000010 e0 1d 42 be 4c dd c2 bc ea 96 16 3d 4f 05 e9 bc
       -0.18956709 -0.023787163 0.036765017 -0.028444914
000020 93 ca 85 be 74 1b 58 be e5 b3 1f be 77 1b 15 be
       -0.26131114 -0.21104223 -0.15595968 -0.14561258
000030 01 a5 32 be 71 3f 71 be 42 69 2b be eb d9 67 3b
       -0.17445756 -0.23559357 -0.16739371 0.0035377692
000040 ca dd 03 3d 99 94 39 bb 63 b2 b7 bd fc 96 c5 3c
       0.032193936 -0.002831733 -0.089695714 0.024119847
000050 2a 8d 42 be 3e c1 d7 bd 6c 1d 55 be 18 91 0b be
       -0.18999162 -0.10534905 -0.20812005 -0.13629568
000060 09 de 5c 3c 32 cc e4 bd a2 36 97 be c2 9d 57 be
       0.013480672 -0.1117176 -0.2953387 -0.21056274
000070 4d 79 33 be ed fd c2 bd 5a e3 84 be 83 4a 8a bd
       -0.17526741 -0.09521089 -0.25954705 -0.06752493
