serology/results_intermediate_encoders_2/models/5fold/localDiscr_0.pt (torch, 20623 bytes, 8 tensors)

weight f4 [32, 32]
0	0x3c6e9a30	0.014563128
1	0x3d70d11d	0.058793176
2	0xbb954511	-0.0045553525
3	0xbe10c0a0	-0.1413598
4	0x3e5f28e7	0.21792947
5	0xbd3ab3f3	-0.04558177
6	0xbe8c5aa3	-0.274129
7	0x3e34b72b	0.17647998
8	0xbd45bc7f	-0.048275467
9	0xbe85644f	-0.26053092
10	0xbca93230	-0.020653814
11	0xbec430d4	-0.38318503
12	0xb8fd361a	-0.00012074057
13	0x3d11f66f	0.035635408
14	0xbdca04a5	-0.09864167
15	0xbe745ecc	-0.23864287
16	0xbc661217	-0.014042399
17	0xbe8a1e22	-0.26976115
18	0x3c4c2900	0.012460947
19	0x3ce70874	0.028202273
20	0x3d926f7e	0.07150172
21	0x3ebe767f	0.3719978
22	0x3db009d9	0.08595628
23	0xbe5eb5da	-0.21749058
24	0x3e819955	0.25312296
25	0x3d93fedb	0.07226344
26	0x3eaadd91	0.33372167
27	0x3d13b6ce	0.036063008
28	0xbe26b446	-0.16279706
29	0xbee8f390	-0.45498323
30	0x3d8fc228	0.07019454
31	0xbcc81d92	-0.024428163
32	0x3d050274	0.032473043
33	0xbe073fbe	-0.1320791
34	0xbdc95530	-0.09830701
35	0x3d00d0f1	0.031449262
36	0x3d197cfe	0.037472717
37	0x3d9d4f57	0.076811485
38	0xbde4a8ae	-0.111649856
39	0x3e8a6998	0.27033687
40	0x3d04d144	0.032426134
41	0xbe4c9e03	-0.19982152
42	0x3e9eeb10	0.31038713
43	0xbe023c5f	-0.12718342
44	0x3d6afc2e	0.057369404
45	0xbdabb6c8	-0.08384472
46	0xbdcf2bab	-0.10115751
47	0x3c8b9051	0.017036589
48	0xbdb3841a	-0.08765431
49	0x3e658180	0.22412682
50	0xbd0251de	-0.031816356
51	0xbe051b5e	-0.12998721
52	0x3d1cc3b1	0.038272563
53	0xbe88429a	-0.26613313
54	0x3d792d8d	0.060834456
55	0x3c8e452f	0.017366974
56	0x3d9bc03f	0.076050274
57	0x3dba4010	0.0909425
58	0xbe3d9eaf	-0.18517564
59	0xbeae9c1f	-0.34103486
60	0x3dc034cc	0.0938507
61	0xbe93e21c	-0.28883445
62	0xbd9d96ee	-0.07694803
63	0xbe2177b9	-0.15768327
64	0x3e0a049a	0.13478318
65	0xbd09e83d	-0.033668745
66	0xbe29be91	-0.16576602
67	0x3dd9f7f5	0.10642997
68	0xbd55b760	-0.052176833
69	0xbd8aba7f	-0.067738526
70	0xbe3129ac	-0.17301053
71	0x3ec12a24	0.37727463
72	0x3ed91651	0.4239984
73	0xbe21637c	-0.15760607
74	0xbd08b60f	-0.03337675
75	0xbd99a083	-0.07501318
76	0xbe2dd866	-0.1697708
77	0xbc97ed8f	-0.018545894
78	0xba6fe587	-0.00091513287
79	0x3e00e029	0.1258551
80	0xbd885c58	-0.06658238
81	0x3cfb0dae	0.030646171
82	0xbe3160a4	-0.17322022
83	0xbe3c5bdd	-0.18394418
84	0xbe1425ac	-0.14467496
85	0x3e4bdcc6	0.19908437
86	0xbcfca01e	-0.030838069
87	0x3e352eca	0.1769363
88	0xbdbe1f5f	-0.09283327
89	0x3dc1bae0	0.09459472
90	0xbd92d13f	-0.07168817
91	0x3da5027e	0.08057116
92	0xbeb1c249	-0.3471854
93	0x3d3d1b83	0.046168815
94	0xbd276f8c	-0.040877864
95	0x3db1c0c5	0.08679346
96	0xbdd3c355	-0.10339991
97	0x3d49fc3d	0.04931282
98	0xbb993a09	-0.004676108
99	0xba7ccae4	-0.000964327
100	0x3dd0dd6d	0.101984836
101	0xbcf46843	-0.029834872
102	0x3de91846	0.11381583
103	0x3d9fbf66	0.07800178
104	0xbc9b9fac	-0.018997036
105	0x3d2c171f	0.042014237
106	0xbbe3c9f3	-0.0069515645
107	0x3d74801e	0.059692495
108	0xbd2adc3e	-0.041713946
109	0x3e9e157e	0.30875772
110	0xbc9124ec	-0.017717801
111	0xbe803d82	-0.25046927
112	0xbd35ae97	-0.044355955
113	0x3e6ef9b3	0.2333744
114	0x3d52c915	0.051461298
115	0x3d03beae	0.03216427
116	0xba3a33d2	-0.0007103059
117	0x3d9cab5b	0.07649871
118	0xbd9c8187	-0.07641893
119	0x3d05f99c	0.03270875
120	0xbd695fef	-0.056976255
121	0xbde023d2	-0.10944332
122	0x3e6a6e8b	0.22893731
123	0x3e2c8de6	0.16851005
124	0x3e321b03	0.17393117
125	0xbe0ddf8c	-0.13854808
126	0x3c9c3d72	0.019072268
127	0xbd3f7fb8	-0.04675266
128	0x3ccc3fc9	0.024932759
129	0xbea77921	-0.32709602
130	0xbb4b5037	-0.0031023154
131	0xbe0ee0c2	-0.13952926
132	0x3e73a7ed	0.23794527
133	0xbe48826c	-0.19581002
134	0xbe25e7de	-0.16201732
135	0x3c1ec56d	0.009690625
136	0xbd13118c	-0.035905406
137	0xbe119a29	-0.14218964
138	0x3d3c983f	0.04604363
139	0x3cc19e7e	0.023635145
140	0xbdf08e51	-0.11745895
141	0xbe8ffde3	-0.28123388
142	0x3d56df38	0.05245897
143	0x3e1770c3	0.14789109
144	0x3e1c0bb3	0.15238838
145	0x3dce4db3	0.10073414
146	0xbe2620cc	-0.16223449
147	0xbd089a6e	-0.0333504
148	0xbe295c49	-0.1653911
149	0xbe1c5658	-0.15267313
150	0x3d8abc23	0.067741655
151	0xbb8d028a	-0.004303281
152	0x3d018951	0.031625096
153	0xbd0f4957	-0.03498205
154	0x3d545b46	0.051844858
155	0xbe160fd9	-0.14654483
156	0x3e5654d6	0.209308
157	0xbe79a79e	-0.24380347
158	0xbdd6a968	-0.104815304
159	0xbdcfe660	-0.101513624
160	0xbe42ef38	-0.19036567
161	0xbe4acb56	-0.19804129
162	0xbcea6781	-0.028613808
163	0xbddab285	-0.10678581
164	0x3d4e2ab3	0.05033369
165	0x3df2679e	0.1183617
166	0xbe098333	-0.13428955
167	0xbdfe8d95	-0.124293484
168	0x3c18b153	0.009319621
169	0x3dbef518	0.09324092
170	0xbe26a21f	-0.16272782
171	0x3e087be4	0.1332851
172	0x3b5d8e24	0.0033806646
173	0xbe1a1fb7	-0.15051161
174	0xbe218253	-0.15772371
175	0x3e2afbd5	0.16697629
176	0xbdcd06a9	-0.10011036
177	0x3e48f2fd	0.19623943
178	0xbe340711	-0.1758082
179	0xbe52f66a	-0.20601812
180	0x3e2cca3c	0.16874021
181	0x3da5f94d	0.08104191
182	0x3de14855	0.11000124
183	0xbcee6b44	-0.029103883
184	0xbdff7b6e	-0.12474714
185	0xbdd9d99a	-0.10637207
186	0x3d775452	0.06038315
187	0xbe231416	-0.15925631
188	0xbe8a08c4	-0.26959813
189	0x3ce917e8	0.028453782
190	0xbe0f3b08	-0.13987362
191	0xbdeb6865	-0.11494521
192	0xbd6fb41d	-0.05852138
193	0x3d73f250	0.05955726
194	0x3c8315e2	0.016001645
195	0x3e09cc92	0.13456944
196	0x3db9d065	0.09072951
197	0xbe9c15b7	-0.30485317
198	0x3d3a801f	0.045532342
199	0x3c444c21	0.011981041
200	0x3e97ae15	0.29625002
201	0xbd35aca7	-0.044354107
202	0xbdb3a3bf	-0.087714665
203	0xbe52eb23	-0.2059751
204	0xbcbc9ee8	-0.023024991
205	0xbd81d470	-0.06339347
206	0x3c38fbcc	0.011290502
207	0xbb9ba26f	-0.004749588
208	0x3d53f126	0.05174365
209	0x3df14615	0.11780945
210	0xbb01b2ef	-0.001979049
211	0x3e2e167b	0.17000763
212	0xbde61101	-0.11233712
213	0x3e17038a	0.14747444
214	0x3e07e4e2	0.13270906
215	0xbd70a892	-0.05875451
216	0x3e03bb05	0.12864311
217	0x3c533d3c	0.012893017
218	0xbd8869db	-0.06660815
219	0x3e6ebc9a	0.23314133
220	0x3c58a1e9	0.013222196
221	0x3de5b580	0.11216259
222	0xbd205328	-0.039141804
223	0x3d6dd202	0.058061607
224	0x3d6bc6d4	0.057562664
225	0x3e112a92	0.14176396
226	0xbe2bc000	-0.16772461
227	0xbd9b83a3	-0.07593467
228	0xbe4ecdf0	-0.20195746
229	0xbe879c9f	-0.2648668
230	0xbe5427f3	-0.20718364
231	0xbde4a06a	-0.11163409
232	0xbcf430cf	-0.02980843
233	0xbe4bd2e9	-0.19904675
234	0x3cef6ae3	0.029225772
235	0x3d6c792f	0.057732757
236	0xbda021cb	-0.078189455
237	0xbe963342	-0.29335982
238	0xbe7ff825	-0.24997003
239	0x3d9ed84f	0.07756101
240	0x3d2301a7	0.039796498
241	0xbde72ad0	-0.11287463
242	0xbdac3c95	-0.084099926
243	0x3e3f3b50	0.1867497
244	0xbe420007	-0.18945323
245	0xbe286204	-0.1644364
246	0x3ddf7626	0.10911207
247	0x3d9c65b6	0.07636587
248	0xbca29cd8	-0.01985018
249	0xbe805a57	-0.25068924
250	0xbe514403	-0.204361
251	0x3e9c14cf	0.30484626
252	0x3dcf663a	0.1012692
253	0x3e13295e	0.14371249
254	0xbceb1420	-0.02869612
255	0xbd9d983f	-0.07695054

bias f4 [32]
0	0xbb1e3862	-0.0024142493
1	0x3dc97dee	0.09838472
2	0xbe354b59	-0.17704524
3	0x3e85634d	0.26052323
4	0xbe229fe5	-0.15881307
5	0xbdf6b960	-0.12047076
6	0x3e0280e3	0.12744479
7	0xbc96878e	-0.018375184
8	0x3e24420e	0.16040823
9	0x3e17e45f	0.1483321
10	0x3dde35c7	0.10850101
11	0xbda54050	-0.08068907
12	0x3e98ffc9	0.2988265
13	0xbe1dc45f	-0.15406941
14	0xbda9dde5	-0.08294276
15	0x3e56c8e5	0.20975073
16	0xbdbde6b1	-0.092725165
17	0x3e4bcaa0	0.19901514
18	0x3dd2b73e	0.10288857
19	0x3da56d5e	0.08077501
20	0xbcd51243	-0.026009684
21	0xbd90a6c1	-0.07063056
22	0x3d2eee94	0.042707995
23	0x3db85158	0.0899989
24	0xbb0066bb	-0.0019592482
25	0x3dd16eb5	0.10226194
26	0xbde69767	-0.112593465
27	0x3cf8de30	0.030379385
28	0x3d085230	0.033281505
29	0x3df22e35	0.118252195
30	0x3e917ab4	0.28413928
31	0x3d726b76	0.059184514

weight f4 [32, 32]
0	0x3e4595f9	0.19295491
1	0x3e0186b1	0.12649037
2	0xbe5d8214	-0.21631652
3	0x3d63ae1b	0.05558596
4	0x3e019aa3	0.12656645
5	0x3e3d9746	0.18514737
6	0xbe7c7a35	-0.24655993
7	0x3d1f480e	0.038887076
8	0x3c8fb9a0	0.017544568
9	0x3cfade4b	0.030623576
10	0x3e9c4f8c	0.3052944
11	0xbc49e708	-0.012323149
12	0x3d5fdde9	0.05465499
13	0x3d98e2b8	0.07465118
14	0x3ce615b8	0.028086528
15	0x3e960a2c	0.29304636
16	0xbe4ae375	-0.1981333
17	0x3c299020	0.0103493035
18	0xbe088e6d	-0.13335581
19	0xbe5505a9	-0.2080294
20	0xbd724753	-0.05915005
21	0xbe4af6a3	-0.19820647
22	0xbd04bdc2	-0.03240753
23	0x3e1aae61	0.15105583
24	0x3e6ba60e	0.23012564
25	0xbe2ff072	-0.17181566
26	0xbd666f5a	-0.056258537
27	0xbdce8dad	-0.10085616
28	0x3cc756d6	0.024333399
29	0xbe4bd5eb	-0.19905822
30	0x3d424d71	0.047437135
31	0xbdedc4ee	-0.11609827
32	0x3cf036b6	0.029322963
33	0xbd2fe131	-0.04293937
34	0xbe11eb86	-0.14250001
35	0x3e5ceff5	0.21575911
36	0x3ce8a322	0.0283981
37	0x3e1a3397	0.15058742
38	0x3dfb4452	0.122688904
39	0x3d8dcbaf	0.06923615
40	0x3e277dce	0.16356584
41	0xbdd12baa	-0.102134064
42	0x3da53d2b	0.080683075
43	0x3d1efd7d	0.038815964
44	0x3c51ce6f	0.012805565
45	0xbda918b1	-0.08256663
46	0x3dc19069	0.09451372
47	0xbea3070c	-0.31841314
48	0xbdfaeb21	-0.122518785
49	0x3e7d8822	0.24758962
50	0xbc7e95bf	-0.015538632
51	0x3d425b32	0.047450252
52	0xbdb56be7	-0.08858471
53	0xbdd9c1eb	-0.1063269
54	0xbd0e5e5f	-0.034757968
55	0x3e4afd92	0.19823292
56	0xbdcd23df	-0.100166075
57	0x3dc6bbbc	0.09703776
58	0xbdf8a11c	-0.12140104
59	0x3e29a659	0.16567363
60	0x3c5abe79	0.013351076
61	0xbc40f348	-0.011776753
62	0x3d8735ef	0.06602084
63	0xbd5f080d	-0.054451037
64	0xbe341def	-0.17589544
65	0x3c0b6f78	0.008510463
66	0xbe695bcc	-0.22788924
67	0x3e686dc4	0.22698122
68	0x3d880a16	0.06642549
69	0x3dc019ed	0.09379945
70	0x3e0923fb	0.13392632
71	0x3d55467e	0.05206918
72	0xbdb25a84	-0.08708671
73	0x3b6cd6c4	0.0036138752
74	0xbddd3015	-0.108001865
75	0x3d06ba9e	0.032892816
76	0xbda6cc4f	-0.081444375
77	0x3e09bd02	0.13451007
78	0xbdef8d76	-0.116969034
79	0xbd991f42	-0.07476665
80	0x3d1dde38	0.038542002
81	0x3e825125	0.25452533
82	0xbd426c18	-0.047466367
83	0x3e7ea1a1	0.24866344
84	0xbe2ac43a	-0.16676417
85	0xbe9dcb2e	-0.30819076
86	0x3e2127ba	0.1573781
87	0xbbc5a77f	-0.00603193
88	0xbc28df05	-0.010307078
89	0x3c062314	0.008187074
90	0xbd9ff03e	-0.078094944
91	0xbccfba3c	-0.025357358
92	0xbe3f17ca	-0.18661419
93	0xbe3ea55d	-0.18617769
94	0x3e4274e7	0.18989907
95	0xbddd6006	-0.10809331
96	0x3e1b3b9f	0.15159462
97	0x3e1cce62	0.15313104
98	0x3f0f1887	0.558968
99	0x3d3b6a32	0.045755573
100	0xbe1cbabb	-0.15305607
101	0xbd9720ac	-0.073792785
102	0xbe7616f6	-0.24032196
103	0xbe413e0e	-0.18871328
104	0xbe7527ae	-0.23940918
105	0xbe37214c	-0.17883795
106	0xbe68878a	-0.22707954
107	0xbe7a6a44	-0.244546
108	0xbd6cb889	-0.057793174
109	0x3dd13630	0.102154136
110	0x3dbdd5ad	0.09269271
111	0x3e690d52	0.22758988
112	0x3e67e3d8	0.22645509
113	0xbe26049b	-0.16212694
114	0xbdf9a0a6	-0.121888444
115	0xbe3dcd8f	-0.18535446
116	0x3e0a0c37	0.13481222
117	0x3c0b2863	0.008493516
118	0xbec7b862	-0.3900786
119	0x3d95938a	0.073035315
120	0xbd8c9498	-0.068642795
121	0x3d569f35	0.052397925
122	0xbe55c672	-0.20876482
123	0x3e356657	0.17714821
124	0xbdc05bc2	-0.093925014
125	0x3e3c604b	0.18396108
126	0x3e26861c	0.16262096
127	0xbc8a5b09	-0.016889112
128	0x3e8a399b	0.26997074
129	0x3e0a93ba	0.13532916
130	0x3e92bab1	0.2865806
131	0x3dac6f31	0.084196456
132	0xbd90a7eb	-0.07063278
133	0xbd987045	-0.07443289
134	0x3e0f9d99	0.14024962
135	0xbd7686dc	-0.060187206
136	0xbd1ad626	-0.037801884
137	0x3c7295bd	0.014806208
138	0x3e11f371	0.14253022
139	0xbe7dc36c	-0.24781579
140	0xbd5b8738	-0.05359575
141	0x3ea54730	0.32280874
142	0x3e5657ee	0.2093198
143	0x3dbc70e6	0.09201221
144	0xbda5a066	-0.08087234
145	0xbe102e2e	-0.14080116
146	0xbe7aa7e3	-0.24478106
147	0xbe2b4826	-0.16726741
148	0xbda294f5	-0.079385675
149	0x3e2b41b5	0.16724284
150	0xbe24e584	-0.16103178
151	0xbc470ec9	-0.012149521
152	0x3c72631b	0.014794136
153	0xbd90b886	-0.07066445
154	0x3d702805	0.058631916
155	0x3e984ab6	0.297445
156	0x3e73ead6	0.23820052
157	0x3d2cc447	0.042179372
158	0x3e759253	0.239816
159	0x39adccd1	0.00033149731
160	0xbdadf192	-0.084933415
161	0xbd83f7fb	-0.06443783
162	0x3cbe77a7	0.023250414
163	0x3d5d45ab	0.05402152
164	0x3e753278	0.23945034
165	0x3e46b15c	0.19403595
166	0xba1e8bf6	-0.00060480775
167	0x3d3723be	0.04471182
168	0xbde23aa9	-0.11046345
169	0x3d519ad0	0.05117303
170	0x3d95b4cb	0.07309874
171	0x3e248ea6	0.16070041
172	0xbd601f6b	-0.054717463
173	0xbcb807fc	-0.022464745
174	0xbccdff67	-0.0251462
175	0x3d83c2cc	0.06433639
176	0xbdf88e24	-0.12136486
177	0x3e8c7020	0.27429295
178	0x3dc6dd6e	0.09710203
179	0x3e3af247	0.18256484
180	0xbe2f4b8b	-0.17118661
181	0xbe3d4d8d	-0.18486615
182	0x3e19263f	0.14955996
183	0xbd350501	-0.044194225
184	0xbd7ccf6a	-0.061721243
185	0xbe09254f	-0.13393138
186	0xbe0d6f8e	-0.13812086
187	0x3d1e9053	0.038711857
188	0xbc414c8f	-0.011798038
189	0xbe116492	-0.14198521
190	0x3e09dedc	0.1346392
191	0x3d262b37	0.040568557
192	0x3d50ce99	0.050978277
193	0x3c4a5b93	0.012350935
194	0xbe34cb1c	-0.17655605
195	0xbe0e890f	-0.13919471
196	0xbd4aaab6	-0.04947921
197	0xbd952a38	-0.07283443
198	0xbceed8a3	-0.029156035
199	0xbe07736e	-0.13227627
200	0xbe29fea9	-0.16601051
201	0xbdbfdf71	-0.0936879
202	0xbdfd3818	-0.12364215
203	0xbd4bbbf3	-0.04973979
204	0xbe1ebd73	-0.15501957
205	0xbe2231e6	-0.15839347
206	0xbdd27e74	-0.10278025
207	0xbe0cc057	-0.13745247
208	0x3d9f1e98	0.07769507
209	0x3d3fd521	0.046834115
210	0xbdc15bdd	-0.0944135
211	0xbdd0c4a3	-0.101937555
212	0xbd85a068	-0.06524736
213	0xbe250db0	-0.16118503
214	0x3db43dae	0.08800827
215	0xbb8ec356	-0.004356782
216	0xbe30cfd8	-0.17266786
217	0x3d1dd4dd	0.03853308
218	0xbe2f4403	-0.17115788
219	0xbdad7a41	-0.08470584
220	0x3b477a70	0.0030437969
221	0xbdc66191	-0.09686578
222	0xbc36090e	-0.011110557
223	0xbd12f0e0	-0.035874248
224	0x3c215509	0.009846934
225	0x3e38f49a	0.18062058
226	0xbd26f01a	-0.040756322
227	0xbca2fef2	-0.019896958
228	0x3dc024fd	0.09382055
229	0x3e4607d7	0.19338928
230	0xbebb39fa	-0.3656767
231	0xbdeae506	-0.11469464
232	0x3e275900	0.16342545
233	0xbd76e059	-0.06027255
234	0x3e4e82b2	0.20167044
235	0x3dc9a396	0.09845655
236	0xbd1e3722	-0.038626797
237	0xbdb4cbae	-0.08827911
238	0xbab97b5e	-0.0014151146
239	0x3e7a2b2a	0.24430528
240	0x3de1257d	0.109934784
241	0x3d32096a	0.04346601
242	0xbe34c826	-0.17654476
243	0x3e0bc392	0.13648823
244	0xbdc08ae6	-0.09401493
245	0x3c8ecc48	0.017431393
246	0xb98bd9d7	-0.0002667445
247	0xbcf59591	-0.029978545
248	0x3e44d2a1	0.19220974
249	0x3dec9091	0.11551011
250	0x3dcdd0e2	0.10049607
251	0x3d626c42	0.055279024
252	0xbd9ff00f	-0.078094594
253	0x3dcb73cc	0.09934196
254	0xbe7d39a2	-0.24729016
255	0x3dd7e9aa	0.10542615

bias f4 [32]
0	0xbd359107	-0.044327762
1	0x3e517497	0.20454632
2	0x3d4b7989	0.04967645
3	0x3e061a79	0.13096036
4	0xbe0298d8	-0.12753618
5	0x3e6d4cbc	0.23173803
6	0xbc35a231	-0.011086033
7	0xbccd4b8f	-0.025060443
8	0xbe07d2f1	-0.13264062
9	0x3cc293c4	0.0237521
10	0x3e824067	0.2543976
11	0xbc89520e	-0.01676276
12	0xbd66da63	-0.056360614
13	0x3e4bc79c	0.19900364
14	0x3d11df3d	0.035613287
15	0xbe0b84dd	-0.13624902
16	0x3db72e34	0.089443594
17	0xbd952274	-0.07281962
18	0xbe0074e7	-0.12544595
19	0x3e09fad3	0.13474588
20	0x3e4eca47	0.2019435
21	0xbd094dc8	-0.033521444
22	0x3dbdf6a2	0.09275557
23	0xbe2dc168	-0.1696831
24	0xbe390412	-0.18067959
25	0x3d9d5726	0.07682638
26	0xbd424499	-0.0474287
27	0x3e0efad8	0.13962877
28	0xbd97ec53	-0.07418122
29	0x3e67a059	0.22619762
30	0x3e26b3c4	0.16279513
31	0xbe3a92e3	-0.18220095

weight f4 [32, 32]
0	0xbe372db9	-0.17888536
1	0x3e022d7f	0.12712668
2	0x3ded4d9c	0.115870684
3	0xbe05f21f	-0.13080643
4	0xbe05e2a3	-0.13074736
5	0x3e15de0a	0.14635482
6	0x3dce2255	0.10065142
7	0xb8295fe9	-4.0382063e-05
8	0x3e4894a8	0.19587958
9	0x3c1fda41	0.009756626
10	0xbdb105fa	-0.08643718
11	0xbd9914ac	-0.07474646
12	0xbe9298cc	-0.286322
13	0x3e294a2d	0.16532202
14	0x3dac4864	0.08412245
15	0xbdbe9606	-0.093059584
16	0x3d4703bf	0.048587557
17	0x3bac18ca	0.0052519785
18	0xbc960978	-0.018315062
19	0x3df741a8	0.1207307
20	0xbde8d982	-0.11369611
21	0xbdfc0f99	-0.123076625
22	0x3d3a34d0	0.045460522
23	0x3d7bec1e	0.061504476
24	0xbe095afb	-0.13413613
25	0x3c8146aa	0.015780766
26	0xbe38b649	-0.18038286
27	0xbdc3f696	-0.09568517
28	0xbbf64ec2	-0.007516713
29	0x3e08449b	0.13307421
30	0xbe57d71c	-0.21078151
31	0x3bf880ec	0.007583728
32	0xbe857381	-0.26064685
33	0x3e24e61d	0.16103406
34	0x3d7f8e84	0.062391773
35	0xbd151f29	-0.03640667
36	0xbec760b1	-0.38940957
37	0x3e5676f5	0.20943816
38	0x3e0296a1	0.12752773
39	0x3c4c16ca	0.012456605
40	0x3ea437d8	0.32073855
41	0xbd29b3ed	-0.041431356
42	0x3db8bfdc	0.09020969
43	0xbe8f59ed	-0.27998295
44	0xbeabd9e6	-0.3356468
45	0x3e238378	0.1596812
46	0xbcc04aef	-0.023473231
47	0xbdcea851	-0.100906976
48	0xbc91b4e4	-0.01778645
49	0x3eca3415	0.3949286
50	0xbcd5236d	-0.026017869
51	0x3e1d159f	0.15340279
52	0xbdce4545	-0.10071806
53	0x3d0f47b1	0.03498048
54	0x3d39569b	0.04524861
55	0xbec17817	-0.37786934
56	0xbe1f73df	-0.15571545
57	0xbe2aacfb	-0.1666755
58	0xbe4ab1c1	-0.1979437
59	0x3e1be147	0.15222655
60	0x3d509080	0.050919056
61	0x3e5287ac	0.20559567
62	0xbe199040	-0.14996433
63	0xbde507c6	-0.11183123
64	0xbe854119	-0.26026228
65	0x3dadc73a	0.08485265
66	0xbe9997c8	-0.29998612
67	0x3eec339f	0.46133134
68	0x3e8b7077	0.2723424
69	0xbe75c187	-0.23999606
70	0xbd04fed8	-0.0324696
71	0xbde33614	-0.11094299
72	0xbd057c6d	-0.032589365
73	0xbe23dd3d	-0.16002364
74	0xbe64bec2	-0.22338393
75	0x3ef54ce3	0.47910222
76	0x3e9958d2	0.29950577
77	0xbd9b89a7	-0.075946145
78	0xbe665d09	-0.22496428
79	0xbdffef2a	-0.12496789
80	0x3ea1c581	0.31595996
81	0xbe81ae6c	-0.25328386
82	0x3df4e28c	0.11957273
83	0x3e0eee3f	0.13958071
84	0x3df24cb2	0.11831035
85	0x3e187413	0.14888029
86	0xbe96107a	-0.29309446
87	0x3eaa4070	0.33252287
88	0xbea4c7bd	-0.32183638
89	0x3ee35ffc	0.44409168
90	0x3ec3585e	0.38153356
91	0xbe03a152	-0.12854508
92	0xbef120c0	-0.470953
93	0xbe6e624b	-0.23279683
94	0x3e5e3a86	0.21702012
95	0x3ed5bd69	0.4174607
96	0x3c6c0ccd	0.014407349
97	0xbe246c84	-0.1605702
98	0xbe839458	-0.25699115
99	0x3e922905	0.2854692
100	0x3e864ffd	0.262329
101	0xbe8556e1	-0.26042846
102	0xbdbe5cfd	-0.0929508
103	0xbe5c7190	-0.21527696
104	0xbe74d937	-0.23910986
105	0xbe3d98cb	-0.18515317
106	0xbda55db0	-0.0807451
107	0x3ed56d82	0.4168511
108	0x3ed7c36c	0.42141283
109	0xbcd85e53	-0.026412165
110	0x3c19a9ac	0.009378832
111	0x3d524d27	0.05134311
112	0x3e89853b	0.2685946
113	0xbf0dbf7b	-0.553703
114	0xbe5f2cc1	-0.21794416
115	0xbe25af93	-0.16180257
116	0x3ec012d2	0.3751436
117	0x3cbafbf9	0.022825228
118	0xbe7d2771	-0.24722077
119	0x3ee0debe	0.4391994
120	0xbc01c572	-0.00792061
121	0x3f05d647	0.52280086
122	0x3ddefac6	0.10887675
123	0xbdf02d1b	-0.11727353
124	0xbee137aa	-0.4398778
125	0x3d9e74af	0.077370994
126	0x3ebc7b00	0.36812592
127	0x3ee9a117	0.45630714
128	0xbdce5ff5	-0.10076896
129	0xbd881dc1	-0.066463
130	0xbd92f851	-0.07176269
131	0x3f0cd502	0.55012524
132	0x3e86a53c	0.2629794
133	0xbe8fc37f	-0.2807884
134	0xbe03d064	-0.12872463
135	0xbd31847e	-0.043339245
136	0xbe9ffc14	-0.31247008
137	0xbea36863	-0.31915578
138	0xbdfc9756	-0.123335525
139	0x3ed941b0	0.42432928
140	0x3e952814	0.2913214
141	0x3cd78536	0.026308637
142	0xbdee9ec7	-0.11651378
143	0x3d751821	0.059837464
144	0x3d65b495	0.05608042
145	0xbeae5546	-0.34049433
146	0x3c97d5d5	0.01853458
147	0xbcd1601d	-0.025558526
148	0x3e4179a8	0.18894064
149	0xbe1cf572	-0.15328005
150	0xbdef00f6	-0.11670105
151	0x3ec95920	0.3932581
152	0xbe59583c	-0.21225065
153	0x3eeb8edc	0.4600743
154	0x3ea98469	0.33108833
155	0xbde30270	-0.11084449
156	0xbebd5d15	-0.36985078
157	0x3d72120a	0.059099235
158	0x3e224170	0.15845275
159	0x3e54da5e	0.20786425
160	0xbe2aa492	-0.16664341
161	0xbdfac295	-0.12244145
162	0x3e0d51c3	0.13800721
163	0xbdbedf8a	-0.093199804
164	0xbdb0abe7	-0.08626538
165	0x3d9d8052	0.07690491
166	0x3c87baa8	0.016568497
167	0x3dd1be1e	0.1024134
168	0xbcc4c219	-0.024018334
169	0x3dd3612b	0.10321268
170	0xbdd99bcc	-0.10625419
171	0xbd9c14e9	-0.07621176
172	0xbe7aa6d4	-0.24477702
173	0x3d707326	0.058703564
174	0x3e343d3c	0.17601484
175	0x3e2d50e7	0.16925393
176	0xbdcd35ea	-0.10020049
177	0x3d01b40c	0.031665847
178	0xbc06ac2a	-0.008219758
179	0x3d3905a9	0.045171414
180	0x3e482b82	0.19547847
181	0xbe57b9d7	-0.21066986
182	0xbe0a4e53	-0.13506441
183	0xbe38d4ca	-0.18049923
184	0x3c8ca327	0.01716764
185	0xbda65637	-0.08121913
186	0x3e3ec0f0	0.18628287
187	0xbe03f788	-0.12887394
188	0x3d932866	0.0718544
189	0xbd6bc4b5	-0.05756064
190	0xbd11fa49	-0.03563908
191	0x3b0fd85e	0.0021949033
192	0xbd462079	-0.048370812
193	0xbcbc56ce	-0.02299061
194	0x3cfd838f	0.030946521
195	0xbe1045e0	-0.14089155
196	0xbe94cb0b	-0.2906116
197	0x3e253c29	0.1613623
198	0xbccadc95	-0.024763385
199	0x3cd6d968	0.026226714
200	0x3d700d23	0.05860628
201	0xbe4b8d86	-0.19878206
202	0x3e3f4b7e	0.18681142
203	0xbd02d49d	-0.031941045
204	0xbe774e32	-0.24150923
205	0x3e407656	0.18795142
206	0xbdc685f3	-0.096935175
207	0xbc23d5e1	-0.009999723
208	0xbdea1765	-0.114302434
209	0x3d3af77a	0.04564617
210	0xbda867d2	-0.08222927
211	0xbe0707b3	-0.13186531
212	0xbdf5a59f	-0.1199448
213	0x3deff30a	0.11716278
214	0x3c96d3b1	0.01841149
215	0x3e0fc130	0.14038539
216	0xbcb5967d	-0.022166485
217	0xbd662346	-0.056185983
218	0xbd94a4e5	-0.07258014
219	0xbd64a3d3	-0.055820297
220	0x3c83ea42	0.016102914
221	0x3df58e52	0.11990036
222	0xbd26b230	-0.040697277
223	0xbe1552e0	-0.14582396
224	0xbc11b0ea	-0.008892277
225	0x3dda817f	0.10669231
226	0xbdb7ba31	-0.0897106
227	0xbe068e5d	-0.13140245
228	0xbdf744a9	-0.12073643
229	0xbe3694df	-0.17830227
230	0x3cdc5759	0.02689712
231	0x3c0488c4	0.008089248
232	0xbdd96636	-0.10615198
233	0x3e812dd1	0.25230268
234	0xbe0668b9	-0.13125886
235	0xbdfdf040	-0.1239934
236	0x3b871cc1	0.004123301
237	0xbdf6ce31	-0.12051047
238	0x3eb307a2	0.3496676
239	0x3d7161cf	0.05893117
240	0xbe3e3bd4	-0.1857751
241	0x3dedd94c	0.11613712
242	0xbcd61b77	-0.026136143
243	0x3cdd5f16	0.02702288
244	0x3e06fe8e	0.13183042
245	0xbb9610d6	-0.0045796437
246	0xbe14540d	-0.14485188
247	0x3d8a9a27	0.067676835
248	0x3dcace0f	0.09902584
249	0xbb64e7ce	-0.0034928205
250	0x3e819665	0.25310054
251	0x3da2162f	0.079143874
252	0xbc8b0d8e	-0.016974237
253	0xbdc3385b	-0.09532233
254	0xbcefdbf3	-0.029279685
255	0xbda1c9b9	-0.07899804

bias f4 [32]
0	0xbe02591c	-0.12729305
1	0x3e158d9d	0.14604802
2	0xbc40a93f	-0.011759101
3	0x3d7f437a	0.06232021
4	0xbd8171e0	-0.06320548
5	0xbd9639d6	-0.0733525
6	0x3de81fad	0.11334167
7	0xbd53be45	-0.051695127
8	0x3dd8ff96	0.10595624
9	0xbe0528f8	-0.1300391
10	0x3e01916e	0.12653133
11	0x3ddc79d8	0.10765427
12	0x3e1850f4	0.14874631
13	0xbe4d49ff	-0.20047759
14	0xbdcb252e	-0.09919201
15	0x3d61b0d3	0.055100273
16	0x3ddbf0c6	0.10739283
17	0x3e3e847b	0.18605225
18	0xbe116cf2	-0.14201716
19	0xbc4d0d8d	-0.012515438
20	0x3d8bbbf2	0.06822957
21	0x3e17252c	0.14760274
22	0x3e3dae3b	0.18523495
23	0xbe1e28c1	-0.15445234
24	0x3e464cff	0.19365309
25	0x3deec1ad	0.116580345
26	0xbd601bcf	-0.05471402
27	0x3dc96b98	0.09834975
28	0x3e12efba	0.14349261
29	0xbd0555dc	-0.032552585
30	0x3df7b558	0.120951355
31	0x3e6c2277	0.23060022

weight f4 [32, 32]
0	0x3db75823	0.089523576
1	0xbd2a786e	-0.041618757
2	0x3d8eda27	0.06975203
3	0x3d4b19e8	0.049585253
4	0xbc34d668	-0.011037447
5	0xbd4c219a	-0.049836732
6	0xbc994e3f	-0.018714068
7	0xbd36c986	-0.04462578
8	0x3c9a1672	0.01880953
9	0x3c8b4325	0.01699979
10	0xbd31a479	-0.043369744
11	0xbd585690	-0.052816927
12	0xbce7146b	-0.028207978
13	0x3d0ca046	0.034332536
14	0xbbae46a4	-0.0053184796
15	0xbc1d98de	-0.009618966
16	0x3d4e9ac2	0.050440557
17	0xbd845f13	-0.064634465
18	0xbc84434c	-0.01614537
19	0x3d103b5e	0.035212867
20	0xb9de75d4	-0.00042430928
21	0xbd269e8c	-0.040678546
22	0xbddbe2ef	-0.107366435
23	0x3d09f708	0.033682853
24	0xbc5ea0b5	-0.01358812
25	0x3d58d28d	0.052935172
26	0x3ab9359e	0.0014130359
27	0xbc0439cb	-0.00807042
28	0x3c1625b4	0.009164263
29	0x3ae522a0	0.0017481633
30	0xbdb48ad4	-0.08815542
31	0x3d52bd3c	0.05145
32	0x3b7f9134	0.003899646
33	0x3d1da1f9	0.038484547
34	0x3d25b810	0.04045874
35	0x3d9c6769	0.076369114
36	0xbd4045d7	-0.046941604
37	0x3a181524	0.000580149
38	0x3c262060	0.010139555
39	0x3d75352c	0.05986516
40	0xbd2b9c45	-0.041897077
41	0x3d3f6a28	0.046732098
42	0xbdb78b89	-0.08962161
43	0xbd23b587	-0.03996804
44	0x3db393e2	0.08768441
45	0x3c60ba87	0.013716347
46	0xbcf420c8	-0.029800788
47	0xbd096aef	-0.033549245
48	0x3dc3a08c	0.09552106
49	0x39669c0d	0.00021992643
50	0x3b8770d8	0.004133325
51	0xbd054f0b	-0.032546084
52	0x3d57eb92	0.05271489
53	0xbdf757d5	-0.120772995
54	0xbdba2629	-0.0908931
55	0x3dab4c07	0.083641104
56	0x3daee560	0.085398436
57	0xbd17a712	-0.037024565
58	0x3c12a9c7	0.008951611
59	0x3d8e864c	0.06959209
60	0xbccfd752	-0.025371227
61	0x3c91451b	0.017733147
62	0xbc185c71	-0.0092993835
63	0x3d815a09	0.06316001
64	0x3d7a1fba	0.061065413
65	0x3dc955f1	0.09830845
66	0xbc1e4da6	-0.0096620675
67	0xbd29ff24	-0.041503087
68	0xbd3b5eec	-0.04574482
69	0xbd2e5e62	-0.04257048
70	0x3c859d49	0.016310351
71	0xbda60e96	-0.08108251
72	0x3db2dbdf	0.08733343
73	0x3bd2b63a	0.0064304145
74	0x3c15e528	0.009148873
75	0xbd05a1ee	-0.03262513
76	0x3d5f3a06	0.054498695
77	0x3cd01fab	0.025405725
78	0x3ca4761a	0.020075846
79	0xbcde70ea	-0.027153451
80	0x3cb18ef5	0.021674613
81	0xbcdcf344	-0.026971467
82	0x3c43c58a	0.011948952
83	0xbd0f9c7e	-0.035061352
84	0xbd56b84a	-0.052421845
85	0xbd665fe9	-0.05624381
86	0xbd693314	-0.056933478
87	0x3db0453d	0.08606956
88	0xbd1ffa94	-0.03905733
89	0x3d325816	0.043541037
90	0xbcf1e66a	-0.029528815
91	0x3b668f46	0.0035180612
92	0xbd078cec	-0.033093378
93	0xbc715971	-0.014730797
94	0xbd0a9cbe	-0.033840887
95	0x3d4f65ed	0.050634313
96	0x3cf9135d	0.030404741
97	0x3cb3e54e	0.021959927
98	0x3cc0ccf1	0.023535224
99	0xbc88067e	-0.016604658
100	0x3c9bcb80	0.019017935
101	0xbd0b6a3e	-0.034036867
102	0x3d3879f1	0.045038167
103	0xbd4e82a9	-0.050417576
104	0x3d8dff6b	0.06933483
105	0xbcedf519	-0.029047536
106	0x3cf0b254	0.029381908
107	0xbd10070b	-0.035162967
108	0xbd122915	-0.03568371
109	0x3da5c232	0.080936804
110	0xbd2a485c	-0.041572914
111	0x3cfefae0	0.031125486
112	0xbd5856ed	-0.052817274
113	0xbc43a491	-0.011941091
114	0x3d8839e2	0.06651665
115	0xbd14a52f	-0.036290344
116	0xbd400dec	-0.046888277
117	0xbcb3831a	-0.0219131
118	0xbbb964b5	-0.005657757
119	0x3d89b1ea	0.067233875
120	0xbd50a50b	-0.050938647
121	0xbd833c77	-0.06408017
122	0x3cb99448	0.022653714
123	0x3cbcb4bb	0.023035398
124	0xbc3769d2	-0.011194663
125	0x3d1dc69a	0.03851948
126	0xbd263b56	-0.04058393
127	0x3d120c1c	0.03565608
128	0x3d3e72b0	0.046496093
129	0x3d5ae68a	0.053442515
130	0x3d79d28e	0.060991816
131	0x3d3d6665	0.04624023
132	0xbc61abb1	-0.013773845
133	0xbc9279b6	-0.017880302
134	0x3c61b031	0.013774917
135	0xbc7155c9	-0.014729925
136	0xbcb367a7	-0.021900011
137	0x3cc6664d	0.024218703
138	0xbd943df3	-0.072383784
139	0x3c24d788	0.010061152
140	0xbd2eb8be	-0.042656653
141	0xbd419b3c	-0.047267184
142	0xbd477a3e	-0.048700564
143	0x3d8a0307	0.06738859
144	0x3d9f2c57	0.07772129
145	0x3c353473	0.011059868
146	0xbd217bde	-0.03942477
147	0x3b9bd20c	0.004755264
148	0xbdcb4f6e	-0.099272594
149	0xbbf92546	-0.0076033203
150	0xbcfc30b0	-0.030784935
151	0x3c89539c	0.0167635
152	0xbd073922	-0.03301347
153	0x3d963bb3	0.073356055
154	0x3cf2bf00	0.029632092
155	0xbd0daaaa	-0.034586586
156	0x3d927a89	0.07152278
157	0xbdbb2994	-0.0913879
158	0xbdce56a9	-0.10075123
159	0x3d9ea532	0.07746352
160	0x3c3cde77	0.011527649
161	0xbcf711a0	-0.030159771
162	0xbc51da0c	-0.012808334
163	0xbc337625	-0.010953461
164	0xbcac782e	-0.0210534
165	0x3dcdf18c	0.10055837
166	0x3b8b7b42	0.004256637
167	0x3b72e646	0.0037063523
168	0xbca5ce56	-0.02023999
169	0xbcc1abf4	-0.023641564
170	0xbd55dd8b	-0.052213233
171	0x3d066b4f	0.03281718
172	0x3b4479be	0.002997979
173	0x3cc249fe	0.023716923
174	0xbd69fef3	-0.057127904
175	0xbd8aaa7b	-0.06770798
176	0xbd1aa6f8	-0.03775689
177	0x3a2fcaa5	0.00067059166
178	0x3d0581ca	0.03259448
179	0x3cd34cb7	0.025793416
180	0xbd34d7d4	-0.044151142
181	0x3ad2b66a	0.0016076092
182	0xbc02bfe9	-0.007980325
183	0xbd1bfdbe	-0.038083784
184	0x3d5a6f2a	0.05332867
185	0xbca94da3	-0.020666903
186	0xbc9aa13b	-0.018875709
187	0x3d86357b	0.06553169
188	0xbda26ed8	-0.07931298
189	0xbcc3f101	-0.02391863
190	0x3cdaa766	0.02669115
191	0x3be9bd3c	0.007133154
192	0xbd2dd45a	-0.042438842
193	0x3d7b6249	0.06137303
194	0x3d362fe9	0.044479284
195	0xbd0ed214	-0.034868315
196	0xbda1a0d4	-0.07892004
197	0x3b37e07c	0.0028057387
198	0x3c572a48	0.013132639
199	0xbd341ee9	-0.04397479
200	0x3dc11278	0.09427351
201	0x3d75795b	0.059930187
202	0x3bf2bbea	0.007407655
203	0xbcc8f1ad	-0.024529302
204	0x3d8b1c96	0.06792562
205	0x3cf0cbf8	0.029394135
206	0x3d351f73	0.044219445
207	0xbda7ec59	-0.081993766
208	0xbd28808d	-0.04113822
209	0xbc82d439	-0.015970336
210	0x3d966ac8	0.07344586
211	0xbbb8b71a	-0.005637062
212	0x3ca5381f	0.020168362
213	0xbb95b7ab	-0.004569014
214	0xbd2c1ae5	-0.042017836
215	0xbd33d66b	-0.043905657
216	0x3d088910	0.033333838
217	0xbcdb497a	-0.026768435
218	0x3bacabf9	0.005269524
219	0x3ced91da	0.029000212
220	0x3b4b7e6a	0.003105069
221	0xbcf47fa6	-0.029846024
222	0x3c93bdff	0.018034933
223	0x3b00ec85	0.0019672227
224	0xbd3e8367	-0.046512034
225	0x3be4399e	0.0069648763
226	0xbd2c2298	-0.04202518
227	0x3c6f9ba1	0.014624507
228	0xbd08f088	-0.033432513
229	0xbd7b798c	-0.061395213
230	0xbd533273	-0.051561784
231	0xbc8b0f5c	-0.016975097
232	0x3c295936	0.010336211
233	0xbc718738	-0.014741711
234	0x3db848c4	0.08998254
235	0xbd4dc0b0	-0.05023259
236	0x3cf75012	0.030189548
237	0x3a150939	0.0005685273
238	0x3d866b98	0.06563491
239	0xbc21648e	-0.009850634
240	0x3a9bf312	0.0011898002
241	0xbdb4cfd1	-0.088287
242	0xbda4ab7b	-0.0804052
243	0x3d42ab03	0.04752637
244	0x3cd6bff3	0.026214575
245	0xbd220d42	-0.039563425
246	0x3c8c08d2	0.01709405
247	0xbcf3f58c	-0.029780172
248	0x3d69ca56	0.05707773
249	0x3d37e082	0.04489184
250	0x3cacd522	0.021097723
251	0xbcfde85c	-0.030994587
252	0xbdc357d4	-0.09538236
253	0x3d08e044	0.033417
254	0x3ccccc11	0.02499965
255	0xbd654772	-0.05597634

bias f4 [32]
0	0xbdb1c87c	-0.086808175
1	0xbe92667e	-0.2859382
2	0xbe0bec09	-0.13664259
3	0xbe5f1c57	-0.21788155
4	0xbe2b9196	-0.16754755
5	0x3cdf85ac	0.02728542
6	0x3c6433ee	0.013928397
7	0x3d6b22c2	0.057406195
8	0xbe4dc69b	-0.20095293
9	0xbca7cd23	-0.020483559
10	0xbd6eb22b	-0.058275383
11	0xbe86897b	-0.26276764
12	0xbdf1f705	-0.11814693
13	0xbd162799	-0.036658857
14	0xbe20a791	-0.15688922
15	0xbdcecfb7	-0.10098212
16	0xbdfa2596	-0.122142
17	0xbe4f2916	-0.20230517
18	0xbcc670a9	-0.024223642
19	0xbde7c8a4	-0.11317566
20	0xbde311d0	-0.11087382
21	0xbe33ba09	-0.17551436
22	0xbda33280	-0.079686165
23	0xbccc1fbc	-0.024917476
24	0xbe1879ab	-0.14890163
25	0xbe82655b	-0.25467953
26	0x3d47a0a0	0.04873717
27	0xbcb67b10	-0.022275478
28	0xbe08fb16	-0.13377032
29	0xbe877e56	-0.26463574
30	0xbe446197	-0.19177853
31	0xbd9c5c17	-0.07634752
