serology/results_intermediate_encoders_2/models/5fold/priorDiscr_0.pt (torch, 11223 bytes, 5 tensors)

weight f4 [32, 32]
0.27673644 0.011344205 -0.028272284 -0.031582907 0.04357288 0.029328145 0.23587257 0.13431948
0.10394197 0.2257347 0.06592105 0.22911121 0.0005661945 0.18181711 0.17984433 0.27410573
0.13416058 0.14558722 0.14072567 0.3103806 0.17820698 0.1524848 0.29054067 0.29766145
0.05180484 0.24538429 0.2791823 0.0039449027 0.3118613 0.15696584 0.2832384 0.23592427
0.08055401 0.20508394 -0.15116097 -0.16252385 -0.1348169 0.23386571 0.24130765 -0.2979847
-0.06720062 0.1411845 0.05482154 -0.08281904 -0.14204206 0.07848546 -0.19581799 -0.12573671
0.142829 0.039487697 0.25658157 -0.11026859 0.102989376 -0.21783137 0.04673278 -0.13720886
-0.24871384 0.0018483863 -0.009504345 -0.1635204 0.333645 0.08909195 0.11591749 -0.2740533
-0.038705874 0.22617137 -0.31262752 0.03252848 -0.06346916 0.13537246 0.33311048 -0.20021233
-0.13349488 -0.05069924 -0.042373113 -0.03672412 -0.3644976 0.06614567 0.0010580566 -0.3437425
-0.11821797 -0.22200817 -0.08522501 -0.25563413 0.08771632 -0.003122407 -0.35530785 0.2021561
-0.26811674 0.311579 0.05024421 0.03825379 0.07989484 0.23946938 0.04705106 -0.04256416
0.0989157 0.097831786 0.03073528 0.09790413 0.073288634 0.16115505 0.20424858 0.2995621
0.13560654 0.21321204 0.12175746 0.094886765 0.12939316 0.04107105 0.10797662 0.12166121
0.053302888 0.20893656 0.036164653 0.3124376 0.24983215 0.0588159 0.24655502 -0.035214614
0.2157178 0.017700367 -0.010068964 0.29677147 -0.04000133 0.21903124 0.022288984 0.2805256
-0.2885251 0.10794117 0.04576827 0.1273077 -0.16304311 0.004915346 0.31372073 0.04563599
-0.23809792 -0.26658815 0.108907014 0.11924634 0.011597464 -0.16669422 -0.029834034 -0.14808218
-0.24710198 0.09799431 -0.14765525 0.21133602 0.01221264 0.21140039 -0.10714852 0.052131984
0.21971971 0.21882859 0.011164436 -0.3206832 -0.09178103 -0.18024683 -0.079164565 -0.098398864
-0.09715288 -0.008293812 0.14967048 0.16174473 0.20196487 -0.08706056 0.1921921 0.19116908
0.19123714 -0.19896236 0.06306513 0.071189195 0.0863475 -0.032107186 0.02476716 -0.04456957
0.17313176 0.008651874 0.14965679 0.15340678 0.0025379162 -0.01502402 -0.19833814 0.24592702
-0.1544338 0.26441017 0.1376539 0.08492773 0.1983829 0.2782182 0.20102017 0.14688846
0.25996792 0.09194878 0.06550819 0.07333407 0.1846589 0.19594838 0.2418379 0.26168153
0.24414967 0.26309574 0.23183553 -0.009109856 0.11498015 0.24702547 0.034920722 0.016893707
0.0016953801 0.18935397 0.18928227 0.24282598 0.022977227 0.1229135 -0.012112035 -0.025976805
0.10441995 0.049153116 0.13298076 0.14573088 0.18130614 0.23827608 -0.09255006 0.037478004
0.06793028 -0.12775494 0.2592222 0.040710304 -0.024834467 -0.19157487 -0.03434372 0.26654926
-0.036776077 0.22338003 0.043411028 0.13053386 -0.019303646 -0.14206114 -0.12326617 -0.25563148
-0.11800029 0.17677382 -0.1461631 0.2018195 0.23571391 -0.13595557 0.16221008 -0.08858931
-0.080830656 -0.10624178 -0.15401058 0.06835194 0.08889943 -0.22694448 -0.15582933 0.07089362
00000000: 66b0 8d3e 0bdd 393c 479b e7bc 145d 01bd
00000010: 7a79 323d 9441 f03c 9488 713e 0c8b 093e
00000020: 87df d43d ff26 673e 9e01 873d 219c 6a3e
00000030: ab6c 143a 442e 3a3e 1d29 383e 9657 8c3e
00000040: 6461 093e d114 153e 641a 103e 35ea 9e3e
00000050: e47b 363e fa24 1c3e bfc1 943e 1567 983e
00000060: 5031 543d 0546 7b3e fcf0 8e3e 3e44 813b
00000070: 49ac 9f3e a7bb 203e a004 913e 2296 713e
00000080: 80f9 a43d 8601 523e f1c9 1abe a76c 26be
00000090: 710d 0abe 7e7a 6f3e 5a19 773e 7391 98be
000000a0: 7ba0 89bd ab92 103e 8d8c 603d 079d a9bd
000000b0: 7973 11be fcbc a03d 8384 48be 20c1 00be
000000c0: c441 123e dabd 213d a95e 833e 80d4 e1bd
000000d0: 18ec d23d 300f 5fbe df6a 3f3d 7b80 0cbe
000000e0: d7ae 7ebe 8d45 f23a 1db8 1bbc e471 27be
000000f0: 84d3 aa3e d775 b63d 2666 ed3d b750 8cbe
00000100: 0d8a 1ebd 7899 673e b710 a0be 953c 053d
00000110: 1efc 81bd 149f 0a3e 758d aa3e 7604 4dbe
00000120: e2b2 08be 02aa 4fbd 6e8f 2dbd 086c 16bd
00000130: 6e9f babe 6277 873d 7dae 8a3a 04ff afbe
00000140: 431c f2bd 1c56 63be 738a aebd 7ae2 82be
00000150: 9da4 b33d 4ca1 4cbb e9ea b5be 0202 4f3e
00000160: 9946 89be 4887 9f3e dfcc 4d3d 02b0 1c3d
00000170: e89f a33d 7637 753e 9db8 403d c257 2ebd
00000180: 5194 ca3d 085c c83d 8ec8 fb3c f681 c83d
00000190: 5a18 963d d405 253e 8a26 513e 3460 993e
000001a0: 71dc 0a3e 4254 5a3e fa5b f93d fe53 c23d
000001b0: a47f 043e 1e3a 283d d922 dd3d 8329 f93d
000001c0: 2154 5a3d 77f3 553e 6321 143d d2f7 9f3e
000001d0: 00d4 7f3e f1e8 703d eb78 7c3e 333d 10bd
000001e0: 21e5 5c3e 5c00 913c 4cf8 24bc 6ef2 973e
000001f0: 6fd8 23bd ba49 603e 6397 b63c 0da1 8f3e
00000200: 90b9 93be 4310 dd3d 8277 3b3d f35c 023e
00000210: c6f4 26be e910 a13b 01a0 a03e ceec 3a3d
00000220: f1cf 73be 3e7e 88be a40a df3d 6d37 f43d
00000230: 4a03 3e3c e4b1 2abe 8166 f4bc dba2 17be
00000240: 4d08 7dbe 3eb1 c83d f032 17be 7868 583e
00000250: 8617 483c 5879 583e af70 dbbd 5988 553d
00000260: 34fe 603e 9a14 603e 0aeb 363c 9730 a4be
00000270: b1f7 bbbd a092 38be 0821 a2bd 5885 c9bd
00000280: 17f8 c6bd c5e2 07bc 3843 193e 69a0 253e
00000290: e1cf 4e3e cf4c b2bd 02ce 443e d4c1 433e
000002a0: abd3 433e cabc 4bbe 4a28 813d a4cb 913d
000002b0: f5d6 b03d d382 03bd 80e4 ca3c 958e 36bd
000002c0: 7449 313e 97c0 0d3c a13f 193e ab16 1d3e
000002d0: 2b53 263b 4f27 76bc 2719 4bbe 4bd4 7b3e
000002e0: e523 1ebe c560 873e 25f5 0c3e 97ee ad3d
000002f0: e324 4b3e 9e72 8e3e 3bd8 4d3e ee69 163e
00000300: 841a 853e a44f bc3d 2829 863d 2c30 963d
00000310: 3917 3d3e b1a6 483e 5ba4 773e 1ffb 853e
00000320: 5f02 7a3e 7cb4 863e 4b66 6d3e 8141 15bc
00000330: b67a eb3d 3ff4 7c3e 0809 0f3d ac64 8a3c
00000340: 8437 de3a 02e6 413e 36d3 413e 60a7 783e
00000350: bd3a bc3c 13ba fb3d 8f71 46bc 4fcd d4bc
00000360: 20da d53d c754 493d 1c2c 083e 7a3a 153e
00000370: 51a8 393e a5fe 733e e38a bdbd 8982 193d
00000380: 081f 8b3d 31d2 02be c6b8 843e d9bf 263d
00000390: a771 cbbc 342c 44be 00ac 0cbd 2579 883e
000003a0: 83a2 16bd bcbd 643e c3cf 313d abaa 053e
000003b0: ae22 9ebc 7a78 11be f972 fcbd 21e2 82be
000003c0: 23aa f1bd 3204 353e c8ab 15be c5a9 4e3e
000003d0: fd5e 713e f037 0bbe 661a 263e 506e b5bd
000003e0: 8b8a a5bd 4a95 d9bd f3b4 1dbe 1afc 8b3d
000003f0: e810 b63d 2264 68be b991 1fbe ad30 913d

bias f4 [32]
0.22203276 0.013433931 0.26193467 0.059155695 0.19495958 0.0887459 0.06405244 -0.05490023
0.116380714 0.267221 0.24224003 0.15309028 0.14695483 -0.02595313 -0.0067007253 0.12600164
0.08886451 -0.11267533 0.22686756 -0.014955099 0.16312179 0.13694906 0.28228524 0.22777383
0.11988214 0.122214675 0.014755658 0.23226392 0.15688078 0.13887459 0.0023394087 0.27834925
00000000: 8e5c 633e fe19 5c3c 4d1c 863e 3e4d 723d
00000010: 7ca3 473e 69c0 b53d ed2d 833d 10df 60bd
00000020: 0359 ee3d 31d1 883e c50d 783e b3c3 1c3e
00000030: 547b 163e a99b d4bc c291 dbbb 9306 013e
00000040: 99fe b53d 53c2 e6bd f84f 683e 3b06 75bc
00000050: 6609 273e 603c 0c3e b187 903e 8b3d 693e
00000060: c484 f53d b04b fa3d b7c1 713c 98d6 6d3e
00000070: 5ba5 203e 2435 0e3e c450 193b cb83 8e3e

weight f4 [32, 32]
0.25790888 -0.1612311 -0.20736964 0.30169573 -0.054038204 0.10470653 0.11927458 0.08621961
-0.242827 0.29871553 -0.18670398 -0.13926086 0.059368778 -0.08000396 0.020181518 0.32679906
0.22723557 0.35126877 -0.055124484 -0.12990198 -0.1062894 0.009851743 0.0104486 -0.1344353
0.054500636 -0.1093589 0.2471085 -0.23974305 -0.06370098 0.3550823 0.0039754338 0.24686074
0.31709135 -0.15616292 -0.29159272 0.26878944 0.010918907 0.06982776 0.2623569 0.015741138
-0.12873149 0.2502872 -0.16787308 0.08313812 -0.22584689 -0.24768175 0.061923966 0.2957043
0.031581216 0.1503249 -0.08999556 -0.2626605 0.04833901 0.018185284 -0.11695081 -0.13796772
-0.18885891 -0.123788476 0.28223523 -0.20866981 -0.24886477 0.28264347 0.24082945 0.18729967
-0.013550998 0.22504163 0.24497968 0.018134786 0.21261306 0.11347578 0.045609303 0.22103542
0.15596375 -0.059541974 0.2555552 0.21986313 0.14777689 0.28458938 -0.12180316 -0.021126356
0.0077338456 -0.23229745 0.17336428 0.1709882 0.24977246 0.023230024 0.14897874 0.1177509
0.10255408 0.028549006 -0.063621715 0.21545321 0.20161362 0.0655288 0.117895514 0.02700836
-0.06698567 0.19788328 0.058758263 -0.13235229 0.21423206 0.17081001 0.04663428 0.25976193
0.26687554 0.051934913 0.36813408 0.21641429 0.33243278 0.16153401 -0.113752544 -0.1387896
-0.15938376 -0.11425879 0.05310021 0.14631496 0.21652208 0.32012796 0.32557395 0.21223895
0.1788656 0.18100558 -0.0038102702 0.26487687 0.18505818 0.013355826 0.090784185 0.2358863
0.088857055 0.06844249 -0.077480726 -0.058158927 0.12906872 -0.048910175 -0.17903207 -0.0133854635
-0.07436461 -0.059588104 -0.06502511 0.06534249 -0.172431 -0.0047250385 -0.0959614 -0.059360154
-0.04927787 0.014082084 0.10588505 0.0820284 0.034979254 0.12143578 0.009324867 -0.021833317
0.041346885 -0.1975767 0.007234371 -0.12391581 -0.08799571 -0.0131158205 0.12893027 -0.033010516
-0.098573275 0.055692576 0.15132453 0.08591356 0.29667956 0.05787475 -0.07634849 0.17078704
0.1574296 -0.044094086 0.20067422 0.053666856 0.17775734 0.31935713 -0.13672891 0.056426186
-0.13214207 -0.12614337 0.13919486 0.18989931 0.3014881 0.15748653 -0.027766839 0.1285851
0.07215205 0.10983509 -0.032815903 0.0045902077 0.22170979 0.14343685 0.08893462 0.089167446
0.08122573 0.18643725 0.08400439 0.07279161 0.042015016 0.2641559 0.007880575 0.0610393
0.21019985 -0.13376598 0.03961795 0.055541363 0.1357214 0.14402068 -0.09750727 -0.0843072
-0.14424545 -0.28549644 0.27758762 0.1896713 0.07979293 0.28381413 0.103993826 0.31937662
0.10553369 0.05424399 0.046732478 0.10766633 0.09754788 -0.113642804 0.07993024 0.29024407
0.07667735 0.055917297 0.008492875 -0.059034668 0.25561368 0.2475656 -0.044119652 0.11984105
0.27895245 -0.005649164 0.14998005 0.23964055 0.15720278 0.22701892 -0.1807309 0.017943742
-0.073540926 -0.15486652 0.2904265 0.18687938 0.12530893 0.25305897 0.0888498 0.08561434
0.2583329 -0.05971644 -0.0004901098 0.21668613 0.053006016 0.16225651 -0.20159204 0.026359802
00000000: a20c 843e c419 25be b558 54be dd77 9a3e
00000010: 2a57 5dbd 6170 d63d 3b46 f43d e893 b03d
00000020: a4a7 78be 3ef1 983e 542f 3fbe 669a 0ebe
00000030: ad2c 733d 1ed9 a3bd b653 a53c 3552 a73e
00000040: 71b0 683e 80d9 b33e 36ca 61bd 0605 05be
00000050: 42ae d9bd 3469 213c 9b30 2b3c 68a9 09be
00000060: 0f3c 5f3d 8ff7 dfbd 030a 7d3e 347f 75be
00000070: a975 82bd 59cd b53e 5b44 823b 10c9 7c3e
00000080: cc59 a23e 2ce9 1fbe a44b 95be c59e 893e
00000090: 37e5 323c db01 8f3d a553 863e 8ff3 803c
000000a0: 30d2 03be a525 803e ece6 2bbe 5244 aa3d
000000b0: 6844 67be 49a0 7dbe fca3 7d3d 8e66 973e
000000c0: 4e5b 013d c5ee 193e 984f b8bd 707b 86be
000000d0: 20ff 453d 4ef9 943c e883 efbd 6947 0dbe
000000e0: 3b64 41be d084 fdbd 2381 903e 8aad 55be
000000f0: 68d6 7ebe a5b6 903e ff9b 763e 7ccb 3f3e
00000100: 0105 5ebc 5071 663e f4db 7a3e 678f 943c
00000110: 3db7 593e fd65 e83d d2d0 3a3d 1c57 623e
00000120: f6b4 1f3e 49e2 73bd 22d8 823e cd23 613e
00000130: d352 173e b3b5 913e ef73 f9bd 2e11 adbc
00000140: 336c fd3b 62df 6dbe 6886 313e 8817 2f3e
00000150: 5ac4 7f3e e44c be3c e28d 183e 6227 f13d
00000160: e007 d23d 9bdf e93c 1a4c 82bd c49f 5c3e
00000170: cd73 4e3e f733 863d 3473 f13d a340 dd3c
00000180: c82f 89bd eaa1 4a3e 81ac 703d 5c87 07be
00000190: a65f 5b3e d2e8 2e3e 9603 3f3d 84ff 843e
000001a0: e9a3 883e b4b9 543d 127c bc3e b59b 5d3e
000001b0: a134 aa3e 2c69 253e 18f7 e8bd dc1e 0ebe
000001c0: 7f35 23be 8300 eabd 9b7f 593d 97d3 153e
000001d0: f7b7 5d3e d0e7 a33e a1b1 a63e 2b55 593e
000001e0: 8b28 373e 8759 393e bab5 79bb f19d 873e
000001f0: e47f 3d3e 65d2 5a3c 0fed b93d 2e8c 713e
00000200: b0fa b53d 942b 8c3d 37ae 9ebd 0e38 6ebd
00000210: 972a 043e 0956 48bd 2f54 37be b44e 5bbc
00000220: 794c 98bd a812 74bd e32b 85bd 49d2 853d
00000230: c191 30be 7fd4 9abb 6987 c4bd a223 73bd
00000240: 98d7 49bd 8bb8 663c 43da d83d 81fe a73d
00000250: 6846 0f3d 52b3 f83d 54c7 183c c9db b2bc
00000260: 5a5b 293d 8c51 4abe 4d0e ed3b 92c7 fdbd
00000270: 1837 b4bd bde3 56bc 4c06 043e 0936 07bd
00000280: c9e0 c9bd e61d 643d d1f4 1a3e 73f3 af3d
00000290: 62e6 973e 130e 6d3d 995c 9cbd cce2 2e3e
000002a0: 3a35 213e 009c 34bd 8b7d 4d3e c7d1 5b3d
000002b0: 0506 363e c782 a33e aa02 0cbe 251f 673d
000002c0: 4050 07be ba2b 01be 1989 0e3e f774 423e
000002d0: a65c 9a3e 2644 213e 4877 e3bc d0ab 033e
000002e0: 74c4 933d 38f1 e03d f869 06bd 7469 963b
000002f0: e407 633e 1ce1 123e 5b23 b63d 6c9d b63d
00000300: ad59 a63d 68e9 3e3e 7e0a ac3d c513 953d
00000310: f017 2c3d 713f 873e 871d 013c 5804 7a3d
00000320: a13e 573e f3f9 08be 6e46 223d 577f 633d
00000330: 8dfa 0a3e 287a 133e e4b1 c7bd 41a9 acbd
00000340: 14b5 13be 972c 92be f71f 8e3e 3139 423e
00000350: 7a6a a33d 1650 913e b7fa d43d 5585 a33e
00000360: 0c22 d83d f22e 5e3d 8e6a 3f3d 2a80 dc3d
00000370: 2fc7 c73d 8fbd e8bd 77b2 a33d df9a 943e
00000380: 0409 9d3d 8909 653d b325 0b3c 56ce 71bd
00000390: ccdf 823e d681 7d3e cfb6 34bd 396f f53d
000003a0: dbd2 8e3e 9f1c b9bb 5f94 193e 5564 753e
000003b0: c4f9 203e a677 683e 8511 39be c1fe 923c
000003c0: a09c 96bd 5495 1ebe c8b2 943e 4f5d 3f3e
000003d0: fc50 003e f290 813e e2f6 b53d 9256 af3d
000003e0: 3644 843e 3a99 74bd b67a 00ba f8e2 5d3e
000003f0: d61c 593d 9226 263e 256e 4ebe 83f0 d73c

bias f4 [32]
0.076452374 0.20978023 0.042672817 -0.033719447 0.0053617037 0.052922904 0.1052473 0.16128494
0.21352519 0.20991738 0.19432175 0.1811181 -0.04636487 0.11450548 -0.11175033 0.107561305
0.23580897 0.25480622 0.1491878 -0.0062172916 0.030510604 -0.027701233 -0.011553508 0.0015616241
0.033138536 0.22622798 0.008807654 0.0859149 0.121294074 0.08351076 0.27197987 -0.01028608
00000000: 1093 9c3d a1d0 563e b1c9 2e3d 671d 0abd
00000010: 3bb1 af3b b0c5 583d e58b d73d e127 253e
00000020: 59a6 5a3e 95f4 563e 48fc 463e 0677 393e
00000030: 17e9 3dbd d981 ea3d 5bdd e4bd 1a49 dc3d
00000040: e877 713e f675 823e b0c4 183e 6cba cbbb
00000050: 60f1 f93c b2ed e2bc ed4a 3dbc 69af cc3a
00000060: 46bc 073d 4fa8 673e fa4d 103c 27f4 af3d
00000070: 0769 f83d b007 ab3d f240 8b3e f286 28bc

weight f4 [1, 32]
0.27185103 0.29371455 -0.448988 -0.21042548 0.009263594 -0.2877406 -0.36069807 -0.21862848
-0.18394014 0.23745435 -0.21445003 -0.28573036 0.07659571 0.26960278 0.00016582008 -0.2076726
-0.18696788 0.26788455 -0.30614963 0.119171955 -0.2095926 0.02094979 -0.20021862 0.0068286355
0.24980704 -0.2380361 -0.23291406 -0.23311922 -0.5108389 -0.19460368 0.22641599 -0.26376408
00000000: 0f30 8b3e c161 963e c1e1 e5be c779 57be
00000010: 54c6 173c bc52 93be 6bad b8be 25e0 5fbe
00000020: ce5a 3cbe 3c27 733e ca98 5bbe 404b 92be
00000030: 36de 9c3d 6009 8a3e fddf 2d39 20a8 54be
00000040: 8274 3fbe 2a28 893e a5bf 9cbe 6d10 f43d
00000050: 719f 56be e59e ab3c 1c06 4dbe bfc2 df3b
00000060: 6bcd 7f3e bcbf 73be 0681 6ebe ceb6 6ebe
00000070: 57c6 02bf 3046 47be 98d9 673e 160c 87be
