serology/results_intermediate_encoders_2/models/5fold/priorDiscr_2.pt (torch, 11223 bytes, 5 tensors)

weight f4 [32, 32]
000000 52 69 86 be e5 59 26 be 11 dd 65 3e c0 c4 19 3c
       -0.26252228 -0.1624523 0.22447611 0.009385288
000010 c8 24 ca 3d e0 fb 69 3e 8c b7 69 3e 6a f2 61 be
       0.09870297 0.22849989 0.22823924 -0.2206513
000020 0a 02 5c be 72 3e 42 be 43 90 86 3e 33 cf 04 be
       -0.21485153 -0.18969133 0.26281938 -0.12969665
000030 22 0c 16 be 0a 58 fa bd d2 7e 24 bd 12 2a d8 3d
       -0.14653066 -0.12223823 -0.040160008 0.10554899
000040 80 53 e6 bd 55 31 a1 bc 70 9b bb 3c ca fb 48 3e
       -0.11246395 -0.019676844 0.022901267 0.196273
000050 6a 30 7e be 73 3e 7c 3c 5c f2 4d 3d 08 01 ef bb
       -0.24823156 0.015395748 0.05027996 -0.007293824
000060 67 a0 5d bd b9 72 8e be 09 92 a2 3d 0b 50 7a 3e
       -0.05410805 -0.278219 0.0793801 0.24444596
000070 52 70 7d be c5 fc a9 3d 2b 96 08 bd 8f 4b 47 3d
       -0.24749878 0.08300165 -0.033346336 0.048656043
000080 a7 36 8a 3e a6 82 1c 3e a2 86 a1 3d f7 62 8b be
       0.2699482 0.15284213 0.07887007 -0.27223942
000090 76 60 79 be e1 1e 39 bd 81 f4 dc bd 82 8e 8e be
       -0.24353203 -0.045195464 -0.10788823 -0.278431
0000a0 db 77 03 bd 4f bc 40 3e d4 09 d1 bd 32 79 e8 3d
       -0.032096725 0.18821834 -0.10206953 0.11351241
0000b0 08 6d 48 3d 26 76 87 bd a9 00 0b 3e 87 00 81 bc
       0.048932105 -0.06614332 0.1357447 -0.015747322
0000c0 74 39 74 be 7d e9 53 be 8a f6 29 be d6 eb ae 3d
       -0.23850042 -0.20694537 -0.16597953 0.08541076
0000d0 c5 fe 33 3e be 70 99 bd af b2 02 be 45 25 3b bd
       0.17577656 -0.07492207 -0.12763475 -0.04568984
0000e0 2f 8f 21 bd f3 f7 c8 bd e7 6f 17 3e b0 76 f6 bc
       -0.03944319 -0.098129176 0.14788781 -0.030085891
0000f0 2c 57 bf bd bb 50 a1 bd 55 bb 12 3e 98 69 e9 3d
       -0.093427986 -0.07876726 0.14329274 0.113970935
000100 27 76 4d 3e fe 68 21 3e 97 67 17 bc 42 20 30 3e
       0.20064603 0.15762708 -0.009241006 0.17199805
000110 54 43 3b 3d 49 fc 77 3e e3 6f 8d 3e 74 07 d8 3d
       0.045718506 0.24217333 0.27624425 0.105482966
000120 4c 17 93 3c d1 ea 1c 3e 7d c8 83 3e 48 a6 f7 3d
       0.017955445 0.1532395 0.25738898 0.120922625
000130 ba 06 01 3e 00 e6 ef 3d 51 2c c1 3d 5a 5a cb bc
       0.12600222 0.11713791 0.09432281 -0.024823356
000140 17 02 1f 3e da 1c 38 3e b5 f6 49 3e 3b d1 92 3e
       0.15528141 0.17979756 0.19723018 0.28675255
000150 a4 d2 c9 3d 42 77 3d bd 08 3c a5 3d 37 3d 15 3e
       0.0985463 -0.04625631 0.08068091 0.14574133
000160 72 ea 10 bd 6b 35 11 3e 92 1f fd bc fd 21 1e 3d
       -0.035379834 0.14180534 -0.030898843 0.038606633
000170 16 6c 59 3e a0 08 27 3e 12 9f da 3c 1e 7c 49 3e
       0.21232638 0.16311884 0.026687179 0.19676253
000180 7c 8a 10 3e 04 b3 2c bd bc d3 ff 3b cf 07 46 bd
       0.14115328 -0.04216291 0.007807223 -0.04834729
000190 26 10 1b bd 9c a0 e4 bd ae a2 df 3b a7 b4 b1 be
       -0.037857197 -0.11163446 0.006824813 -0.3470814
0001a0 53 28 bf be 98 af 93 3b 30 db 35 3d 3c 51 0b be
       -0.37335452 0.0045070164 0.044398487 -0.13605207
0001b0 e1 3c 49 be 1e c6 99 be 84 9c 32 bc c9 7b 75 3e
       -0.1965213 -0.30033964 -0.010901574 0.23973002
0001c0 91 b4 09 bd ea 77 59 3e 7f f0 34 3d b4 06 12 bd
       -0.033619467 0.2123715 0.044174667 -0.035650924
0001d0 b5 92 b5 bd cb bd 9f 3d a7 60 86 3e 9f 13 20 bc
       -0.08865873 0.07799872 0.26245615 -0.009770303
0001e0 3e 11 0c 3c a0 b8 e8 3b 20 f7 48 bd 29 82 07 bd
       0.008549033 0.007102087 -0.0490638 -0.033083115
0001f0 0e 7d bc bd dd 0b 2c 3e f3 ba eb 3d fa 1b 52 be
       -0.0920354 0.168014 0.11510267 -0.20518485
000200 50 19 7e 3e ce ac 43 3e 4b 8a 5f 3e 4b f9 42 3e
       0.24814343 0.19108889 0.21830098 0.1904041
000210 8b 0e 76 3e bb 6b 51 3e e9 e7 85 3e 90 87 6a 3e
       0.24028985 0.20451252 0.26153496 0.22903275
000220 bf a0 ea 3d b1 d5 16 3d e9 67 52 3e ca d7 86 3c
       0.11456441 0.036824886 0.20547451 0.016460318
000230 bb 32 89 3e e2 93 9e 3d 7b 49 74 bd a3 66 f8 3d
       0.26796517 0.0774305 -0.05964039 0.121289514
000240 75 af 56 3e 7b eb ff 3c e0 96 1f 3e 7f 46 69 3e
       0.20965369 0.031240216 0.15584898 0.22780798
000250 a7 95 7f 3e 9f 67 68 3b bf a7 15 3e 2f 7a 6d 3d
       0.24959432 0.0035462154 0.14614771 0.05797785
000260 52 0d c6 bc ab 86 79 bb 1a 01 1b 3e 6f a0 5b bd
       -0.024176273 -0.0038074653 0.15137139 -0.0536198
000270 48 49 d3 3a 11 16 a9 3d 3d 0f bf 3e b9 b3 c4 3d
       0.0016119862 0.08256162 0.37316313 0.09604592
000280 95 43 39 3e 90 68 aa 3d 07 44 75 be 42 09 41 3d
       0.18092187 0.08320725 -0.23951732 0.04712797
000290 21 59 1b bc 75 4f 9a be 08 a2 26 3b 58 51 3b 3d
       -0.009481699 -0.30138746 0.0025426168 0.045731872
0002a0 16 b1 17 3d 69 d2 5a 3e 27 c9 4c be 08 05 e3 bd
       0.037034117 0.21369328 -0.19998609 -0.11084944
0002b0 c3 02 f3 bc fc 84 83 bd 92 34 49 3e 67 bd 1f bc
       -0.029664403 -0.06421849 0.1964896 -0.009749747
0002c0 8d 5c 36 3e 6f 2c 7a 3e 5b 79 0a be 79 f1 57 be
       0.17808743 0.24431013 -0.13522856 -0.21088208
0002d0 28 ce db 3d 9b b1 78 be e2 92 e4 3c a4 5c 2f 3d
       0.107326806 -0.24286501 0.02790207 0.04281296
0002e0 5f f3 74 be f0 86 ed bd fc 37 b1 b9 e5 bc f4 3d
       -0.23920964 -0.11598003 -0.00033801782 0.11950091
0002f0 89 8b 79 be 99 08 ad 3d d8 80 68 3e ac 10 6c be
       -0.24369635 0.084489055 0.227054 -0.23053235
000300 5b fb 21 be d3 88 0f be c1 48 f9 bd b1 ad 30 bc
       -0.15818541 -0.14017038 -0.1217208 -0.010783599
000310 6c c0 77 3d 67 1c 75 3d 04 df d4 3a 48 7e e1 3d
       0.060486242 0.05984154 0.001624078 0.11010414
000320 ff eb b3 bd 98 c8 9c bd 70 42 42 be e1 56 66 3d
       -0.08785247 -0.07655448 -0.18970656 0.056235198
000330 9a f7 38 3e 2a d0 a0 bb c3 a4 cc bd 05 5c 7d 3d
       0.18063203 -0.0049076276 -0.09992363 0.061855335
000340 3e 97 da 3d bb 1e 30 3e 23 0c 28 3d 1e 9b 1f be
       0.106733784 0.17199223 0.0410272 -0.15586516
000350 df 87 c2 bd 4d b7 83 bd e5 b3 9e 3d 4f c9 dc 3d
       -0.094985716 -0.06431446 0.07749156 0.10780584
000360 88 e3 10 bd 2a 82 2c 3e 96 06 ed 37 aa 92 d5 bd
       -0.03537324 0.16846529 2.8255668e-05 -0.104283646
000370 ae 22 b8 3d 05 08 53 bd ac a7 84 bc 4b 4b d9 bd
       0.089909896 -0.05152132 -0.016193233 -0.10610064
000380 7c 32 65 3e b5 15 20 bd 42 d0 1a 3e a7 97 c9 3d
       0.2238254 -0.0390832 0.15118507 0.098433785
000390 b4 0b 0b bb c1 2b 42 3e 41 0e 98 3e 70 0f 84 3d
       -0.0021216692 0.18962003 0.29698375 0.06448257
0003a0 d5 d0 36 bd b5 f7 1b 3e cf 68 87 3e 2e da 76 3e
       -0.04463275 0.15231211 0.2644715 0.24106666
0003b0 88 57 44 3e e0 84 91 bd 5b a1 b5 3d 2e 0d 2b 3e
       0.19174016 -0.07105422 0.08868667 0.16704246
0003c0 3d 1b 8a 3e 52 16 77 3e e4 8a 46 3e 04 8e 70 3e
       0.26973906 0.24129608 0.1938892 0.23491675
0003d0 86 3e 49 3e 02 e5 ca 3d cf e4 67 3d 36 a6 08 3d
       0.19652757 0.09906961 0.056614693 0.033361636
0003e0 fa 54 8c 3d fb 25 80 3c 83 ed a9 3e ce 19 64 bd
       0.068521455 0.01564311 0.3318902 -0.05568867
0003f0 8d c7 11 3e 3e 26 de 3d fa 93 65 3d e3 8a 7e 3e
       0.14236279 0.10847138 0.056049325 0.24857669

bias f4 [32]
000000 34 41 aa 3d f1 1f 0f 3e 06 c0 34 3d 4b 21 20 3e
       0.08313218 0.13977028 0.04412844 0.156377
000010 a9 8e 0a be 92 15 53 3e b6 b3 8b bd d6 ed 87 bd
       -0.13530983 0.20613697 -0.068213865 -0.066371605
000020 ac d4 f0 3c f5 fc 30 3c 2e 60 42 3e cc 1b 3e 3c
       0.029398285 0.010802497 0.18982002 0.011603307
000030 43 81 2c 3e 98 f1 21 3e 6d 39 9a 3e 2e d2 73 3e
       0.16846184 0.15814817 0.30121937 0.23810646
000040 3d 23 1c 3e a2 ab 81 3e 52 30 92 3e 1c f7 55 3d
       0.15247817 0.25326258 0.2855249 0.052237615
000050 be b9 03 3e bc 68 49 3d 71 77 ab 3c 76 76 58 3e
       0.12863824 0.049172148 0.020930978 0.2113894
000060 bf 39 31 3e 2e 99 c7 3d 4c d5 ab 3d 3c f8 43 3e
       0.17307185 0.097460136 0.083902925 0.19137663
000070 17 6e ad 3e c8 9a 67 3d 41 c2 56 3d 97 d4 15 3e
       0.33873054 0.056544095 0.05243135 0.14631878

weight f4 [32, 32]
000000 1a 92 66 be d0 2e d5 3d bb 5a fe 3d a7 45 1b bd
       -0.22516671 0.104093194 0.12419649 -0.037908223
000010 be ee 7b 3e d9 65 b3 3d 88 0d ac bd f5 3a 98 3e
       0.24602792 0.0875966 -0.084010184 0.2973248
000020 3b 78 9d bd 60 39 4f bc 44 d8 2d 3e e8 51 8b be
       -0.07688948 -0.012647957 0.1697703 -0.27210927
000030 aa c9 eb 3d 89 68 4b be 6b a1 72 3e fb 1b 2a bc
       0.11513074 -0.19864096 0.23694389 -0.010382648
000040 eb e8 51 be 4b 57 21 be ba 73 62 bd b5 29 a0 3c
       -0.20499007 -0.15755956 -0.055286147 0.019551137
000050 5b a1 cc 3d 56 b3 0e be 0f 72 86 3d df e9 51 bd
       0.099917136 -0.13935599 0.06564724 -0.051248427
000060 49 50 24 3d 45 9e 48 3d 80 8d 93 be 97 24 a9 3c
       0.04011563 0.048979063 -0.28818893 0.02064733
000070 dc 22 ee 3d 8c a4 88 3e 0f 13 a8 be 91 53 91 be
       0.11627743 0.2668804 -0.3282704 -0.2838407
000080 96 72 28 3e 47 c5 e5 3b 45 45 a5 bd d8 9b da 3d
       0.16449961 0.0070120427 -0.08069853 0.10674256
000090 6b 94 96 be 70 3e 77 3e 14 3c 25 3d eb 7c ba bd
       -0.2941011 0.24144912 0.040340498 -0.091058575
0000a0 b6 e8 10 3e 94 db a2 3b cf 6a d0 3c 50 03 32 3e
       0.14151272 0.0049700234 0.025441555 0.17384076
0000b0 d9 9b bd bc 14 ed 4e 3e ea 3e 50 3e 57 4f 94 3e
       -0.023145603 0.20207626 0.203365 0.28966781
0000c0 11 19 48 3d 0e ea bd 3c c6 4a f5 bc 7b 68 93 3e
       0.04885203 0.023182895 -0.029942881 0.2879065
0000d0 6f e3 de 3d 8d 88 19 3e 60 4b 26 be 89 42 fa 3d
       0.10883223 0.14993496 -0.16239691 0.12219722
0000e0 32 f1 1c 3e 04 0d 91 bd d6 fd 79 3d 12 4a 96 3e
       0.15326384 -0.07082561 0.061033092 0.29353386
0000f0 05 bc 2c 3e 18 77 8b bb 87 b7 80 3d c2 aa 83 3e
       0.16868599 -0.0042561404 0.06285005 0.25716215
000100 8d 59 98 bd c2 55 56 be ed 95 75 3d b9 a4 9a be
       -0.074389555 -0.20931152 0.059957433 -0.30203798
000110 96 c8 94 3e 1d 45 68 bd 83 02 11 3d 71 a3 a2 3e
       0.29059285 -0.056706537 0.035402786 0.3176532
000120 87 f6 0a 3c 70 a8 91 3e b6 ec f4 bc d6 7b 66 be
       0.008481628 0.2844882 -0.029898029 -0.22508177
000130 02 59 60 3e 98 4b bb bd f6 4f 41 3c 20 51 9a bd
       0.21908954 -0.09145278 0.011798849 -0.075350046
000140 41 5c 6f be 71 66 ff bd 68 6d 09 be a2 fa 9e be
       -0.23375036 -0.12470711 -0.13420641 -0.31050593
000150 46 41 98 3e 8a a5 86 bd a0 2b 77 3e fd f2 79 3c
       0.297373 -0.06574543 0.24137735 0.015255687
000160 8c 0c 0b 3d 90 10 e0 3d 49 fd e9 bd a9 5d 44 be
       0.033947513 0.10940659 -0.114252634 -0.19176354
000170 dc 4e 99 3e 4c 9c 97 3e 84 fe 02 bd 58 b1 5a 3c
       0.29942977 0.29611433 -0.031981006 0.013347946
000180 e8 72 08 be fb 08 43 3c 26 fd 08 3e f4 ab 5a be
       -0.13325083 0.011903997 0.13377818 -0.21354657
000190 14 f8 70 3d f0 b1 13 be 1e 28 31 be fa 57 97 3e
       0.058830336 -0.14423347 -0.1730046 0.29559308
0001a0 4c c2 26 bd 70 c3 2c 3e c5 e6 67 3e 57 e8 a2 be
       -0.04071264 0.16871428 0.22646625 -0.31817886
0001b0 27 18 97 3e 51 85 ab bd 3b 02 84 3e 8b 1e 21 3c
       0.29510614 -0.083750375 0.25782952 0.009833942
0001c0 c0 5a 55 be c8 2b cc bd be b6 65 be 24 d1 99 bd
       -0.208354 -0.09969288 -0.22432992 -0.075105935
0001d0 45 b5 71 3e 6a dc 56 be 57 50 a6 3e 20 34 8d be
       0.23604305 -0.20982519 0.3248317 -0.2757883
0001e0 a4 99 a1 bd 0a a0 f4 3d 01 fd 2b be af 37 45 bc
       -0.07890633 0.119445875 -0.16795732 -0.012037202
0001f0 9b eb 4c 3e ef ef 34 3d 00 22 2b be 3b 07 57 bd
       0.20011751 0.04417413 -0.16712189 -0.05249713
000200 47 be 0c be aa 59 9b bd ba 75 2b be be 8b 4d 3c
       -0.1374446 -0.075854614 -0.16744128 0.012545524
000210 2a 33 e9 3d 47 82 c3 bd cf 96 42 be 11 6a 13 be
       0.11386712 -0.09546333 -0.19002841 -0.1439593
000220 6a bb 3c bd f7 1f 03 be 49 1c c7 bc 40 f8 3b be
       -0.04607717 -0.12805162 -0.02430548 -0.18356419
000230 25 80 83 3d d7 1a 6a bd 42 92 bb 3c aa 30 3c be
       0.06420926 -0.057154503 0.02289689 -0.18377939
000240 99 c9 1c be cb 2e c3 bd f2 0d 16 be 70 88 0b 3c
       -0.15311278 -0.095304094 -0.14653757 0.008516416
000250 e5 57 11 3e 4e cf 94 ba 61 aa 42 bd 75 cd c6 3d
       0.14193685 -0.0011353286 -0.047525767 0.097071566
000260 c2 81 7c bd ed 5e 24 be 86 21 a7 3d b1 05 56 3d
       -0.061647184 -0.16051836 0.08160691 0.05225152
000270 dc 03 0b be 7a 2b 53 3d a8 34 ec 3c 01 e0 ff bc
       -0.13575691 0.051555134 0.028833702 -0.031234743
000280 a0 97 35 3e b3 8e 1d 3e d9 86 0e 3e 62 11 10 3c
       0.17733622 0.15386467 0.13918628 0.008793207
000290 99 00 54 be dd 75 18 3e 4d db 9e bd 66 ad 0e 3d
       -0.20703353 0.14888711 -0.07756672 0.034833334
0002a0 86 4d db 3d aa 88 51 be 8b 8c 73 bc c1 b1 05 3e
       0.10708146 -0.2046229 -0.014865051 0.13056089
0002b0 34 e1 0e be fd ff d3 3d b9 36 f1 3d 51 82 8b 3d
       -0.13953096 0.1035156 0.11778016 0.06811965
0002c0 1b 69 20 3e c9 ac 0f 3e 47 ff 3b 3d ab e1 0f 3e
       0.15665095 0.14030756 0.04589775 0.14050929
0002d0 0a 1d 39 bd 63 bf ab 3e 28 10 48 3e 0e 26 59 3e
       -0.04519371 0.33544454 0.19537413 0.21205923
0002e0 fc 0d 81 bc 65 d7 a9 bd b0 86 96 3e f3 f6 97 3e
       -0.015753739 -0.08293036 0.29399633 0.29680595
0002f0 a5 ea 23 bc 30 ab 19 bd 0f 4c 20 3d 4b 6b 37 3e
       -0.010004674 -0.037516773 0.039135035 0.17912023
000300 d2 a3 f0 bd 7d b7 d4 bd 0c 2e 44 bd 91 2b bc 3d
       -0.11749996 -0.1038656 -0.047895476 0.09187997
000310 7e 4c 5d bd 1b 02 27 be 30 f4 29 bd 7d 28 0c 3e
       -0.054028027 -0.16309397 -0.04149264 0.1368732
000320 6a bd 2d be 29 51 35 be 2e 40 f5 bd d8 6e 8d bd
       -0.16966787 -0.17706741 -0.11975132 -0.069059074
000330 5a 69 17 3e 81 03 cb 3d 4a 94 32 be dd 61 39 3b
       0.14786282 0.09912778 -0.1743938 0.002828709
000340 37 c5 3b be 84 bd 0c be 70 1e 3b be e2 4c c5 bd
       -0.1833695 -0.1374417 -0.1827333 -0.09633805
000350 c9 5c 0c bd c6 cb 63 bd 43 c6 92 3d ee 15 a3 3d
       -0.034268174 -0.055614255 0.07166722 0.07963167
000360 ec 2f e0 bd a4 16 9b 3b 80 f9 89 bc 69 24 cd bd
       -0.1094664 0.0047329236 -0.016842604 -0.1001671
000370 35 5a 2a be 05 1b 84 bd 7a 9e 6d bd 51 5f 1c be
       -0.16635974 -0.06450466 -0.058012463 -0.15270735
000380 09 d7 0e 3e 15 92 85 3e 9f 54 c2 bd fe 0a 66 3d
       0.13949217 0.26088014 -0.094887964 0.056162827
000390 61 a9 8c bd cc b9 37 bd 0b fa 14 3d d3 3c 87 bc
       -0.06868244 -0.044854924 0.036371272 -0.016508495
0003a0 11 0e 6a 3e e6 13 95 bb 16 6e 8b bc 3e c8 87 3e
       0.22856928 -0.004549491 -0.017020267 0.2651996
0003b0 11 21 2f be cf 44 70 3d 82 4f cc 3d 31 dc 2d 3d
       -0.17102458 0.05865937 0.099761024 0.04244632
0003c0 30 d6 26 3e 49 68 0c bd af 58 72 3d aa 56 8f 3d
       0.16292644 -0.03427914 0.059166607 0.06998952
0003d0 30 b2 4a be fc 89 6b 3e 4b 50 e2 bd 02 63 84 3e
       -0.19794536 0.23001856 -0.11050471 0.25856787
0003e0 eb d5 d1 3d e6 ec 18 3e 44 77 9d 3e fc 24 a4 3d
       0.1024588 0.1493412 0.30755055 0.08014867
0003f0 bb 44 26 3e 19 3f fa 3c 73 3e cf 3d fe 68 a2 3e
       0.16237156 0.030547665 0.10119333 0.31720728

bias f4 [32]
000000 4d 8c 53 3b 45 1a d4 3d 52 3c 22 bd a4 4b 30 bd
       0.003227967 0.10356573 -0.039608307 -0.043040887
000010 ab 04 59 bc 96 a9 8f 3e 03 25 25 be 25 40 7e 3e
       -0.013245742 0.2805907 -0.161274 0.24829157
000020 ae 8f 02 bd fd c1 8f bc 7f 1b 20 3e 47 9e 37 3e
       -0.031875305 -0.017548556 0.15635489 0.17931472
000030 99 d4 cf 3d 18 03 1f 3d 95 8b 20 be 86 35 38 bc
       0.10147972 0.03882131 -0.15678246 -0.01124323
000040 06 be c9 bd 37 9c 42 3d dc 8c 83 3e a0 21 d9 bd
       -0.09850697 0.04751226 0.25693405 -0.106021166
000050 7c b7 87 3e 40 4b e8 3d 6b 63 57 3e 94 a7 36 be
       0.26507175 0.11342478 0.21034019 -0.17837363
000060 b1 af 6e 3e f2 97 09 3e 48 a3 ad 3d 11 55 26 3d
       0.23309208 0.13436869 0.08478409 0.04060847
000070 0f dd 4f 3e e8 0f d5 bd b3 fd e3 3d 9d 38 84 3e
       0.20299171 -0.104034245 0.11132374 0.25824443

weight f4 [1, 32]
000000 ed 53 9d 3e fc ce ab be 40 96 5a 3e 9e 0b 4b 3e
       0.30728093 -0.33556354 0.21346378 0.1982865
000010 c2 82 0b 3d 56 19 89 be 8b 0a e7 3d 41 16 6c be
       0.034060247 -0.26777142 0.11281308 -0.23055364
000020 fc b7 eb 3d 6e 6d 48 3e d7 0a 4f be 72 82 65 be
       0.115097016 0.19572994 -0.20218979 -0.22413042
000030 0d 80 d1 3b 2c 10 3b be d4 77 2c bb a7 45 9e be
       0.0063934387 -0.18267888 -0.002631654 -0.30912516
000040 85 52 76 3e 89 5e ca be 47 8c 56 be 58 04 8c 3e
       0.24054916 -0.3952525 -0.20951949 0.27347064
000050 b8 0f 72 be 30 da 9b be 97 89 83 be c1 3d 1a 3e
       -0.23638809 -0.304399 -0.2569091 0.1506262
000060 13 9c 8d 3e df e1 86 3e 78 6a 51 3e 1a e0 58 3e
       0.27658138 0.263442 0.20450771 0.21179238
000070 ea c0 9f be 92 11 98 3e 43 29 66 be 30 fd 35 be
       -0.3120187 0.29700905 -0.22476678 -0.17772365
