serology/results_intermediate_encoders_2/models/5fold/protection_classifier_5.pt (torch, 29537 bytes, 38 tensors)

weight f4 [32]
0	0x3f800000	1.0
1	0x3f800000	1.0
2	0x3f800000	1.0
3	0x3f800000	1.0
4	0x3f800000	1.0
5	0x3f800000	1.0
6	0x3f800000	1.0
7	0x3f800000	1.0
8	0x3f800000	1.0
9	0x3f800000	1.0
10	0x3f800000	1.0
11	0x3f800000	1.0
12	0x3f800000	1.0
13	0x3f800000	1.0
14	0x3f800000	1.0
15	0x3f800000	1.0
16	0x3f800000	1.0
17	0x3f800000	1.0
18	0x3f800000	1.0
19	0x3f800000	1.0
20	0x3f800000	1.0
21	0x3f800000	1.0
22	0x3f800000	1.0
23	0x3f800000	1.0
24	0x3f800000	1.0
25	0x3f800000	1.0
26	0x3f800000	1.0
27	0x3f800000	1.0
28	0x3f800000	1.0
29	0x3f800000	1.0
30	0x3f800000	1.0
31	0x3f800000	1.0

bias f4 [32]
0	0x00000000	0.0
1	0x00000000	0.0
2	0x00000000	0.0
3	0x00000000	0.0
4	0x00000000	0.0
5	0x00000000	0.0
6	0x00000000	0.0
7	0x00000000	0.0
8	0x00000000	0.0
9	0x00000000	0.0
10	0x00000000	0.0
11	0x00000000	0.0
12	0x00000000	0.0
13	0x00000000	0.0
14	0x00000000	0.0
15	0x00000000	0.0
16	0x00000000	0.0
17	0x00000000	0.0
18	0x00000000	0.0
19	0x00000000	0.0
20	0x00000000	0.0
21	0x00000000	0.0
22	0x00000000	0.0
23	0x00000000	0.0
24	0x00000000	0.0
25	0x00000000	0.0
26	0x00000000	0.0
27	0x00000000	0.0
28	0x00000000	0.0
29	0x00000000	0.0
30	0x00000000	0.0
31	0x00000000	0.0

running_mean f4 [32]
0	0x3f1c6298	0.6108794
1	0x3dea3814	0.11436477
2	0x3eab9760	0.33513927
3	0xbf0352f7	-0.5129847
4	0x3bea4635	0.0071494826
5	0xbf29d031	-0.663333
6	0x3f409db1	0.7524062
7	0x3d06561a	0.032796957
8	0x3c98160f	0.018565206
9	0x3eddf494	0.4335066
10	0x3e004054	0.12524539
11	0xbe6f012e	-0.23340294
12	0x3e9565d1	0.29179242
13	0xbe0aa4b8	-0.13539398
14	0xbea34664	-0.3188964
15	0xbeceefc9	-0.40417317
16	0x3f53db15	0.8275617
17	0x3ec8a741	0.39190105
18	0x3e9af87a	0.30267698
19	0xbe5a1b43	-0.21299462
20	0xbef0dfc0	-0.47045708
21	0x3ea65d7d	0.324932
22	0xbdf23655	-0.11826769
23	0x3dee5206	0.116367385
24	0x3e8598c4	0.26093113
25	0xbeab81bf	-0.33497426
26	0xbe9cd306	-0.30629748
27	0xbf407347	-0.751759
28	0xbf1ac462	-0.60455906
29	0xbedee5fe	-0.43534845
30	0x3ec1a4be	0.37821
31	0xbebdfb29	-0.37105682

running_var f4 [32]
0	0x40072a29	2.1119483
1	0x4056998e	3.3531222
2	0x3fa21615	1.2662989
3	0x403b33f4	2.925046
4	0x3f8219bd	1.0164105
5	0x403e9eb3	2.9784362
6	0x405d51f7	3.4581277
7	0x40c96f4f	6.2948375
8	0x4042a43f	3.0412748
9	0x3fcdf7b6	1.609122
10	0x3fef4633	1.8693298
11	0x3f84fdcd	1.0389954
12	0x3fa520dd	1.2900654
13	0x4019f6ed	2.4056962
14	0x3fd4043a	1.656379
15	0x3fb26153	1.3935951
16	0x40a55d90	5.167671
17	0x3ff05cf0	1.8778362
18	0x3f42fdb0	0.76168346
19	0x407bfe0e	3.9373813
20	0x401836ba	2.3783402
21	0x3ff047c9	1.8771907
22	0x3f9a55f7	1.2057484
23	0x40195d3d	2.3963158
24	0x4000acfe	2.0105586
25	0x3fe47b99	1.7850219
26	0x3fdc26e4	1.7199368
27	0x401df223	2.4679039
28	0x4049d74e	3.1537662
29	0x4051fafb	3.2809436
30	0x40837699	4.1082273
31	0x3fa3a129	1.2783557

weight f4 [24]
0	0x3f800000	1.0
1	0x3f800000	1.0
2	0x3f800000	1.0
3	0x3f800000	1.0
4	0x3f800000	1.0
5	0x3f800000	1.0
6	0x3f800000	1.0
7	0x3f800000	1.0
8	0x3f800000	1.0
9	0x3f800000	1.0
10	0x3f800000	1.0
11	0x3f800000	1.0
12	0x3f800000	1.0
13	0x3f800000	1.0
14	0x3f800000	1.0
15	0x3f800000	1.0
16	0x3f800000	1.0
17	0x3f800000	1.0
18	0x3f800000	1.0
19	0x3f800000	1.0
20	0x3f800000	1.0
21	0x3f800000	1.0
22	0x3f800000	1.0
23	0x3f800000	1.0

bias f4 [24]
0	0x00000000	0.0
1	0x00000000	0.0
2	0x00000000	0.0
3	0x00000000	0.0
4	0x00000000	0.0
5	0x00000000	0.0
6	0x00000000	0.0
7	0x00000000	0.0
8	0x00000000	0.0
9	0x00000000	0.0
10	0x00000000	0.0
11	0x00000000	0.0
12	0x00000000	0.0
13	0x00000000	0.0
14	0x00000000	0.0
15	0x00000000	0.0
16	0x00000000	0.0
17	0x00000000	0.0
18	0x00000000	0.0
19	0x00000000	0.0
20	0x00000000	0.0
21	0x00000000	0.0
22	0x00000000	0.0
23	0x00000000	0.0

running_mean f4 [24]
0	0x3f67f0a5	0.9060157
1	0xbe6b6aee	-0.22990009
2	0x3e8fdc0a	0.28097564
3	0xbf0fd273	-0.56180495
4	0xbe567774	-0.20944005
5	0xbd3e8d70	-0.046521604
6	0x3fa9f042	1.3276446
7	0x3e08ecf8	0.13371646
8	0xbde65b3d	-0.11247871
9	0xbf25e360	-0.6480007
10	0xbed4314e	-0.41443866
11	0xbe546f4e	-0.20745584
12	0x3ebea41e	0.37234586
13	0xbe7f4058	-0.24926889
14	0x3f260064	0.64844346
15	0x3e87f1c6	0.26551646
16	0xbc872d6b	-0.01650115
17	0xbe67cb03	-0.22636037
18	0xbdbb2874	-0.09138575
19	0xbf198044	-0.5996134
20	0x3ea8e24a	0.32985145
21	0xbe4ce1d8	-0.20008028
22	0x3f07c118	0.5302901
23	0x3da579f6	0.08079903

running_var f4 [24]
0	0x3f2e18a9	0.6800638
1	0x3f0b92a2	0.5452062
2	0x3ea89b6f	0.32931086
3	0x3ede0204	0.43360913
4	0x3f027b2b	0.5096919
5	0x3f0127e1	0.50451475
6	0x3f46e98c	0.77700114
7	0x3ed57460	0.4169035
8	0x3f16c219	0.5888992
9	0x3f0faf7f	0.5612716
10	0x3ed92cd7	0.42417023
11	0x3ec5d002	0.3863526
12	0x3f045123	0.51686305
13	0x3f0c0d9c	0.54708266
14	0x3f390098	0.7226653
15	0x3ea0978b	0.31365618
16	0x3eaa79f0	0.33296156
17	0x3ef81b79	0.4845846
18	0x3ec861c8	0.391371
19	0x3ee14671	0.43999055
20	0x3eb82206	0.35963458
21	0x3ee1b2c2	0.44081694
22	0x3f1340a8	0.5752053
23	0x3e984bd0	0.2974534

weight f4 [16]
0	0x3f800000	1.0
1	0x3f800000	1.0
2	0x3f800000	1.0
3	0x3f800000	1.0
4	0x3f800000	1.0
5	0x3f800000	1.0
6	0x3f800000	1.0
7	0x3f800000	1.0
8	0x3f800000	1.0
9	0x3f800000	1.0
10	0x3f800000	1.0
11	0x3f800000	1.0
12	0x3f800000	1.0
13	0x3f800000	1.0
14	0x3f800000	1.0
15	0x3f800000	1.0

bias f4 [16]
0	0x00000000	0.0
1	0x00000000	0.0
2	0x00000000	0.0
3	0x00000000	0.0
4	0x00000000	0.0
5	0x00000000	0.0
6	0x00000000	0.0
7	0x00000000	0.0
8	0x00000000	0.0
9	0x00000000	0.0
10	0x00000000	0.0
11	0x00000000	0.0
12	0x00000000	0.0
13	0x00000000	0.0
14	0x00000000	0.0
15	0x00000000	0.0

running_mean f4 [16]
0	0xbf246f6f	-0.64232534
1	0xbe227c1c	-0.15867656
2	0x3efc84f3	0.49320182
3	0x3f216e37	0.630588
4	0x3ea504c4	0.32230198
5	0x3e461946	0.19345579
6	0xbe62a099	-0.22131576
7	0xbe587241	-0.21137334
8	0xbf50a897	-0.8150725
9	0xbe849981	-0.25898364
10	0x3e385bbe	0.18003747
11	0xbf098f7a	-0.5373455
12	0xbe0c758e	-0.13716719
13	0x3e2a34c7	0.16621695
14	0x3f0c7975	0.5487283
15	0xbf2ed184	-0.68288445

running_var f4 [16]
0	0x3ef8f468	0.48623967
1	0x3f30c5c1	0.6905175
2	0x3f07f5ee	0.53109634
3	0x3eeb0e4a	0.4590934
4	0x3eb0f0bd	0.3455867
5	0x3f05f2a7	0.52323383
6	0x3f0d5164	0.5520232
7	0x3ec92cfc	0.39292133
8	0x3f41fc5a	0.7577568
9	0x3f18d583	0.59700793
10	0x3ed173f3	0.40908775
11	0x3eac6f32	0.33678585
12	0x3f311db2	0.69185936
13	0x3e9648b2	0.29352337
14	0x3f11460a	0.56747496
15	0x3f1143d4	0.5674412

weight f4 [8]
0	0x3f800000	1.0
1	0x3f800000	1.0
2	0x3f800000	1.0
3	0x3f800000	1.0
4	0x3f800000	1.0
5	0x3f800000	1.0
6	0x3f800000	1.0
7	0x3f800000	1.0

bias f4 [8]
0	0x00000000	0.0
1	0x00000000	0.0
2	0x00000000	0.0
3	0x00000000	0.0
4	0x00000000	0.0
5	0x00000000	0.0
6	0x00000000	0.0
7	0x00000000	0.0

running_mean f4 [8]
0	0xbf72ac51	-0.94794184
1	0xbf0fbcaf	-0.56147283
2	0xbef36cef	-0.47544047
3	0x3e102979	0.1407832
4	0xbddaeb6f	-0.10689437
5	0x3ea54835	0.32281652
6	0xbe25f80d	-0.16207905
7	0x3d50838a	0.050906695

running_var f4 [8]
0	0x3f216f17	0.63060135
1	0x3f060f3e	0.5236701
2	0x3ef089f2	0.46980244
3	0x3f633eb1	0.88767534
4	0x3ed452c7	0.41469404
5	0x3ebc859c	0.36820686
6	0x3efb0890	0.4902997
7	0x3ed3f05d	0.4139432

weight f4 [4]
0	0x3f800000	1.0
1	0x3f800000	1.0
2	0x3f800000	1.0
3	0x3f800000	1.0

bias f4 [4]
0	0x00000000	0.0
1	0x00000000	0.0
2	0x00000000	0.0
3	0x00000000	0.0

running_mean f4 [4]
0	0xbe6360fc	-0.22204965
1	0x3ede7f32	0.43456417
2	0xbe91512a	-0.28382236
3	0xbf6bdc66	-0.92133176

running_var f4 [4]
0	0x3e7084d1	0.23488165
1	0x3ec5df74	0.38647044
2	0x3f43a459	0.7642265
3	0x3f321f54	0.6957905

weight f4 [2]
0	0x3f800000	1.0
1	0x3f800000	1.0

bias f4 [2]
0	0x00000000	0.0
1	0x00000000	0.0

running_mean f4 [2]
0	0x3c913c65	0.017728994
1	0xbe0a346d	-0.13496561

running_var f4 [2]
0	0x3eb62204	0.35572827
1	0x3e8e0d26	0.27744406

weight f4 [32, 32]
0	0x3dab9428	0.08377868
1	0x3d01a250	0.031648934
2	0xbe95f0ae	-0.29285187
3	0xbe8c15d5	-0.27360407
4	0xbdbfb49a	-0.09360619
5	0x3e1abc1e	0.15110824
6	0xbe0c3216	-0.13690981
7	0xbe7c799c	-0.24655765
8	0x3e45afac	0.19305295
9	0x3e67ac6a	0.22624364
10	0x3e4adbb2	0.1981037
11	0x3dc4be14	0.09606567
12	0x3d50db70	0.050990522
13	0x3e1d4686	0.15358934
14	0x3e076de0	0.13225508
15	0x3e8016e7	0.25017473
16	0xbdc3d94e	-0.09562932
17	0xbdbd303c	-0.092377156
18	0xbe98259b	-0.2971619
19	0xbd3c0e18	-0.04591188
20	0x3c8ebf30	0.01742515
21	0x3e24d70a	0.16097656
22	0xbdd8e710	-0.10590947
23	0xbe7b3bba	-0.24534503
24	0xbe76355a	-0.2404379
25	0xbe82a34c	-0.2551521
26	0xbe1e8934	-0.15482026
27	0x3e829d93	0.25510845
28	0x3d9ea930	0.07747114
29	0x3e8a200f	0.26977584
30	0x3e8ba8db	0.27277264
31	0x3e9376b9	0.28801516
32	0x3ddebd94	0.10876003
33	0xbe9cb05e	-0.30603307
34	0x3d96b2d0	0.073583245
35	0x3e90d5cb	0.2828811
36	0xbd4d82e8	-0.05017367
37	0x3e1938ae	0.14963028
38	0x3e8d0023	0.27539167
39	0xbe99e362	-0.30056292
40	0x3c89eab0	0.01683554
41	0xbdbf4830	-0.093399405
42	0xbe3dc632	-0.18532637
43	0x3e205012	0.15655544
44	0xbe58c1e6	-0.21167716
45	0xbe31b50b	-0.17354219
46	0xbdeceb7e	-0.11568354
47	0x3d350520	0.04419434
48	0x3e92d0e7	0.28675005
49	0x3d843ad8	0.06456536
50	0x3dd18038	0.10229534
51	0x3d5e9d30	0.054349124
52	0xbda5cb70	-0.08095443
53	0xbe47b6ff	-0.19503401
54	0x3e2822a0	0.16419458
55	0xbdeb62d8	-0.11493462
56	0x3e7faa9a	0.24967423
57	0x3e19ebb8	0.15031326
58	0x3dd84eb4	0.105618864
59	0x3e561f46	0.20910367
60	0xbe8ea743	-0.27861986
61	0xbd26ae88	-0.04069379
62	0x3e41c580	0.18922997
63	0x3b058080	0.0020370781
64	0x3ce0e1d0	0.027451426
65	0x39a61800	0.0003167987
66	0xbde70f1a	-0.11282177
67	0x3de36808	0.11103827
68	0x3e86a4f3	0.2629772
69	0x3e8b0a53	0.27156314
70	0xbe499a26	-0.19687709
71	0xbdf3815a	-0.11889906
72	0xbc986a60	-0.018605411
73	0xbe3054e0	-0.17219877
74	0xbe3248de	-0.17410609
75	0x3c8ddbc0	0.017316699
76	0xbd602ae8	-0.05472842
77	0xbe0496f9	-0.12948216
78	0x3df48cd4	0.11940923
79	0x3e02cbca	0.12773052
80	0x3b83e480	0.004025042
81	0x3e8c4985	0.2739984
82	0x3a98fe00	0.0011672378
83	0xbe7acb06	-0.2449151
84	0x3e20362e	0.15645668
85	0x3e1cc278	0.15308559
86	0xbda54c7c	-0.08071229
87	0xbe86d23b	-0.26332268
88	0xbca8df40	-0.020614266
89	0xbe969e08	-0.29417443
90	0x3e90796f	0.28217646
91	0x3cefe180	0.029282331
92	0xbe973ebf	-0.2954006
93	0xbe5e5274	-0.21711141
94	0x3e8186e1	0.25298217
95	0xbc450860	-0.012025923
96	0x3e860a15	0.26179567
97	0xbc9332f0	-0.017968625
98	0xbe84b020	-0.25915623
99	0xbdaba098	-0.0838024
100	0xbe459c4f	-0.19297908
101	0xbdb65e74	-0.08904734
102	0x3e18ca0a	0.14920822
103	0xbe83cfd9	-0.25744513
104	0xbe8a269a	-0.26982576
105	0x3e869cd5	0.26291528
106	0x3e8b9bc1	0.27267268
107	0xbe968731	-0.29400018
108	0xbe99b391	-0.3001981
109	0x3e28dffa	0.1649169
110	0x3e6fbea2	0.23412564
111	0x3e7fe9ea	0.24991575
112	0x3d49ccd0	0.04926759
113	0xbcb6bee0	-0.022307813
114	0xbe8c1f3c	-0.2736758
115	0xbde13f04	-0.109983474
116	0xbe36ca3e	-0.17850587
117	0x3e8e368f	0.27776
118	0x3d9b9478	0.075966775
119	0x3c8519b0	0.0162476
120	0x3e8b0707	0.271538
121	0xbd43d398	-0.047809213
122	0xbe5ca9b9	-0.21549119
123	0x3d5be258	0.053682655
124	0xbdb7b824	-0.08970669
125	0xbe89e3af	-0.2693152
126	0xbe83062d	-0.2559065
127	0x3c587940	0.013212502
128	0x3e814219	0.2524574
129	0xbe49d75e	-0.19711062
130	0x3bd8f040	0.006620437
131	0x3e525e6a	0.20543829
132	0x3e948ffd	0.29016104
133	0x3e80e339	0.25173357
134	0x3d8a3250	0.067478776
135	0x3cfe2570	0.031023711
136	0x3c346100	0.011009455
137	0x3e154108	0.14575589
138	0xbe870fa2	-0.26379114
139	0xbe775550	-0.24153638
140	0x3ddafd34	0.10692826
141	0x3e7b02de	0.24512812
142	0x3e7a028a	0.24415031
143	0x3c211640	0.009831965
144	0xbdad2fac	-0.08456358
145	0xbdebce88	-0.11514002
146	0x3dfe4f58	0.12417477
147	0xbd4f5fa0	-0.050628304
148	0x3cd22710	0.025653392
149	0xbd81ac4a	-0.0633169
150	0xbe94f49b	-0.2909287
151	0x3c0eb220	0.0087094605
152	0xbdc3a294	-0.09552494
153	0x3e422fa0	0.1896348
154	0x3dd510ec	0.10403618
155	0x3e869e3d	0.262926
156	0x3cf26830	0.029590696
157	0xbe10ddf2	-0.14147165
158	0x3c496bc0	0.012293756
159	0xbe7e91b1	-0.24860264
160	0xbd123f90	-0.03570515
161	0xbde47e10	-0.11156857
162	0x3e8c51bb	0.27406105
163	0x3e6e5696	0.23275217
164	0x3e246896	0.16055521
165	0x3e5d921e	0.2163777
166	0x3e89905f	0.2686796
167	0x3e9a747f	0.30167004
168	0x3e776f6e	0.24163601
169	0x3e6865be	0.22695062
170	0xbe5b553e	-0.21419236
171	0x3cd202b0	0.025636047
172	0x3e23ec78	0.16008174
173	0x3e09d2fc	0.1345939
174	0xbdd9d174	-0.10635653
175	0xbd12a400	-0.035800934
176	0xbe7c2d32	-0.24626616
177	0x3e9b7509	0.30362728
178	0xbe95eaf4	-0.29280818
179	0xbe9a8a97	-0.3018386
180	0xbe93ff37	-0.2890565
181	0x3ca0d710	0.0196338
182	0xbe6eea5d	-0.2333159
183	0x3dbb8e14	0.091579586
184	0xbd73a2b4	-0.059481338
185	0x3de1d250	0.11026442
186	0xbe5ba928	-0.21451247
187	0xbe54aee3	-0.20769839
188	0xbcbf9e90	-0.023391038
189	0xbc24a3e0	-0.0100488365
190	0xbde949ee	-0.11391054
191	0xbe7a5c98	-0.24449384
192	0x3e83d8a1	0.25751212
193	0xbe46a3b2	-0.19398382
194	0xbd5fc918	-0.054635137
195	0xbdf731fe	-0.12070082
196	0x3e430d8e	0.1904814
197	0x3dd0bd34	0.10192338
198	0xbe413775	-0.18868811
199	0x3dffa444	0.12482503
200	0xbe89e2d3	-0.26930866
201	0x3e2a5f70	0.16637969
202	0xbe668bfd	-0.22514339
203	0x3cbaaa00	0.02278614
204	0x3d64b098	0.055832475
205	0x3e7e5482	0.24836925
206	0x3e286b08	0.16447079
207	0x3e79e8d6	0.24405226
208	0xbcba25e0	-0.022723138
209	0x3e827ac7	0.25484297
210	0xbe84c282	-0.25929648
211	0xbd8e6d6c	-0.06954464
212	0x3e91b67d	0.2845954
213	0x3d8290a0	0.06375241
214	0x3e891b37	0.26778576
215	0xbda680d6	-0.08130042
216	0xbe5b72fc	-0.21430582
217	0xbe275a5a	-0.1634306
218	0x3e44375c	0.19161743
219	0x3d8d5750	0.06901419
220	0xbe95ca3d	-0.29255858
221	0x3d8e21d0	0.06940043
222	0x3e8efff3	0.2792965
223	0x3e3e4d1a	0.185841
224	0xbd210100	-0.039307594
225	0xbe98dbc6	-0.29855174
226	0x3d072e78	0.0330033
227	0x3e89a03f	0.2688007
228	0xbe9c9538	-0.30582595
229	0x3d3bf6d0	0.045889676
230	0xbe9b529e	-0.3033647
231	0xbd455858	-0.048179954
232	0xbe993786	-0.29925174
233	0xbd5b69c0	-0.053567648
234	0xbe8997ca	-0.26873618
235	0xbdf87280	-0.12131214
236	0xbe8c5052	-0.2740503
237	0xbdfc3650	-0.12315047
238	0xbe695984	-0.22788054
239	0xbe23e9e3	-0.1600719
240	0xbe05a294	-0.130503
241	0x3c662260	0.014046282
242	0xbe976f8e	-0.29577297
243	0xbe536180	-0.20642662
244	0xbe7125b8	-0.23549545
245	0x3e8826d7	0.26592132
246	0x3e7dae56	0.24773535
247	0xbe28e575	-0.16493781
248	0xbe2755e5	-0.1634136
249	0xbe197673	-0.14986591
250	0xbe65c4ae	-0.22438309
251	0xbe4b21f8	-0.19837177
252	0xbe14134a	-0.14460483
253	0x3e2028ae	0.15640518
254	0x3e30f224	0.1727987
255	0xbd7f5330	-0.062335193

bias f4 [32]
0	0x00000000	0.0
1	0x00000000	0.0
2	0x00000000	0.0
3	0x00000000	0.0
4	0x00000000	0.0
5	0x00000000	0.0
6	0x00000000	0.0
7	0x00000000	0.0
8	0x00000000	0.0
9	0x00000000	0.0
10	0x00000000	0.0
11	0x00000000	0.0
12	0x00000000	0.0
13	0x00000000	0.0
14	0x00000000	0.0
15	0x00000000	0.0
16	0x00000000	0.0
17	0x00000000	0.0
18	0x00000000	0.0
19	0x00000000	0.0
20	0x00000000	0.0
21	0x00000000	0.0
22	0x00000000	0.0
23	0x00000000	0.0
24	0x00000000	0.0
25	0x00000000	0.0
26	0x00000000	0.0
27	0x00000000	0.0
28	0x00000000	0.0
29	0x00000000	0.0
30	0x00000000	0.0
31	0x00000000	0.0

weight f4 [24, 32]
0	0x3e97ced6	0.2964999
1	0x3e79c5cc	0.2439186
2	0x3e01825c	0.12647384
3	0xbd7c7dc0	-0.061643362
4	0x3dd9a790	0.10627663
5	0x3e9bf240	0.3045826
6	0x3ea00fc6	0.31262034
7	0xbe6b5062	-0.22979882
8	0x3d9007fc	0.07032773
9	0x3e355c98	0.17711103
10	0xbd3cd868	-0.04610482
11	0x3c62e5a0	0.013848692
12	0xbe8544ac	-0.26028955
13	0x3e32bfa4	0.17455918
14	0x3e8ddfc2	0.27709776
15	0x3ea328a8	0.31866956
16	0x3e885406	0.26626605
17	0xbe4f5f8b	-0.2025129
18	0x3ea06ba6	0.3133213
19	0xbd5da9d8	-0.054117054
20	0x3e9e5934	0.30927432
21	0x3e58c9f0	0.21170783
22	0xbe8f5122	-0.27991587
23	0xbe49e90d	-0.19717808
24	0x3e385dbc	0.18004507
25	0xbe908db3	-0.28233108
26	0xbe58fbd6	-0.21189818
27	0x3e942bc4	0.2893964
28	0x3e264976	0.1623896
29	0xbe907314	-0.28212798
30	0x3de040c4	0.10949853
31	0x3e393170	0.18085265
32	0xbe0e3272	-0.13886431
33	0x3d320c30	0.043468654
34	0xbe89fbb7	-0.26949856
35	0xbe9721f7	-0.295181
36	0xbe8c6675	-0.2742192
37	0x3e685e3c	0.22692198
38	0x3b909540	0.0044123232
39	0xbdbf4f3c	-0.09341285
40	0x3d22f578	0.03978488
41	0x3e441904	0.19150168
42	0x3d5acc28	0.053417355
43	0x3d5cf820	0.053947568
44	0x3e1d048c	0.15333766
45	0xbe51e388	-0.20496953
46	0xbe3d65df	-0.18495892
47	0x3d91ee6c	0.071255535
48	0xbe502d1b	-0.20329706
49	0x3d890c58	0.066918075
50	0x3e1abe28	0.15111601
51	0x3dae51d0	0.08511698
52	0xbe9d78c4	-0.307562
53	0x3de7ecac	0.113244385
54	0x3d31ac00	0.043376923
55	0x3e0a3240	0.13495731
56	0x3d867610	0.065654874
57	0x3dad2384	0.0845404
58	0x3e8c67ce	0.27422947
59	0xbe612e02	-0.21990207
60	0xbcde4fd0	-0.027137667
61	0xbe24ac26	-0.16081294
62	0x3e6bd754	0.2303136
63	0xbe90ad3c	-0.28257167
64	0x3e8d4f16	0.275994
65	0x3dc9585c	0.09831306
66	0xbe95ac3a	-0.2923296
67	0x3cbaf6d0	0.022822767
68	0xbe30ce5b	-0.17266218
69	0x3ea055e2	0.31315523
70	0xbe136f5f	-0.14397953
71	0x3dc7baa4	0.09752396
72	0x3e272c78	0.16325557
73	0xbe7d4c41	-0.2473612
74	0x3e19e5dc	0.1502909
75	0x3e511fe8	0.20422328
76	0xbd86aff8	-0.06576532
77	0x3e72b878	0.23703182
78	0xbd0cf500	-0.034413338
79	0xbe130dd7	-0.14360748
80	0x3e9232b0	0.28554296
81	0xbd3941f8	-0.04522893
82	0x3e0a6e1c	0.13518566
83	0x3e86a7b8	0.26299834
84	0xbe81727e	-0.25282663
85	0x3d0ad620	0.03389561
86	0x3db9bcdc	0.09069225
87	0xbd5b7a80	-0.053583622
88	0x3ea0a804	0.31378186
89	0x3e078536	0.1323441
90	0xbe49ee79	-0.19719876
91	0xbea6597b	-0.32490143
92	0xbe203c77	-0.15648066
93	0xbdf6e5c0	-0.1205554
94	0xbd2d8cf0	-0.042370737
95	0x3df1a748	0.117994845
96	0xbd9e26f4	-0.077222735
97	0x3d4c7040	0.049911737
98	0x3d2ce060	0.04220617
99	0x3d905dd8	0.07049149
100	0x3e3ba464	0.18324429
101	0xbe186201	-0.14881136
102	0xbe5d9f31	-0.21642758
103	0x3e89e1a6	0.2692997
104	0xbdd232ea	-0.10263617
105	0xbe8f08c5	-0.27936378
106	0x3e6057ac	0.21908444
107	0xbda24c50	-0.07924712
108	0xbe5df4dc	-0.21675438
109	0xbe41e286	-0.18934068
110	0xbe7d52a8	-0.24738562
111	0xbe9f0850	-0.3106103
112	0x3baab3c0	0.005209416
113	0xbe6f5a6b	-0.23374335
114	0xbc8b9020	-0.017036498
115	0x3ea4b5b2	0.32169873
116	0xbe50994e	-0.20370981
117	0x3e7b86b0	0.24563098
118	0xbce265e0	-0.027636468
119	0xbe4a5cda	-0.19761983
120	0x3ea3a620	0.3196268
121	0xbe22d4c7	-0.1590148
122	0xbe18d222	-0.1492391
123	0xbe98a4c2	-0.298132
124	0x3d3035d0	0.04302007
125	0xbe30860c	-0.17238635
126	0xbd8234a8	-0.063577
127	0x3d8b9c50	0.068169236
128	0xbe99a776	-0.30010575
129	0xbe9653d6	-0.29360837
130	0xbe83f75b	-0.25774655
131	0xbe880850	-0.26568842
132	0x3d0695f0	0.032857835
133	0xbe9e3bc8	-0.30904984
134	0xbcf50d90	-0.029913694
135	0x3e35fb30	0.17771602
136	0xbd9e9d34	-0.07744828
137	0x3e80a138	0.25123
138	0x3de39a5c	0.11113426
139	0x3e7cab34	0.24674684
140	0xbcc3b040	-0.023887753
141	0xbd849340	-0.06473398
142	0x3e7cefc8	0.24700844
143	0xbd81cc80	-0.063378334
144	0x3e864a1c	0.26228416
145	0x3e94adf6	0.29038972
146	0x3da6ca5c	0.08144066
147	0xbe8cc781	-0.2749596
148	0x3e0ca248	0.1373378
149	0x3e8cd974	0.27509654
150	0x3d7f3960	0.062310576
151	0xbe99557e	-0.29948038
152	0x3e6720b0	0.22571063
153	0x3e8d9e32	0.27659756
154	0x3bc7f0c0	0.0061016977
155	0xbc217320	-0.009854108
156	0xbe8b1aea	-0.2716897
157	0xbe94d061	-0.2906523
158	0xbe3d7ae1	-0.18503906
159	0xbe853c13	-0.26022395
160	0xbe55bd07	-0.2087289
161	0x3e0b023c	0.13575071
162	0xbe1695a1	-0.14705516
163	0xbc341920	-0.010992318
164	0x3e58fa3c	0.21189207
165	0x3e8da376	0.27663773
166	0xbe9bb93a	-0.30414754
167	0xbde73b7c	-0.112906426
168	0x3d7d2eb8	0.061812133
169	0xbe08509f	-0.13312005
170	0xbe963c1b	-0.29342732
171	0x3e07be18	0.13256109
172	0xbd0c0090	-0.034180224
173	0xbe804c98	-0.25058436
174	0x3e89a0f0	0.26880598
175	0xbc19fee0	-0.009399146
176	0x3e26e83c	0.16299528
177	0x3e84155c	0.25797546
178	0x3ea1bac2	0.31587797
179	0xbcfedba0	-0.031110585
180	0x3d0626e0	0.032751918
181	0xbe138db1	-0.1440952
182	0x3e2cbf92	0.16869953
183	0xbe9962e6	-0.29958266
184	0xbe2b70dd	-0.16742273
185	0x3e81fea0	0.25389576
186	0xbe12e72c	-0.14345998
187	0x3e21756c	0.15767449
188	0xbbb062c0	-0.0053828657
189	0xbe4ab32d	-0.19794913
190	0x3e8008ae	0.25006622
191	0xbe8461db	-0.25855908
192	0x3e78efbc	0.24310201
193	0x3e435218	0.19074285
194	0x3e654578	0.22389781
195	0x3e173374	0.14765722
196	0x3e71c1b8	0.23609054
197	0x3e8dd058	0.27698016
198	0x3cd91b70	0.026502341
199	0x3e339380	0.17536736
200	0x3db40d78	0.087916315
201	0x3e6d6cd8	0.23186052
202	0xbd8124e8	-0.063058674
203	0x3e899794	0.26873457
204	0xbdfaad3a	-0.122400716
205	0xbc090060	-0.008361906
206	0x3d3ac9a0	0.04560244
207	0xbe03a3c3	-0.12855439
208	0xbdf735be	-0.120707974
209	0x3e86e372	0.26345402
210	0x3e9f09be	0.3106212
211	0x3e864a34	0.26228487
212	0x3d82bc44	0.06383565
213	0x3e8b3c44	0.27194417
214	0x3e1bf6ce	0.15230867
215	0x3e1e8874	0.1548174
216	0xbdff8fe6	-0.12478618
217	0x3d89ddd0	0.067317605
218	0x3db0d514	0.086343914
219	0x3e09b148	0.13446534
220	0x3e93cdec	0.28868043
221	0x3e4eea44	0.20206553
222	0xbd872b18	-0.06600016
223	0xbe92b1d6	-0.28651303
224	0xbe696028	-0.22790587
225	0x3de46b5c	0.1115329
226	0xbe0c45c5	-0.1369849
227	0x3e94cbbc	0.29061687
228	0x3d59d9b0	0.05318612
229	0xbd003e28	-0.031309277
230	0x3e83ca6a	0.25740367
231	0x3c646000	0.013938904
232	0x3e00ec50	0.12590146
233	0x3d463580	0.048390865
234	0x3e827520	0.25479984
235	0xbcef6bb0	-0.029226154
236	0xbe1007d5	-0.14065488
237	0x3e4e58a8	0.20151007
238	0x3e97b4b2	0.29630047
239	0x3dee54f8	0.116373
240	0x3dd70870	0.10499656
241	0x3da30154	0.07959238
242	0xbdb8492a	-0.0899833
243	0x3d133c78	0.03594634
244	0xbc266280	-0.01015532
245	0xbcc64750	-0.024203926
246	0xbe7cb9c4	-0.24680239
247	0x3da5637c	0.08075616
248	0x3c945260	0.018105686
249	0x3df117b0	0.11772096
250	0xbe89b63a	-0.2689684
251	0x3d0b37f8	0.033988923
252	0xbe515bc8	-0.20445168
253	0xbe808b84	-0.25106442
254	0xbae77b00	-0.0017660558
255	0xbe78f0ac	-0.24310559

bias f4 [24]
0	0x00000000	0.0
1	0x00000000	0.0
2	0x00000000	0.0
3	0x00000000	0.0
4	0x00000000	0.0
5	0x00000000	0.0
6	0x00000000	0.0
7	0x00000000	0.0
8	0x00000000	0.0
9	0x00000000	0.0
10	0x00000000	0.0
11	0x00000000	0.0
12	0x00000000	0.0
13	0x00000000	0.0
14	0x00000000	0.0
15	0x00000000	0.0
16	0x00000000	0.0
17	0x00000000	0.0
18	0x00000000	0.0
19	0x00000000	0.0
20	0x00000000	0.0
21	0x00000000	0.0
22	0x00000000	0.0
23	0x00000000	0.0

weight f4 [16, 24]
0	0xbe188e6d	-0.14898081
1	0x3c246500	0.010033846
2	0xbe30ba64	-0.17258602
3	0x3e80d8d2	0.2516542
4	0xbde38974	-0.111102015
5	0x3e1763cc	0.14784163
6	0xbe89aae0	-0.2688818
7	0xbe9abe65	-0.30223384
8	0xbe4652f4	-0.19367582
9	0xbeb0e667	-0.34550783
10	0xbe349d8a	-0.17638221
11	0x3e176980	0.14786339
12	0xbe512e8b	-0.20427911
13	0xbe5d93ba	-0.21638384
14	0x3d9ab8a8	0.07554752
15	0xbe927760	-0.286067
16	0xbebf677c	-0.3738364
17	0x3e8e6816	0.27813786
18	0x3e4f0d68	0.20219958
19	0x3e592eb4	0.21209222
20	0x3e5b74fc	0.21431345
21	0xbeb49faa	-0.35278064
22	0x3d4e78c0	0.050408125
23	0x3d1d31e8	0.038377672
24	0x3d3bd020	0.04585278
25	0x3d6f3310	0.058398306
26	0xbd82ac4c	-0.06380519
27	0xbe434ba1	-0.19071819
28	0x3dd6957c	0.10477731
29	0x3e914c84	0.2837869
30	0xbc0ab160	-0.008465141
31	0xbd59c868	-0.053169638
32	0x3eaf0a54	0.34187567
33	0x3ea928a2	0.33038813
34	0xbe1eb8d0	-0.15500188
35	0xbe895791	-0.2682462
36	0xbeb07d23	-0.34470472
37	0x3e27cd18	0.16386831
38	0x3ce37270	0.027764529
39	0xbeb0faa0	-0.34566212
40	0x3e21f5d8	0.15816438
41	0xbda1d56c	-0.07902035
42	0x3cee5b20	0.029096186
43	0x3e4f6e80	0.20256996
44	0xbe8ab46d	-0.2709078
45	0xbe43f544	-0.1913653
46	0xbec5994c	-0.3859352
47	0x3e7eabf0	0.24870276
48	0x3e60e8e4	0.2196384
49	0x3dd88558	0.10572308
50	0x3dcf56b0	0.10123956
51	0xbeaf2a32	-0.3421188
52	0xbe1f98a6	-0.15585575
53	0x3d547538	0.0518696
54	0x3e811236	0.25209206
55	0x3d285d48	0.041104585
56	0x3ea12306	0.31472033
57	0x3eaab640	0.3334217
58	0x3ebc00e8	0.3671944
59	0x3eb4f210	0.3534093
60	0xbeb01b6f	-0.3439593
61	0x3e5b090c	0.2139017
62	0xbd26eb68	-0.040751845
63	0xbbba5840	-0.0056867898
64	0x3e4185f0	0.1889875
65	0xbe5a5bb1	-0.2132404
66	0xbe661cbe	-0.22471902
67	0x3e936be6	0.28793257
68	0xbea7b515	-0.32755342
69	0xbd9a6e08	-0.07540518
70	0x3e1d24ac	0.1534602
71	0x3cc5fed0	0.024169356
72	0x3ebd562e	0.36979812
73	0xbeb2b2dd	-0.34902087
74	0xbc697400	-0.014248848
75	0x3e85d9a6	0.26142615
76	0xbd8d9490	-0.06913102
77	0x3e4aa520	0.19789553
78	0xbec617b4	-0.3868996
79	0xbdfc51dc	-0.12320301
80	0x3e933b46	0.2875616
81	0x3ea64234	0.32472384
82	0x3e5d6a7c	0.21622652
83	0x3d6d4878	0.05793044
84	0x3eb85220	0.36000156
85	0x3e81c1c2	0.25343138
86	0x3eab5584	0.3346368
87	0x3e429664	0.19002682
88	0xbe8d8271	-0.2763858
89	0xbe8b1d01	-0.27170566
90	0xbb9d5e00	-0.0048024654
91	0xbcea2070	-0.02857992
92	0x3d93c104	0.07214549
93	0x3e9ca90e	0.30597728
94	0xbd021578	-0.031758755
95	0x3a78ba00	0.00094881654
96	0xbdef17d0	-0.11674464
97	0xbd30ac98	-0.04313335
98	0x3e9fe6e2	0.31230837
99	0x3d968a2c	0.07350573
100	0xbea13a6c	-0.31489885
101	0x3e8fc546	0.28080195
102	0x3e641698	0.22274244
103	0x3ec249de	0.3794698
104	0x3dcca42c	0.09992251
105	0x3e7194fc	0.2359199
106	0xbd950bb8	-0.07277626
107	0x3e23f71c	0.16012233
108	0x3cafe660	0.021472156
109	0x3e057480	0.13032722
110	0x3e2d2b74	0.16911107
111	0xbe08bd36	-0.13353428
112	0x3dcd4748	0.100233614
113	0xbe1d7f2d	-0.15380545
114	0x3eb95ca0	0.3620348
115	0xbeaae7b7	-0.3337991
116	0xbcdc5e60	-0.02690047
117	0xbd9c3438	-0.076271474
118	0xbe13c396	-0.14430079
119	0xbebc8548	-0.36820436
120	0xbe264c1a	-0.16239968
121	0x3e1d9650	0.15389371
122	0xbe97d3e0	-0.29653835
123	0xbeb7d16a	-0.35901958
124	0xbe9b5386	-0.3033716
125	0x3bd104c0	0.00637874
126	0x3de0e530	0.10981214
127	0x3d700e78	0.05860755
128	0x3e937934	0.28803408
129	0xbd917778	-0.07102865
130	0x3d947e74	0.072506815
131	0x3eb61a6e	0.3556704
132	0x3db8ab68	0.09017068
133	0x3ec02a6c	0.37532365
134	0x3e890f22	0.26769358
135	0xbe4cef34	-0.20013124
136	0x3e9db486	0.3080179
137	0xbec18240	-0.37794685
138	0xbe537cba	-0.20653048
139	0xbe8de508	-0.277138
140	0x3eb7ddba	0.3591135
141	0x3e68167c	0.22664827
142	0xbe409d0c	-0.18809909
143	0x3e4f28c8	0.202304
144	0xbec15ca3	-0.3776599
145	0xbd5144a8	-0.051090866
146	0xbe8ce4b8	-0.2751825
147	0x3e453254	0.1925748
148	0x3e28913c	0.16461653
149	0x3d97e6e4	0.07417086
150	0xbe958dbb	-0.29209694
151	0xbe3d9fbc	-0.18517965
152	0x3d3dcd70	0.0463385
153	0xbe666f78	-0.2250346
154	0x3de45f30	0.11150968
155	0xbe9f96e3	-0.31169805
156	0x3d9a58dc	0.0753648
157	0x3ea5a9b4	0.32356036
158	0xbe84bd1a	-0.25925523
159	0x3e437f98	0.19091642
160	0x3e163604	0.14669043
161	0x3e38af6c	0.18035668
162	0x3d7a9430	0.06117648
163	0xbde27c40	-0.11058855
164	0x3e2bfbd8	0.1679529
165	0xbeb9f849	-0.3632224
166	0x3e276a6c	0.1634919
167	0x3d1d8da0	0.038465142
168	0xbe492e70	-0.19646621
169	0xbdc7114c	-0.09720096
170	0x3e553708	0.20821774
171	0x3da445f8	0.08021158
172	0xbe8561d2	-0.26051193
173	0x3e6977f4	0.22799665
174	0xbea4f540	-0.3221836
175	0x3e77c17c	0.24194902
176	0xbeb495c5	-0.35270515
177	0xbe2c39e0	-0.16818953
178	0x3e017c18	0.12644994
179	0x3e847b44	0.25875294
180	0x3ebd01ae	0.36915344
181	0x3e609748	0.21932709
182	0xbdab3da0	-0.083613634
183	0xbe9d1d3b	-0.30686364
184	0xbe60a3ec	-0.21937531
185	0x3de02198	0.109439075
186	0xbdc67034	-0.0968937
187	0xbe9742f1	-0.2954326
188	0x3e79f914	0.24411422
189	0x3dfeca08	0.12440878
190	0xbd4d56f0	-0.05013174
191	0xbec47333	-0.3836914
192	0x3e0d59a8	0.13803732
193	0x3c9d6540	0.019213319
194	0x3a08c000	0.00052165985
195	0x3e1045e8	0.14089167
196	0xbe2c6917	-0.16836964
197	0xbd127aa8	-0.035761505
198	0xbeaf7918	-0.34272075
199	0xbeac28fa	-0.33625013
200	0xbd9a6c50	-0.0754019
201	0xbebd1769	-0.36931923
202	0xbb7ddb00	-0.003873527
203	0xbc9be8a0	-0.019031823
204	0xbe45b720	-0.19308138
205	0xbe9d24ea	-0.30692226
206	0xbeb96340	-0.36208534
207	0x3ebbb8dc	0.36664474
208	0xbe87fc2b	-0.26559576
209	0x3ea0c800	0.31402588
210	0xbe36a06e	-0.17834637
211	0xbe278cf4	-0.16362363
212	0xbe365108	-0.17804348
213	0x3ec13832	0.37738186
214	0xbe5b245c	-0.21400589
215	0xbe620a36	-0.22074208
216	0x3dae43e8	0.08509046
217	0x3e9bcda4	0.3043033
218	0xbeb229c1	-0.3479748
219	0xbe30a321	-0.17249729
220	0x3de794b0	0.11307657
221	0xbdb36a40	-0.087605
222	0x3eb3771e	0.35051817
223	0x3e2c418c	0.16821879
224	0xbe8b0d7e	-0.2715873
225	0xbebf8b78	-0.37411094
226	0x3c91eaf0	0.017812222
227	0x3ea699ac	0.32539117
228	0xbde243e0	-0.110481024
229	0xbea35cde	-0.3190679
230	0x3e70dce4	0.23521763
231	0xbe6cfbf3	-0.23142986
232	0xbd876360	-0.06610751
233	0xbec11057	-0.3770778
234	0x3cdad780	0.026714087
235	0x3e30fbac	0.17283505
236	0xbe009dda	-0.12560216
237	0x3eb9900c	0.36242712
238	0xbeaf73ef	-0.34268138
239	0xbe12a9be	-0.14322564
240	0x3eac567c	0.33659732
241	0xbe0a6718	-0.1351589
242	0xbdaf6be4	-0.085655004
243	0x3ea82f22	0.3284846
244	0x3e47f658	0.19527566
245	0xbdde8c5c	-0.10866615
246	0xbe285c57	-0.16441475
247	0xbebc0c71	-0.36728242
248	0x3e7f4958	0.24930322
249	0x3e223fe4	0.15844685
250	0x3e865662	0.2623778
251	0x3ea20c64	0.31650078
252	0x3cd19b70	0.025586814
253	0x3e22cc24	0.15898186
254	0xbe8795da	-0.26481515
255	0xbec5c767	-0.38628694

bias f4 [16]
0	0x00000000	0.0
1	0x00000000	0.0
2	0x00000000	0.0
3	0x00000000	0.0
4	0x00000000	0.0
5	0x00000000	0.0
6	0x00000000	0.0
7	0x00000000	0.0
8	0x00000000	0.0
9	0x00000000	0.0
10	0x00000000	0.0
11	0x00000000	0.0
12	0x00000000	0.0
13	0x00000000	0.0
14	0x00000000	0.0
15	0x00000000	0.0

weight f4 [8, 16]
0	0xbede8402	-0.4346009
1	0xbe0c72ac	-0.13715619
2	0xbedb9bc2	-0.4289227
3	0xbedcc038	-0.431154
4	0xbdb2ca68	-0.08730012
5	0xbea9706e	-0.3309359
6	0xbebd53e6	-0.36978072
7	0xbea1a288	-0.31569314
8	0xbdef0470	-0.11670768
9	0xbd99b988	-0.075060904
10	0xbe9f4392	-0.3110624
11	0x3ed5d8a6	0.41766852
12	0xbde97ff8	-0.11401361
13	0xbd8a6a08	-0.06758505
14	0xbded1f50	-0.11578238
15	0x3eb40688	0.35161233
16	0xbea538c2	-0.32269865
17	0x3e4597a8	0.19296134
18	0x3ed91552	0.4239908
19	0xbe976d06	-0.29575366
20	0xbec0bd8a	-0.37644607
21	0x3e52c37c	0.20582384
22	0x3ee387f0	0.4443965
23	0xbeb5c1c4	-0.35499394
24	0xbeeaee0e	-0.45884746
25	0x3ed47f22	0.41503245
26	0xbe86db56	-0.26339215
27	0xbed96a04	-0.42463696
28	0x3ddaf650	0.10691512
29	0xbe4b0f8c	-0.1983015
30	0xbde0d698	-0.109784305
31	0xbe9c3d72	-0.3051563
32	0xbda4e280	-0.08051014
33	0x3ed5317e	0.41639322
34	0xbdba1760	-0.0908649
35	0x3e21094c	0.15726203
36	0xbeddf262	-0.43348986
37	0x3e17e728	0.14834273
38	0xbef4551e	-0.4772119
39	0xbe42fb8c	-0.1904127
40	0xbee8ef1e	-0.45494932
41	0x3efc453e	0.49271578
42	0x3ed642b4	0.41847765
43	0xbeed79de	-0.4638204
44	0xbe0d8490	-0.138201
45	0xbe53ff74	-0.20702916
46	0xbcf4aaa0	-0.029866517
47	0xbe0fe7a4	-0.14053208
48	0x3ed3abb8	0.41341949
49	0xbebb3354	-0.36562598
50	0xbec79316	-0.38979405
51	0x3da23578	0.079203546
52	0x3ed9b9f4	0.42524683
53	0x3ee50cf8	0.44736457
54	0xbee35fd2	-0.44409043
55	0xbebfd6fa	-0.37468702
56	0x3ef0e110	0.4704671
57	0xbe18267c	-0.1485843
58	0xbea6146a	-0.3243745
59	0xbe531330	-0.20612788
60	0x3ed95c38	0.4245317
61	0x3e95d086	0.29260653
62	0x3e9f3546	0.31095332
63	0xbe9b2148	-0.3029883
64	0x3e4ae550	0.19814038
65	0xbe0ab860	-0.13546896
66	0x3ecec34e	0.4038338
67	0xbef5d092	-0.4801069
68	0xbdb35b98	-0.087577045
69	0x3d89cd80	0.06728649
70	0x3e43fe84	0.19140059
71	0x3e722678	0.23647487
72	0xbed15a3e	-0.40889162
73	0x3ef97ca8	0.48727918
74	0x3ec9bdde	0.3940267
75	0xbe4996fc	-0.19686502
76	0x3db94868	0.090470135
77	0xbece76e4	-0.4032508
78	0xbeb5a658	-0.35478473
79	0xbdfdd9a0	-0.12395024
80	0x3ed50f70	0.4161334
81	0xbea44898	-0.32086635
82	0x3ea21f08	0.316643
83	0x3ebffe6c	0.37498796
84	0xbe3087c4	-0.1723929
85	0xbea5b864	-0.3236724
86	0x3edb4432	0.42825466
87	0x3e1c4ab0	0.15262866
88	0x3edb620a	0.42848235
89	0x3e3468fc	0.17618173
90	0x3dc8c2e8	0.098028004
91	0x3e5e4224	0.21704918
92	0xbe96aff0	-0.29431105
93	0xbe8ee29a	-0.27907258
94	0x3c0ce840	0.008600295
95	0xbed367be	-0.41290087
96	0xbec41e2e	-0.38304275
97	0xbe65cb6c	-0.2244088
98	0xbec4ab2c	-0.38411844
99	0x3e9e3d50	0.30906153
100	0x3ef34e38	0.47520614
101	0x3e45ed28	0.19328749
102	0xbe844216	-0.2583167
103	0x3d5dec10	0.054180205
104	0x3e2fab04	0.17155081
105	0xbe436060	-0.19079733
106	0x3e4df10c	0.20111483
107	0xbe195f14	-0.14977676
108	0xbee5c3e0	-0.44876003
109	0x3eb4b54a	0.35294563
110	0xbcb14c60	-0.021642864
111	0xbdf5fa30	-0.1201061
112	0xbea7cd6a	-0.32773906
113	0xbe941558	-0.28922534
114	0x3e709acc	0.2349655
115	0x3ec4ee04	0.38462842
116	0xbea28bfc	-0.31747425
117	0xbeea2e26	-0.45738333
118	0x3ee5f4c8	0.44913316
119	0xbedbd006	-0.42932147
120	0x3ea2ca26	0.31794852
121	0x3e894e74	0.26817667
122	0x3e61a12c	0.22034138
123	0xbe6311b4	-0.22174722
124	0x3db03b10	0.08605015
125	0x3e09009c	0.13379139
126	0xbe139f04	-0.14416128
127	0x3e7b39d0	0.24533772

bias f4 [8]
0	0x00000000	0.0
1	0x00000000	0.0
2	0x00000000	0.0
3	0x00000000	0.0
4	0x00000000	0.0
5	0x00000000	0.0
6	0x00000000	0.0
7	0x00000000	0.0

weight f4 [4, 8]
0	0xbeb1c95e	-0.34723943
1	0x3db77360	0.08957553
2	0xbd6643a0	-0.056216836
3	0x3be0fb80	0.0068659186
4	0xbef206f6	-0.47270936
5	0xbd1b0710	-0.037848532
6	0x3ed8e2de	0.42360586
7	0xbe7a24da	-0.2442812
8	0x3f0bfb79	0.5468059
9	0x3f2344b1	0.6377669
10	0x3db80c20	0.08986688
11	0x3de20910	0.11036885
12	0xbedc0812	-0.42974907
13	0x3e5080dc	0.20361656
14	0x3edc02ae	0.42970794
15	0xbf2a63e4	-0.6655867
16	0xbe7039ea	-0.23459592
17	0xbf076007	-0.528809
18	0x3f2f2f91	0.68431956
19	0xbca079a0	-0.019589245
20	0xbf117a0c	-0.56826854
21	0xbdcdee88	-0.10055262
22	0x3f0b2a33	0.54361266
23	0xbf1a0df6	-0.6017755
24	0xbf0e193b	-0.5550725
25	0xbf20c2fa	-0.6279751
26	0xbf14bf79	-0.58104664
27	0x3cd3ec60	0.025869548
28	0xbefa7080	-0.48913956
29	0xbe05eda4	-0.13078934
30	0xbd872ee8	-0.066007435
31	0x3e130d88	0.1436063

bias f4 [4]
0	0x00000000	0.0
1	0x00000000	0.0
2	0x00000000	0.0
3	0x00000000	0.0

weight f4 [2, 4]
0	0xbf565e20	-0.83737373
1	0xbe940a68	-0.2891419
2	0x3f3f8dd2	0.74825776
3	0x3f01d6d6	0.5071844
4	0x3e772350	0.24134564
5	0x3c7b4d00	0.015338182
6	0xbf6f8b7c	-0.9357221
7	0x3e459ac0	0.19297314

bias f4 [2]
0	0x00000000	0.0
1	0x00000000	0.0

weight f4 [2, 2]
0	0xbf623703	-0.8836519
1	0x3c44c480	0.01200974
2	0xbf599b64	-0.8500273
3	0x3f9b5e51	1.2138158

bias f4 [2]
0	0x00000000	0.0
1	0x00000000	0.0
