serology/results_intermediate_encoders_2/models/5fold/protection_classifier_9.pt (torch, 29537 bytes, 38 tensors)

weight f4 [32]
1.0 1.0 1.0 1.0 1.0 1.0 1.0 1.0
1.0 1.0 1.0 1.0 1.0 1.0 1.0 1.0
1.0 1.0 1.0 1.0 1.0 1.0 1.0 1.0
1.0 1.0 1.0 1.0 1.0 1.0 1.0 1.0
00000000: 0000 803f 0000 803f 0000 803f 0000 803f
00000010: 0000 803f 0000 803f 0000 803f 0000 803f
00000020: 0000 803f 0000 803f 0000 803f 0000 803f
00000030: 0000 803f 0000 803f 0000 803f 0000 803f
00000040: 0000 803f 0000 803f 0000 803f 0000 803f
00000050: 0000 803f 0000 803f 0000 803f 0000 803f
00000060: 0000 803f 0000 803f 0000 803f 0000 803f
00000070: 0000 803f 0000 803f 0000 803f 0000 803f

bias f4 [32]
0.0 0.0 0.0 0.0 0.0 0.0 0.0 0.0
0.0 0.0 0.0 0.0 0.0 0.0 0.0 0.0
0.0 0.0 0.0 0.0 0.0 0.0 0.0 0.0
0.0 0.0 0.0 0.0 0.0 0.0 0.0 0.0
00000000: 0000 0000 0000 0000 0000 0000 0000 0000
00000010: 0000 0000 0000 0000 0000 0000 0000 0000
00000020: 0000 0000 0000 0000 0000 0000 0000 0000
00000030: 0000 0000 0000 0000 0000 0000 0000 0000
00000040: 0000 0000 0000 0000 0000 0000 0000 0000
00000050: 0000 0000 0000 0000 0000 0000 0000 0000
00000060: 0000 0000 0000 0000 0000 0000 0000 0000
00000070: 0000 0000 0000 0000 0000 0000 0000 0000

running_mean f4 [32]
-0.3842036 0.37286392 -0.5870765 0.007933271 -0.468947 0.013380227 0.5186829 -0.19202384
-0.22057107 0.27200967 -0.19256501 -0.09014761 -0.21129869 -0.2224271 0.3443591 0.69651306
0.27424985 0.11441946 0.0137933055 -0.041359305 0.21954468 -0.59805 -0.35466313 0.27215
-0.15120931 0.26030293 -0.41702718 0.22210446 0.50248754 -0.22235242 -0.36682257 0.14029008
00000000: 56b6 c4be 05e8 be3e a54a 16bf 8dfa 013c
00000010: d219 f0be bd38 5b3c 67c8 043f e6a1 44be
00000020: 62dd 61be da44 8b3e c32f 45be 4f9f b8bd
00000030: af5e 58be eec3 63be d64f b03e ae4e 323f
00000040: 7a6a 8c3e c054 ea3d 51fd 613c 6068 29bd
00000050: 52d0 603e ce19 19bf 6896 b5be 3f57 8b3e
00000060: 9dd6 1abe 6d46 853e 9684 d5be 5a6f 633e
00000070: 06a3 003f 5ab0 63be 2bd0 bbbe 34a8 0f3e

running_var f4 [32]
2.1630812 3.0029933 2.230834 0.8570258 1.9301151 3.1463249 4.0060077 2.0632026
1.5480047 2.1385703 1.186422 0.8182194 1.4212298 1.8443637 1.6088648 3.9844627
2.5728033 3.5819423 0.9822462 3.715294 2.8301868 2.881557 3.0199456 2.4991076
2.8346782 4.2428703 2.6027663 1.3782297 2.7305112 3.1296577 1.126986 1.4580181
00000000: ec6f 0a40 0b31 4040 fcc5 0e40 0b66 5b3f
00000010: 030e f73f 635d 4940 3731 8040 830b 0440
00000020: 0525 c63f 56de 0840 addc 973f d476 513f
00000030: dcea b53f 1c14 ec3f 48ef cd3f 7001 7f40
00000040: cfa8 2440 8b3e 6540 7d74 7b3f 60c7 6d40
00000050: c821 3540 6e6b 3840 ca46 4140 61f1 1f40
00000060: 5e6b 3540 98c5 8740 b993 2640 d569 b03f
00000070: b2c0 2e40 504c 4840 1441 903f 56a0 ba3f

weight f4 [24]
1.0 1.0 1.0 1.0 1.0 1.0 1.0 1.0
1.0 1.0 1.0 1.0 1.0 1.0 1.0 1.0
1.0 1.0 1.0 1.0 1.0 1.0 1.0 1.0
00000000: 0000 803f 0000 803f 0000 803f 0000 803f
00000010: 0000 803f 0000 803f 0000 803f 0000 803f
00000020: 0000 803f 0000 803f 0000 803f 0000 803f
00000030: 0000 803f 0000 803f 0000 803f 0000 803f
00000040: 0000 803f 0000 803f 0000 803f 0000 803f
00000050: 0000 803f 0000 803f 0000 803f 0000 803f

bias f4 [24]
0.0 0.0 0.0 0.0 0.0 0.0 0.0 0.0
0.0 0.0 0.0 0.0 0.0 0.0 0.0 0.0
0.0 0.0 0.0 0.0 0.0 0.0 0.0 0.0
00000000: 0000 0000 0000 0000 0000 0000 0000 0000
00000010: 0000 0000 0000 0000 0000 0000 0000 0000
00000020: 0000 0000 0000 0000 0000 0000 0000 0000
00000030: 0000 0000 0000 0000 0000 0000 0000 0000
00000040: 0000 0000 0000 0000 0000 0000 0000 0000
00000050: 0000 0000 0000 0000 0000 0000 0000 0000

running_mean f4 [24]
-0.06381154 -0.3280573 -0.5746987 -0.4464757 0.24437845 0.03993258 -0.3282427 -0.170869
-0.43227297 0.8416486 -0.20883243 0.56449467 -0.027894545 0.5339474 0.53547746 0.002819819
0.1346498 -0.36071056 0.40241882 -0.053010654 -0.0336563 0.047573198 0.10837116 -0.54985595
00000000: a0af 82bd 20f7 a7be 741f 13bf 7798 e4be
00000010: 583e 7a3e 5890 233d 6d0f a8be 48f8 2ebe
00000020: e252 ddbe 4876 573f 2bd8 55be b982 103f
00000030: 1a83 e4bc c7b0 083f 0d15 093f b6cc 383b
00000040: a3e1 093e 0eaf b8be d709 ce3e b321 59bd
00000050: 30db 09bd 1ddc 423d b3f1 dd3d 5cc3 0cbf

running_var f4 [24]
0.26037323 0.7146791 0.68013585 0.6662433 0.35305133 0.53823155 0.47408736 0.53965324
0.5889522 0.36290532 0.5231595 0.5198907 0.50353485 0.85624015 0.29636222 0.33846325
0.41125384 0.384166 0.6195685 0.4563417 0.6887543 0.40907145 0.47433996 0.50013036
00000000: a44f 853e 36f5 363f 621d 2e3f ec8e 2a3f
00000010: 25c3 b43e 8bc9 093f 94bb f23e b726 0a3f
00000020: 92c5 163f bace b93e c8ed 053f 8f17 053f
00000030: a9e7 003f 8e32 5b3f cabc 973e 0e4b ad3e
00000040: dd8f d23e 68b1 c43e 0b9c 1e3f 9fa5 e93e
00000050: 3452 303f d071 d13e b0dc f23e 8b08 003f

weight f4 [16]
1.0 1.0 1.0 1.0 1.0 1.0 1.0 1.0
1.0 1.0 1.0 1.0 1.0 1.0 1.0 1.0
00000000: 0000 803f 0000 803f 0000 803f 0000 803f
00000010: 0000 803f 0000 803f 0000 803f 0000 803f
00000020: 0000 803f 0000 803f 0000 803f 0000 803f
00000030: 0000 803f 0000 803f 0000 803f 0000 803f

bias f4 [16]
0.0 0.0 0.0 0.0 0.0 0.0 0.0 0.0
0.0 0.0 0.0 0.0 0.0 0.0 0.0 0.0
00000000: 0000 0000 0000 0000 0000 0000 0000 0000
00000010: 0000 0000 0000 0000 0000 0000 0000 0000
00000020: 0000 0000 0000 0000 0000 0000 0000 0000
00000030: 0000 0000 0000 0000 0000 0000 0000 0000

running_mean f4 [16]
0.4767413 0.30539787 -0.10201714 -0.08270125 -0.63080585 0.72753966 -0.33576784 -0.23731439
-0.10984692 -0.13807543 -0.50083095 0.0008109567 0.110310405 0.20442392 -0.30583236 0.35458833
00000000: 7017 f43e 1c5d 9c3e 5dee d0bd 465f a9bd
00000010: 7e7c 21bf 0a40 3a3f c3e9 abbe 8b02 73be
00000020: 6cf7 e0bd a563 0dbe 7536 00bf 6296 543a
00000030: 6cea e13d 8154 513e 0f96 9cbe 9a8c b53e

running_var f4 [16]
0.4001561 0.41662684 0.4399653 0.22501768 0.26451796 0.60542727 0.555914 0.77146834
0.45377013 0.4802509 0.3528395 0.6694561 0.3010401 0.46275434 0.441911 0.2837129
00000000: 43e1 cc3e 1d50 d53e 2243 e13e 096b 663e
00000010: e66e 873e 48fd 1a3f 6150 0e3f f37e 453f
00000020: 8f54 e83e 72e3 f53e 61a7 b43e 7a61 2b3f
00000030: ee21 9a3e 23ee ec3e 2942 e23e d142 913e

weight f4 [8]
1.0 1.0 1.0 1.0 1.0 1.0 1.0 1.0
00000000: 0000 803f 0000 803f 0000 803f 0000 803f
00000010: 0000 803f 0000 803f 0000 803f 0000 803f

bias f4 [8]
0.0 0.0 0.0 0.0 0.0 0.0 0.0 0.0
00000000: 0000 0000 0000 0000 0000 0000 0000 0000
00000010: 0000 0000 0000 0000 0000 0000 0000 0000

running_mean f4 [8]
-0.3129893 0.17736885 0.6091396 0.60911405 0.21478719 -0.4235592 -0.38094008 -0.2751771
00000000: 2240 a0be 2ea0 353e 93f0 1b3f e6ee 1b3f
00000010: 2cf1 5b3e c0dc d8be 940a c3be 03e4 8cbe

running_var f4 [8]
0.56051815 0.42548698 0.40325123 0.67064726 0.39800406 0.2754853 0.4049586 0.61201644
00000000: 1e7e 0f3f 6ed9 d93e f276 ce3e 8aaf 2b3f
00000010: 30c7 cb3e 690c 8d3e bc56 cf3e 1cad 1c3f

weight f4 [4]
1.0 1.0 1.0 1.0
00000000: 0000 803f 0000 803f 0000 803f 0000 803f

bias f4 [4]
0.0 0.0 0.0 0.0
00000000: 0000 0000 0000 0000 0000 0000 0000 0000

running_mean f4 [4]
0.013601781 0.2756663 -0.13679484 -0.28805932
00000000: 01da 5e3c 2224 8d3e f213 0cbe 837c 93be

running_var f4 [4]
0.65247583 0.35810623 0.5792869 0.3351499
00000000: a808 273f b359 b73e 254c 143f c598 ab3e

weight f4 [2]
1.0 1.0
00000000: 0000 803f 0000 803f

bias f4 [2]
0.0 0.0
00000000: 0000 0000 0000 0000

running_mean f4 [2]
0.9910829 -0.32595053
00000000: 9cb7 7d3f fde2 a6be

running_var f4 [2]
0.7729043 0.5093024
00000000: 0edd 453f a461 023f

weight f4 [32, 32]
0.2294977 -0.12501983 0.10059601 0.22055957 0.20904431 0.20104179 -0.09700604 0.25648817
-0.12116176 0.03471607 0.007813901 0.01782021 0.14994076 0.07425767 -0.20452133 0.30486605
-0.19567704 0.2701613 -0.103143916 0.10947284 0.17755517 -0.030814826 -0.26298445 0.072187304
0.049391508 -0.00031659007 -0.22308186 0.2476748 -0.13281278 -0.22707798 0.21327344 -0.10342118
-0.3018883 -0.2766641 -0.0020597875 -0.14008398 0.055680424 -0.25289485 -0.051193535 -0.21800996
-0.20261401 0.07499844 0.027694404 0.05882722 0.082001925 -0.068810105 -0.18766673 -0.08733752
0.08250335 -0.25546733 0.20655784 -0.24315995 -0.269461 -0.0077009797 0.2071254 -0.05017215
0.0011175871 -0.03351569 0.020847112 0.26133534 -0.29840413 0.16272593 -0.0861339 -0.09204021
-0.12737803 0.017941177 0.04036209 -0.27639407 0.06821683 0.08306494 0.10252878 -0.0327186
0.20269218 -0.18138026 -0.03923601 0.2506092 -0.28495207 -0.3000762 -0.19770962 0.068036854
-0.008298069 -0.2643876 -0.23061076 0.3034033 -0.111041516 -0.11793123 0.29940405 -0.23716173
-0.039442062 0.2646685 0.042071193 -0.2714314 -0.18049188 0.15110105 -0.12648721 0.03736788
-0.17043824 0.13684729 -0.0859053 0.27886298 -0.28396606 -0.12246674 -0.030338228 -0.30476543
-0.11893757 -0.027648121 0.2945527 -0.039819866 -0.030735612 -0.03835863 0.017068863 0.017819166
0.098492414 -0.016615301 0.14679563 0.054820806 -0.16265658 0.070414335 -0.08285752 -0.27935505
-0.3060513 0.10571423 -0.14749596 0.070185155 0.256812 -0.28298807 0.042651176 -0.28622657
-0.30515793 0.2530491 -0.079207346 0.18320742 0.023615122 -0.21617651 0.2998273 -0.28810745
0.12515488 -0.15184258 0.034437627 -0.17692854 0.198818 -0.11777088 0.19976166 -0.18576342
-0.122853875 -0.11168891 -0.21848856 0.150094 0.12081525 -0.20278524 0.26563784 0.024645299
0.22799835 -0.028166026 -0.09108399 -0.011447072 -0.15293908 -0.13289618 0.17444387 -0.2918125
-0.30388862 0.0015931726 -0.081171826 0.08008832 -0.030287385 0.15162939 -0.2685635 -0.29994303
-0.29206374 0.27784166 -0.022271693 -0.27112252 0.19966915 -0.19880106 0.1267601 -0.14827892
0.14766523 0.1756061 0.055725127 -0.031176269 0.1971918 0.24027196 0.25815675 0.097105
0.06498176 0.005991727 -0.07643315 -0.11291394 0.0520598 0.023573488 0.009700716 0.12051377
-0.16038185 -0.18954937 0.29975972 0.14048436 -0.2634583 0.19962707 0.13283157 -0.12186161
-0.08783378 0.23614702 0.20914134 -0.20907864 0.03925994 -0.12509389 -0.087448046 0.075035185
0.1470353 0.22751346 -0.016711056 -0.12585989 -0.24036154 -0.024397999 -0.24473596 0.031229943
0.1917822 -0.014246553 0.2690272 -0.011872739 -0.2073789 -0.13975823 -0.14418173 -0.005044967
-0.16053212 -0.01229462 -0.21146709 -0.021758258 -0.21960679 0.2178984 0.016373128 -0.2393077
0.117608786 -0.225228 0.032436997 0.011404693 -0.278352 -0.018794537 0.30434087 -0.2695706
-0.19092989 -0.17098579 -0.19048433 -0.071228 0.016101211 0.054791242 -0.1359196 -0.16381429
-0.028150916 -0.06748724 -0.05672671 -0.028775573 -0.2192533 0.21222153 0.24007443 -0.24155119
00000000: 7201 6b3e 3305 00be 4805 ce3d 5eda 613e
00000010: b60f 563e e6dd 4d3e 1aab c6bd 6b52 833e
00000020: a823 f8bd 7032 0e3d e005 003c b0fb 913c
00000030: 128a 193e 6814 983d 0a6e 51be 6717 9c3e
00000040: 905f 48be 9552 8a3e 1e3d d3bd 4c33 e03d
00000050: 06d1 353e 606f fcbc e6a5 86be f0d6 933d
00000060: c04e 4a3d 00fc a5b9 926f 64be 769e 7d3e
00000070: 1300 08be 2187 68be 5a64 5a3e 7cce d3bd
00000080: 1a91 9abe eba6 8dbe 80fd 06bb 2d72 0fbe
00000090: 2811 643d 6f7b 81be 50b0 51bd 013e 5fbe
000000a0: 0c7a 4fbe c898 993d 60df e23c d0f4 703d
000000b0: a0f0 a73d 50ec 8cbd b52b 40be 04de b2bd
000000c0: 84f7 a83d 9dcc 82be e683 533e ecfe 78be
000000d0: cbf6 89be 8058 fcbb ae18 543e 5081 4dbd
000000e0: 007c 923a c047 09bd 90c7 aa3c bfcd 853e
000000f0: 6dc8 98be a0a1 263e f866 b0bd 947f bcbd
00000100: 636f 02be 60f9 923c b852 253d 8683 8dbe
00000110: 44b5 8b3d f41d aa3d 9cfa d13d f003 06bd
00000120: 8a8e 4f3e bfbb 39be f0b5 20bd d94f 803e
00000130: 3de5 91be 96a3 99be 6474 4abe e856 8b3d
00000140: a0f4 07bc d05d 87be 3a25 6cbe ad57 9b3e
00000150: bc69 e3bd ee85 f1bd 7d4b 993e 86da 72be
00000160: 008e 21bd a182 873e d852 2c3d 0ef9 8abe
00000170: ddd2 38be 3cba 1a3e dd85 01be 100f 193d
00000180: 5d87 2ebe b221 0c3e 1eef afbd 21c7 8e3e
00000190: 0064 91be d8cf fabd e087 f8bc 370a 9cbe
000001a0: 8a95 f3bd 507e e2bc 9dcf 963e 281a 23bd
000001b0: 40c9 fbbc f01d 1dbd 00d4 8b3c 80f9 913c
000001c0: 64b6 c93d d01c 88bc 9851 163e c88b 603d
000001d0: 728f 26be 6435 903d 34b1 a9bd a007 8fbe
000001e0: c2b2 9cbe b480 d83d 2e09 17be 3cbd 8f3d
000001f0: dd7c 833e d0e3 90be 00b3 2e3d 4a8c 92be
00000200: a93d 9cbe a78f 813e 7637 a2bd ba9a 3b3e
00000210: 8074 c13c 605d 5dbe f782 993e d282 93be
00000220: 9a28 003e 9f7c 1bbe 780e 0d3d c12c 35be
00000230: f296 4b3e dc31 f1bd 528e 4c3e c438 3ebe
00000240: d09a fbbd 28bd e4bd 77bb 5fbe 3eb2 193e
00000250: fc6d f73d efa6 4fbe af01 883e f0e4 c93c
00000260: 6678 693e 70bc e6bc 3e8a babd 808c 3bbc
00000270: 109c 1cbe f015 08be 6aa1 323e 7368 95be
00000280: 4a97 9bbe 00d2 d03a 6a3d a6bd 5805 a43d
00000290: 401d f8bc bc44 1b3e 2881 89be 2292 99be
000002a0: 6189 95be 4341 8e3e 2073 b6bc 92d0 8abe
000002b0: 1276 4c3e 8192 4bbe 66cd 013e 6ed6 17be
000002c0: 8e35 173e 16d2 333e 0840 643d 6065 ffbc
000002d0: a6ec 493e da09 763e 1f2d 843e fcde c63d
000002e0: 2815 853d 4056 c43b fc88 9cbd 6c3f e7bd
000002f0: a83c 553d 301d c13c c0ef 1e3c eccf f63d
00000300: 243b 24be 3b19 42be 1b7a 993e 22db 0f3e
00000310: 02e4 86be 0a6b 4c3e 0005 083e 9492 f9bd
00000320: 32e2 b3bd 86d0 713e 2629 563e b618 56be
00000330: 08cf 203d 9d18 00be f617 b3bd 0cac 993d
00000340: 6c90 163e 4af9 683e a0e5 88bc 6ae1 00be
00000350: 5621 76be 50de c7bc 109c 7abe f0d5 ff3c
00000360: 8e62 443e 606a 69bc efbd 893e e085 42bc
00000370: 225b 54be c81c 0fbe 60a4 13be 4050 a5bb
00000380: 8862 24be 606f 49bc d48a 58be 603e b2bc
00000390: 9ae0 60be c220 5f3e f020 863c 140d 75be
000003a0: e0dc f03d 2ba2 66be a8dc 043d c0da 3a3c
000003b0: 2784 8ebe 00f7 99bc 91d2 9b3e 2805 8abe
000003c0: 2083 43be e616 2fbe 530e 43be fcdf 91bd
000003d0: b0e6 833c c86c 603d 822e 0bbe efbe 27be
000003e0: c09c e6bc c036 8abd 445a 68bd c0ba ebbc
000003f0: f083 60be 9a50 593e 12d6 753e 3259 77be

bias f4 [32]
0.0 0.0 0.0 0.0 0.0 0.0 0.0 0.0
0.0 0.0 0.0 0.0 0.0 0.0 0.0 0.0
0.0 0.0 0.0 0.0 0.0 0.0 0.0 0.0
0.0 0.0 0.0 0.0 0.0 0.0 0.0 0.0
00000000: 0000 0000 0000 0000 0000 0000 0000 0000
00000010: 0000 0000 0000 0000 0000 0000 0000 0000
00000020: 0000 0000 0000 0000 0000 0000 0000 0000
00000030: 0000 0000 0000 0000 0000 0000 0000 0000
00000040: 0000 0000 0000 0000 0000 0000 0000 0000
00000050: 0000 0000 0000 0000 0000 0000 0000 0000
00000060: 0000 0000 0000 0000 0000 0000 0000 0000
00000070: 0000 0000 0000 0000 0000 0000 0000 0000

weight f4 [24, 32]
0.030773371 0.0061581135 -0.1366954 0.062110603 -0.14047696 0.17626578 0.2820235 -0.05837491
-0.22066891 0.1795609 -0.11823669 0.07133579 -0.15601034 0.1758557 -0.17285888 0.16320181
0.27596515 -0.15361005 0.12583405 0.30780226 0.107699305 0.19590509 0.18291044 -0.25952542
0.063082665 -0.06630081 -0.26281524 -0.25840178 -0.19871688 -0.29881856 -0.18889393 0.045955807
-0.30365527 -0.25134552 0.23916543 -0.022539228 -0.16275525 0.04082364 -0.2449922 0.12830403
0.25172746 -0.17742755 -0.049593925 0.17920709 0.24586558 -0.3186555 0.14414942 -0.17885028
-0.070480525 -0.09916684 0.07861337 0.28814155 -0.09118873 -0.0149564445 0.16291708 -0.08431676
-0.20176601 -0.034561336 0.23469472 -0.21039847 -0.041027933 0.06410816 -0.10090402 -0.1993603
-0.23538622 0.16010243 -0.025274009 0.21218652 -0.29730937 -0.16264674 0.29305267 0.11030233
-0.28779697 -0.010276556 -0.018612295 -0.3008496 0.26938003 0.31462252 -0.23834223 -0.13393354
-0.2754107 0.0009160936 0.22670656 -0.3152713 0.17903912 0.09148714 -0.104122 0.007658392
-0.26950586 -0.12825342 -0.3205656 -0.02959323 0.27610564 -0.25868583 -0.20351207 -0.12620738
-0.26986006 0.11082387 0.22267449 -0.14153346 0.2976237 0.13178012 -0.09845783 0.20347404
-0.09024377 0.24988693 0.062309504 -0.12465644 -0.28714788 -0.23140946 -0.026441634 0.06256485
0.14037642 -0.29966527 0.06588727 -0.16100448 0.22314173 -0.16605806 -0.2188758 -0.15047452
-0.16505173 -0.17308821 -0.23302636 -0.19975881 0.3175279 -0.29139397 0.086220086 -0.08424941
-0.140392 -0.11463815 -0.25419036 0.15638605 -0.03668931 -0.3251001 0.25566208 0.16083881
-0.18138964 -0.038885772 0.23084766 -0.026210815 0.03831178 0.18600172 0.2477963 0.08277857
0.11068085 0.12798199 0.16839352 -0.28142768 -0.20549758 -0.31000352 0.18563384 0.2833889
-0.057423383 0.022735864 0.28399938 0.14629197 -0.16889407 0.24253482 -0.15866224 0.07662389
-0.15683968 -0.05677551 0.13946167 0.13663518 0.31275535 -0.32524678 -0.26444054 0.14881217
-0.14483245 0.18941009 0.28987247 0.115941316 0.070652515 0.18258524 0.20591956 -0.12948713
0.10500166 -0.10308929 0.062883824 0.18240482 0.20262712 -0.04788235 -0.21895236 -0.2819457
-0.17797092 0.22554809 -0.29935402 -0.28524643 0.06237492 -0.0153769255 0.1025742 -0.17753497
0.12554872 -0.29316276 0.16904765 0.20201129 0.13353318 -0.30953282 -0.10334346 0.037518352
-0.13206053 -0.03369516 -0.2477077 -0.17488815 -0.30528268 -0.009751171 0.004812628 -0.1689222
-0.24157622 -0.07733336 0.28003198 0.1692951 0.22466087 0.20360881 -0.26471043 0.31332535
-0.24004963 -0.11105682 0.071921974 0.07766679 0.00954321 0.055854768 0.18788558 -0.24463567
-0.061613917 0.06086281 0.07250717 0.08964792 0.28070927 -0.21822166 -0.14565906 0.09318474
0.30179763 0.12096578 -0.21281874 -0.294397 -0.24412513 -0.31889847 0.27628225 0.1714324
-0.023645699 -0.22193219 -0.18903807 -0.031650305 0.30664504 -0.2603126 0.21601546 -0.031820476
-0.18874796 0.29985565 -0.25414208 0.18127024 -0.14307582 -0.22317198 -0.08042565 0.09816447
00000000: 7018 fc3c 00ca c93b e1f9 0bbe b067 7e3d
00000010: 31d9 0fbe 047f 343e 6265 903e 881a 6fbd
00000020: 08f7 61be d0de 373e 1426 f2bd 8018 923d
00000030: 2dc1 1fbe 8413 343e eb01 31be 601e 273e
00000040: 4e4b 8d3e f44b 1dbe a4da 003e 4298 9d3e
00000050: 7491 dc3d 589b 483e e04c 3b3e 84e0 84be
00000060: 7c31 813d b8c8 87bd b88f 86be 3d4d 84be
00000070: 707c 4bbe bffe 98be 696d 41be 283c 3c3d
00000080: b478 9bbe 5cb0 80be c8e7 743e 30a4 b8bc
00000090: 50a9 26be b036 273d 3cdf 7abe 2262 033e
000000a0: 6ce2 803e 91af 35be 0023 4bbd 1082 373e
000000b0: 30c4 7b3e d026 a3be e89b 133e 8724 37be
000000c0: 1858 90bd fc17 cbbd 0c00 a13d 4a87 933e
000000d0: 28c1 babd e00b 75bc bcd3 263e 44ae acbd
000000e0: c09b 4ebe 3090 0dbd d053 703e b272 57be
000000f0: e80c 28bd 244b 833d c4a6 cebd 1b25 4cbe
00000100: 1609 71be e4f1 233e 700b cfbc 6c47 593e
00000110: ef38 98be de8c 26be 000b 963e 30e6 e13d
00000120: 205a 93be 005f 28bc d078 98bc f508 9abe
00000130: 2eec 893e 3416 a13e fc0f 74be e025 09be
00000140: a202 8dbe 0026 703a c425 683e 3d6b a1be
00000150: 0856 373e 9c5d bb3d ea3d d5bd 40f3 fa3b
00000160: acfc 89be dd54 03be 2d21 a4be 806d f2bc
00000170: b85d 8d3e 7872 84be 7865 50be 823c 01be
00000180: 192b 8abe a0f7 e23d c804 643e 26ee 10be
00000190: 2262 983e 5ef1 063e 42a4 c9bd 805b 503e
000001a0: bad1 b8bd 5ce2 7f3e 4038 7f3d e04b ffbd
000001b0: 0c05 93be 9af6 6cbe 209c d8bc 0022 803d
000001c0: d6be 0f3e ba6d 99be e8ef 863d 5cde 24be
000001d0: 447f 643e 200b 2abe fa20 60be fe15 1abe
000001e0: 5203 29be 093e 31be 769e 6ebe 938d 4cbe
000001f0: 0493 a23e 9731 95be 2894 b03d f48a acbd
00000200: ecc2 0fbe 68c7 eabd 3d25 82be aa23 203e
00000210: 8847 16bd 8573 a6be 24e6 823e eeb2 243e
00000220: 35be 39be b046 1fbd 5463 6c3e 10b8 d6bc
00000230: d0ec 1c3d 3c77 3e3e 50be 7d3e d087 a93d
00000240: a4ac e23d b60d 033e 5a6f 2c3e 4a17 90be
00000250: f56d 52be c8b8 9ebe cc16 3e3e 5a18 913e
00000260: c834 6bbd 9040 ba3c 5e68 913e 90cd 153e
00000270: 91f2 2cbe 0c5b 783e 5b78 22be fcec 9c3d
00000280: 959a 20be 708d 68bd 0acf 0e3e 18ea 0b3e
00000290: 7821 a03e bf86 a6be c064 87be 3862 183e
000002a0: f54e 14be b8f4 413e 2a6a 943e a472 ed3d
000002b0: 44b2 903d a0f7 3a3e 94dc 523e 4698 04be
000002c0: 1c0b d73d 7a20 d3bd 3cc9 803d 54c8 3a3e
000002d0: 7c7d 4f3e 4820 44bd 0c35 60be 305b 90be
000002e0: 023e 36be 14f6 663e ee44 99be d20b 92be
000002f0: d87c 7f3d 80ef 7bbc 6c12 d23d bacb 35be
00000300: d88f 003e 6e19 96be d41a 2d3e 0cdc 4e3e
00000310: ecbc 083e 167b 9ebe bca5 d3bd d8ac 193d
00000320: e03a 07be f003 0abd 16a7 7dbe e115 33be
00000330: 034e 9cbe 60c3 1fbc 40b3 9d3b f1f9 2cbe
00000340: c25f 77be f460 9ebd 5a60 8f3e b25b 2d3e
00000350: 800d 663e d47e 503e 2088 87be 2e6c a03e
00000360: 92cf 75be c271 e3bd d44b 933d c40f 9f3d
00000370: 205b 1c3c f8c7 643d 1465 403e c681 7abe
00000380: e05e 7cbd 484b 793d a47e 943d 5499 b73d
00000390: 20b9 8f3e 8075 5fbe a627 15be a4d7 be3d
000003a0: 3885 9a3e e8bc f73d 28ed 59be 34bb 96be
000003b0: f0fb 79be a946 a3be de74 8d3e fa8b 2f3e
000003c0: a0b4 c1bc 3142 63be 3293 41be c0a3 01bd
000003d0: 9400 9d3e b147 85be 2833 5d3e 3056 02bd
000003e0: 2547 41be ae86 993e e91e 82be e89e 393e
000003f0: 7882 12be 3287 64be 34b6 a4bd 740a c93d

bias f4 [24]
0.0 0.0 0.0 0.0 0.0 0.0 0.0 0.0
0.0 0.0 0.0 0.0 0.0 0.0 0.0 0.0
0.0 0.0 0.0 0.0 0.0 0.0 0.0 0.0
00000000: 0000 0000 0000 0000 0000 0000 0000 0000
00000010: 0000 0000 0000 0000 0000 0000 0000 0000
00000020: 0000 0000 0000 0000 0000 0000 0000 0000
00000030: 0000 0000 0000 0000 0000 0000 0000 0000
00000040: 0000 0000 0000 0000 0000 0000 0000 0000
00000050: 0000 0000 0000 0000 0000 0000 0000 0000

weight f4 [16, 24]
-0.08126661 0.28231055 0.2550475 0.36154026 -0.06571862 -0.05803305 0.16321778 0.2660278
0.18218172 0.059857666 -0.23640537 -0.125193 -0.22641364 -0.33410057 -0.21286485 -0.22456515
0.10045919 -0.30715054 0.3495422 0.2567122 0.31356704 0.14269435 0.19444054 0.12079936
0.06738636 0.1057457 0.22435033 0.33241874 -0.06295714 0.3080709 0.0018810034 -0.36365634
0.054297745 0.17484462 0.016871333 0.10118383 0.28930324 0.37365043 -0.015991509 0.080066234
-0.10751662 -0.37907454 -0.19227697 -0.33569863 -0.079974174 -0.010995597 0.0032561421 0.37026358
-0.27748865 0.25714707 -0.24428333 0.3441785 0.3424077 0.26822662 0.04148668 -0.38175103
-0.29392216 0.047391772 -0.21555178 0.25017887 -0.28092918 0.1345284 -0.16118048 0.29179597
0.2939372 -0.086859345 0.026911974 -0.07282552 -0.13941337 0.043640494 -0.30907214 -0.20341384
-0.11103529 0.06402066 0.22690666 -0.30340594 -0.24751824 -0.3147862 0.18828148 -0.007667482
-0.12652916 -0.20238085 -0.06387892 0.25185937 0.1474638 -0.0017983615 -0.13205972 -0.21080804
0.24084502 -0.17133497 0.07411975 0.10831028 -0.1487133 0.21616888 0.14196962 0.13348216
-0.26400557 -0.24167871 -0.020809174 0.035932302 -0.0903818 0.0810357 -0.12638372 -0.04940799
-0.23642029 0.23545831 -0.17398533 -0.08616158 -0.1933765 0.17138529 -0.25349343 0.16455746
-0.37642106 -0.13678637 -0.15205395 -0.04358697 -0.114558905 0.18713647 -0.23596495 0.27989042
0.2915269 0.19316715 0.2970606 0.14986938 -0.24958262 0.32483977 -0.23308532 -0.26857278
0.08457196 0.03559935 0.17670614 0.009416133 0.1213876 0.27466315 0.36897242 0.3021143
0.2160253 -0.33472332 0.19833046 0.14191818 -0.2322906 0.12366873 -0.2354052 0.29637796
0.2601875 -0.013374597 -0.30557162 0.26105672 0.19630653 -0.19660075 0.008847147 0.04328254
0.054576725 -0.1533744 -0.37286294 -0.1706934 -0.21587788 -0.2773193 -0.015739262 0.2936048
-0.1440036 -0.27634937 -0.23397274 0.24196714 -0.2880543 0.16826993 0.09386322 0.09016213
-0.25679207 -0.15121621 0.15701342 -0.15966491 0.11685181 -0.093870044 0.070489794 0.094580114
-0.037853867 0.35689664 0.3334136 -0.15995297 -0.16113998 0.2715518 -0.33737668 -0.36417142
0.38292265 -0.2845239 -0.21792674 0.1832577 -0.14094551 -0.23576653 -0.21909465 0.16917282
0.14039022 -0.16378781 0.059986353 0.26317316 -0.22540307 -0.23369554 -0.31053162 0.21638918
0.27206612 0.14717364 0.00055003166 0.05651048 -0.30550024 -0.17588109 0.102876544 0.024447948
0.006648928 0.17629892 -0.338216 0.10468206 0.004700154 -0.15132305 0.2156735 -0.15169531
0.18861109 -0.14508992 -0.0666163 0.25459743 -0.24926364 0.2831958 -0.2767479 -0.117131114
-0.32902944 0.3172276 -0.08248699 0.3129539 0.03309387 0.16520768 0.32664806 -0.1289039
-0.2988407 -0.3250878 -0.33751905 -0.32819656 0.32603556 0.03174916 0.10055798 0.27872777
-0.2390839 -0.1505515 -0.06923467 -0.0059022605 -0.020824581 -0.26534206 -0.34115726 -0.28965873
-0.28336185 0.09267786 0.122014046 -0.2694092 0.20610428 0.0049272478 -0.24430457 -0.054472685
00000000: 1c6f a6bd 028b 903e 9695 823e ce1b b93e
00000010: 7c97 86bd 10b4 6dbd 9022 273e cc34 883e
00000020: d88d 3a3e 502d 753d 4014 72be 9832 00be
00000030: fad8 67be 3b0f abbe 3ef9 59be 68f4 65be
00000040: 8cbd cd3d d642 9dbe 32f7 b23e c86f 833e
00000050: dc8b a03e 781e 123e 6c1b 473e a865 f73d
00000060: dc01 8a3d 3491 d83d 18bc 653e ca32 aa3e
00000070: acef 80bd 78bb 9d3e 008c f63a 2a31 babe
00000080: 5067 5e3d 780a 333e c035 8a3c 7839 cf3d
00000090: 8e1f 943e 1c4f bf3e a000 83bc c4f9 a33d
000000a0: ac31 dcbd 0f16 c2be 41e4 44be b1e0 abbe
000000b0: 80c9 a3bd e026 34bc 0065 553b 3093 bd3e
000000c0: fe12 8ebe c8a8 833e 6925 7abe 2a38 b03e
000000d0: 1050 af3e 0055 893e f0ed 293d df74 c3be
000000e0: f77c 96be e01d 423d 9bb9 5cbe 7217 803e
000000f0: f3d5 8fbe d0c1 093e 7f0c 25be 4866 953e
00000100: f07e 963e 50e3 b1bd 8076 dc3c 8c25 95bd
00000110: 61c2 0ebe 60c0 323d b43e 9ebe b84b 50be
00000120: 7866 e3bd 441d 833d 385a 683e 0658 9bbe
00000130: 6c75 7dbe a82b a1be dccc 403e 803f fbbb
00000140: dc90 01be ed3c 4fbe f4d2 82bd b6f3 803e
00000150: c000 173e 00b7 ebba aa3a 07be 10de 57be
00000160: 14a0 763e 6f72 2fbe 18cc 973d c8d1 dd3d
00000170: 4d48 18be 605b 5d3e 7c60 113e 8caf 083e
00000180: bd2b 87be a07a 77be 0078 aabc c02d 133d
00000190: 181a b9bd 0cf6 a53d bc6a 01be 0860 4abd
000001a0: 2918 72be fc1b 713e 3629 32be 7c75 b0bd
000001b0: 7d04 46be a07f 2f3e e4c9 81be c081 283e
000001c0: 43ba c0be ba11 0cbe 08b4 1bbe 4088 32bd
000001d0: dc9d eabd b4a0 3f3e cca0 71be cc4d 8f3e
000001e0: 0443 953e 9ccd 453e 5418 983e 5c77 193e
000001f0: 9692 7fbe 6651 a63e ebad 6ebe 5f82 89be
00000200: 1034 ad3d a0d0 113d 74f2 343e 2046 1a3c
00000210: 109a f83d a6a0 8c3e f4e9 bc3e baae 9a3e
00000220: bc35 5d3e db60 abbe 2417 4b3e 0053 113e
00000230: 96dd 6dbe 0846 fd3d 100e 71be dabe 973e
00000240: 4c37 853e 2021 5bbc e273 9cbe 3aa9 853e
00000250: 9404 493e b551 49be a0f3 103c 0849 313d
00000260: d88b 5f3d 2e0e 1dbe e4e7 bebe 40ca 2ebe
00000270: 170f 5dbe ccfc 8dbe a0ef 80bc 5e53 963e
00000280: ae75 13be aa7d 8dbe 8d96 6fbe 3cc6 773e
00000290: da7b 93be f44e 2c3e 5c3b c03d eca6 b83d
000002a0: 407a 83be 6cd8 1abe 20c8 203e 337f 23be
000002b0: 0050 ef3d f03e c0bd f45c 903d 38b3 c13d
000002c0: a80c 1bbd 28bb b63e 30b5 aa3e b6ca 23be
000002d0: e101 25be d608 8b3e a3bc acbe ad74 babe
000002e0: 700e c43e 1ead 91be 3028 5fbe e8a7 3b3e
000002f0: 0554 10be c86c 71be 595a 60be a43b 2d3e
00000300: 74c2 0f3e feb7 27be 40b4 753d a2be 863e
00000310: 10d0 66be e24d 6fbe 00fe 9ebe 2095 5d3e
00000320: 404c 8b3e b0b4 163e 0030 103a 8877 673d
00000330: 876a 9cbe 2c1a 34be f0b0 d23d 1047 c83c
00000340: 40df d93b b487 343e a62a adbe 8c63 d63d
00000350: c003 9a3b 6ef4 1abe 84d9 5c3e 0456 1bbe
00000360: 4423 413e 7492 14be 206e 88bd 985a 823e
00000370: f83e 7fbe 0aff 903e e7b1 8dbe 70e2 efbd
00000380: 8c76 a8be a86b a23e f0ee a8bd 7e3b a03e
00000390: 708d 073d 342c 293e 6a3e a73e 62ff 03be
000003a0: a601 99be e871 a6be 4ccf acbe 6109 a8be
000003b0: 22ee a63e 680b 023d 58f1 cd3d 68b5 8e3e
000003c0: 69d2 74be 2c2a 1abe e8ca 8dbd c067 c1bb
000003d0: 5098 aabc eada 87be 2aac aebe 264e 94be
000003e0: ce14 91be e4cd bd3d 80e2 f93d 01f0 89be
000003f0: 000d 533e c074 a13b fa2a 7abe c01e 5fbd

bias f4 [16]
0.0 0.0 0.0 0.0 0.0 0.0 0.0 0.0
0.0 0.0 0.0 0.0 0.0 0.0 0.0 0.0
00000000: 0000 0000 0000 0000 0000 0000 0000 0000
00000010: 0000 0000 0000 0000 0000 0000 0000 0000
00000020: 0000 0000 0000 0000 0000 0000 0000 0000
00000030: 0000 0000 0000 0000 0000 0000 0000 0000

weight f4 [8, 16]
0.3232674 -0.3396206 -0.29776454 -0.48164564 0.3253799 0.24405783 -0.42213005 0.3336959
0.31066614 -0.24275774 0.3700412 0.021648228 -0.36608773 -0.4387179 -0.10805541 -0.1319241
0.17877084 -0.101120055 -0.255489 -0.34089535 0.0050892234 0.07632285 -0.13191974 0.14202964
0.47758347 0.32552242 0.07681447 -0.08729607 -0.3454737 0.46006185 0.105888486 -0.08374947
0.0014733076 -0.20615 -0.18037218 0.30133384 0.49568677 0.403462 0.42002696 -0.19551307
0.39030737 0.41561013 0.42521667 -0.03701365 -0.25214857 -0.33398426 -0.098884344 0.19248426
-0.3984149 0.30833513 0.36064374 0.2627384 0.2442134 0.42496973 0.09630233 -0.040754735
-0.0028223991 0.41145283 -0.080314815 0.17829382 -0.32535326 0.36446106 0.19656736 -0.30418986
-0.16533005 -0.31462985 0.38536638 -0.20950425 -0.22943866 -0.0014710426 -0.27869266 -0.22764152
0.41990477 0.345065 0.16855806 -0.10844159 0.27878082 0.28051597 0.41088617 -0.16768354
-0.31717545 -0.31446803 -0.08306211 -0.25398862 0.4205072 0.40998983 0.21072805 -0.022327006
-0.45341784 -0.13174194 -0.033513486 -0.18434173 0.2831599 -0.17508495 -0.49053276 0.1302005
-0.28288972 0.29291576 0.28112024 0.4039464 0.37641752 -0.12360436 0.03677231 -0.41673183
-0.35666466 -0.274853 -0.44992477 -0.3580556 0.1756652 -0.3131808 0.10263479 -0.10285592
-0.06279504 0.2622738 -0.3514182 -0.372658 -0.14337891 -0.34064347 0.403565 0.45179486
-0.34737796 -0.20524216 -0.111860275 0.44329023 -0.33730954 -0.20306689 0.11064166 -0.014156759
00000000: 4e83 a53e c0e2 adbe 9874 98be 429a f6be
00000010: 3298 a63e 4cea 793e 6e21 d8be 30da aa3e
00000020: a20f 9f3e 7c95 78be 0a76 bd3e a057 b13c
00000030: da6f bbbe a29f e0be 284c ddbd 1c17 07be
00000040: b40f 373e 0818 cfbd 74cf 82be d689 aebe
00000050: 80c3 a63b 284f 9c3d f815 07be 3870 113e
00000060: d285 f43e e0aa a63e e850 9d3d 48c8 b2bd
00000070: eee1 b0be 3a8d eb3e 10dc d83d d884 abbd
00000080: 001c c13a fc18 53be 7cb3 38be 6e48 9a3e
00000090: a8ca fd3e 9292 ce3e c60d d73e 9434 48be
000000a0: 5ed6 c73e daca d43e 00b6 d93e a09b 17bd
000000b0: 9e19 81be fcff aabe e083 cabd 981a 453e
000000c0: 0afd cbbe 1ade 9d3e 4ca6 b83e a685 863e
000000d0: 1413 7a3e a295 d93e 283a c53d 70ee 26bd
000000e0: 00f8 38bb f2a9 d23e 187c a4bd a892 363e
000000f0: b494 a6be a49a ba3e f448 493e c6be 9bbe
00000100: 484c 29be 2a17 a1be be4e c53e 4888 56be
00000110: f8f1 6abe 00d0 c0ba ceb0 8ebe dc1a 69be
00000120: c2fd d63e 5cac b03e 7c9a 2c3e a016 debd
00000130: 5cbc 8e3e ca9f 8f3e ac5f d23e 3cb5 2bbe
00000140: d264 a2be f401 a1be 781c aabd cc0a 82be
00000150: b84c d73e 30ea d13e 18c9 573e 20e7 b6bc
00000160: 6226 e8be 5ce7 06be 7045 09bd 14c4 3cbe
00000170: 56fa 903e 7849 33be 1c27 fbbe 4853 053e
00000180: ecd6 90be 0ef9 953e feee 8f3e 10d2 ce3e
00000190: ccb9 c03e 4824 fdbd 909e 163d e05d d5be
000001a0: c09c b6be 88b9 8cbe 8a5c e6be 1053 b7be
000001b0: 94e1 333e 3c59 a0be 3032 d23d 20a6 d2bd
000001c0: b09a 80bd c048 863e 16ed b3be 08cd bebe
000001d0: ecd1 12be d268 aebe 12a0 ce3e a851 e73e
000001e0: 86db b1be 002b 52be 0017 e5bd f0f6 e23e
000001f0: d6b3 acbe c4f0 4fbe 1898 e23d c0f1 67bc

bias f4 [8]
0.0 0.0 0.0 0.0 0.0 0.0 0.0 0.0
00000000: 0000 0000 0000 0000 0000 0000 0000 0000
00000010: 0000 0000 0000 0000 0000 0000 0000 0000

weight f4 [4, 8]
0.5955885 -0.44292796 -0.5640651 -0.63102615 0.6529433 -0.18519694 0.49951953 0.092995524
-0.66817933 0.4150638 -0.15525502 -0.3158022 -0.2177124 0.48586375 0.62954015 0.6207984
-0.42111486 -0.38848072 0.39718932 -0.047923148 -0.67270863 0.49011976 -0.23794904 0.47378033
0.12603801 -0.67539614 -0.051494002 -0.14445537 0.13677686 -0.3696997 -0.47017866 0.52857286
00000000: 7d78 183f 74c7 e2be 9266 10bf ee8a 21bf
00000010: 4b27 273f 44a4 3dbe 06c1 ff3e 7074 be3d
00000020: cd0d 2bbf 3e83 d43e 2cfb 1ebe d3b0 a1be
00000030: 00f0 5ebe 22c3 f83e 8b29 213f a5ec 1e3f
00000040: 5e9c d7be f2e6 c6be 665c cb3e 104b 44bd
00000050: a236 2cbf faf0 fa3e eaa8 73be 5693 f23e
00000060: 1c10 013e c3e6 2cbf 60eb 52bd 1cec 13be
00000070: 3c0f 0c3e 4749 bdbe 42bb f0be 8d50 073f

bias f4 [4]
0.0 0.0 0.0 0.0
00000000: 0000 0000 0000 0000 0000 0000 0000 0000

weight f4 [2, 4]
0.7678374 0.7430521 0.43809175 0.66768694 -0.16643059 0.67328405 -0.6702268 -0.7645067
00000000: fe90 443f aa38 3e3f 904d e03e 88ed 2a3f
00000010: c86c 2abe 585c 2c3f fc93 2bbf b6b6 43bf

bias f4 [2]
0.0 0.0
00000000: 0000 0000 0000 0000

weight f4 [2, 2]
0.552554 0.24366331 -0.15840244 -0.5536023
00000000: 2e74 0d3f e082 793e 4034 22be e1b8 0dbf

bias f4 [2]
0.0 0.0
00000000: 0000 0000 0000 0000
