serology/results_intermediate_encoders_2/models/5fold/species_classifier_4.pt (torch, 18016 bytes, 20 tensors)

weight f4 [32]
000000 83 cc 69 3f fb 73 7f 3f 4e c5 85 3f 3a 6f 6f 3f
       0.91327685 0.9978635 1.0450838 0.93529093
000010 d8 3c 87 3f 2f b4 5b 3f a6 ea 7f 3f 2d df 7d 3f
       1.0565443 0.85821813 0.9996742 0.99168664
000020 6c fd 78 3f 3d 20 6f 3f 1e e4 7c 3f 26 ac 86 3f
       0.9726169 0.93408567 0.9878558 1.0521286
000030 e1 6c 7d 3f a3 89 7e 3f d9 16 84 3f 2d bb 8e 3f
       0.9899426 0.99428767 1.0319473 1.1150872
000040 47 35 5d 3f 3c e3 81 3f 5e 9b 72 3f f5 45 8b 3f
       0.8640942 1.0147471 0.9476832 1.0880724
000050 9a 98 77 3f 5c 08 79 3f 31 b2 8d 3f 42 91 88 3f
       0.96717227 0.9727838 1.1070005 1.0669329
000060 b0 8b 5f 3f 3a eb 86 3f 78 8d 86 3f c2 57 62 3f
       0.8732252 1.0540535 1.0511923 0.8841516
000070 78 09 92 3f 8d dc 73 3f 9b aa 76 3f 5f 7a 85 3f
       1.140914 0.9525841 0.96354073 1.042797

bias f4 [32]
000000 c4 26 74 be 4d 8a e6 bd 6e 40 af bd 36 dd 19 be
       -0.23842913 -0.112568475 -0.08557211 -0.15025792
000010 4a 45 4c bd 84 f5 f6 bd fa 69 fc 3d 69 8c 94 3c
       -0.049870767 -0.12058547 0.12324901 0.018133359
000020 f6 41 5e 3c 46 cf ce bd ed ff 0e bd 66 e6 e0 bd
       0.013565531 -0.10098128 -0.03491204 -0.10981445
000030 a7 92 f4 3d f6 ad ba bd d2 ff 3f be 40 08 23 3c
       0.11942034 -0.09115212 -0.18749931 0.009950697
000040 77 d5 48 3b b8 8a 7a be b4 d8 01 be 17 c4 7d bd
       0.0030644813 -0.2446698 -0.12680322 -0.061954584
000050 89 40 c2 bd 2d 1f 38 be a9 08 fe bd 49 b7 34 bd
       -0.09484965 -0.17980643 -0.124039955 -0.044120107
000060 77 05 7b be 5f de 6d bd 61 6e b9 bc 63 fb ea bd
       -0.24513803 -0.058073398 -0.02263564 -0.114737295
000070 1a b6 22 3d ee 95 8f bd b1 36 db ba 2a a9 8e 3d
       0.039724447 -0.07011019 -0.0016724673 0.06965859

running_mean f4 [32]
000000 70 50 52 3d 3b 4e f1 bc aa 06 2c 3e d9 dc 3a be
       0.051346242 -0.029456249 0.16799417 -0.18248309
000010 3c 5d 21 3e ca 1e 8b be d4 fe 82 3e 3e 7f 75 3e
       0.15758222 -0.27171928 0.25585043 0.2397432
000020 52 a2 b2 3e d9 11 82 3d be 29 15 bd 8c 6f 02 bd
       0.34889466 0.063510604 -0.03641676 -0.03184466
000030 b3 c9 aa 3e 18 d0 b4 3d 70 2e 7f be e8 0f cf 3d
       0.3335701 0.08828753 -0.24920058 0.10110456
000040 8b 74 68 be 54 f7 05 be ec ae 7a 3d 45 d7 2c bd
       -0.22700708 -0.1308263 0.061201975 -0.042197485
000050 53 ce 05 be 3b 32 43 be 0e d8 03 be 5c cc 8b 3d
       -0.13066988 -0.1906213 -0.12875387 0.06826088
000060 eb ec 56 bd 05 91 3e bd 40 b6 82 3d 80 48 a7 3c
       -0.052472036 -0.04652502 0.06382418 0.020420313
000070 73 76 a1 3e 3f a0 16 be 1b bf 67 3c ab f1 85 be
       0.31535682 -0.14709567 0.014144684 -0.2616094

running_var f4 [32]
000000 f1 bc 66 3f ae 41 df 3f 98 a4 9d 40 d0 b0 c9 3f
       0.9013205 1.7441919 4.926342 1.5757084
000010 ce 36 9e 40 12 8b e2 3f 73 64 66 40 12 f2 46 40
       4.94419 1.7698691 3.599881 3.1085248
000020 0c aa bf 3f 37 51 d5 3f 66 d9 d2 40 32 35 be 3f
       1.4973769 1.666541 6.589038 1.4859984
000030 6e 4b 3c 40 f6 5c fc 3f a2 bd 1d 40 c3 7e 89 40
       2.9421039 1.971587 2.4646993 4.296724
000040 dd c9 82 3f dd a2 f7 3f 87 37 f0 3f 9a 50 bb 3f
       1.0217854 1.9346577 1.8766946 1.4633973
000050 b4 41 ce 40 6c 48 9e 40 12 08 1a 41 30 be 29 40
       6.4455204 4.9463406 9.62697 2.6522331
000060 97 f1 77 3f 4d 6d 9b 40 22 5d 3d 40 ea 8f 71 40
       0.9685301 4.8570924 2.9588094 3.7744088
000070 78 b8 1d 41 aa 9d 96 40 26 b2 fd 3f 12 b6 0c 40
       9.857536 4.706746 1.9819992 2.1986127

weight f4 [16]
000000 24 6c 59 3f af 8b 5a 3f 9a df 4f 3f 3f ae 59 3f
       0.84930634 0.8536939 0.81200564 0.85031503
000010 ec 6d 86 3f 32 41 8a 3f ef bf 83 3f 0b ef 91 3f
       1.0502295 1.0801146 1.0292948 1.1401075
000020 9b 72 9d 3f 7a 7e 88 3f 04 95 64 3f 31 da 62 3f
       1.23006 1.0663598 0.8928988 0.88614184
000030 ed b8 4e 3f ee 06 81 3f f0 65 9c 3f a3 54 71 3f
       0.80750924 1.008024 1.2218609 0.9426977

bias f4 [16]
000000 01 9e e0 bc 52 9e 06 be cf 98 2b be 4a 4b f8 bd
       -0.027419092 -0.13146332 -0.1675751 -0.12123735
000010 c5 42 80 3d 87 2b 0b 3c 92 f6 46 be 5a fe 0a be
       0.06262735 0.008494264 -0.19429997 -0.1357359
000020 90 69 b4 bd 47 55 68 3d 9a c4 0f be a7 0b 98 bd
       -0.08809197 0.05672195 -0.14039841 -0.074240975
000030 84 fe 29 be 05 90 3e be 14 2c 45 be fb 39 ae bd
       -0.16600996 -0.18609627 -0.19255096 -0.08507153

running_mean f4 [16]
000000 f2 44 91 be 06 a3 43 3f 0a bf fd 3e 0c 62 05 3d
       -0.28372914 0.7642063 0.49559814 0.032564208
000010 52 67 a9 be 25 d4 c6 be eb ca 46 bf 1c a4 ce be
       -0.3308664 -0.38833728 -0.7765338 -0.4035958
000020 d6 3b da be 4b c4 89 bb 63 3f de be 6f 16 b6 be
       -0.42623776 -0.004204308 -0.43407735 -0.3556399
000030 b4 f1 30 3f 3b 34 e2 be 1f bd c9 be 0d 66 27 3f
       0.6911881 -0.44180474 -0.394021 0.6539009

running_var f4 [16]
000000 71 5b a6 3f 67 22 81 3f 86 5d a6 3e 54 b4 ca 3f
       1.2996656 1.0088624 0.32493228 1.5836282
000010 37 3d 12 40 1f a6 42 3f ba 1f 6a 3f 9d f9 bf 3f
       2.2849863 0.7603473 0.9145466 1.4998051
000020 1b d9 af 3f 9c 1c b6 3f 40 df 14 3f e7 04 8c 3f
       1.373813 1.4227481 0.5815315 1.0938996
000030 16 ba 18 3f 69 d2 50 3f 4c 00 96 3f ae e1 9f 3f
       0.59658945 0.8157106 1.1718841 1.2490747

weight f4 [8]
000000 18 fa e6 3f a5 1b bd 3f 3d 4d bc 3f 8d cb c1 3f
       1.8045073 1.4774061 1.4711071 1.5140244
000010 70 f2 bc 3f 1f 31 bb 3f c4 04 ed 3f 3c bb c6 3f
       1.4761486 1.4624366 1.8517079 1.5525889

bias f4 [8]
000000 2c 2a 28 3f 96 b7 9b 3e df cc 66 3e 6d 5e 23 3e
       0.6568935 0.30413502 0.2253909 0.1595399
000010 fe e4 e6 3e 72 71 3f 3e 57 d5 25 3f 43 73 f5 3e
       0.45096582 0.1869562 0.64778656 0.479395

running_mean f4 [8]
000000 9b 9f db be 85 61 c2 3d d9 96 21 be e0 3a 0a be
       -0.42895207 0.094912566 -0.157802 -0.13499022
000010 67 5b 10 bf 26 f9 b8 bd ff a5 e4 be cb 9e c7 be
       -0.5638947 -0.09031896 -0.44657895 -0.38988337

running_var f4 [8]
000000 87 fd c6 3f 12 d0 eb 3f c8 4d 13 40 4f 12 02 40
       1.554612 1.8422873 2.3016224 2.0323675
000010 86 2e 35 40 a2 c3 ab 3f 09 a0 a7 3f 67 a7 c9 3f
       2.8309646 1.3419077 1.3095714 1.5754212

weight f4 [32, 32]
000000 0a b8 38 be 59 76 70 3e 7a 4d 39 3d 40 9b b1 bc
       -0.18038955 0.23482646 0.045239903 -0.021680474
000010 39 de 20 bd 82 7f 4b be 27 1d 57 bd bc 04 d8 3d
       -0.039274428 -0.19872859 -0.052518036 0.10547778
000020 70 24 ef bd ad a6 68 be 3f 5b f4 bd 19 a1 80 be
       -0.11676872 -0.22719832 -0.11931466 -0.25122908
000030 80 32 2b be d0 45 0b 3d fb 89 a3 3e 75 bf 45 be
       -0.16718483 0.034002125 0.31941208 -0.19311316
000040 f8 83 c9 be 6a 89 bf bd 7c 4e 5a 3d b1 6b 11 3e
       -0.39358497 -0.093523815 0.053297505 0.14201237
000050 e0 f6 2f 3d 88 33 69 3e 88 84 d0 bd 5a 97 06 3e
       0.042960048 0.22773564 -0.10181528 0.13143674
000060 cd 06 cf bd 27 65 33 bd 92 47 1b 3b 5f b7 46 be
       -0.10108719 -0.04379764 0.0023693782 -0.19405888
000070 7a 32 16 3e 84 5d 38 3d 19 70 64 3e 23 9a 56 be
       0.14667693 0.04501106 0.22308387 -0.20957236
000080 f9 50 c8 3c ad a0 a9 3d 5e f8 ff 3d cc b4 ac bb
       0.024452673 0.082825996 0.12498544 -0.005270576
000090 79 65 bb 3d 1e 36 0a bd 5e f2 c0 3e e7 ac 1e be
       0.09150214 -0.033743016 0.3768491 -0.15495645
0000a0 a9 41 15 be 73 5e 8d 3d e7 95 e8 3c bb 79 e7 bc
       -0.14575829 0.069027804 0.028391792 -0.028256288
0000b0 ed 0e ca 3d b4 ae ba 3e 77 98 85 bc ab c9 72 bd
       0.09866128 0.36461413 -0.016308052 -0.059274357
0000c0 36 40 12 be 42 3c 0f 3c 1d c2 a3 3d d9 0f 5d 3e
       -0.14282307 0.008742394 0.079960085 0.21588077
0000d0 a2 60 b6 3d aa 6b 6c bd 15 d5 a7 be f0 5d 60 bd
       0.0890515 -0.057719864 -0.32779756 -0.054777086
0000e0 59 61 98 be 71 dc 3c be bc de 84 be 20 52 fe bd
       -0.2976177 -0.18443467 -0.25951183 -0.12418008
0000f0 9c 02 41 be 6b 79 0a be dd aa 98 bc 19 e5 1e 3e
       -0.18848652 -0.1352288 -0.018636161 0.15517081
000100 48 ca a0 3e ae 59 73 3e f2 51 71 be 5b 03 11 be
       0.31404328 0.23764679 -0.23566416 -0.14161436
000110 c1 d5 7e 3e 24 d0 61 be c8 0c 23 3d 3d 7a 41 3e
       0.24886228 -0.22052056 0.03980711 0.18894286
000120 3a 6f a0 bc d5 36 b7 bd 13 d4 35 be d4 21 4c be
       -0.019584287 -0.08946005 -0.17756681 -0.1993478
000130 53 2d 08 be c8 f2 fa bd 51 a3 3d bd 1a c8 35 3d
       -0.1329854 -0.12253338 -0.04629833 0.044380285
000140 46 d0 b0 3d 73 c0 e6 3d 5f 28 5d 3e 82 d5 d7 bd
       0.08633475 0.112671755 0.21597432 -0.1053877
000150 43 98 84 bd f5 31 8d be cf de 2e 3e b9 8e a6 3e
       -0.06474354 -0.27577177 0.17077182 0.32530764
000160 64 7c 92 3e bc 64 45 be 72 c9 bb bc d5 bb 74 3e
       0.28610528 -0.19276708 -0.022923205 0.23899777
000170 07 e0 5e 3e e7 de 97 3d 5d dc d7 3d 53 2c 0c 3e
       0.21765147 0.07415562 0.10540078 0.13688783
000180 92 84 6a be 16 5c 16 3e 48 69 5f 3e 51 59 b2 3d
       -0.22902134 0.14683565 0.21817505 0.08708442
000190 23 03 4c be b6 4d 51 3d 0b ad 19 3e e0 eb 3f 3e
       -0.19923072 0.0510995 0.15007417 0.18742323
0001a0 8a ff 25 be cf 3e 68 3e 47 de 14 3e 3d e8 c1 be
       -0.16210762 0.2268021 0.14537917 -0.37872496
0001b0 32 8e b6 3d cb 5e ea 3c 04 43 03 3e 68 c0 95 bd
       0.0891384 0.028609654 0.12818533 -0.07312089
0001c0 4b 85 87 be 23 a8 be bd 4a fa 00 bd 0c e6 9d 3e
       -0.26468882 -0.09309413 -0.031488694 0.30839574
0001d0 28 ae 1f be 9a 30 53 be fd 7a 60 3e 1e 8e 48 3e
       -0.15593779 -0.20624009 0.21921916 0.19585463
0001e0 b1 c2 74 be 3d ef 1c bd 45 c5 41 be 63 74 1f be
       -0.23902394 -0.038314093 -0.18922909 -0.15571742
0001f0 66 5b 44 be 4e c1 31 be f7 ed c3 3d a6 83 73 bc
       -0.1917549 -0.17358896 0.095668726 -0.01486293
000200 e9 da 0c 3e d3 fa 54 3e bf 14 a3 bd bd 52 53 3e
       0.13755383 0.20798807 -0.079629414 0.20637031
000210 57 3e 41 3e 6b 7b d0 be 0b 87 c4 3d 5b 33 e9 bc
       0.18871437 -0.4071916 0.0959607 -0.028466871
000220 a7 e9 af 3d 23 12 9c 3e fd 97 3c 3d 30 40 a4 bb
       0.085894875 0.30482587 0.046043385 -0.0050125346
000230 75 a1 ae be 12 90 12 bd 59 00 27 be 36 b1 81 3e
       -0.34107557 -0.035781927 -0.16308726 0.25330514
000240 31 85 52 bd 59 c2 d6 bb c4 da 42 be f5 1d 77 be
       -0.051396552 -0.0065539298 -0.19028765 -0.24132521
000250 5e d1 52 bc 8d e7 2c 3e 06 1f 9c bd 79 9e 92 3c
       -0.0128673 0.16885205 -0.07623105 0.017897831
000260 3e 41 61 3d 2c 4a 6c bd 1e f0 9b bd d4 86 7a be
       0.05499386 -0.057687923 -0.07614158 -0.24465495
000270 38 a3 c9 3d 60 86 14 bd 82 01 1c 3e fa 42 d5 bd
       0.09845585 -0.036260962 0.1523495 -0.104131654
000280 1b cf 6a 3d b2 4a 40 3c e0 f0 23 3e 80 32 a4 3e
       0.057326417 0.011736559 0.16009855 0.32069778
000290 99 a5 10 3d 40 24 08 3e a8 e3 4b bd 83 ec 35 3e
       0.035314176 0.13295078 -0.049777657 0.17766003
0002a0 7f 6c b1 3e ef bc 76 bd b6 c9 76 3e f9 29 07 3e
       0.34653088 -0.060238775 0.24100384 0.13199605
0002b0 38 11 82 3e 1b 1b 6a 3e f1 e6 2d 3e 75 27 5d bd
       0.25403762 0.22861902 0.16982628 -0.053992707
0002c0 77 33 e4 bc 18 d1 e4 bd 90 c3 84 be 0e 1e 8b 3e
       -0.027856572 -0.11172694 -0.25930452 0.27171367
0002d0 8d 57 e6 bd e3 ea 11 be ee 7c 83 be 4b 67 1e 3e
       -0.11247168 -0.14249758 -0.2568125 0.1546909
0002e0 28 29 80 be 58 a1 4e bc 5b a3 3c be 00 6e 04 bd
       -0.250314 -0.01261171 -0.1842169 -0.032331467
0002f0 a1 74 93 be 24 f9 ab bd f5 c3 2e 3e 02 d5 0b be
       -0.28799918 -0.08397129 0.17066939 -0.13655475
000300 93 35 29 3e 43 7f a8 bd cd ec a8 be bc 02 04 be
       0.16524343 -0.08227398 -0.32993165 -0.12891668
000310 93 b0 de 3e 9e b2 f2 bd dd 95 c0 bc 30 7f 40 be
       0.4349409 -0.11850475 -0.02350896 -0.18798518
000320 4a ab b0 bd 96 1b aa be ca f2 c0 bc 96 e6 30 be
       -0.08626421 -0.3322417 -0.02355327 -0.17275462
000330 fd 4b bd bd f7 5d 1c be 8c df b6 3c 36 71 94 3d
       -0.09243009 -0.1527022 0.022323392 0.07248156
000340 b5 48 23 3e df 8a b4 3b 2d a1 d9 3d 13 df db bd
       0.15945704 0.005509719 0.10626445 -0.107359074
000350 b8 4c d2 3e ba 43 00 3e 85 11 33 bc 23 60 43 3e
       0.41074157 0.12525836 -0.01092947 0.19079642
000360 0a f7 b6 bd 87 af 26 be de 9f 4e bd 2c 13 02 3e
       -0.08933838 -0.16277896 -0.05044543 0.12702626
000370 f4 88 ad 3e 48 6a b8 3e c8 58 10 be 78 aa e6 3d
       0.3389355 0.36018586 -0.14096367 0.11262983
000380 c4 8d f0 3c b8 fe a3 bd a2 be 56 3d 56 83 00 be
       0.029364474 -0.08007568 0.052427895 -0.125501
000390 00 c0 4a be d0 2e 51 be 10 5c a7 be 46 99 89 3d
       -0.19799805 -0.20428014 -0.32687426 0.06718688
0003a0 20 d5 c1 bd 56 f4 3d be cd 0d 8e 3e cd 9c a9 3e
       -0.094644785 -0.18550238 0.27744904 0.33127442
0003b0 6a 32 55 bd 04 1a 1c bd f8 4f 85 bd c7 3e 15 be
       -0.05205003 -0.038110748 -0.065093935 -0.14574729
0003c0 5d e4 3e 3b 47 12 8c be b8 50 a3 3d 5e 35 94 bc
       0.0029127814 -0.27357695 0.0797438 -0.018091854
0003d0 8a 4f 0b be 36 55 8d 3e 5f bd 56 3e 9e 34 9d bd
       -0.1360456 0.27604073 0.20970677 -0.076760516
0003e0 c4 06 60 bd 37 ed 50 3e ad a0 69 be 95 49 b7 bd
       -0.054693952 0.2040299 -0.22815199 -0.089495815
0003f0 42 87 8c 3e 14 d4 b8 bd 7c c1 f0 bd 3a 60 79 be
       0.27446944 -0.09024826 -0.11755654 -0.24353114

bias f4 [32]
000000 28 8a 38 b6 10 9e ee 36 df 0e 43 37 a1 b0 dc 37
       -2.7498554e-06 7.1113536e-06 1.1626368e-05 2.6308293e-05
000010 7a a7 ba b6 c2 9b af b4 d8 2c 00 b7 7e d4 88 34
       -5.562729e-06 -3.270962e-07 -7.6398355e-06 2.5486582e-07
000020 de a3 fb 36 c4 91 01 35 b8 a7 69 35 bb 11 38 b7
       7.4994596e-06 4.826836e-07 8.7043327e-07 -1.0971383e-05
000030 a0 85 4a b3 94 0d ce b6 91 5e 0e b7 58 c9 50 36
       -4.715332e-08 -6.140859e-06 -8.4858775e-06 3.1111613e-06
000040 6d 94 aa 35 e0 49 b0 b6 ad 0f e0 b6 2b 22 7c b6
       1.2709185e-06 -5.253809e-06 -6.677545e-06 -3.7570815e-06
000050 1f 44 ae 35 bc f9 32 36 05 b8 46 b3 f7 85 b8 b6
       1.2983836e-06 2.6669431e-06 -4.6267832e-08 -5.499223e-06
000060 ba 45 d6 35 a5 c4 a9 b6 f4 2d 7d 36 d9 e1 89 b6
       1.5964536e-06 -5.059485e-06 3.7726686e-06 -4.1092103e-06
000070 c3 6e 84 b4 c5 ae 34 37 e5 0b f9 b6 af 50 9e b6
       -2.4667506e-07 1.0769528e-05 -7.422163e-06 -4.7181597e-06

weight f4 [16, 32]
000000 ec fb 93 3d b0 1b 99 3d 91 30 39 3b 22 8e 5f be
       0.07225785 0.07475984 0.0028257708 -0.21831563
000010 39 bc ac 3e 64 03 ae bd 7c 69 67 bd 41 db 09 be
       0.33737352 -0.084967405 -0.056497082 -0.13462545
000020 0e d0 2e 3e c5 7a 9b bd be 9c a3 be 23 83 ed 3d
       0.17071554 -0.07591776 -0.31955522 0.11597278
000030 f4 42 4a be 09 3b 95 bd 08 8a 5e be b7 53 5e 3e
       -0.19752103 -0.07286651 -0.21732342 0.21711622
000040 57 ab 1b 3e b6 ae 6f bd 6e 33 5b be e0 f3 de be
       0.1520208 -0.058516227 -0.21406338 -0.43545437
000050 d0 35 5f 3e 40 76 77 3c 8d 37 0e bd bb ba 1a be
       0.21797872 0.015103877 -0.034720946 -0.15110295
000060 33 eb 9a be 46 19 11 3e 90 2e 6b 3e 7c 84 40 3d
       -0.30257568 0.14169797 0.22966981 0.047001347
000070 a3 c7 30 be 3d 03 7f 3d 3d 44 85 3e b8 58 cc be
       -0.17263655 0.062258948 0.26028624 -0.39911437
000080 c2 a9 0d 3e 32 47 81 3e b0 1f 11 be 78 96 92 be
       0.13834289 0.2524963 -0.14172244 -0.28630424
000090 48 66 9f bd 9e 22 47 be 4d 46 c7 3e 16 1a 39 3e
       -0.077831805 -0.19446799 0.38920823 0.18076357
0000a0 2f 24 67 3e 56 2f 21 be 76 72 89 3e 18 f3 8a 3e
       0.22572397 -0.15740713 0.2684514 0.2713859
0000b0 fb 4d ef 3e 80 b4 16 3e d0 a9 0c be 5f 28 29 3e
       0.46739182 0.14717293 -0.13736653 0.16519307
0000c0 59 84 a9 be 67 c9 48 be 74 62 24 bd c4 32 a8 3e
       -0.33108786 -0.19608079 -0.040132955 0.3285123
0000d0 9b 2c 32 be e5 d4 63 3e 22 78 48 3e 85 f9 61 3e
       -0.17399828 0.22249182 0.19577077 0.2206784
0000e0 63 a2 ab bc bc 4a 4a 3e 26 7c b3 bd 72 71 c6 3d
       -0.020951455 0.19755071 -0.08763914 0.09689607
0000f0 be ac cd 3c 5c 03 35 3d 5f 77 73 bd 36 4c db bc
       0.025106784 0.044192657 -0.059440013 -0.026769739
000100 91 d4 90 be a9 19 c0 bd 7a 5a 84 3c 6e 67 1e 3e
       -0.28287175 -0.09379894 0.016156424 0.15469143
000110 b9 85 d9 bb 44 75 bd 3e 0f 6d 83 be 02 45 04 bd
       -0.0066382554 0.3700353 -0.25669143 -0.032292373
000120 3e 46 8e bd 24 5e 9f be f4 c3 d8 bd 13 d6 19 3e
       -0.069469914 -0.3112651 -0.1058425 0.15023069
000130 ee d2 91 3e 80 16 2a be aa 3d 64 be 92 ef f1 3d
       0.2848124 -0.16610146 -0.22289148 0.118132725
000140 47 a8 7f 3e 80 3c 21 3e 47 02 2f 3e 2f 7c 94 bc
       0.24966536 0.15745735 0.17090712 -0.018125622
000150 81 88 d6 3e 37 05 c3 bd 92 b5 9a bd 93 6b 94 3e
       0.4190102 -0.09522479 -0.07554163 0.28988323
000160 1f 0c 90 3d c3 d5 3a 3d 1c 7e bc 3c 7e b6 99 3e
       0.07033562 0.045614015 0.023009352 0.30022043
000170 0d af 6e 3e 5a 1b 08 be cb b2 20 3e 25 ba 28 3e
       0.23308964 -0.13291684 0.15693204 0.16477259
000180 34 4f 20 be 1c 84 78 be 9a 67 52 3d b9 b3 26 3e
       -0.15655214 -0.24269146 0.051368333 0.16279496
000190 fe 94 9f 3e f0 14 23 3e e7 ac c6 3d d8 19 3a bc
       0.3116836 0.15925956 0.09700947 -0.011358701
0001a0 5b 9f 96 be ee 99 84 be 58 93 10 3e e8 f1 51 bd
       -0.29418454 -0.2589869 0.14118707 -0.05125609
0001b0 c3 c6 20 be 48 0a b9 bc 0e 66 2e 3e 7d 92 df bd
       -0.15700822 -0.02258791 0.17031118 -0.10916612
0001c0 b4 c4 e8 3d 4f dc 84 3d 8f a9 1b 3e 1f cb 8f be
       0.11365643 0.06487333 0.152014 -0.28084657
0001d0 76 14 99 3e 90 44 0f 3e d6 b3 95 3e 86 41 7f 3e
       0.29898423 0.13990998 0.29238766 0.24927339
0001e0 d2 96 a2 3d b7 18 98 3e a3 28 87 be 30 c6 9f bd
       0.07938923 0.29706356 -0.2639819 -0.07801473
0001f0 1d 22 7f be e4 1c 29 be 15 0d e0 3d 76 50 84 be
       -0.24915357 -0.16514927 0.10939995 -0.25842637
000200 84 b0 3f bd fd 46 98 be 1d d3 05 be 2e 22 a4 be
       -0.046799198 -0.2974166 -0.13068815 -0.32057327
000210 6c da 91 3d 1d 7b df 3a 8c fb 01 3e 97 2e a9 be
       0.07121739 0.001705024 0.12693614 -0.33043358
000220 bb f6 7a 3e 77 26 a7 3c af 72 6f 3d 8a 2f d1 be
       0.24508183 0.020404084 0.05845898 -0.40856582
000230 ec 41 e3 3d bc b9 98 be cf 8f ae be f4 cc 47 3e
       0.11096558 -0.29829204 -0.34094092 0.19511777
000240 5f 27 3e be e7 4c 8a be ae e5 f0 3d 99 95 a9 bd
       -0.18569706 -0.27011797 0.11762558 -0.082804866
000250 f3 72 73 be 94 1b f2 3c 22 9e 96 be 7b 93 9f 3e
       -0.23774318 0.029554166 -0.2941752 0.31167206
000260 20 04 ab 3c 09 53 62 3e 13 37 2c be f3 ef d8 3d
       0.02087599 0.22101988 -0.16817884 0.10592642
000270 3c f5 c6 3e 49 85 97 3e 73 14 cb be 95 da 41 3d
       0.38858974 0.29593876 -0.3966404 0.047327597
000280 51 f7 80 be f6 4b 84 be da eb bd 3e dd 89 60 3d
       -0.25188687 -0.25839204 0.37094003 0.054818977
000290 95 e9 dd 3c 2a a2 4b be 39 1d a2 bb a9 b1 31 bd
       0.02708892 -0.1988608 -0.0049473313 -0.04338232
0002a0 13 fc 57 3e e6 05 05 be 9e dc 27 3e e0 28 88 be
       0.21092252 -0.12990531 0.16392753 -0.26593685
0002b0 b2 7e 31 3c d6 42 7e bd 42 61 83 be f4 30 85 3d
       0.010833429 -0.06207546 -0.2566014 0.06503478
0002c0 2e 3e b6 be 8f ae 8f be 00 a9 11 be be 54 f7 bb
       -0.35594314 -0.28062865 -0.14224625 -0.007547944
0002d0 36 f2 91 3e c7 a0 0e be 13 de 0d bc 4b 7d aa bd
       0.28505105 -0.13928519 -0.008658904 -0.08324679
0002e0 d9 d6 14 be 03 41 99 3d bc 17 3e 3e fc 6d f2 3d
       -0.14535083 0.07483103 0.18563741 0.11837384
0002f0 ea b3 6a be 62 f3 47 3e 0f 70 9b be aa 4a 3e be
       -0.22920194 0.19526437 -0.3035893 -0.1858317
000300 fe e2 ed bc 5f d3 4f be 94 46 1d bd cc c2 16 3e
       -0.029038902 -0.20295475 -0.038397387 0.14722747
000310 a1 cc ad bd d3 ed bf 3d 69 ad ad be 52 69 ec bc
       -0.084862955 0.09371533 -0.33921364 -0.028858814
000320 fe f6 b4 be c5 d0 98 3d 2c ca 2c 3e 73 b9 54 3e
       -0.3534469 0.07461695 0.16873997 0.20773868
000330 b5 3a 9d be bf bf ab bd 42 a3 42 3d 5b 85 cb be
       -0.30708852 -0.08386182 0.047518976 -0.3975018
000340 b0 26 6d 3e 41 39 de 3d 40 9e c1 3e d6 16 18 be
       0.2315929 0.10850764 0.37816048 -0.14852461
000350 b1 e7 b0 be c6 30 8f be 0d dc 71 bd 26 27 a9 bd
       -0.34551767 -0.279669 -0.059047747 -0.0825942
000360 92 be 68 3e 20 5c a2 be bf 73 61 be e2 e9 84 be
       0.22728947 -0.3171091 -0.2201681 -0.25959688
000370 c4 a0 d1 3d 38 42 80 be 2f d5 0b 3d 1d ec 7e 3d
       0.10235742 -0.2505052 0.034138855 0.062236894
000380 2f 36 6f 3e d3 54 82 3e 97 68 4b be da e6 3e 3e
       0.23360513 0.2545534 -0.19864117 0.1864275
000390 83 86 2d be 14 73 25 be 3c 4d 50 be e6 4f d9 bd
       -0.16945843 -0.1615718 -0.20341963 -0.106109425
0003a0 80 86 6f be 41 e4 09 3e 40 92 e5 bd 1c 6f e1 3d
       -0.23391151 0.13465978 -0.112095356 0.110075206
0003b0 f8 77 06 bd 50 dc 6f 3e 10 a7 66 3e 18 ba bf bc
       -0.032829255 0.23423886 0.22524667 -0.023404166
0003c0 12 ae 8d 3e 87 01 db 3d 15 b5 bc 3e 5f 8b cd 3c
       0.27671868 0.10693651 0.36856905 0.025090871
0003d0 27 60 63 bd ca a9 6f be 98 f6 63 be 27 28 d7 bd
       -0.05551162 -0.23404613 -0.22262037 -0.10505705
0003e0 e2 6b 99 3e 6c 06 a1 be d1 08 90 be 76 23 2e bc
       0.2996512 -0.31450212 -0.28131726 -0.010628572
0003f0 0b 34 cd be 3d d4 88 be a4 43 41 3e b6 6d de bd
       -0.40078768 -0.26724425 0.18873459 -0.108607695

bias f4 [16]
000000 43 e8 0e 36 be af 8e b6 fd 75 64 b5 75 09 cd b5
       2.1294843e-06 -4.252389e-06 -8.5108314e-07 -1.5276443e-06
000010 03 91 e1 37 3a 28 e9 37 d9 40 43 b5 02 ec 16 36
       2.6889616e-05 2.7794496e-05 -7.2737527e-07 2.2489116e-06
000020 07 bf 34 b7 33 f7 08 37 7a 4e 06 37 85 e6 10 38
       -1.0773313e-05 8.163787e-06 8.005294e-06 3.4546963e-05
000030 e9 30 d0 35 0d 12 69 38 f1 20 09 38 e2 1c 8a b6
       1.5511442e-06 5.556834e-05 3.2694024e-05 -4.116083e-06

weight f4 [8, 16]
000000 db f0 32 be 06 c8 02 3e d9 66 8b bc 17 bb 79 3e
       -0.17474692 0.12771615 -0.017016815 0.24387775
000010 a8 e8 8a 3e 8b 11 09 3e f8 59 1c be aa ca 4f be
       0.27130628 0.13385598 -0.15268695 -0.20292154
000020 3e 75 95 be ab 2c 92 3e 7c 41 08 bd bb 84 82 be
       -0.2919101 0.28549704 -0.033265576 -0.2549189
000030 f5 90 4c be 95 3d bc be 0c 87 e7 be 17 9d a0 be
       -0.19977172 -0.36765733 -0.4522022 -0.3136985
000040 fd 25 e1 be a2 de 9b 3d a0 df 96 3d e7 6f 8f be
       -0.43974295 0.07610823 0.07366872 -0.28015062
000050 4a 26 bb 3c f2 df d0 be cc 2f 2b 3d a6 d5 0a 3e
       0.022845406 -0.40795857 0.04179363 0.13558063
000060 22 62 0d 3f 9f 1d 00 bf 9c 7a 29 3e 68 e6 cf 3e
       0.55227864 -0.500452 0.16550678 0.40605474
000070 d2 a8 70 be 77 df f0 bc ae 8e d6 3e 00 d1 78 3e
       -0.235019 -0.029403431 0.4190573 0.24298477
000080 4e c8 8b be 71 2d ad 3e 4a 90 a7 be 99 43 f6 3c
       -0.27301258 0.33823732 -0.3272727 0.03006153
000090 1f 7a 02 bf 55 11 16 bf 78 92 db 3e 93 6e be 3e
       -0.5096759 -0.58620197 0.42885184 0.37193736
0000a0 fe 52 80 3e 4d 17 c8 be 51 35 2d be b4 1d 9e 3e
       0.25063318 -0.39080277 -0.1691487 0.30882037
0000b0 6d 5c ae 3c ea 5f 73 3e a9 d2 86 3e 65 65 ec bd
       0.021284306 0.23767057 0.26332596 -0.11542777
0000c0 c8 0e 9a be aa 2f 43 3e 3b 46 39 be 39 8a ca be
       -0.30089402 0.19061151 -0.18093197 -0.3955858
0000d0 36 34 09 bf 13 05 16 bf 1b 92 ce 3c 88 56 f1 3e
       -0.5359529 -0.5860149 0.025216153 0.4713633
0000e0 58 06 a5 3e 81 b9 41 bc 64 b3 73 3e e0 6a d8 3e
       0.32231402 -0.011824013 0.23798901 0.4226904
0000f0 12 94 95 be 56 ac da 3e 5a d4 4b bd 6c a4 3c bd
       -0.2921453 0.42709607 -0.04976306 -0.046055242
000100 4f 3f 81 3e 42 72 37 be f4 8e 85 3e eb b9 41 3e
       0.25243613 -0.1791468 0.26085627 0.18918578
000110 71 09 6d 3e e5 03 9f 3e ee 75 98 be 1c 99 04 bf
       0.23148133 0.3105766 -0.29777473 -0.51796126
000120 6a c1 03 bf aa 9b aa 3c 73 ef 9e be 48 35 16 bb
       -0.51467 0.02082618 -0.3104206 -0.0022919942
000130 87 6f de 3d b9 16 ec be 82 01 9c be 64 b5 8f be
       0.10861116 -0.46111086 -0.304699 -0.28068078
000140 d8 72 b4 be cd f6 0a 3d 3c 49 2a be 40 1a 35 be
       -0.3524387 0.033926774 -0.16629499 -0.17685795
000150 37 f3 aa be f7 e2 d5 be fe 77 ad 3e 5e 93 5d 3e
       -0.33388683 -0.41774723 0.3388061 0.21638247
000160 fa 8c 6a 3d 42 6c 47 be 7e 50 32 3e 54 b3 0f bd
       0.057263352 -0.19474891 0.17413518 -0.03508313
000170 62 4c e5 bb ae 5e a1 3e 9d 33 35 3e 55 93 91 3e
       -0.006997631 0.31517547 0.1769547 0.28432718
000180 1d 65 38 3d 0b 42 00 be 39 fe d6 3b d4 b2 00 3e
       0.045018304 -0.12525193 0.0065610674 0.12568218
000190 a8 e0 d1 3e 58 a3 a7 3d e8 9c 8a be 78 be 01 bf
       0.40991712 0.08185452 -0.27072835 -0.5068126
0001a0 65 d1 43 be a1 9d 3d be 1c 17 be 3d 80 06 a4 bd
       -0.19122846 -0.18517162 0.092817515 -0.08009052
0001b0 91 cf 80 3e ac be 01 be ef fb 08 bf e5 1e 04 be
       0.2515836 -0.12670392 -0.5350942 -0.1290241
0001c0 1b da 76 3e 8c 9b 93 3d 62 e8 99 bd 6c 21 37 3e
       0.24106638 0.072074026 -0.07515027 0.17883843
0001d0 71 12 5d be 8f 2f c8 3e 55 d5 95 bc 56 f5 d3 be
       -0.21589066 0.39098784 -0.018290201 -0.41398114
0001e0 b3 15 ad be bd ed c4 3e 73 b8 29 be b8 21 f2 bd
       -0.33805618 0.3846263 -0.16574268 -0.118228376
0001f0 9b 22 15 be e9 78 67 be e7 91 dc be 8a f2 51 be
       -0.14563982 -0.22604717 -0.43080065 -0.20502678

bias f4 [8]
000000 f5 a1 56 b7 42 8b f1 35 d9 6c 70 b7 bd 90 30 37
       -1.27931025e-05 1.7996429e-06 -1.4330458e-05 1.0524117e-05
000010 be fa 4b b7 3f 6a 72 b6 31 8b b2 b6 50 1f 4d 35
       -1.2158123e-05 -3.6122653e-06 -5.3210174e-06 7.6414017e-07

weight f4 [2, 8]
000000 85 4c 2e bf ef b7 6a be 66 16 ee 3e 20 59 33 3f
       -0.6808551 -0.22921728 0.46501464 0.7005787
000010 f8 8e 1d bf 9d d9 d1 3e 1e cc 81 bf b4 6d ab be
       -0.6154628 0.40986338 -1.0140417 -0.33482134
000020 2e 2b 9b 3e 77 6d 84 bf 37 5c 86 bf 0a 0d 60 bf
       0.3030638 -1.0345906 -1.0496892 -0.87519896
000030 f7 15 8f 3f 76 6a 95 bf 35 97 89 3d 4b c1 a0 3f
       1.1178578 -1.1673114 0.067182936 1.2558988

bias f4 [2]
000000 06 97 52 be 08 97 52 3e
       -0.20565423 0.20565426
