serology/results_intermediate_encoders_2/models/5fold/species_classifier_5.pt (torch, 18016 bytes, 20 tensors)

weight f4 [32]
00000000: 2eba 5f3f 9adb 813f 7853 813f 194a 883f
00000010: fdad 8b3f cf30 7c3f 51dc 623f 3577 7d3f
00000020: 4a5b 893f 31ee 703f 8bd0 823f c05a 843f
00000030: 551f 713f 02fd 6f3f 9a26 693f 7dca 753f
00000040: 886a 823f 6fc0 843f 7a22 853f bc6a 8d3f
00000050: 044c 803f e602 823f 9ceb 883f 0c6a 693f
00000060: 707f 743f b78f 653f 079c 703f f709 833f
00000070: 0866 813f 756a 6e3f a854 6f3f 4568 863f
0.8739346 1.0145142 1.0103598 1.0647613 1.0912472 0.98511976 0.88617426 0.9901002
1.0730984 0.9411345 1.0219892 1.0340195 0.94188434 0.93745434 0.91074526 0.960121
1.0188761 1.0371226 1.0401146 1.1048198 1.0023198 1.0157135 1.0696902 0.9117744
0.95506954 0.89672416 0.9398808 1.0237416 1.0109262 0.9313119 0.9348855 1.050057

bias f4 [32]
00000000: 7b86 9c3c f642 5cbe db5c 19be e6a1 22be
00000010: ff32 1abe 52b9 39be da16 25be e099 74be
00000020: d0ec 35be 945f da3b 6d70 04be c35f 073e
00000030: e762 03be 1b05 3dbd 66c1 38bc bcc7 50bd
00000040: 8397 05be 1724 61bd 70c3 26be 8e61 c6bd
00000050: fbfb b93d 6828 073e 5696 9c3d f5b3 cfbd
00000060: fac9 2bbd a27c 52be ef9b 933d 5c97 7abd
00000070: 8635 57be 3b77 59be 6586 d4bd 7051 12bc
0.019107094 -0.21509919 -0.14976828 -0.15882072 -0.15058516 -0.181371 -0.16121998 -0.23886824
-0.17766118 0.006664226 -0.12933512 0.13220124 -0.12830697 -0.046147447 -0.0112765785 -0.05097173
-0.13046078 -0.05496606 -0.16285491 -0.09686576 0.090812646 0.13199008 0.07645862 -0.10141746
-0.041940667 -0.20555356 0.07207476 -0.061179504 -0.21016511 -0.21236889 -0.10377196 -0.008930549

running_mean f4 [32]
00000000: 5222 8fbd 942a 303c bad3 83bd cd92 3bbe
00000010: a996 4bbd c17a f8bd 7550 c33d f06e 9bbe
00000020: 6a4c 3dbd 4e8c 8e3e 5839 6b3c 6c6d 8b3b
00000030: 681a 493e e79b 8a3d 02ab 3f3c 9b56 e53d
00000040: 6e13 cabd 6643 ae3d 867f e73d 7497 c43d
00000050: f2b9 243c 80bf 213d 8ea0 a83d 8e7c 8a3e
00000060: 23e4 0abe 227d 65be 2b29 483d bf9b 8f3d
00000070: eae5 bfbc 446f 52be 7f61 0cbe 2a8a 253d
-0.06988968 0.010752339 -0.06436868 -0.18317719 -0.049704228 -0.121327884 0.0953683 -0.30358076
-0.046215452 0.2784142 0.0143569335 0.0042549875 0.1963898 0.06768017 0.011698486 0.11198159
-0.09866987 0.08508949 0.1130362 0.095992 0.010054098 0.03948927 0.082337484 0.27048153
-0.1356359 -0.22411016 0.048867386 0.07012128 -0.023425061 -0.20550257 -0.13709067 0.040414967

running_var f4 [32]
00000000: 351a 2d40 85d7 6c3f 2feb db40 eeae 0a40
00000010: c6a2 9e40 3288 c63f 73a1 ab3f 2baf 2440
00000020: cbf4 d340 bf8c d93f 2375 2241 4992 9e40
00000030: 548e e33f 4315 bc3f 1f3e a23f 6cd3 9f3f
00000040: bdb3 f53f 13c9 4f40 52f2 f740 aed8 a740
00000050: 4189 b540 e445 f540 63f3 b940 3428 a440
00000060: 689f e340 1539 0840 63dc 0a41 b39d b93f
00000070: e930 0a40 ebb6 3340 a103 3140 1e0f 1c41
2.7047246 0.92516357 6.872459 2.1669269 4.95737 1.5510314 1.3408645 2.5731914
6.623632 1.6996077 10.153598 4.955357 1.777781 1.4693989 1.2675208 1.2486396
1.9195477 3.2466476 7.74833 5.2452 5.6730046 7.6647816 5.8109603 5.1299076
7.113209 2.128484 8.678805 1.4501251 2.1592352 2.8080394 2.7658465 9.753691

weight f4 [16]
00000000: f32d 923f ff85 6b3f fa41 713f a328 883f
00000010: 18b8 7a3f e24f 673f 3ddd 5c3f 08d1 7e3f
00000020: 6e23 5a3f c846 533f 6c8f 903f 59b2 823f
00000030: 934d 9a3f 8ecc a03f f2ee 463f b8d1 563f
1.1420273 0.92001337 0.942413 1.0637401 0.97937155 0.90356266 0.8627508 0.99537706
0.8521031 0.8252988 1.1293769 1.0210677 1.2054924 1.2562425 0.7770835 0.83913755

bias f4 [16]
00000000: 506d 2d3e de01 b0bc 2758 43be 1ef2 e2bd
00000010: f9d7 87bd 5c86 07bd 1fe3 78bd 4d78 4fbc
00000020: 8d4f b6bd cdb1 84bd fefa 18be 958a 493d
00000030: 05b1 163d 254d 693d bd43 2bbe fcb9 77bd
0.1693623 -0.021485265 -0.19076596 -0.110813364 -0.066329904 -0.03308712 -0.060763475 -0.012662959
-0.08901892 -0.06479225 -0.14939496 0.049204428 0.036789913 0.056958336 -0.16725059 -0.060480103

running_mean f4 [16]
00000000: 3362 49be 634a 9fbe 520e 1bbf 7c3a a5be
00000010: 55eb edbe bfb0 93be aff8 8ebe 9d00 0abf
00000020: 53ae 91be 645f 95be 4e69 84be d331 7bbe
00000030: cb04 6cbe 6b2d c0be 8d71 9ebd 610e 123e
-0.19666366 -0.3111144 -0.60568726 -0.32271183 -0.46468607 -0.28845784 -0.27924106 -0.53907186
-0.2845331 -0.2917434 -0.2586159 -0.24530725 -0.23048703 -0.3753465 -0.07736502 0.14263298

running_var f4 [16]
00000000: 7dba 463f 56ae 563f 5644 553f aad4 963f
00000010: f940 a23f 962e 483f cdf5 793f bf62 ac3f
00000020: 0853 523f 3435 223f f962 703f 7d6a 1840
00000030: c8ac 9f3f 337d 863f ddbe 133f 3d6e 313f
0.7762831 0.83859766 0.833074 1.178365 1.2676078 0.78196084 0.9764069 1.3467635
0.82157946 0.6336243 0.9390102 2.3814995 1.2474604 1.0506958 0.5771311 0.69308835

weight f4 [8]
00000000: 3178 c23f a399 b33f 9c01 bb3f 436d f43f
00000010: ceed c43f ffe7 e13f 4ac6 b63f ec44 da3f
1.519293 1.4031261 1.4609866 1.9095844 1.5385072 1.7648925 1.4279263 1.7052283

bias f4 [8]
00000000: 8bca b43e 7446 cf3e 44af b03e ca8d e33e
00000010: 1bd1 ba3e 9a92 e13e ab2d 923e d8dd 063f
0.35310778 0.4048344 0.34508717 0.44444114 0.3648766 0.4405716 0.28550467 0.52682257

running_mean f4 [8]
00000000: afd6 fbbe 4bdd 7bbe 427b b7be a8e4 18bf
00000010: b8d8 d7bd 05aa 51bf 4edb 22bf a4b8 883e
-0.49187228 -0.24596135 -0.35836226 -0.597239 -0.10539383 -0.81900054 -0.6361588 0.2670337

running_var f4 [8]
00000000: 1530 583f 1c23 0640 c62a cb3f 4223 ec3f
00000010: 57a8 eb3f 044e 2e40 c0b0 0340 0c8e 3440
0.8444837 2.095893 1.5872428 1.844826 1.8410748 2.7235117 2.057663 2.8211699

weight f4 [32, 32]
00000000: 6e4a 4b3e e6d4 1a3c 200d 8dba dd0c 043e
00000010: e78b db3c 21e3 6d3d e6a3 67be d233 21be
00000020: 0838 b03e e118 513e ab8a 5b3d 70dc 203d
00000030: 9ca0 223e 67fe 70be 27fe 893e e781 173e
00000040: 00ae febd 86a3 3abe 7917 a03e e877 22be
00000050: d82b 923e 5444 7cbe 46f5 3a3e 7e34 9abc
00000060: bc3b a23e be6f 9938 ef99 b03d c1d9 113e
00000070: 18c3 923e 21d1 18be dc95 863e 4138 0bbd
00000080: 207d 403d 4822 36bd e1b6 b9bd a57b 29bd
00000090: de9e 903e 8729 fbbd b17d 2e3e 54bf 96be
000000a0: 1a0f 913d 79f3 da3c 2a35 273e 881b 693e
000000b0: b08e b43d 972e 8f3e 2c0e 99bd 9896 2a3d
000000c0: 84e9 3b3e 531f 4a3d 58c3 edbd 72e2 513e
000000d0: 896e 3a3d 3531 37bd 5359 163b d459 fd3d
000000e0: f013 28be e976 253e 7d28 66be 3c6b da3c
000000f0: 23ea 53bd c665 dc3d b1bc aabe 01c1 50bd
00000100: 7f66 883d 84a6 9cbe 0188 2fbe a828 db3d
00000110: c5d2 04be 9b52 d13d 13ca 903c d31a 173e
00000120: 5534 c3bd 4e7b 3e3e 74e4 58be 41cf 99bd
00000130: e4c0 b03d f27d 5b3e 902a bf3d 1d36 7bbe
00000140: 4584 85bd 9faf 36bd cfc0 cf3d 8983 bd3d
00000150: 1cb8 cebe 8940 2cbe 904d be3c 8b26 8abe
00000160: 89f4 943e 3548 4e3e d1e1 cfb9 52a3 45be
00000170: 7e73 d53d b0e5 203e 7db9 8fbd 045d df3d
00000180: 4189 673e 0b55 123e c4ef f03d d68c 4a3e
00000190: 7e36 5bbd d809 38be afa0 773e 0f49 6e3e
000001a0: 2565 00bd 060d c8bd b6a2 48be e65a f63d
000001b0: 917f b1bd 490b a43e 82dc e33d 390d 60be
000001c0: aa7d 4abe 99ff 3b3e 79ac 6e3d 53cf d53d
000001d0: acdc c03d 7ec2 a6be c768 463e 13c9 1c3d
000001e0: dea3 67bc 7a13 9abe e6f5 c43c 5996 383e
000001f0: db9b 083e 0b40 ae3d 93c9 3d3e 514a 553c
00000200: 46b9 e93d 2dd5 d5bd 55d5 683e 4f12 c5bd
00000210: 6b20 54bd 92b1 86be c9f4 203e 8e12 23be
00000220: 9765 033e f1a6 493e 3f3b 3e3e 00a6 7c3d
00000230: b2a2 f93d dc1c e6bd 2bef 7e3a 1c33 ae3e
00000240: a5d5 12bb 0417 e43e 0cc7 df3b 09ac 55be
00000250: 134b 223d 5a29 c93d a8ea 1e3e faba 8a3e
00000260: 2aeb 343c da3f 0fbc 5e0e 8d3e db8b bfbd
00000270: a57a 433e 3f66 97be 3384 483d 6298 d7bd
00000280: d117 fb3c 0af0 61be d512 383e 6264 373e
00000290: 86d4 b23e 2777 dfbd 32ad 8bbe 2b15 18be
000002a0: 3712 9cbd 3990 093d 9301 dc3d 42c4 bb3d
000002b0: 2dd9 92be 40f3 3c3d f622 133e 7924 063e
000002c0: 6dfc 53bd ac87 3cbe ec7e 713e df7f 0c3e
000002d0: e895 173e 93af 2cbe dffc 223e 7ca0 173e
000002e0: e535 fdbd bfe2 fcbb 7995 953d 971b 073e
000002f0: c84b 31be 5d7a 013e cb9c 913e ff41 1f3d
00000300: 8cc0 0abe aee5 8d3e 38d5 b13e dbab 66bc
00000310: bd3c 21be 55e3 843e c950 653e 5f64 3fbe
00000320: ed1f bdbd 83a3 d83e 0b0f 0fbe 7b53 4ebe
00000330: 9370 913d 77ae e0bd 258a ebbd fb80 a23e
00000340: df30 22bd c54d 6fbd f5be bc3d 8d2e 0fbe
00000350: a253 8cbe 6d61 dd3b 14be 47be 0c20 1bbe
00000360: 2677 92be fafe 69be f5e2 413d ec30 6f3e
00000370: 0a1b 293e b5d9 823d 05a8 493c 5103 2fbe
00000380: 06e3 b53d 72fd 5b3e 9d65 58be f300 2f3e
00000390: 53a6 01be 4323 03be 3e91 e33c 95ef 933e
000003a0: b96e bc3d 957e 743d 17a3 283e 5072 4b3e
000003b0: d474 8a3e d6b3 163e ab2b ea3d ee0e b13d
000003c0: 2211 0f3e a31c b03e 80b7 94bc 5abb 043e
000003d0: c19b 00be 18e1 91be 2729 20bd b786 e0bc
000003e0: 2c7e 1dbe 6a99 94bd 617c 2bbc 9caf 0d3d
000003f0: 7424 1abe bccc e63b f33c 963e 3ea2 aa3e
0.19852611 0.009450173 -0.0010761358 0.12895532 0.02680011 0.058077935 -0.22621116 -0.15742424
0.34417748 0.20419647 0.05359904 0.039272726 0.1588158 -0.23534547 0.26951715 0.14795648
-0.124355316 -0.18226442 0.31267908 -0.15866053 0.28549075 -0.2463544 0.18257627 -0.018823858
0.316862 7.316422e-05 0.086231105 0.14243223 0.2866447 -0.14923526 0.2628621 -0.033989195
0.04699433 -0.044466287 -0.090680845 -0.041377682 0.28246206 -0.1226378 0.17040135 -0.29442847
0.070829585 0.026727425 0.16328874 0.22764409 0.08816278 0.27965233 -0.07473406 0.041647524
0.18350798 0.04934628 -0.116095245 0.20496538 0.04551557 -0.04472466 0.0022941425 0.12370649
-0.16413856 0.16158642 -0.22476383 0.026662461 -0.051736962 0.10761599 -0.33347085 -0.050965313
0.066601746 -0.3059579 -0.17141725 0.10701114 -0.12971027 0.10220834 0.017674481 0.14756326
-0.09531466 0.18601725 -0.21180898 -0.07510234 0.08630541 0.21434763 0.0933429 -0.24532361
-0.06519369 -0.04460108 0.10144197 0.09253604 -0.4037484 -0.16821493 0.023230344 -0.2698253
0.29092816 0.20144732 -0.00039650363 -0.19300583 0.10422419 0.15712619 -0.07017801 0.10906413
0.22610952 0.14290254 0.11764482 0.19780287 -0.053518765 -0.17972505 0.2418239 0.23270057
-0.03134646 -0.09768109 -0.1959332 0.12029056 -0.086669095 0.3203986 0.11126043 -0.21880044
-0.197745 0.18359222 0.05826995 0.104399346 0.0941709 -0.3257026 0.19375907 0.038277697
-0.01413819 -0.30092984 0.024043035 0.18026103 0.13340704 0.08508309 0.18533926 0.013018207
0.11412291 -0.10441051 0.2273763 -0.09622633 -0.05178873 -0.2630735 0.15718378 -0.15925047
0.12831722 0.1969259 0.18577288 0.061681747 0.12189235 -0.11235973 0.000972497 0.34023368
-0.0022405174 0.4454881 0.006829148 -0.20866407 0.039622378 0.0982234 0.15519202 0.27095777
0.011042396 -0.008743251 0.27550024 -0.09352847 0.19089754 -0.29570195 0.0489542 -0.105271116
0.030651005 -0.22064224 0.17975934 0.17909387 0.34927768 -0.109113984 -0.27280575 -0.14851825
-0.07620662 0.033584807 0.10742488 0.091682926 -0.28681317 0.04613042 0.14368805 0.1309985
-0.051754404 -0.1841113 0.23583573 0.13720654 0.14803278 -0.16863851 0.15916775 0.14807314
-0.12363795 -0.00771746 0.073039 0.13194118 -0.17314065 0.12644334 0.28439936 0.0388813
-0.13550013 0.27714294 0.34732985 -0.0140790595 -0.15745826 0.2595469 0.22394098 -0.18690632
-0.09234605 0.4231225 -0.13970582 -0.20149033 0.0710155 -0.109707765 -0.11500958 0.3173903
-0.03959739 -0.058423776 0.0921611 -0.13982601 -0.27407557 0.006755999 -0.19506103 -0.15148944
-0.28606528 -0.22851172 0.047335584 0.23358506 0.16514221 0.063891806 0.012308125 -0.17091109
0.08881192 0.214834 -0.21132512 0.17090206 -0.12661104 -0.1280642 0.027779218 0.28893724
0.09200806 0.05969103 0.16468464 0.19867826 0.27042258 0.1471704 0.1143411 0.08645426
0.1397138 0.34396848 -0.018153906 0.12962094 -0.12559415 -0.28492045 -0.039101746 -0.027407987
-0.15380162 -0.07255824 -0.010466666 0.034591302 -0.15052968 0.007043449 0.29343376 0.33326906

bias f4 [32]
00000000: 7691 0cb5 7c48 94b7 36f8 e233 acc9 30b7
00000010: 8e16 82b7 b252 5935 1db9 d337 0291 d5b5
00000020: ae57 02b7 0f3d 16b7 e0b8 7fb6 d254 5eb6
00000030: 4961 1e35 3047 6537 5769 1036 be0f 1bb7
00000040: ea02 fab6 42d3 25b7 7ee6 3035 0acd 8b37
00000050: 7f14 0ab7 99e1 02b7 ad96 f036 0cbc 0c35
00000060: 0a75 8037 a658 7eb6 093b 99b6 a300 1fb8
00000070: 2634 3936 0c86 71b6 0e66 1bb7 a541 3fb6
-5.236574e-07 -1.7676728e-05 1.05690944e-07 -1.0537373e-05 -1.550771e-05 8.0959137e-07 2.523936e-05 -1.591194e-06
-7.769018e-06 -8.954913e-06 -3.8105572e-06 -3.312995e-06 5.9001155e-07 1.3666038e-05 2.1518988e-06 -9.242385e-06
-7.45092e-06 -9.883954e-06 6.590052e-07 1.666557e-05 -8.230213e-06 -7.80113e-06 7.1700983e-06 5.242771e-07
1.531329e-05 -3.790055e-06 -4.566628e-06 -3.7909147e-05 2.7597503e-06 -3.5989824e-06 -9.262481e-06 -2.8499428e-06

weight f4 [16, 32]
00000000: 4c95 3e3d b253 c2bd 2609 b8be 8515 6cbd
00000010: 4d3d dd3d 2d08 5bbe 19e0 6ebe 6a8e 3abe
00000020: 907a 913e 2fba 61bc e897 edbd a628 4f3c
00000030: d20e 983e dba2 f6bd 43a7 edbd 2dc9 e03d
00000040: 0688 f6bd 5a6e 413e 37c8 20be b21a 34be
00000050: 5212 0d3e 16e8 ccbb fc43 0a3e c0d7 84be
00000060: e374 453e 1763 80be e32c 623d 2d5a b9be
00000070: 1af3 b7bd 869e 26be 7e76 94bc 3d29 bb3e
00000080: 90f4 8e3e 3f68 653e d19d 87be 05c1 863c
00000090: dbb3 093e 3d0e d6be 1685 6ebe bc63 d2bc
000000a0: c870 9abe 95da 07be d4b7 93be 3da9 23bd
000000b0: 1118 bfbd 4f32 65bd 7f30 31be b1ae 5a3e
000000c0: b643 0d3e 4776 7d3e 3801 4f3e 098e 80bc
000000d0: c629 dd3d ce48 48be 61e2 a43e 9f16 03be
000000e0: baa4 00bd 2ffe cebe 48c0 053e 374b 2dbe
000000f0: cb6c 8dbe 99c1 03be b091 5ebd c7cc e2bd
00000100: 035d 503e e2ad 1fbe f279 edbd 3e17 0b3d
00000110: 47f1 c53d 78fd c5bd de8b 9e3e 9d50 5e3e
00000120: fd43 acbe 81ff 04be 9cd7 87be ee69 adbe
00000130: a953 f83d 9fde ecbd 22a8 0e3e 439d 3cbe
00000140: 7065 cd3e 0165 a13d 973a e3bd 5959 66be
00000150: e324 bcbe 5ec0 34be dd63 30be 02ab 853c
00000160: 4f5c 97be 48c5 a4bd f66e 9c3d 31e6 e3bd
00000170: 1082 8e3e b351 8d3e 4bf7 bf3b 2e8e 1cbe
00000180: e5f4 3a3d 3c36 8a3e 528d e7bd 769f 613e
00000190: 3002 a4be f806 16be f517 f0bd 63b6 f53d
000001a0: 2f0b 0fbe 7118 833e e968 b7bd 499e 8abe
000001b0: ba7d 3d3c af37 f53d 220b 5b3e 6fff 45be
000001c0: 0783 92bd 3b3b 85be 5428 a2be 09c7 5ebe
000001d0: c6b9 58bd 5408 90bd 857c d0bc 2592 32be
000001e0: 799b 0e3e 7e45 173e 25a5 19be dcfc 0c3e
000001f0: 8477 773e d330 af3e f1cf a33e 79fc 82be
00000200: b43b 24bd 9ad0 2f3e 4d55 65be fbd9 113e
00000210: edc2 87be a412 033e c4fa 2a3e 931e 623c
00000220: 887c 9abe 3647 383e 03ab 9dbe 1124 aa3d
00000230: 5ba7 98be 9a49 683e e136 033e d131 b63c
00000240: 174b 193e 3be2 b2be 9f3b 113d 2023 1dbe
00000250: 6280 b339 3cf8 32be 60cc aabe e11b 223d
00000260: fd4f 95be 21e7 c93c 1f00 14bc 0a78 173e
00000270: b667 383e dfea 503e ded5 8f3d ad09 8ebe
00000280: 8d74 183e a51a 90be 7c68 aebe e316 e5be
00000290: 7c4a 983d 4cd2 6b3d 423b c83b 1922 9c3d
000002a0: c5b4 d93d a206 b0be e4b6 263e 2719 3f3b
000002b0: 02cf 33be e00e ae3b 245f 5abe 285d afbe
000002c0: c42a 8ebe fa4f 7fbe c4ba b9ba aef9 863d
000002d0: c8e3 c43c 77a2 973d 1fbf 803e 22c1 99bd
000002e0: 80f3 8f3e 8b30 81bd d8d7 9e3e d429 aebd
000002f0: 7603 94bd 8cb5 2cbe e209 aa3c e855 113e
00000300: 29ef a33d 5e19 8ebe 89b8 b9be 7eb0 9e3e
00000310: 0ac9 74bd a98a 923e 01cd 853e 1898 1ebe
00000320: 7821 acbe ea15 433e 207d d7bc 92d2 21be
00000330: a7b2 0bbc 3e12 743e d1b2 e5ba 1d3e 523c
00000340: f7fa aa3e b662 6abe 6624 70bd 323c 97bd
00000350: 64f3 afbe 2977 09bd ab0f c2ba 7e97 03bc
00000360: f99e 02be 1b56 6f3e 7703 8ebe f0cd 8ebd
00000370: df3e 32be 29b6 573d 1360 ad3e 4030 b93d
00000380: f772 a8be 91fb 03be bae1 2b3d 3abd adbe
00000390: 3428 cb3e 68b2 cebd 642d 3ebd e03c abbe
000003a0: 1cf6 943e 426d 4dbd d198 9d3e 5628 a5be
000003b0: cb30 443d e4b7 49be 7f7d 8dbd 7269 ef3d
000003c0: b496 66be febc f53b 327e 8c3e c5ae e93c
000003d0: 966b 83bc 5385 a7be 6b63 92bc 63e3 9dbe
000003e0: 0608 1dbe 27e9 2cbe 1fab 743e 262f 75bd
000003f0: 59e7 a1be 591d 5a3d d9e5 6dbd 4ad9 10be
0.0465291 -0.0948862 -0.3594448 -0.05763771 0.10802708 -0.21389838 -0.23327674 -0.18218389
0.2841382 -0.0137773 -0.116012394 0.012643969 0.29698807 -0.12042781 -0.11604168 0.10975871
-0.12037663 0.18889752 -0.15701376 -0.17588308 0.1377652 -0.0062532527 0.13502496 -0.25945854
0.1928287 -0.250756 0.05521859 -0.3620161 -0.08981915 -0.1627141 -0.018122908 0.365549
0.2792096 0.22403048 -0.26487592 0.01644946 0.13447516 -0.41807738 -0.23292956 -0.025682323
-0.3016417 -0.13266976 -0.28851187 -0.03995632 -0.09330762 -0.05595618 -0.17303656 0.21355702
0.13795361 0.2475215 0.20215309 -0.015692728 0.10798983 -0.19559023 0.32203963 -0.12801598
-0.031407095 -0.40428302 0.1306163 -0.16923223 -0.27622065 -0.1286682 -0.054338157 -0.110742144
0.20347981 -0.15593675 -0.11595525 0.033957712 0.096651606 -0.09667486 0.30966085 0.21710439
-0.3364562 -0.12988092 -0.26531684 -0.3386988 0.12125332 -0.11565899 0.13931325 -0.18419366
0.40116453 0.07880593 -0.110951595 -0.22495021 -0.36746892 -0.17651507 -0.17225595 0.016316894
-0.29562613 -0.08045441 0.076383516 -0.1112789 0.27833605 0.27601394 0.005858337 -0.15288612
0.045643706 0.26994503 -0.113062516 0.22033486 -0.3203292 -0.14651096 -0.117233194 0.11997678
-0.1396911 0.25604585 -0.08955557 -0.27073887 0.01156562 0.119735114 0.21390966 -0.19335721
-0.07153898 -0.26021752 -0.31671393 -0.21755613 -0.052911542 -0.070328385 -0.02545 -0.17438562
0.13926496 0.14772603 -0.15004404 0.13768333 0.24166685 0.34216937 0.31994584 -0.25583246
-0.040096 0.17169419 -0.22395821 0.14243309 -0.26515904 0.1280008 0.16697222 0.013801235
-0.30173135 0.17995915 -0.30794534 0.0830766 -0.29815182 0.22684327 0.12813903 0.022240551
0.14970051 -0.34938225 0.03545725 -0.1534543 0.00034237193 -0.17477506 -0.3335905 0.03957737
-0.2916259 0.024646344 -0.009033232 0.14791885 0.18008313 0.20402096 0.07023214 -0.27741757
0.1488821 -0.28145328 -0.3406409 -0.44744024 0.07436082 0.0575736 0.0061105797 0.07623691
0.10630182 -0.3438006 0.16280705 0.002915928 -0.17559436 0.005311832 -0.21325356 -0.3425076
-0.27767003 -0.24932852 -0.001417004 0.06590591 0.024034396 0.074040346 0.25145814 -0.0750754
0.28115463 -0.06308087 0.3102405 -0.08504072 -0.072272226 -0.1686613 0.020756666 0.14192927
0.080046006 -0.2775373 -0.36273602 0.30994028 -0.05976204 0.28621414 0.26132968 -0.15487707
-0.33619285 0.19051328 -0.026304781 -0.15802982 -0.008526481 0.23835084 -0.0017524605 0.012832192
0.33394596 -0.22889218 -0.058628462 -0.07384528 -0.3436538 -0.033560906 -0.0014805695 -0.008031724
-0.12755956 0.2337269 -0.27737018 -0.06972873 -0.17406796 0.052663956 0.3386236 0.09042406
-0.3290021 -0.12888934 0.041963317 -0.3393343 0.3967911 -0.10092622 -0.046430007 -0.3344488
0.29094017 -0.050153024 0.30780652 -0.32257336 0.047898095 -0.19699055 -0.06908702 0.11690034
-0.22518426 0.0074993363 0.2744003 0.02852572 -0.016042512 -0.32718906 -0.017869672 -0.30837545
-0.15335092 -0.16885816 0.23893403 -0.059859417 -0.31621817 0.053250644 -0.058080528 -0.14145389

bias f4 [16]
00000000: a9ae 3038 34cf ae35 9ca2 bb37 25ea 37b8
00000010: 2cea 0cb7 f126 2237 a990 6b36 d77a 1437
00000020: 904a 4537 c19b eb36 0b16 3fb6 c404 8336
00000030: 2d27 25b7 e7c3 2037 bf7a a4b5 48a9 ffb5
4.2124335e-05 1.3024314e-06 2.2367858e-05 -4.3848664e-05 -8.399173e-06 9.665019e-06 3.5101932e-06 8.850088e-06
1.17594755e-05 7.021678e-06 -2.8474049e-06 3.904659e-06 -9.843888e-06 9.582355e-06 -1.2254676e-06 -1.9048248e-06

weight f4 [8, 16]
00000000: 8ed7 8b3e f046 813d 40c6 08be 266a 44be
00000010: 1b93 9ebe 495c 0d3e 1959 a0be a3e6 debd
00000020: 722f 23be 6218 053e d68e a7be 3075 8ebe
00000030: 6e43 e1bd 1dc4 08be 114d 8cbd c46e 153e
00000040: c5ef ec3e 964b 9dbe 4a9e 90be cb43 11be
00000050: f232 5d3e a7a6 49be ab5d 84be 6a29 ba3e
00000060: 5936 58be 49ec 253e b694 2cbf 0a6b f23e
00000070: 4f33 a6be 326c 5bbe 71da a23e 4949 dfbd
00000080: 9e37 c0bc aa11 f53d 7c0f 093e e13f dcbe
00000090: 9b9e acbe 0ab1 f83e 92cc cebe caec 1d3e
000000a0: 4e1b 90be 8156 1f3e dfa0 9cbd 8635 033e
000000b0: 7a95 adbe 7237 083c 4322 c0be 692e bfbb
000000c0: e9cd 8fbd a647 043d 5793 aebe 7c6c 9abe
000000d0: e715 c8be e6e2 893e 5ef3 c53c 1f45 9e3d
000000e0: 92ec 223c 94f2 903e b43b 83be 7d28 853d
000000f0: e129 a3be c374 c1be 38e2 843e 358e 23be
00000100: b60b adbe d89f c6be 5596 3e3e 1ff0 9b3e
00000110: 1529 d13e c0ee fabe 0d05 0a3e 8471 0cbf
00000120: be99 833e 7333 963d eded c43e a488 743d
00000130: ccde c33d ebaf ae3d 8f50 95be b4cc 6dbe
00000140: 1cbb 9b3d 63e2 b83d 28dc 90be 6cdb d3be
00000150: 3707 b9be 2822 8ebd d312 a8be a831 ae3e
00000160: 13a3 8cbe 8d67 65bc a501 04bf db8f b23d
00000170: 015e b9be d199 96be 21c8 993b 8a66 733e
00000180: d244 863d 4f1f 5d3e e4df 79be bf8b dabe
00000190: f888 b6be 6105 6f3d 4b6d d2bd 6f1e fdbd
000001a0: edb4 563e a62f a53d 4a2b 00bf 2417 9f3e
000001b0: 27d7 8abd e56f a7be e8e2 8bbd f542 02bf
000001c0: 0c05 b3be fef8 0ebe 5a3b b63e 563c e23e
000001d0: b96d d33e 8d7d c83d 19a1 14bd 268f 75be
000001e0: 6f17 2d3d bc84 cabd 0b19 ecbc 335c 26bf
000001f0: 4534 e73e d5dc 833e 6e5f 713e 2cdb 2d3e
0.27312893 0.063123584 -0.13356876 -0.19181117 -0.30971608 0.13804735 -0.31317976 -0.10883834
-0.15936068 0.12997583 -0.32726163 -0.27823782 -0.10999189 -0.13356061 -0.06850637 0.14593035
0.4627668 -0.3072173 -0.28245765 -0.14186017 0.21601465 -0.19692479 -0.25852713 0.3635972
-0.21114482 0.16203417 -0.67414415 0.4734729 -0.3246102 -0.21427992 0.31807283 -0.1090265
-0.02346402 0.1196626 0.13384813 -0.43017486 -0.33714756 0.4857257 -0.4039045 0.15422359
-0.28145832 0.15560342 -0.07647871 0.12813386 -0.33903104 0.008314 -0.3752614 -0.00583439
-0.07021696 0.03229489 -0.34096786 -0.30160892 -0.3907921 0.26930922 0.024163898 0.077280276
0.009944098 0.28310072 -0.25631487 0.06501863 -0.3186789 -0.37784395 0.2595384 -0.15972216
-0.33797997 -0.38793826 0.18612035 0.30456635 0.40851656 -0.49010277 0.13478489 -0.5486071
0.25703233 0.07334032 0.38462773 0.059700623 0.095639795 0.085296474 -0.29163024 -0.2322262
0.07604048 0.09027555 -0.28292966 -0.41378343 -0.36138317 -0.069401085 -0.32826862 0.3402226
-0.27468166 -0.014001739 -0.5156501 0.087188445 -0.36204532 -0.29414228 0.0046930467 0.23769584
0.06556095 0.21593975 -0.24401814 -0.42684743 -0.35651374 0.05835474 -0.10274752 -0.1235932
0.20967455 0.08065729 -0.50066054 0.31072342 -0.06779318 -0.32702556 -0.06830388 -0.5088342
-0.34964788 -0.1396217 0.35592157 0.44186658 0.4129465 0.09789572 -0.036286447 -0.23980388
0.042258676 -0.09888598 -0.028820535 -0.64984435 0.45157066 0.2575442 0.2357156 0.16978139

bias f4 [8]
00000000: 1644 5a37 b828 ddb6 794f f6b5 f7b4 84b7
00000010: 89ea b9b6 c174 4337 68d1 f736 373d 8a37
1.3009665e-05 -6.5910535e-06 -1.8351558e-06 -1.5819895e-05 -5.540733e-06 1.165009e-05 7.3855517e-06 1.6479387e-05

weight f4 [2, 8]
00000000: d931 a2be 1c5d 59bf 3490 bdbe 2948 00bf
00000010: 32b6 813f 415b dcbe 0f5e aabe 94c4 f93e
00000020: 0ffa 593f 7eb8 8c3f c7d5 6a3f 63e6 d73e
00000030: d9bf 71bf 77ed 113f e749 6d3f b17c abbf
-0.31678656 -0.849077 -0.3702408 -0.5011011 1.0133727 -0.4303837 -0.33274886 0.4878279
0.85147184 1.0993803 0.9173245 0.4216796 -0.9443336 0.5700297 0.9269089 -1.3397428

bias f4 [2]
00000000: 5212 763e 4c12 76be
0.24030426 -0.24030417
